HloModule cluster_28__XlaCompiledKernel_true__XlaNumConstantArgs_27__XlaNumResourceArgs_0_.1699

%max_F32.1052 (lhs.1053: f32[], rhs.1054: f32[]) -> f32[] {
  %lhs.1053 = f32[] parameter(0)
  %rhs.1054 = f32[] parameter(1)
  ROOT %maximum.1055 = f32[] maximum(f32[] %lhs.1053, f32[] %rhs.1054)
}

%fused_computation (param_0.2: s32[], param_1.3: s32[], param_2.6: f32[], param_3.10: f32[]) -> pred[] {
  %param_3.10 = f32[] parameter(3)
  %bitcast-convert.35 = s32[] bitcast-convert(f32[] %param_3.10)
  %constant_181 = s32[] constant(0)
  %compare.30 = pred[] compare(s32[] %bitcast-convert.35, s32[] %constant_181), direction=LT
  %constant_180 = u32[] constant(2147483647)
  %bitcast-convert.34 = u32[] bitcast-convert(f32[] %param_3.10)
  %subtract.64 = u32[] subtract(u32[] %constant_180, u32[] %bitcast-convert.34)
  %bitcast-convert.33 = s32[] bitcast-convert(u32[] %subtract.64)
  %select.17 = s32[] select(pred[] %compare.30, s32[] %bitcast-convert.33, s32[] %bitcast-convert.35)
  %param_2.6 = f32[] parameter(2)
  %bitcast-convert.32 = s32[] bitcast-convert(f32[] %param_2.6)
  %compare.29 = pred[] compare(s32[] %bitcast-convert.32, s32[] %constant_181), direction=LT
  %bitcast-convert.31 = u32[] bitcast-convert(f32[] %param_2.6)
  %subtract.63 = u32[] subtract(u32[] %constant_180, u32[] %bitcast-convert.31)
  %bitcast-convert.30 = s32[] bitcast-convert(u32[] %subtract.63)
  %select.16 = s32[] select(pred[] %compare.29, s32[] %bitcast-convert.30, s32[] %bitcast-convert.32)
  %compare.28 = pred[] compare(s32[] %select.17, s32[] %select.16), direction=GT
  %compare.27 = pred[] compare(s32[] %select.16, s32[] %select.17), direction=GT
  %compare.26 = pred[] compare(pred[] %compare.28, pred[] %compare.27), direction=EQ
  %param_0.2 = s32[] parameter(0)
  %param_1.3 = s32[] parameter(1)
  %compare.25 = pred[] compare(s32[] %param_0.2, s32[] %param_1.3), direction=LT
  ROOT %select.15 = pred[] select(pred[] %compare.26, pred[] %compare.25, pred[] %compare.28)
}

%compare-greater-than.1114 (p.0.lhs.1115: f32[], p.0.rhs.1116: f32[], p.1.lhs.1117: s32[], p.1.rhs.1118: s32[]) -> pred[] {
  %p.1.lhs.1117 = s32[] parameter(2)
  %p.1.rhs.1118 = s32[] parameter(3)
  %p.0.rhs.1116 = f32[] parameter(1)
  %p.0.lhs.1115 = f32[] parameter(0)
  ROOT %fusion = pred[] fusion(s32[] %p.1.lhs.1117, s32[] %p.1.rhs.1118, f32[] %p.0.rhs.1116, f32[] %p.0.lhs.1115), kind=kLoop, calls=%fused_computation
}

%fused_computation.1 (param_0.5: s32[], param_1.7: s32[], param_2.13: f32[], param_3.21: f32[]) -> pred[] {
  %param_3.21 = f32[] parameter(3)
  %bitcast-convert.41 = s32[] bitcast-convert(f32[] %param_3.21)
  %constant_183 = s32[] constant(0)
  %compare.36 = pred[] compare(s32[] %bitcast-convert.41, s32[] %constant_183), direction=LT
  %constant_182 = u32[] constant(2147483647)
  %bitcast-convert.40 = u32[] bitcast-convert(f32[] %param_3.21)
  %subtract.66 = u32[] subtract(u32[] %constant_182, u32[] %bitcast-convert.40)
  %bitcast-convert.39 = s32[] bitcast-convert(u32[] %subtract.66)
  %select.20 = s32[] select(pred[] %compare.36, s32[] %bitcast-convert.39, s32[] %bitcast-convert.41)
  %param_2.13 = f32[] parameter(2)
  %bitcast-convert.38 = s32[] bitcast-convert(f32[] %param_2.13)
  %compare.35 = pred[] compare(s32[] %bitcast-convert.38, s32[] %constant_183), direction=LT
  %bitcast-convert.37 = u32[] bitcast-convert(f32[] %param_2.13)
  %subtract.65 = u32[] subtract(u32[] %constant_182, u32[] %bitcast-convert.37)
  %bitcast-convert.36 = s32[] bitcast-convert(u32[] %subtract.65)
  %select.19 = s32[] select(pred[] %compare.35, s32[] %bitcast-convert.36, s32[] %bitcast-convert.38)
  %compare.34 = pred[] compare(s32[] %select.20, s32[] %select.19), direction=GT
  %compare.33 = pred[] compare(s32[] %select.19, s32[] %select.20), direction=GT
  %compare.32 = pred[] compare(pred[] %compare.34, pred[] %compare.33), direction=EQ
  %param_0.5 = s32[] parameter(0)
  %param_1.7 = s32[] parameter(1)
  %compare.31 = pred[] compare(s32[] %param_0.5, s32[] %param_1.7), direction=LT
  ROOT %select.18 = pred[] select(pred[] %compare.32, pred[] %compare.31, pred[] %compare.34)
}

%compare-greater-than.1188 (p.0.lhs.1189: f32[], p.0.rhs.1190: f32[], p.1.lhs.1191: s32[], p.1.rhs.1192: s32[]) -> pred[] {
  %p.1.lhs.1191 = s32[] parameter(2)
  %p.1.rhs.1192 = s32[] parameter(3)
  %p.0.rhs.1190 = f32[] parameter(1)
  %p.0.lhs.1189 = f32[] parameter(0)
  ROOT %fusion.1 = pred[] fusion(s32[] %p.1.lhs.1191, s32[] %p.1.rhs.1192, f32[] %p.0.rhs.1190, f32[] %p.0.lhs.1189), kind=kLoop, calls=%fused_computation.1
}

%fused_computation.2 (param_0.8: s32[], param_1.11: s32[], param_2.20: f32[], param_3.32: f32[]) -> pred[] {
  %param_3.32 = f32[] parameter(3)
  %bitcast-convert.47 = s32[] bitcast-convert(f32[] %param_3.32)
  %constant_185 = s32[] constant(0)
  %compare.42 = pred[] compare(s32[] %bitcast-convert.47, s32[] %constant_185), direction=LT
  %constant_184 = u32[] constant(2147483647)
  %bitcast-convert.46 = u32[] bitcast-convert(f32[] %param_3.32)
  %subtract.68 = u32[] subtract(u32[] %constant_184, u32[] %bitcast-convert.46)
  %bitcast-convert.45 = s32[] bitcast-convert(u32[] %subtract.68)
  %select.23 = s32[] select(pred[] %compare.42, s32[] %bitcast-convert.45, s32[] %bitcast-convert.47)
  %param_2.20 = f32[] parameter(2)
  %bitcast-convert.44 = s32[] bitcast-convert(f32[] %param_2.20)
  %compare.41 = pred[] compare(s32[] %bitcast-convert.44, s32[] %constant_185), direction=LT
  %bitcast-convert.43 = u32[] bitcast-convert(f32[] %param_2.20)
  %subtract.67 = u32[] subtract(u32[] %constant_184, u32[] %bitcast-convert.43)
  %bitcast-convert.42 = s32[] bitcast-convert(u32[] %subtract.67)
  %select.22 = s32[] select(pred[] %compare.41, s32[] %bitcast-convert.42, s32[] %bitcast-convert.44)
  %compare.40 = pred[] compare(s32[] %select.23, s32[] %select.22), direction=GT
  %compare.39 = pred[] compare(s32[] %select.22, s32[] %select.23), direction=GT
  %compare.38 = pred[] compare(pred[] %compare.40, pred[] %compare.39), direction=EQ
  %param_0.8 = s32[] parameter(0)
  %param_1.11 = s32[] parameter(1)
  %compare.37 = pred[] compare(s32[] %param_0.8, s32[] %param_1.11), direction=LT
  ROOT %select.21 = pred[] select(pred[] %compare.38, pred[] %compare.37, pred[] %compare.40)
}

%compare-greater-than.1341 (p.0.lhs.1342: f32[], p.0.rhs.1343: f32[], p.1.lhs.1344: s32[], p.1.rhs.1345: s32[]) -> pred[] {
  %p.1.lhs.1344 = s32[] parameter(2)
  %p.1.rhs.1345 = s32[] parameter(3)
  %p.0.rhs.1343 = f32[] parameter(1)
  %p.0.lhs.1342 = f32[] parameter(0)
  ROOT %fusion.2 = pred[] fusion(s32[] %p.1.lhs.1344, s32[] %p.1.rhs.1345, f32[] %p.0.rhs.1343, f32[] %p.0.lhs.1342), kind=kLoop, calls=%fused_computation.2
}

%fused_computation.3 (param_0.11: s32[], param_1.15: s32[], param_2.27: f32[], param_3.43: f32[]) -> pred[] {
  %param_3.43 = f32[] parameter(3)
  %bitcast-convert.53 = s32[] bitcast-convert(f32[] %param_3.43)
  %constant_187 = s32[] constant(0)
  %compare.48 = pred[] compare(s32[] %bitcast-convert.53, s32[] %constant_187), direction=LT
  %constant_186 = u32[] constant(2147483647)
  %bitcast-convert.52 = u32[] bitcast-convert(f32[] %param_3.43)
  %subtract.70 = u32[] subtract(u32[] %constant_186, u32[] %bitcast-convert.52)
  %bitcast-convert.51 = s32[] bitcast-convert(u32[] %subtract.70)
  %select.26 = s32[] select(pred[] %compare.48, s32[] %bitcast-convert.51, s32[] %bitcast-convert.53)
  %param_2.27 = f32[] parameter(2)
  %bitcast-convert.50 = s32[] bitcast-convert(f32[] %param_2.27)
  %compare.47 = pred[] compare(s32[] %bitcast-convert.50, s32[] %constant_187), direction=LT
  %bitcast-convert.49 = u32[] bitcast-convert(f32[] %param_2.27)
  %subtract.69 = u32[] subtract(u32[] %constant_186, u32[] %bitcast-convert.49)
  %bitcast-convert.48 = s32[] bitcast-convert(u32[] %subtract.69)
  %select.25 = s32[] select(pred[] %compare.47, s32[] %bitcast-convert.48, s32[] %bitcast-convert.50)
  %compare.46 = pred[] compare(s32[] %select.26, s32[] %select.25), direction=GT
  %compare.45 = pred[] compare(s32[] %select.25, s32[] %select.26), direction=GT
  %compare.44 = pred[] compare(pred[] %compare.46, pred[] %compare.45), direction=EQ
  %param_0.11 = s32[] parameter(0)
  %param_1.15 = s32[] parameter(1)
  %compare.43 = pred[] compare(s32[] %param_0.11, s32[] %param_1.15), direction=LT
  ROOT %select.24 = pred[] select(pred[] %compare.44, pred[] %compare.43, pred[] %compare.46)
}

%compare-greater-than.1494 (p.0.lhs.1495: f32[], p.0.rhs.1496: f32[], p.1.lhs.1497: s32[], p.1.rhs.1498: s32[]) -> pred[] {
  %p.1.lhs.1497 = s32[] parameter(2)
  %p.1.rhs.1498 = s32[] parameter(3)
  %p.0.rhs.1496 = f32[] parameter(1)
  %p.0.lhs.1495 = f32[] parameter(0)
  ROOT %fusion.3 = pred[] fusion(s32[] %p.1.lhs.1497, s32[] %p.1.rhs.1498, f32[] %p.0.rhs.1496, f32[] %p.0.lhs.1495), kind=kLoop, calls=%fused_computation.3
}

%fused_computation.4 (param_0.14: s32[], param_1.19: s32[], param_2.34: f32[], param_3.54: f32[]) -> pred[] {
  %param_3.54 = f32[] parameter(3)
  %bitcast-convert.59 = s32[] bitcast-convert(f32[] %param_3.54)
  %constant_189 = s32[] constant(0)
  %compare.54 = pred[] compare(s32[] %bitcast-convert.59, s32[] %constant_189), direction=LT
  %constant_188 = u32[] constant(2147483647)
  %bitcast-convert.58 = u32[] bitcast-convert(f32[] %param_3.54)
  %subtract.72 = u32[] subtract(u32[] %constant_188, u32[] %bitcast-convert.58)
  %bitcast-convert.57 = s32[] bitcast-convert(u32[] %subtract.72)
  %select.29 = s32[] select(pred[] %compare.54, s32[] %bitcast-convert.57, s32[] %bitcast-convert.59)
  %param_2.34 = f32[] parameter(2)
  %bitcast-convert.56 = s32[] bitcast-convert(f32[] %param_2.34)
  %compare.53 = pred[] compare(s32[] %bitcast-convert.56, s32[] %constant_189), direction=LT
  %bitcast-convert.55 = u32[] bitcast-convert(f32[] %param_2.34)
  %subtract.71 = u32[] subtract(u32[] %constant_188, u32[] %bitcast-convert.55)
  %bitcast-convert.54 = s32[] bitcast-convert(u32[] %subtract.71)
  %select.28 = s32[] select(pred[] %compare.53, s32[] %bitcast-convert.54, s32[] %bitcast-convert.56)
  %compare.52 = pred[] compare(s32[] %select.29, s32[] %select.28), direction=GT
  %compare.51 = pred[] compare(s32[] %select.28, s32[] %select.29), direction=GT
  %compare.50 = pred[] compare(pred[] %compare.52, pred[] %compare.51), direction=EQ
  %param_0.14 = s32[] parameter(0)
  %param_1.19 = s32[] parameter(1)
  %compare.49 = pred[] compare(s32[] %param_0.14, s32[] %param_1.19), direction=LT
  ROOT %select.27 = pred[] select(pred[] %compare.50, pred[] %compare.49, pred[] %compare.52)
}

%compare-greater-than.1647 (p.0.lhs.1648: f32[], p.0.rhs.1649: f32[], p.1.lhs.1650: s32[], p.1.rhs.1651: s32[]) -> pred[] {
  %p.1.lhs.1650 = s32[] parameter(2)
  %p.1.rhs.1651 = s32[] parameter(3)
  %p.0.rhs.1649 = f32[] parameter(1)
  %p.0.lhs.1648 = f32[] parameter(0)
  ROOT %fusion.4 = pred[] fusion(s32[] %p.1.lhs.1650, s32[] %p.1.rhs.1651, f32[] %p.0.rhs.1649, f32[] %p.0.lhs.1648), kind=kLoop, calls=%fused_computation.4
}

%fused_computation.6 (param_0.19: f32[1,3,200,304], param_1.24: f32[3]) -> f32[182400] {
  %param_0.19 = f32[1,3,200,304]{3,2,1,0} parameter(0)
  %param_1.24 = f32[3]{0} parameter(1)
  %broadcast.457 = f32[1,3,200,304]{3,2,1,0} broadcast(f32[3]{0} %param_1.24), dimensions={1}, metadata={op_type="BiasAdd" op_name="tower-pred-0/rpn/class/BiasAdd"}
  %add.164 = f32[1,3,200,304]{3,2,1,0} add(f32[1,3,200,304]{3,2,1,0} %param_0.19, f32[1,3,200,304]{3,2,1,0} %broadcast.457), metadata={op_type="BiasAdd" op_name="tower-pred-0/rpn/class/BiasAdd"}
  %bitcast.36 = f32[1,200,304,3]{2,1,3,0} bitcast(f32[1,3,200,304]{3,2,1,0} %add.164), metadata={op_type="Transpose" op_name="tower-pred-0/rpn/transpose"}
  ROOT %reshape.24 = f32[182400]{0} reshape(f32[1,200,304,3]{2,1,3,0} %bitcast.36), metadata={op_type="Reshape" op_name="tower-pred-0/generate_fpn_proposals/Lvl2/Reshape_1"}
}

%fused_computation.7 (param_0.344: f32[1,12,200,304], param_1.424: f32[12]) -> f32[182400,1,2] {
  %param_0.344 = f32[1,12,200,304]{3,2,1,0} parameter(0)
  %param_1.424 = f32[12]{0} parameter(1)
  %broadcast.880 = f32[1,12,200,304]{3,2,1,0} broadcast(f32[12]{0} %param_1.424), dimensions={1}, metadata={op_type="BiasAdd" op_name="tower-pred-0/rpn/box/BiasAdd"}
  %add.335 = f32[1,12,200,304]{3,2,1,0} add(f32[1,12,200,304]{3,2,1,0} %param_0.344, f32[1,12,200,304]{3,2,1,0} %broadcast.880), metadata={op_type="BiasAdd" op_name="tower-pred-0/rpn/box/BiasAdd"}
  %bitcast.113 = f32[1,200,304,12]{2,1,3,0} bitcast(f32[1,12,200,304]{3,2,1,0} %add.335), metadata={op_type="Transpose" op_name="tower-pred-0/rpn/transpose_1"}
  %copy.189 = f32[1,200,304,12]{3,2,1,0} copy(f32[1,200,304,12]{2,1,3,0} %bitcast.113), metadata={op_type="Transpose" op_name="tower-pred-0/rpn/transpose_1"}
  %bitcast.112 = f32[182400,2,2]{2,1,0} bitcast(f32[1,200,304,12]{3,2,1,0} %copy.189), metadata={op_type="Reshape" op_name="tower-pred-0/decode_bbox_target/Reshape"}
  %slice.2 = f32[182400,1,2]{2,1,0} slice(f32[182400,2,2]{2,1,0} %bitcast.112), slice={[0:182400], [1:2], [0:2]}, metadata={op_type="Split" op_name="tower-pred-0/decode_bbox_target/split"}
  %constant_191 = f32[] constant(4.43082), metadata={op_type="Minimum" op_name="tower-pred-0/decode_bbox_target_4/Minimum"}
  %broadcast.458 = f32[182400,1,2]{2,1,0} broadcast(f32[] %constant_191), dimensions={}, metadata={op_type="Minimum" op_name="tower-pred-0/decode_bbox_target/Minimum"}
  %minimum.1 = f32[182400,1,2]{2,1,0} minimum(f32[182400,1,2]{2,1,0} %slice.2, f32[182400,1,2]{2,1,0} %broadcast.458), metadata={op_type="Minimum" op_name="tower-pred-0/decode_bbox_target/Minimum"}
  ROOT %exponential.0 = f32[182400,1,2]{2,1,0} exponential(f32[182400,1,2]{2,1,0} %minimum.1), metadata={op_type="Exp" op_name="tower-pred-0/decode_bbox_target/Exp"}
}

%fused_computation.10 (param_0.32: f32[1,3,100,152], param_1.34: f32[3]) -> f32[45600] {
  %param_0.32 = f32[1,3,100,152]{3,2,1,0} parameter(0)
  %param_1.34 = f32[3]{0} parameter(1)
  %broadcast.461 = f32[1,3,100,152]{3,2,1,0} broadcast(f32[3]{0} %param_1.34), dimensions={1}, metadata={op_type="BiasAdd" op_name="tower-pred-0/rpn_1/class/BiasAdd"}
  %add.168 = f32[1,3,100,152]{3,2,1,0} add(f32[1,3,100,152]{3,2,1,0} %param_0.32, f32[1,3,100,152]{3,2,1,0} %broadcast.461), metadata={op_type="BiasAdd" op_name="tower-pred-0/rpn_1/class/BiasAdd"}
  %bitcast.40 = f32[1,100,152,3]{2,1,3,0} bitcast(f32[1,3,100,152]{3,2,1,0} %add.168), metadata={op_type="Transpose" op_name="tower-pred-0/rpn_1/transpose"}
  ROOT %reshape.25 = f32[45600]{0} reshape(f32[1,100,152,3]{2,1,3,0} %bitcast.40), metadata={op_type="Reshape" op_name="tower-pred-0/generate_fpn_proposals/Lvl3/Reshape_1"}
}

%fused_computation.11 (param_0.338: f32[1,12,100,152], param_1.420: f32[12]) -> f32[45600,1,2] {
  %param_0.338 = f32[1,12,100,152]{3,2,1,0} parameter(0)
  %param_1.420 = f32[12]{0} parameter(1)
  %broadcast.876 = f32[1,12,100,152]{3,2,1,0} broadcast(f32[12]{0} %param_1.420), dimensions={1}, metadata={op_type="BiasAdd" op_name="tower-pred-0/rpn_1/box/BiasAdd"}
  %add.331 = f32[1,12,100,152]{3,2,1,0} add(f32[1,12,100,152]{3,2,1,0} %param_0.338, f32[1,12,100,152]{3,2,1,0} %broadcast.876), metadata={op_type="BiasAdd" op_name="tower-pred-0/rpn_1/box/BiasAdd"}
  %bitcast.105 = f32[1,100,152,12]{2,1,3,0} bitcast(f32[1,12,100,152]{3,2,1,0} %add.331), metadata={op_type="Transpose" op_name="tower-pred-0/rpn_1/transpose_1"}
  %copy.185 = f32[1,100,152,12]{3,2,1,0} copy(f32[1,100,152,12]{2,1,3,0} %bitcast.105), metadata={op_type="Transpose" op_name="tower-pred-0/rpn_1/transpose_1"}
  %bitcast.104 = f32[45600,2,2]{2,1,0} bitcast(f32[1,100,152,12]{3,2,1,0} %copy.185), metadata={op_type="Reshape" op_name="tower-pred-0/decode_bbox_target_1/Reshape"}
  %slice.5 = f32[45600,1,2]{2,1,0} slice(f32[45600,2,2]{2,1,0} %bitcast.104), slice={[0:45600], [1:2], [0:2]}, metadata={op_type="Split" op_name="tower-pred-0/decode_bbox_target_1/split"}
  %constant_193 = f32[] constant(4.43082), metadata={op_type="Minimum" op_name="tower-pred-0/decode_bbox_target_4/Minimum"}
  %broadcast.462 = f32[45600,1,2]{2,1,0} broadcast(f32[] %constant_193), dimensions={}, metadata={op_type="Minimum" op_name="tower-pred-0/decode_bbox_target_1/Minimum"}
  %minimum.3 = f32[45600,1,2]{2,1,0} minimum(f32[45600,1,2]{2,1,0} %slice.5, f32[45600,1,2]{2,1,0} %broadcast.462), metadata={op_type="Minimum" op_name="tower-pred-0/decode_bbox_target_1/Minimum"}
  ROOT %exponential.1 = f32[45600,1,2]{2,1,0} exponential(f32[45600,1,2]{2,1,0} %minimum.3), metadata={op_type="Exp" op_name="tower-pred-0/decode_bbox_target_1/Exp"}
}

%fused_computation.13 (param_0.41: f32[1,256,200,304], param_1.41: f32[256]) -> f32[1,256,200,304] {
  %param_0.41 = f32[1,256,200,304]{3,2,1,0} parameter(0)
  %param_1.41 = f32[256]{0} parameter(1)
  %broadcast.464 = f32[1,256,200,304]{3,2,1,0} broadcast(f32[256]{0} %param_1.41), dimensions={1}, metadata={op_type="BiasAdd" op_name="tower-pred-0/fpn/posthoc_3x3_p2/BiasAdd"}
  ROOT %add.170 = f32[1,256,200,304]{3,2,1,0} add(f32[1,256,200,304]{3,2,1,0} %param_0.41, f32[1,256,200,304]{3,2,1,0} %broadcast.464), metadata={op_type="BiasAdd" op_name="tower-pred-0/fpn/posthoc_3x3_p2/BiasAdd"}
}

%fused_computation.14 (param_0.43: f32[1,256,100,152], param_1.47: f32[1,256,200,304], param_2.42: f32[256]) -> f32[1,256,200,304] {
  %param_1.47 = f32[1,256,200,304]{3,2,1,0} parameter(1)
  %param_2.42 = f32[256]{0} parameter(2)
  %broadcast.466 = f32[1,256,200,304]{3,2,1,0} broadcast(f32[256]{0} %param_2.42), dimensions={1}, metadata={op_type="BiasAdd" op_name="tower-pred-0/fpn/lateral_1x1_c2/BiasAdd"}
  %add.172 = f32[1,256,200,304]{3,2,1,0} add(f32[1,256,200,304]{3,2,1,0} %param_1.47, f32[1,256,200,304]{3,2,1,0} %broadcast.466), metadata={op_type="BiasAdd" op_name="tower-pred-0/fpn/lateral_1x1_c2/BiasAdd"}
  %param_0.43 = f32[1,256,100,152]{3,2,1,0} parameter(0)
  %bitcast.44 = f32[3891200]{0} bitcast(f32[1,256,100,152]{3,2,1,0} %param_0.43)
  %broadcast.465 = f32[3891200,4]{1,0} broadcast(f32[3891200]{0} %bitcast.44), dimensions={0}, metadata={op_type="MatMul" op_name="tower-pred-0/fpn/upsample_lat3/Tensordot/MatMul"}
  %reshape.26 = f32[1,256,100,152,2,2]{5,3,4,2,1,0} reshape(f32[3891200,4]{1,0} %broadcast.465), metadata={op_type="Reshape" op_name="tower-pred-0/fpn/upsample_lat3/Tensordot"}
  %bitcast.43 = f32[1,256,200,304]{3,2,1,0} bitcast(f32[1,256,100,152,2,2]{5,3,4,2,1,0} %reshape.26), metadata={op_type="Reshape" op_name="tower-pred-0/fpn/upsample_lat3/Reshape"}
  ROOT %add.171 = f32[1,256,200,304]{3,2,1,0} add(f32[1,256,200,304]{3,2,1,0} %add.172, f32[1,256,200,304]{3,2,1,0} %bitcast.43), metadata={op_type="Add" op_name="tower-pred-0/fpn/add_2"}
}

%fused_computation.16 (param_0.48: f32[1,3,50,76], param_1.52: f32[3]) -> f32[11400] {
  %param_0.48 = f32[1,3,50,76]{3,2,1,0} parameter(0)
  %param_1.52 = f32[3]{0} parameter(1)
  %broadcast.468 = f32[1,3,50,76]{3,2,1,0} broadcast(f32[3]{0} %param_1.52), dimensions={1}, metadata={op_type="BiasAdd" op_name="tower-pred-0/rpn_2/class/BiasAdd"}
  %add.175 = f32[1,3,50,76]{3,2,1,0} add(f32[1,3,50,76]{3,2,1,0} %param_0.48, f32[1,3,50,76]{3,2,1,0} %broadcast.468), metadata={op_type="BiasAdd" op_name="tower-pred-0/rpn_2/class/BiasAdd"}
  %bitcast.46 = f32[1,50,76,3]{2,1,3,0} bitcast(f32[1,3,50,76]{3,2,1,0} %add.175), metadata={op_type="Transpose" op_name="tower-pred-0/rpn_2/transpose"}
  ROOT %reshape.27 = f32[11400]{0} reshape(f32[1,50,76,3]{2,1,3,0} %bitcast.46), metadata={op_type="Reshape" op_name="tower-pred-0/generate_fpn_proposals/Lvl4/Reshape_1"}
}

%fused_computation.17 (param_0.332: f32[1,12,50,76], param_1.416: f32[12]) -> f32[11400,1,2] {
  %param_0.332 = f32[1,12,50,76]{3,2,1,0} parameter(0)
  %param_1.416 = f32[12]{0} parameter(1)
  %broadcast.871 = f32[1,12,50,76]{3,2,1,0} broadcast(f32[12]{0} %param_1.416), dimensions={1}, metadata={op_type="BiasAdd" op_name="tower-pred-0/rpn_2/box/BiasAdd"}
  %add.327 = f32[1,12,50,76]{3,2,1,0} add(f32[1,12,50,76]{3,2,1,0} %param_0.332, f32[1,12,50,76]{3,2,1,0} %broadcast.871), metadata={op_type="BiasAdd" op_name="tower-pred-0/rpn_2/box/BiasAdd"}
  %bitcast.97 = f32[1,50,76,12]{2,1,3,0} bitcast(f32[1,12,50,76]{3,2,1,0} %add.327), metadata={op_type="Transpose" op_name="tower-pred-0/rpn_2/transpose_1"}
  %copy.181 = f32[1,50,76,12]{3,2,1,0} copy(f32[1,50,76,12]{2,1,3,0} %bitcast.97), metadata={op_type="Transpose" op_name="tower-pred-0/rpn_2/transpose_1"}
  %bitcast.96 = f32[11400,2,2]{2,1,0} bitcast(f32[1,50,76,12]{3,2,1,0} %copy.181), metadata={op_type="Reshape" op_name="tower-pred-0/decode_bbox_target_2/Reshape"}
  %slice.8 = f32[11400,1,2]{2,1,0} slice(f32[11400,2,2]{2,1,0} %bitcast.96), slice={[0:11400], [1:2], [0:2]}, metadata={op_type="Split" op_name="tower-pred-0/decode_bbox_target_2/split"}
  %constant_195 = f32[] constant(4.43082), metadata={op_type="Minimum" op_name="tower-pred-0/decode_bbox_target_4/Minimum"}
  %broadcast.469 = f32[11400,1,2]{2,1,0} broadcast(f32[] %constant_195), dimensions={}, metadata={op_type="Minimum" op_name="tower-pred-0/decode_bbox_target_2/Minimum"}
  %minimum.5 = f32[11400,1,2]{2,1,0} minimum(f32[11400,1,2]{2,1,0} %slice.8, f32[11400,1,2]{2,1,0} %broadcast.469), metadata={op_type="Minimum" op_name="tower-pred-0/decode_bbox_target_2/Minimum"}
  ROOT %exponential.2 = f32[11400,1,2]{2,1,0} exponential(f32[11400,1,2]{2,1,0} %minimum.5), metadata={op_type="Exp" op_name="tower-pred-0/decode_bbox_target_2/Exp"}
}

%fused_computation.19 (param_0.57: f32[1,256,100,152], param_1.59: f32[256]) -> f32[1,256,100,152] {
  %param_0.57 = f32[1,256,100,152]{3,2,1,0} parameter(0)
  %param_1.59 = f32[256]{0} parameter(1)
  %broadcast.471 = f32[1,256,100,152]{3,2,1,0} broadcast(f32[256]{0} %param_1.59), dimensions={1}, metadata={op_type="BiasAdd" op_name="tower-pred-0/fpn/posthoc_3x3_p3/BiasAdd"}
  ROOT %add.177 = f32[1,256,100,152]{3,2,1,0} add(f32[1,256,100,152]{3,2,1,0} %param_0.57, f32[1,256,100,152]{3,2,1,0} %broadcast.471), metadata={op_type="BiasAdd" op_name="tower-pred-0/fpn/posthoc_3x3_p3/BiasAdd"}
}

%fused_computation.20 (param_0.59: f32[1,256,50,76], param_1.65: f32[1,256,100,152], param_2.47: f32[256]) -> f32[1,256,100,152] {
  %param_1.65 = f32[1,256,100,152]{3,2,1,0} parameter(1)
  %param_2.47 = f32[256]{0} parameter(2)
  %broadcast.473 = f32[1,256,100,152]{3,2,1,0} broadcast(f32[256]{0} %param_2.47), dimensions={1}, metadata={op_type="BiasAdd" op_name="tower-pred-0/fpn/lateral_1x1_c3/BiasAdd"}
  %add.179 = f32[1,256,100,152]{3,2,1,0} add(f32[1,256,100,152]{3,2,1,0} %param_1.65, f32[1,256,100,152]{3,2,1,0} %broadcast.473), metadata={op_type="BiasAdd" op_name="tower-pred-0/fpn/lateral_1x1_c3/BiasAdd"}
  %param_0.59 = f32[1,256,50,76]{3,2,1,0} parameter(0)
  %bitcast.50 = f32[972800]{0} bitcast(f32[1,256,50,76]{3,2,1,0} %param_0.59)
  %broadcast.472 = f32[972800,4]{1,0} broadcast(f32[972800]{0} %bitcast.50), dimensions={0}, metadata={op_type="MatMul" op_name="tower-pred-0/fpn/upsample_lat4/Tensordot/MatMul"}
  %reshape.28 = f32[1,256,50,76,2,2]{5,3,4,2,1,0} reshape(f32[972800,4]{1,0} %broadcast.472), metadata={op_type="Reshape" op_name="tower-pred-0/fpn/upsample_lat4/Tensordot"}
  %bitcast.49 = f32[1,256,100,152]{3,2,1,0} bitcast(f32[1,256,50,76,2,2]{5,3,4,2,1,0} %reshape.28), metadata={op_type="Reshape" op_name="tower-pred-0/fpn/upsample_lat4/Reshape"}
  ROOT %add.178 = f32[1,256,100,152]{3,2,1,0} add(f32[1,256,100,152]{3,2,1,0} %add.179, f32[1,256,100,152]{3,2,1,0} %bitcast.49), metadata={op_type="Add" op_name="tower-pred-0/fpn/add_1"}
}

%fused_computation.21 (param_0.316: s32[741], param_1.408: f32[741,1,2], param_2.305: f32[741,1,2], param_3.353: f32[741,1,2], param_4.311: f32[2], param_5.265: f32[1,12,13,19], param_6.127: f32[12]) -> f32[741,4] {
  %constant_196 = f32[] constant(0.5), metadata={op_type="Mul" op_name="tower-pred-0/decode_bbox_target_3/mul"}
  %broadcast.476 = f32[741,1,2]{2,1,0} broadcast(f32[] %constant_196), dimensions={}, metadata={op_type="Mul" op_name="tower-pred-0/decode_bbox_target_4/mul"}
  %param_3.353 = f32[741,1,2]{2,1,0} parameter(3)
  %multiply.124 = f32[741,1,2]{2,1,0} multiply(f32[741,1,2]{2,1,0} %broadcast.476, f32[741,1,2]{2,1,0} %param_3.353), metadata={op_type="Mul" op_name="tower-pred-0/decode_bbox_target_4/mul"}
  %param_5.265 = f32[1,12,13,19]{3,2,1,0} parameter(5)
  %param_6.127 = f32[12]{0} parameter(6)
  %broadcast.864 = f32[1,12,13,19]{3,2,1,0} broadcast(f32[12]{0} %param_6.127), dimensions={1}, metadata={op_type="BiasAdd" op_name="tower-pred-0/rpn_4/box/BiasAdd"}
  %add.321 = f32[1,12,13,19]{3,2,1,0} add(f32[1,12,13,19]{3,2,1,0} %param_5.265, f32[1,12,13,19]{3,2,1,0} %broadcast.864), metadata={op_type="BiasAdd" op_name="tower-pred-0/rpn_4/box/BiasAdd"}
  %bitcast.85 = f32[1,13,19,12]{2,1,3,0} bitcast(f32[1,12,13,19]{3,2,1,0} %add.321), metadata={op_type="Transpose" op_name="tower-pred-0/rpn_4/transpose_1"}
  %copy.175 = f32[1,13,19,12]{3,2,1,0} copy(f32[1,13,19,12]{2,1,3,0} %bitcast.85), metadata={op_type="Transpose" op_name="tower-pred-0/rpn_4/transpose_1"}
  %bitcast.84 = f32[741,2,2]{2,1,0} bitcast(f32[1,13,19,12]{3,2,1,0} %copy.175), metadata={op_type="Reshape" op_name="tower-pred-0/decode_bbox_target_4/Reshape"}
  %slice.9 = f32[741,1,2]{2,1,0} slice(f32[741,2,2]{2,1,0} %bitcast.84), slice={[0:741], [0:1], [0:2]}, metadata={op_type="Split" op_name="tower-pred-0/decode_bbox_target_4/split"}
  %param_2.305 = f32[741,1,2]{2,1,0} parameter(2)
  %multiply.123 = f32[741,1,2]{2,1,0} multiply(f32[741,1,2]{2,1,0} %slice.9, f32[741,1,2]{2,1,0} %param_2.305), metadata={op_type="Mul" op_name="tower-pred-0/decode_bbox_target_4/mul_2"}
  %add.181 = f32[741,1,2]{2,1,0} add(f32[741,1,2]{2,1,0} %multiply.124, f32[741,1,2]{2,1,0} %multiply.123), metadata={op_type="Add" op_name="tower-pred-0/decode_bbox_target_4/add_1"}
  %param_1.408 = f32[741,1,2]{2,1,0} parameter(1)
  %multiply.122 = f32[741,1,2]{2,1,0} multiply(f32[741,1,2]{2,1,0} %broadcast.476, f32[741,1,2]{2,1,0} %param_2.305), metadata={op_type="Mul" op_name="tower-pred-0/decode_bbox_target_4/mul_1"}
  %multiply.121 = f32[741,1,2]{2,1,0} multiply(f32[741,1,2]{2,1,0} %param_1.408, f32[741,1,2]{2,1,0} %multiply.122), metadata={op_type="Mul" op_name="tower-pred-0/decode_bbox_target_4/mul_4"}
  %subtract.76 = f32[741,1,2]{2,1,0} subtract(f32[741,1,2]{2,1,0} %add.181, f32[741,1,2]{2,1,0} %multiply.121), metadata={op_type="Sub" op_name="tower-pred-0/decode_bbox_target_4/sub_1"}
  %add.180 = f32[741,1,2]{2,1,0} add(f32[741,1,2]{2,1,0} %add.181, f32[741,1,2]{2,1,0} %multiply.121), metadata={op_type="Add" op_name="tower-pred-0/decode_bbox_target_4/add_2"}
  %concatenate.3 = f32[741,2,2]{2,1,0} concatenate(f32[741,1,2]{2,1,0} %subtract.76, f32[741,1,2]{2,1,0} %add.180), dimensions={1}, metadata={op_type="ConcatV2" op_name="tower-pred-0/decode_bbox_target_4/concat"}
  %bitcast.51 = f32[741,4]{1,0} bitcast(f32[741,2,2]{2,1,0} %concatenate.3), metadata={op_type="Reshape" op_name="tower-pred-0/generate_fpn_proposals/Lvl6/Reshape"}
  %param_0.316 = s32[741]{0} parameter(0)
  %gather.3 = f32[741,4]{1,0} gather(f32[741,4]{1,0} %bitcast.51, s32[741]{0} %param_0.316), offset_dims={1}, collapsed_slice_dims={0}, start_index_map={0}, index_vector_dim=1, slice_sizes={1,4}, metadata={op_type="GatherV2" op_name="tower-pred-0/generate_fpn_proposals/Lvl6/generate_rpn_proposals/GatherV2"}
  %constant_197 = f32[] constant(0), metadata={op_type="Relu" op_name="tower-pred-0/conv0/Relu"}
  %broadcast.475 = f32[741,4]{1,0} broadcast(f32[] %constant_197), dimensions={}, metadata={op_type="Maximum" op_name="tower-pred-0/generate_fpn_proposals/Lvl6/generate_rpn_proposals/clip_boxes/Maximum"}
  %maximum.3 = f32[741,4]{1,0} maximum(f32[741,4]{1,0} %gather.3, f32[741,4]{1,0} %broadcast.475), metadata={op_type="Maximum" op_name="tower-pred-0/generate_fpn_proposals/Lvl6/generate_rpn_proposals/clip_boxes/Maximum"}
  %param_4.311 = f32[2]{0} parameter(4)
  %broadcast.852 = f32[2,2]{1,0} broadcast(f32[2]{0} %param_4.311), dimensions={1}
  %bitcast.73 = f32[4]{0} bitcast(f32[2,2]{1,0} %broadcast.852), metadata={op_type="Cast" op_name="tower-pred-0/generate_fpn_proposals/Lvl6/generate_rpn_proposals/clip_boxes/Cast"}
  %broadcast.474 = f32[741,4]{1,0} broadcast(f32[4]{0} %bitcast.73), dimensions={1}, metadata={op_type="Minimum" op_name="tower-pred-0/generate_fpn_proposals/Lvl6/generate_rpn_proposals/clip_boxes/Minimum"}
  ROOT %minimum.6 = f32[741,4]{1,0} minimum(f32[741,4]{1,0} %maximum.3, f32[741,4]{1,0} %broadcast.474), metadata={op_type="Minimum" op_name="tower-pred-0/generate_fpn_proposals/Lvl6/generate_rpn_proposals/clip_boxes/Minimum"}
}

%fused_computation.22 (param_0.64: f32[1,3,13,19], param_1.72: f32[3]) -> f32[741] {
  %param_0.64 = f32[1,3,13,19]{3,2,1,0} parameter(0)
  %param_1.72 = f32[3]{0} parameter(1)
  %broadcast.477 = f32[1,3,13,19]{3,2,1,0} broadcast(f32[3]{0} %param_1.72), dimensions={1}, metadata={op_type="BiasAdd" op_name="tower-pred-0/rpn_4/class/BiasAdd"}
  %add.182 = f32[1,3,13,19]{3,2,1,0} add(f32[1,3,13,19]{3,2,1,0} %param_0.64, f32[1,3,13,19]{3,2,1,0} %broadcast.477), metadata={op_type="BiasAdd" op_name="tower-pred-0/rpn_4/class/BiasAdd"}
  %bitcast.52 = f32[1,13,19,3]{2,1,3,0} bitcast(f32[1,3,13,19]{3,2,1,0} %add.182), metadata={op_type="Transpose" op_name="tower-pred-0/rpn_4/transpose"}
  ROOT %reshape.29 = f32[741]{0} reshape(f32[1,13,19,3]{2,1,3,0} %bitcast.52), metadata={op_type="Reshape" op_name="tower-pred-0/generate_fpn_proposals/Lvl6/Reshape_1"}
}

%fused_computation.23 (param_0.326: f32[1,12,13,19], param_1.412: f32[12]) -> f32[741,1,2] {
  %param_0.326 = f32[1,12,13,19]{3,2,1,0} parameter(0)
  %param_1.412 = f32[12]{0} parameter(1)
  %broadcast.866 = f32[1,12,13,19]{3,2,1,0} broadcast(f32[12]{0} %param_1.412), dimensions={1}, metadata={op_type="BiasAdd" op_name="tower-pred-0/rpn_4/box/BiasAdd"}
  %add.323 = f32[1,12,13,19]{3,2,1,0} add(f32[1,12,13,19]{3,2,1,0} %param_0.326, f32[1,12,13,19]{3,2,1,0} %broadcast.866), metadata={op_type="BiasAdd" op_name="tower-pred-0/rpn_4/box/BiasAdd"}
  %bitcast.89 = f32[1,13,19,12]{2,1,3,0} bitcast(f32[1,12,13,19]{3,2,1,0} %add.323), metadata={op_type="Transpose" op_name="tower-pred-0/rpn_4/transpose_1"}
  %copy.177 = f32[1,13,19,12]{3,2,1,0} copy(f32[1,13,19,12]{2,1,3,0} %bitcast.89), metadata={op_type="Transpose" op_name="tower-pred-0/rpn_4/transpose_1"}
  %bitcast.88 = f32[741,2,2]{2,1,0} bitcast(f32[1,13,19,12]{3,2,1,0} %copy.177), metadata={op_type="Reshape" op_name="tower-pred-0/decode_bbox_target_4/Reshape"}
  %slice.10 = f32[741,1,2]{2,1,0} slice(f32[741,2,2]{2,1,0} %bitcast.88), slice={[0:741], [1:2], [0:2]}, metadata={op_type="Split" op_name="tower-pred-0/decode_bbox_target_4/split"}
  %constant_198 = f32[] constant(4.43082), metadata={op_type="Minimum" op_name="tower-pred-0/decode_bbox_target_4/Minimum"}
  %broadcast.478 = f32[741,1,2]{2,1,0} broadcast(f32[] %constant_198), dimensions={}, metadata={op_type="Minimum" op_name="tower-pred-0/decode_bbox_target_4/Minimum"}
  %minimum.7 = f32[741,1,2]{2,1,0} minimum(f32[741,1,2]{2,1,0} %slice.10, f32[741,1,2]{2,1,0} %broadcast.478), metadata={op_type="Minimum" op_name="tower-pred-0/decode_bbox_target_4/Minimum"}
  ROOT %exponential.3 = f32[741,1,2]{2,1,0} exponential(f32[741,1,2]{2,1,0} %minimum.7), metadata={op_type="Exp" op_name="tower-pred-0/decode_bbox_target_4/Exp"}
}

%fused_computation.25 (param_0.263: s32[2850], param_1.305: f32[2850,1,2], param_2.259: f32[2850,1,2], param_3.351: f32[2850,1,2], param_4.310: f32[1,12,25,38], param_5.261: f32[12], param_6.125: f32[2], param_7.68: s32[11400], param_8.30: f32[11400,1,2], param_9.21: f32[11400,1,2], param_10.16: f32[1,12,50,76], param_11.3: f32[11400,1,2], param_12.12: s32[45600], param_13.11: f32[45600,1,2], param_14.5: f32[45600,1,2], param_15.4: f32[1,12,100,152], param_16.3: f32[45600,1,2], param_17.12: s32[182400], param_18.11: f32[182400,1,2], param_19.5: f32[182400,1,2], param_20.4: f32[1,12,200,304], param_21.3: f32[182400,1,2]) -> (f32[1000,4], f32[1000,4], f32[1000,4], f32[1000,4]) {
  %constant_199 = f32[] constant(0.5), metadata={op_type="Mul" op_name="tower-pred-0/decode_bbox_target_3/mul"}
  %broadcast.480 = f32[2850,1,2]{2,1,0} broadcast(f32[] %constant_199), dimensions={}, metadata={op_type="Mul" op_name="tower-pred-0/decode_bbox_target_3/mul"}
  %param_3.351 = f32[2850,1,2]{2,1,0} parameter(3)
  %multiply.128 = f32[2850,1,2]{2,1,0} multiply(f32[2850,1,2]{2,1,0} %broadcast.480, f32[2850,1,2]{2,1,0} %param_3.351), metadata={op_type="Mul" op_name="tower-pred-0/decode_bbox_target_3/mul"}
  %param_4.310 = f32[1,12,25,38]{3,2,1,0} parameter(4)
  %param_5.261 = f32[12]{0} parameter(5)
  %broadcast.848 = f32[1,12,25,38]{3,2,1,0} broadcast(f32[12]{0} %param_5.261), dimensions={1}, metadata={op_type="BiasAdd" op_name="tower-pred-0/rpn_3/box/BiasAdd"}
  %add.317 = f32[1,12,25,38]{3,2,1,0} add(f32[1,12,25,38]{3,2,1,0} %param_4.310, f32[1,12,25,38]{3,2,1,0} %broadcast.848), metadata={op_type="BiasAdd" op_name="tower-pred-0/rpn_3/box/BiasAdd"}
  %bitcast.67 = f32[1,25,38,12]{2,1,3,0} bitcast(f32[1,12,25,38]{3,2,1,0} %add.317), metadata={op_type="Transpose" op_name="tower-pred-0/rpn_3/transpose_1"}
  %copy.171 = f32[1,25,38,12]{3,2,1,0} copy(f32[1,25,38,12]{2,1,3,0} %bitcast.67), metadata={op_type="Transpose" op_name="tower-pred-0/rpn_3/transpose_1"}
  %bitcast.66 = f32[2850,2,2]{2,1,0} bitcast(f32[1,25,38,12]{3,2,1,0} %copy.171), metadata={op_type="Reshape" op_name="tower-pred-0/decode_bbox_target_3/Reshape"}
  %slice.12 = f32[2850,1,2]{2,1,0} slice(f32[2850,2,2]{2,1,0} %bitcast.66), slice={[0:2850], [0:1], [0:2]}, metadata={op_type="Split" op_name="tower-pred-0/decode_bbox_target_3/split"}
  %param_2.259 = f32[2850,1,2]{2,1,0} parameter(2)
  %multiply.127 = f32[2850,1,2]{2,1,0} multiply(f32[2850,1,2]{2,1,0} %slice.12, f32[2850,1,2]{2,1,0} %param_2.259), metadata={op_type="Mul" op_name="tower-pred-0/decode_bbox_target_3/mul_2"}
  %add.185 = f32[2850,1,2]{2,1,0} add(f32[2850,1,2]{2,1,0} %multiply.128, f32[2850,1,2]{2,1,0} %multiply.127), metadata={op_type="Add" op_name="tower-pred-0/decode_bbox_target_3/add_1"}
  %param_1.305 = f32[2850,1,2]{2,1,0} parameter(1)
  %multiply.126 = f32[2850,1,2]{2,1,0} multiply(f32[2850,1,2]{2,1,0} %broadcast.480, f32[2850,1,2]{2,1,0} %param_2.259), metadata={op_type="Mul" op_name="tower-pred-0/decode_bbox_target_3/mul_1"}
  %multiply.125 = f32[2850,1,2]{2,1,0} multiply(f32[2850,1,2]{2,1,0} %param_1.305, f32[2850,1,2]{2,1,0} %multiply.126), metadata={op_type="Mul" op_name="tower-pred-0/decode_bbox_target_3/mul_4"}
  %subtract.77 = f32[2850,1,2]{2,1,0} subtract(f32[2850,1,2]{2,1,0} %add.185, f32[2850,1,2]{2,1,0} %multiply.125), metadata={op_type="Sub" op_name="tower-pred-0/decode_bbox_target_3/sub_1"}
  %add.184 = f32[2850,1,2]{2,1,0} add(f32[2850,1,2]{2,1,0} %add.185, f32[2850,1,2]{2,1,0} %multiply.125), metadata={op_type="Add" op_name="tower-pred-0/decode_bbox_target_3/add_2"}
  %concatenate.4 = f32[2850,2,2]{2,1,0} concatenate(f32[2850,1,2]{2,1,0} %subtract.77, f32[2850,1,2]{2,1,0} %add.184), dimensions={1}, metadata={op_type="ConcatV2" op_name="tower-pred-0/decode_bbox_target_3/concat"}
  %bitcast.55 = f32[2850,4]{1,0} bitcast(f32[2850,2,2]{2,1,0} %concatenate.4), metadata={op_type="Reshape" op_name="tower-pred-0/generate_fpn_proposals/Lvl5/Reshape"}
  %param_0.263 = s32[2850]{0} parameter(0)
  %slice.11 = s32[1000]{0} slice(s32[2850]{0} %param_0.263), slice={[0:1000]}, metadata={op_type="TopKV2" op_name="tower-pred-0/generate_fpn_proposals/Lvl5/generate_rpn_proposals/TopKV2"}
  %gather.4 = f32[1000,4]{1,0} gather(f32[2850,4]{1,0} %bitcast.55, s32[1000]{0} %slice.11), offset_dims={1}, collapsed_slice_dims={0}, start_index_map={0}, index_vector_dim=1, slice_sizes={1,4}, metadata={op_type="GatherV2" op_name="tower-pred-0/generate_fpn_proposals/Lvl5/generate_rpn_proposals/GatherV2"}
  %constant_210 = f32[] constant(0), metadata={op_type="Relu" op_name="tower-pred-0/conv0/Relu"}
  %broadcast.732 = f32[1000,4]{1,0} broadcast(f32[] %constant_210), dimensions={}, metadata={op_type="Maximum" op_name="tower-pred-0/generate_fpn_proposals/Lvl5/generate_rpn_proposals/clip_boxes/Maximum"}
  %maximum.4 = f32[1000,4]{1,0} maximum(f32[1000,4]{1,0} %gather.4, f32[1000,4]{1,0} %broadcast.732), metadata={op_type="Maximum" op_name="tower-pred-0/generate_fpn_proposals/Lvl5/generate_rpn_proposals/clip_boxes/Maximum"}
  %param_6.125 = f32[2]{0} parameter(6)
  %broadcast.862 = f32[2,2]{1,0} broadcast(f32[2]{0} %param_6.125), dimensions={1}
  %bitcast.81 = f32[4]{0} bitcast(f32[2,2]{1,0} %broadcast.862), metadata={op_type="Cast" op_name="tower-pred-0/generate_fpn_proposals/Lvl6/generate_rpn_proposals/clip_boxes/Cast"}
  %broadcast.733 = f32[1000,4]{1,0} broadcast(f32[4]{0} %bitcast.81), dimensions={1}, metadata={op_type="Minimum" op_name="tower-pred-0/generate_fpn_proposals/Lvl5/generate_rpn_proposals/clip_boxes/Minimum"}
  %minimum.8 = f32[1000,4]{1,0} minimum(f32[1000,4]{1,0} %maximum.4, f32[1000,4]{1,0} %broadcast.733), metadata={op_type="Minimum" op_name="tower-pred-0/generate_fpn_proposals/Lvl5/generate_rpn_proposals/clip_boxes/Minimum"}
  %broadcast.467.clone.1 = f32[11400,1,2]{2,1,0} broadcast(f32[] %constant_199), dimensions={}, metadata={op_type="Mul" op_name="tower-pred-0/decode_bbox_target_2/mul"}
  %param_11.3 = f32[11400,1,2]{2,1,0} parameter(11)
  %multiply.120.clone.1 = f32[11400,1,2]{2,1,0} multiply(f32[11400,1,2]{2,1,0} %broadcast.467.clone.1, f32[11400,1,2]{2,1,0} %param_11.3), metadata={op_type="Mul" op_name="tower-pred-0/decode_bbox_target_2/mul"}
  %param_10.16 = f32[1,12,50,76]{3,2,1,0} parameter(10)
  %broadcast.869.clone.1 = f32[1,12,50,76]{3,2,1,0} broadcast(f32[12]{0} %param_5.261), dimensions={1}, metadata={op_type="BiasAdd" op_name="tower-pred-0/rpn_2/box/BiasAdd"}
  %add.325.clone.1 = f32[1,12,50,76]{3,2,1,0} add(f32[1,12,50,76]{3,2,1,0} %param_10.16, f32[1,12,50,76]{3,2,1,0} %broadcast.869.clone.1), metadata={op_type="BiasAdd" op_name="tower-pred-0/rpn_2/box/BiasAdd"}
  %bitcast.93.clone.1 = f32[1,50,76,12]{2,1,3,0} bitcast(f32[1,12,50,76]{3,2,1,0} %add.325.clone.1), metadata={op_type="Transpose" op_name="tower-pred-0/rpn_2/transpose_1"}
  %copy.179.clone.1 = f32[1,50,76,12]{3,2,1,0} copy(f32[1,50,76,12]{2,1,3,0} %bitcast.93.clone.1), metadata={op_type="Transpose" op_name="tower-pred-0/rpn_2/transpose_1"}
  %bitcast.92.clone.1 = f32[11400,2,2]{2,1,0} bitcast(f32[1,50,76,12]{3,2,1,0} %copy.179.clone.1), metadata={op_type="Reshape" op_name="tower-pred-0/decode_bbox_target_2/Reshape"}
  %slice.7.clone.1 = f32[11400,1,2]{2,1,0} slice(f32[11400,2,2]{2,1,0} %bitcast.92.clone.1), slice={[0:11400], [0:1], [0:2]}, metadata={op_type="Split" op_name="tower-pred-0/decode_bbox_target_2/split"}
  %param_9.21 = f32[11400,1,2]{2,1,0} parameter(9)
  %multiply.119.clone.1 = f32[11400,1,2]{2,1,0} multiply(f32[11400,1,2]{2,1,0} %slice.7.clone.1, f32[11400,1,2]{2,1,0} %param_9.21), metadata={op_type="Mul" op_name="tower-pred-0/decode_bbox_target_2/mul_2"}
  %add.174.clone.1 = f32[11400,1,2]{2,1,0} add(f32[11400,1,2]{2,1,0} %multiply.120.clone.1, f32[11400,1,2]{2,1,0} %multiply.119.clone.1), metadata={op_type="Add" op_name="tower-pred-0/decode_bbox_target_2/add_1"}
  %param_8.30 = f32[11400,1,2]{2,1,0} parameter(8)
  %multiply.118.clone.1 = f32[11400,1,2]{2,1,0} multiply(f32[11400,1,2]{2,1,0} %broadcast.467.clone.1, f32[11400,1,2]{2,1,0} %param_9.21), metadata={op_type="Mul" op_name="tower-pred-0/decode_bbox_target_2/mul_1"}
  %multiply.117.clone.1 = f32[11400,1,2]{2,1,0} multiply(f32[11400,1,2]{2,1,0} %param_8.30, f32[11400,1,2]{2,1,0} %multiply.118.clone.1), metadata={op_type="Mul" op_name="tower-pred-0/decode_bbox_target_2/mul_4"}
  %subtract.75.clone.1 = f32[11400,1,2]{2,1,0} subtract(f32[11400,1,2]{2,1,0} %add.174.clone.1, f32[11400,1,2]{2,1,0} %multiply.117.clone.1), metadata={op_type="Sub" op_name="tower-pred-0/decode_bbox_target_2/sub_1"}
  %add.173.clone.1 = f32[11400,1,2]{2,1,0} add(f32[11400,1,2]{2,1,0} %add.174.clone.1, f32[11400,1,2]{2,1,0} %multiply.117.clone.1), metadata={op_type="Add" op_name="tower-pred-0/decode_bbox_target_2/add_2"}
  %concatenate.2.clone.1 = f32[11400,2,2]{2,1,0} concatenate(f32[11400,1,2]{2,1,0} %subtract.75.clone.1, f32[11400,1,2]{2,1,0} %add.173.clone.1), dimensions={1}, metadata={op_type="ConcatV2" op_name="tower-pred-0/decode_bbox_target_2/concat"}
  %bitcast.45.clone.1 = f32[11400,4]{1,0} bitcast(f32[11400,2,2]{2,1,0} %concatenate.2.clone.1), metadata={op_type="Reshape" op_name="tower-pred-0/generate_fpn_proposals/Lvl4/Reshape"}
  %param_7.68 = s32[11400]{0} parameter(7)
  %slice.6.clone.1 = s32[1000]{0} slice(s32[11400]{0} %param_7.68), slice={[0:1000]}, metadata={op_type="TopKV2" op_name="tower-pred-0/generate_fpn_proposals/Lvl4/generate_rpn_proposals/TopKV2"}
  %gather.2.clone.1 = f32[1000,4]{1,0} gather(f32[11400,4]{1,0} %bitcast.45.clone.1, s32[1000]{0} %slice.6.clone.1), offset_dims={1}, collapsed_slice_dims={0}, start_index_map={0}, index_vector_dim=1, slice_sizes={1,4}, metadata={op_type="GatherV2" op_name="tower-pred-0/generate_fpn_proposals/Lvl4/generate_rpn_proposals/GatherV2"}
  %maximum.2.clone.1 = f32[1000,4]{1,0} maximum(f32[1000,4]{1,0} %gather.2.clone.1, f32[1000,4]{1,0} %broadcast.732), metadata={op_type="Maximum" op_name="tower-pred-0/generate_fpn_proposals/Lvl4/generate_rpn_proposals/clip_boxes/Maximum"}
  %minimum.4.clone.1 = f32[1000,4]{1,0} minimum(f32[1000,4]{1,0} %maximum.2.clone.1, f32[1000,4]{1,0} %broadcast.733), metadata={op_type="Minimum" op_name="tower-pred-0/generate_fpn_proposals/Lvl4/generate_rpn_proposals/clip_boxes/Minimum"}
  %broadcast.460.clone.1 = f32[45600,1,2]{2,1,0} broadcast(f32[] %constant_199), dimensions={}, metadata={op_type="Mul" op_name="tower-pred-0/decode_bbox_target_1/mul"}
  %param_16.3 = f32[45600,1,2]{2,1,0} parameter(16)
  %multiply.116.clone.1 = f32[45600,1,2]{2,1,0} multiply(f32[45600,1,2]{2,1,0} %broadcast.460.clone.1, f32[45600,1,2]{2,1,0} %param_16.3), metadata={op_type="Mul" op_name="tower-pred-0/decode_bbox_target_1/mul"}
  %param_15.4 = f32[1,12,100,152]{3,2,1,0} parameter(15)
  %broadcast.873.clone.1 = f32[1,12,100,152]{3,2,1,0} broadcast(f32[12]{0} %param_5.261), dimensions={1}, metadata={op_type="BiasAdd" op_name="tower-pred-0/rpn_1/box/BiasAdd"}
  %add.329.clone.1 = f32[1,12,100,152]{3,2,1,0} add(f32[1,12,100,152]{3,2,1,0} %param_15.4, f32[1,12,100,152]{3,2,1,0} %broadcast.873.clone.1), metadata={op_type="BiasAdd" op_name="tower-pred-0/rpn_1/box/BiasAdd"}
  %bitcast.101.clone.1 = f32[1,100,152,12]{2,1,3,0} bitcast(f32[1,12,100,152]{3,2,1,0} %add.329.clone.1), metadata={op_type="Transpose" op_name="tower-pred-0/rpn_1/transpose_1"}
  %copy.183.clone.1 = f32[1,100,152,12]{3,2,1,0} copy(f32[1,100,152,12]{2,1,3,0} %bitcast.101.clone.1), metadata={op_type="Transpose" op_name="tower-pred-0/rpn_1/transpose_1"}
  %bitcast.100.clone.1 = f32[45600,2,2]{2,1,0} bitcast(f32[1,100,152,12]{3,2,1,0} %copy.183.clone.1), metadata={op_type="Reshape" op_name="tower-pred-0/decode_bbox_target_1/Reshape"}
  %slice.4.clone.1 = f32[45600,1,2]{2,1,0} slice(f32[45600,2,2]{2,1,0} %bitcast.100.clone.1), slice={[0:45600], [0:1], [0:2]}, metadata={op_type="Split" op_name="tower-pred-0/decode_bbox_target_1/split"}
  %param_14.5 = f32[45600,1,2]{2,1,0} parameter(14)
  %multiply.115.clone.1 = f32[45600,1,2]{2,1,0} multiply(f32[45600,1,2]{2,1,0} %slice.4.clone.1, f32[45600,1,2]{2,1,0} %param_14.5), metadata={op_type="Mul" op_name="tower-pred-0/decode_bbox_target_1/mul_2"}
  %add.167.clone.1 = f32[45600,1,2]{2,1,0} add(f32[45600,1,2]{2,1,0} %multiply.116.clone.1, f32[45600,1,2]{2,1,0} %multiply.115.clone.1), metadata={op_type="Add" op_name="tower-pred-0/decode_bbox_target_1/add_1"}
  %param_13.11 = f32[45600,1,2]{2,1,0} parameter(13)
  %multiply.114.clone.1 = f32[45600,1,2]{2,1,0} multiply(f32[45600,1,2]{2,1,0} %broadcast.460.clone.1, f32[45600,1,2]{2,1,0} %param_14.5), metadata={op_type="Mul" op_name="tower-pred-0/decode_bbox_target_1/mul_1"}
  %multiply.113.clone.1 = f32[45600,1,2]{2,1,0} multiply(f32[45600,1,2]{2,1,0} %param_13.11, f32[45600,1,2]{2,1,0} %multiply.114.clone.1), metadata={op_type="Mul" op_name="tower-pred-0/decode_bbox_target_1/mul_4"}
  %subtract.74.clone.1 = f32[45600,1,2]{2,1,0} subtract(f32[45600,1,2]{2,1,0} %add.167.clone.1, f32[45600,1,2]{2,1,0} %multiply.113.clone.1), metadata={op_type="Sub" op_name="tower-pred-0/decode_bbox_target_1/sub_1"}
  %add.166.clone.1 = f32[45600,1,2]{2,1,0} add(f32[45600,1,2]{2,1,0} %add.167.clone.1, f32[45600,1,2]{2,1,0} %multiply.113.clone.1), metadata={op_type="Add" op_name="tower-pred-0/decode_bbox_target_1/add_2"}
  %concatenate.1.clone.1 = f32[45600,2,2]{2,1,0} concatenate(f32[45600,1,2]{2,1,0} %subtract.74.clone.1, f32[45600,1,2]{2,1,0} %add.166.clone.1), dimensions={1}, metadata={op_type="ConcatV2" op_name="tower-pred-0/decode_bbox_target_1/concat"}
  %bitcast.39.clone.1 = f32[45600,4]{1,0} bitcast(f32[45600,2,2]{2,1,0} %concatenate.1.clone.1), metadata={op_type="Reshape" op_name="tower-pred-0/generate_fpn_proposals/Lvl3/Reshape"}
  %param_12.12 = s32[45600]{0} parameter(12)
  %slice.3.clone.1 = s32[1000]{0} slice(s32[45600]{0} %param_12.12), slice={[0:1000]}, metadata={op_type="TopKV2" op_name="tower-pred-0/generate_fpn_proposals/Lvl3/generate_rpn_proposals/TopKV2"}
  %gather.1.clone.1 = f32[1000,4]{1,0} gather(f32[45600,4]{1,0} %bitcast.39.clone.1, s32[1000]{0} %slice.3.clone.1), offset_dims={1}, collapsed_slice_dims={0}, start_index_map={0}, index_vector_dim=1, slice_sizes={1,4}, metadata={op_type="GatherV2" op_name="tower-pred-0/generate_fpn_proposals/Lvl3/generate_rpn_proposals/GatherV2"}
  %maximum.1.clone.1 = f32[1000,4]{1,0} maximum(f32[1000,4]{1,0} %gather.1.clone.1, f32[1000,4]{1,0} %broadcast.732), metadata={op_type="Maximum" op_name="tower-pred-0/generate_fpn_proposals/Lvl3/generate_rpn_proposals/clip_boxes/Maximum"}
  %minimum.2.clone.1 = f32[1000,4]{1,0} minimum(f32[1000,4]{1,0} %maximum.1.clone.1, f32[1000,4]{1,0} %broadcast.733), metadata={op_type="Minimum" op_name="tower-pred-0/generate_fpn_proposals/Lvl3/generate_rpn_proposals/clip_boxes/Minimum"}
  %broadcast.456.clone.1 = f32[182400,1,2]{2,1,0} broadcast(f32[] %constant_199), dimensions={}, metadata={op_type="Mul" op_name="tower-pred-0/decode_bbox_target/mul"}
  %param_21.3 = f32[182400,1,2]{2,1,0} parameter(21)
  %multiply.112.clone.1 = f32[182400,1,2]{2,1,0} multiply(f32[182400,1,2]{2,1,0} %broadcast.456.clone.1, f32[182400,1,2]{2,1,0} %param_21.3), metadata={op_type="Mul" op_name="tower-pred-0/decode_bbox_target/mul"}
  %param_20.4 = f32[1,12,200,304]{3,2,1,0} parameter(20)
  %broadcast.878.clone.1 = f32[1,12,200,304]{3,2,1,0} broadcast(f32[12]{0} %param_5.261), dimensions={1}, metadata={op_type="BiasAdd" op_name="tower-pred-0/rpn/box/BiasAdd"}
  %add.333.clone.1 = f32[1,12,200,304]{3,2,1,0} add(f32[1,12,200,304]{3,2,1,0} %param_20.4, f32[1,12,200,304]{3,2,1,0} %broadcast.878.clone.1), metadata={op_type="BiasAdd" op_name="tower-pred-0/rpn/box/BiasAdd"}
  %bitcast.109.clone.1 = f32[1,200,304,12]{2,1,3,0} bitcast(f32[1,12,200,304]{3,2,1,0} %add.333.clone.1), metadata={op_type="Transpose" op_name="tower-pred-0/rpn/transpose_1"}
  %copy.187.clone.1 = f32[1,200,304,12]{3,2,1,0} copy(f32[1,200,304,12]{2,1,3,0} %bitcast.109.clone.1), metadata={op_type="Transpose" op_name="tower-pred-0/rpn/transpose_1"}
  %bitcast.108.clone.1 = f32[182400,2,2]{2,1,0} bitcast(f32[1,200,304,12]{3,2,1,0} %copy.187.clone.1), metadata={op_type="Reshape" op_name="tower-pred-0/decode_bbox_target/Reshape"}
  %slice.1.clone.1 = f32[182400,1,2]{2,1,0} slice(f32[182400,2,2]{2,1,0} %bitcast.108.clone.1), slice={[0:182400], [0:1], [0:2]}, metadata={op_type="Split" op_name="tower-pred-0/decode_bbox_target/split"}
  %param_19.5 = f32[182400,1,2]{2,1,0} parameter(19)
  %multiply.111.clone.1 = f32[182400,1,2]{2,1,0} multiply(f32[182400,1,2]{2,1,0} %slice.1.clone.1, f32[182400,1,2]{2,1,0} %param_19.5), metadata={op_type="Mul" op_name="tower-pred-0/decode_bbox_target/mul_2"}
  %add.163.clone.1 = f32[182400,1,2]{2,1,0} add(f32[182400,1,2]{2,1,0} %multiply.112.clone.1, f32[182400,1,2]{2,1,0} %multiply.111.clone.1), metadata={op_type="Add" op_name="tower-pred-0/decode_bbox_target/add_1"}
  %param_18.11 = f32[182400,1,2]{2,1,0} parameter(18)
  %multiply.110.clone.1 = f32[182400,1,2]{2,1,0} multiply(f32[182400,1,2]{2,1,0} %broadcast.456.clone.1, f32[182400,1,2]{2,1,0} %param_19.5), metadata={op_type="Mul" op_name="tower-pred-0/decode_bbox_target/mul_1"}
  %multiply.109.clone.1 = f32[182400,1,2]{2,1,0} multiply(f32[182400,1,2]{2,1,0} %param_18.11, f32[182400,1,2]{2,1,0} %multiply.110.clone.1), metadata={op_type="Mul" op_name="tower-pred-0/decode_bbox_target/mul_4"}
  %subtract.73.clone.1 = f32[182400,1,2]{2,1,0} subtract(f32[182400,1,2]{2,1,0} %add.163.clone.1, f32[182400,1,2]{2,1,0} %multiply.109.clone.1), metadata={op_type="Sub" op_name="tower-pred-0/decode_bbox_target/sub_1"}
  %add.162.clone.1 = f32[182400,1,2]{2,1,0} add(f32[182400,1,2]{2,1,0} %add.163.clone.1, f32[182400,1,2]{2,1,0} %multiply.109.clone.1), metadata={op_type="Add" op_name="tower-pred-0/decode_bbox_target/add_2"}
  %concatenate.0.clone.1 = f32[182400,2,2]{2,1,0} concatenate(f32[182400,1,2]{2,1,0} %subtract.73.clone.1, f32[182400,1,2]{2,1,0} %add.162.clone.1), dimensions={1}, metadata={op_type="ConcatV2" op_name="tower-pred-0/decode_bbox_target/concat"}
  %bitcast.35.clone.1 = f32[182400,4]{1,0} bitcast(f32[182400,2,2]{2,1,0} %concatenate.0.clone.1), metadata={op_type="Reshape" op_name="tower-pred-0/generate_fpn_proposals/Lvl2/Reshape"}
  %param_17.12 = s32[182400]{0} parameter(17)
  %slice.0.clone.1 = s32[1000]{0} slice(s32[182400]{0} %param_17.12), slice={[0:1000]}, metadata={op_type="TopKV2" op_name="tower-pred-0/generate_fpn_proposals/Lvl2/generate_rpn_proposals/TopKV2"}
  %gather.0.clone.1 = f32[1000,4]{1,0} gather(f32[182400,4]{1,0} %bitcast.35.clone.1, s32[1000]{0} %slice.0.clone.1), offset_dims={1}, collapsed_slice_dims={0}, start_index_map={0}, index_vector_dim=1, slice_sizes={1,4}, metadata={op_type="GatherV2" op_name="tower-pred-0/generate_fpn_proposals/Lvl2/generate_rpn_proposals/GatherV2"}
  %maximum.0.clone.1 = f32[1000,4]{1,0} maximum(f32[1000,4]{1,0} %gather.0.clone.1, f32[1000,4]{1,0} %broadcast.732), metadata={op_type="Maximum" op_name="tower-pred-0/generate_fpn_proposals/Lvl2/generate_rpn_proposals/clip_boxes/Maximum"}
  %minimum.0.clone.1 = f32[1000,4]{1,0} minimum(f32[1000,4]{1,0} %maximum.0.clone.1, f32[1000,4]{1,0} %broadcast.733), metadata={op_type="Minimum" op_name="tower-pred-0/generate_fpn_proposals/Lvl2/generate_rpn_proposals/clip_boxes/Minimum"}
  ROOT %tuple.78 = (f32[1000,4]{1,0}, f32[1000,4]{1,0}, f32[1000,4]{1,0}, f32[1000,4]{1,0}) tuple(f32[1000,4]{1,0} %minimum.8, f32[1000,4]{1,0} %minimum.4.clone.1, f32[1000,4]{1,0} %minimum.2.clone.1, f32[1000,4]{1,0} %minimum.0.clone.1)
}

%fused_computation.27 (param_0.79: f32[1,3,25,38], param_1.82: f32[3]) -> f32[2850] {
  %param_0.79 = f32[1,3,25,38]{3,2,1,0} parameter(0)
  %param_1.82 = f32[3]{0} parameter(1)
  %broadcast.482 = f32[1,3,25,38]{3,2,1,0} broadcast(f32[3]{0} %param_1.82), dimensions={1}, metadata={op_type="BiasAdd" op_name="tower-pred-0/rpn_3/class/BiasAdd"}
  %add.186 = f32[1,3,25,38]{3,2,1,0} add(f32[1,3,25,38]{3,2,1,0} %param_0.79, f32[1,3,25,38]{3,2,1,0} %broadcast.482), metadata={op_type="BiasAdd" op_name="tower-pred-0/rpn_3/class/BiasAdd"}
  %bitcast.57 = f32[1,25,38,3]{2,1,3,0} bitcast(f32[1,3,25,38]{3,2,1,0} %add.186), metadata={op_type="Transpose" op_name="tower-pred-0/rpn_3/transpose"}
  ROOT %reshape.30 = f32[2850]{0} reshape(f32[1,25,38,3]{2,1,3,0} %bitcast.57), metadata={op_type="Reshape" op_name="tower-pred-0/generate_fpn_proposals/Lvl5/Reshape_1"}
}

%fused_computation.28 (param_0.314: f32[1,12,25,38], param_1.407: f32[12]) -> f32[2850,1,2] {
  %param_0.314 = f32[1,12,25,38]{3,2,1,0} parameter(0)
  %param_1.407 = f32[12]{0} parameter(1)
  %broadcast.850 = f32[1,12,25,38]{3,2,1,0} broadcast(f32[12]{0} %param_1.407), dimensions={1}, metadata={op_type="BiasAdd" op_name="tower-pred-0/rpn_3/box/BiasAdd"}
  %add.319 = f32[1,12,25,38]{3,2,1,0} add(f32[1,12,25,38]{3,2,1,0} %param_0.314, f32[1,12,25,38]{3,2,1,0} %broadcast.850), metadata={op_type="BiasAdd" op_name="tower-pred-0/rpn_3/box/BiasAdd"}
  %bitcast.71 = f32[1,25,38,12]{2,1,3,0} bitcast(f32[1,12,25,38]{3,2,1,0} %add.319), metadata={op_type="Transpose" op_name="tower-pred-0/rpn_3/transpose_1"}
  %copy.173 = f32[1,25,38,12]{3,2,1,0} copy(f32[1,25,38,12]{2,1,3,0} %bitcast.71), metadata={op_type="Transpose" op_name="tower-pred-0/rpn_3/transpose_1"}
  %bitcast.70 = f32[2850,2,2]{2,1,0} bitcast(f32[1,25,38,12]{3,2,1,0} %copy.173), metadata={op_type="Reshape" op_name="tower-pred-0/decode_bbox_target_3/Reshape"}
  %slice.13 = f32[2850,1,2]{2,1,0} slice(f32[2850,2,2]{2,1,0} %bitcast.70), slice={[0:2850], [1:2], [0:2]}, metadata={op_type="Split" op_name="tower-pred-0/decode_bbox_target_3/split"}
  %constant_200 = f32[] constant(4.43082), metadata={op_type="Minimum" op_name="tower-pred-0/decode_bbox_target_4/Minimum"}
  %broadcast.483 = f32[2850,1,2]{2,1,0} broadcast(f32[] %constant_200), dimensions={}, metadata={op_type="Minimum" op_name="tower-pred-0/decode_bbox_target_3/Minimum"}
  %minimum.9 = f32[2850,1,2]{2,1,0} minimum(f32[2850,1,2]{2,1,0} %slice.13, f32[2850,1,2]{2,1,0} %broadcast.483), metadata={op_type="Minimum" op_name="tower-pred-0/decode_bbox_target_3/Minimum"}
  ROOT %exponential.4 = f32[2850,1,2]{2,1,0} exponential(f32[2850,1,2]{2,1,0} %minimum.9), metadata={op_type="Exp" op_name="tower-pred-0/decode_bbox_target_3/Exp"}
}

%fused_computation.30 (param_0.87: f32[1,256,50,76], param_1.88: f32[256]) -> f32[1,256,50,76] {
  %param_0.87 = f32[1,256,50,76]{3,2,1,0} parameter(0)
  %param_1.88 = f32[256]{0} parameter(1)
  %broadcast.485 = f32[1,256,50,76]{3,2,1,0} broadcast(f32[256]{0} %param_1.88), dimensions={1}, metadata={op_type="BiasAdd" op_name="tower-pred-0/fpn/posthoc_3x3_p4/BiasAdd"}
  ROOT %add.188 = f32[1,256,50,76]{3,2,1,0} add(f32[1,256,50,76]{3,2,1,0} %param_0.87, f32[1,256,50,76]{3,2,1,0} %broadcast.485), metadata={op_type="BiasAdd" op_name="tower-pred-0/fpn/posthoc_3x3_p4/BiasAdd"}
}

%fused_computation.31 (param_0.89: f32[1,256,25,38], param_1.94: f32[1,256,50,76], param_2.57: f32[256]) -> f32[1,256,50,76] {
  %param_1.94 = f32[1,256,50,76]{3,2,1,0} parameter(1)
  %param_2.57 = f32[256]{0} parameter(2)
  %broadcast.487 = f32[1,256,50,76]{3,2,1,0} broadcast(f32[256]{0} %param_2.57), dimensions={1}, metadata={op_type="BiasAdd" op_name="tower-pred-0/fpn/lateral_1x1_c4/BiasAdd"}
  %add.190 = f32[1,256,50,76]{3,2,1,0} add(f32[1,256,50,76]{3,2,1,0} %param_1.94, f32[1,256,50,76]{3,2,1,0} %broadcast.487), metadata={op_type="BiasAdd" op_name="tower-pred-0/fpn/lateral_1x1_c4/BiasAdd"}
  %param_0.89 = f32[1,256,25,38]{3,2,1,0} parameter(0)
  %bitcast.61 = f32[243200]{0} bitcast(f32[1,256,25,38]{3,2,1,0} %param_0.89)
  %broadcast.486 = f32[243200,4]{1,0} broadcast(f32[243200]{0} %bitcast.61), dimensions={0}, metadata={op_type="MatMul" op_name="tower-pred-0/fpn/upsample_lat5/Tensordot/MatMul"}
  %reshape.31 = f32[1,256,25,38,2,2]{5,3,4,2,1,0} reshape(f32[243200,4]{1,0} %broadcast.486), metadata={op_type="Reshape" op_name="tower-pred-0/fpn/upsample_lat5/Tensordot"}
  %bitcast.60 = f32[1,256,50,76]{3,2,1,0} bitcast(f32[1,256,25,38,2,2]{5,3,4,2,1,0} %reshape.31), metadata={op_type="Reshape" op_name="tower-pred-0/fpn/upsample_lat5/Reshape"}
  ROOT %add.189 = f32[1,256,50,76]{3,2,1,0} add(f32[1,256,50,76]{3,2,1,0} %add.190, f32[1,256,50,76]{3,2,1,0} %bitcast.60), metadata={op_type="Add" op_name="tower-pred-0/fpn/add"}
}

%fused_computation.32 (param_0.90: f32[1,256,25,38], param_1.96: f32[256]) -> f32[1,256,25,38] {
  %param_0.90 = f32[1,256,25,38]{3,2,1,0} parameter(0)
  %param_1.96 = f32[256]{0} parameter(1)
  %broadcast.488 = f32[1,256,25,38]{3,2,1,0} broadcast(f32[256]{0} %param_1.96), dimensions={1}, metadata={op_type="BiasAdd" op_name="tower-pred-0/fpn/posthoc_3x3_p5/BiasAdd"}
  ROOT %add.191 = f32[1,256,25,38]{3,2,1,0} add(f32[1,256,25,38]{3,2,1,0} %param_0.90, f32[1,256,25,38]{3,2,1,0} %broadcast.488), metadata={op_type="BiasAdd" op_name="tower-pred-0/fpn/posthoc_3x3_p5/BiasAdd"}
}

%fused_computation.33 (param_0.91: f32[1,256,25,38], param_1.98: f32[256]) -> f32[1,256,25,38] {
  %param_0.91 = f32[1,256,25,38]{3,2,1,0} parameter(0)
  %param_1.98 = f32[256]{0} parameter(1)
  %broadcast.489 = f32[1,256,25,38]{3,2,1,0} broadcast(f32[256]{0} %param_1.98), dimensions={1}, metadata={op_type="BiasAdd" op_name="tower-pred-0/fpn/lateral_1x1_c5/BiasAdd"}
  ROOT %add.192 = f32[1,256,25,38]{3,2,1,0} add(f32[1,256,25,38]{3,2,1,0} %param_0.91, f32[1,256,25,38]{3,2,1,0} %broadcast.489), metadata={op_type="BiasAdd" op_name="tower-pred-0/fpn/lateral_1x1_c5/BiasAdd"}
}

%fused_computation.34 (param_0.264: f32[1,2048,25,38], param_1.306: f32[2048], param_2.260: f32[2048], param_3.306: f32[2048], param_4.263: f32[1,2048,25,38], param_5.204: f32[2048]) -> f32[1,2048,25,38] {
  %constant_211 = f32[] constant(0), metadata={op_type="Relu" op_name="tower-pred-0/conv0/Relu"}
  %broadcast.734 = f32[1,2048,25,38]{3,2,1,0} broadcast(f32[] %constant_211), dimensions={}, metadata={op_type="Relu" op_name="tower-pred-0/group3/block2/output"}
  %param_0.264 = f32[1,2048,25,38]{3,2,1,0} parameter(0)
  %param_4.263 = f32[1,2048,25,38]{3,2,1,0} parameter(4)
  %param_5.204 = f32[2048]{0} parameter(5)
  %broadcast.493 = f32[1,2048,25,38]{3,2,1,0} broadcast(f32[2048]{0} %param_5.204), dimensions={1}, metadata={op_type="FusedBatchNorm" op_name="tower-pred-0/group3/block2/conv3/bn/FusedBatchNorm"}
  %subtract.78 = f32[1,2048,25,38]{3,2,1,0} subtract(f32[1,2048,25,38]{3,2,1,0} %param_4.263, f32[1,2048,25,38]{3,2,1,0} %broadcast.493), metadata={op_type="FusedBatchNorm" op_name="tower-pred-0/group3/block2/conv3/bn/FusedBatchNorm"}
  %param_3.306 = f32[2048]{0} parameter(3)
  %broadcast.492 = f32[1,2048,25,38]{3,2,1,0} broadcast(f32[2048]{0} %param_3.306), dimensions={1}
  %multiply.130 = f32[1,2048,25,38]{3,2,1,0} multiply(f32[1,2048,25,38]{3,2,1,0} %subtract.78, f32[1,2048,25,38]{3,2,1,0} %broadcast.492), metadata={op_type="FusedBatchNorm" op_name="tower-pred-0/group3/block2/conv3/bn/FusedBatchNorm"}
  %param_2.260 = f32[2048]{0} parameter(2)
  %broadcast.491 = f32[1,2048,25,38]{3,2,1,0} broadcast(f32[2048]{0} %param_2.260), dimensions={1}, metadata={op_type="FusedBatchNorm" op_name="tower-pred-0/group3/block2/conv3/bn/FusedBatchNorm"}
  %multiply.129 = f32[1,2048,25,38]{3,2,1,0} multiply(f32[1,2048,25,38]{3,2,1,0} %multiply.130, f32[1,2048,25,38]{3,2,1,0} %broadcast.491), metadata={op_type="FusedBatchNorm" op_name="tower-pred-0/group3/block2/conv3/bn/FusedBatchNorm"}
  %param_1.306 = f32[2048]{0} parameter(1)
  %broadcast.490 = f32[1,2048,25,38]{3,2,1,0} broadcast(f32[2048]{0} %param_1.306), dimensions={1}, metadata={op_type="FusedBatchNorm" op_name="tower-pred-0/group3/block2/conv3/bn/FusedBatchNorm"}
  %add.194 = f32[1,2048,25,38]{3,2,1,0} add(f32[1,2048,25,38]{3,2,1,0} %multiply.129, f32[1,2048,25,38]{3,2,1,0} %broadcast.490), metadata={op_type="FusedBatchNorm" op_name="tower-pred-0/group3/block2/conv3/bn/FusedBatchNorm"}
  %add.193 = f32[1,2048,25,38]{3,2,1,0} add(f32[1,2048,25,38]{3,2,1,0} %param_0.264, f32[1,2048,25,38]{3,2,1,0} %add.194), metadata={op_type="Add" op_name="tower-pred-0/group3/block2/add"}
  ROOT %maximum.5 = f32[1,2048,25,38]{3,2,1,0} maximum(f32[1,2048,25,38]{3,2,1,0} %broadcast.734, f32[1,2048,25,38]{3,2,1,0} %add.193), metadata={op_type="Relu" op_name="tower-pred-0/group3/block2/output"}
}

%fused_computation.35 (param_0.94: f32[2048]) -> f32[2048] {
  %param_0.94 = f32[2048]{0} parameter(0)
  %constant_216 = f32[] constant(1.001e-05)
  %broadcast.739 = f32[2048]{0} broadcast(f32[] %constant_216), dimensions={}
  %add.195 = f32[2048]{0} add(f32[2048]{0} %param_0.94, f32[2048]{0} %broadcast.739), metadata={op_type="FusedBatchNorm" op_name="tower-pred-0/group3/block2/conv3/bn/FusedBatchNorm"}
  ROOT %rsqrt.106 = f32[2048]{0} rsqrt(f32[2048]{0} %add.195), metadata={op_type="FusedBatchNorm" op_name="tower-pred-0/group3/block2/conv3/bn/FusedBatchNorm"}
}

%fused_computation.36 (param_0.265: f32[512], param_1.307: f32[512], param_2.261: f32[512], param_3.307: f32[1,512,25,38], param_4.264: f32[512]) -> f32[1,512,25,38] {
  %constant_212 = f32[] constant(0), metadata={op_type="Relu" op_name="tower-pred-0/conv0/Relu"}
  %broadcast.735 = f32[1,512,25,38]{3,2,1,0} broadcast(f32[] %constant_212), dimensions={}, metadata={op_type="Relu" op_name="tower-pred-0/group3/block0/conv2/Relu"}
  %param_3.307 = f32[1,512,25,38]{3,2,1,0} parameter(3)
  %param_4.264 = f32[512]{0} parameter(4)
  %broadcast.497 = f32[1,512,25,38]{3,2,1,0} broadcast(f32[512]{0} %param_4.264), dimensions={1}, metadata={op_type="FusedBatchNorm" op_name="tower-pred-0/group3/block2/conv2/bn/FusedBatchNorm"}
  %subtract.79 = f32[1,512,25,38]{3,2,1,0} subtract(f32[1,512,25,38]{3,2,1,0} %param_3.307, f32[1,512,25,38]{3,2,1,0} %broadcast.497), metadata={op_type="FusedBatchNorm" op_name="tower-pred-0/group3/block2/conv2/bn/FusedBatchNorm"}
  %param_2.261 = f32[512]{0} parameter(2)
  %broadcast.496 = f32[1,512,25,38]{3,2,1,0} broadcast(f32[512]{0} %param_2.261), dimensions={1}
  %multiply.132 = f32[1,512,25,38]{3,2,1,0} multiply(f32[1,512,25,38]{3,2,1,0} %subtract.79, f32[1,512,25,38]{3,2,1,0} %broadcast.496), metadata={op_type="FusedBatchNorm" op_name="tower-pred-0/group3/block2/conv2/bn/FusedBatchNorm"}
  %param_1.307 = f32[512]{0} parameter(1)
  %broadcast.495 = f32[1,512,25,38]{3,2,1,0} broadcast(f32[512]{0} %param_1.307), dimensions={1}, metadata={op_type="FusedBatchNorm" op_name="tower-pred-0/group3/block2/conv2/bn/FusedBatchNorm"}
  %multiply.131 = f32[1,512,25,38]{3,2,1,0} multiply(f32[1,512,25,38]{3,2,1,0} %multiply.132, f32[1,512,25,38]{3,2,1,0} %broadcast.495), metadata={op_type="FusedBatchNorm" op_name="tower-pred-0/group3/block2/conv2/bn/FusedBatchNorm"}
  %param_0.265 = f32[512]{0} parameter(0)
  %broadcast.494 = f32[1,512,25,38]{3,2,1,0} broadcast(f32[512]{0} %param_0.265), dimensions={1}, metadata={op_type="FusedBatchNorm" op_name="tower-pred-0/group3/block2/conv2/bn/FusedBatchNorm"}
  %add.196 = f32[1,512,25,38]{3,2,1,0} add(f32[1,512,25,38]{3,2,1,0} %multiply.131, f32[1,512,25,38]{3,2,1,0} %broadcast.494), metadata={op_type="FusedBatchNorm" op_name="tower-pred-0/group3/block2/conv2/bn/FusedBatchNorm"}
  ROOT %maximum.6 = f32[1,512,25,38]{3,2,1,0} maximum(f32[1,512,25,38]{3,2,1,0} %broadcast.735, f32[1,512,25,38]{3,2,1,0} %add.196), metadata={op_type="Relu" op_name="tower-pred-0/group3/block2/conv2/Relu"}
}

%fused_computation.37 (param_0.97: f32[512]) -> f32[512] {
  %param_0.97 = f32[512]{0} parameter(0)
  %constant_215 = f32[] constant(1.001e-05)
  %broadcast.738 = f32[512]{0} broadcast(f32[] %constant_215), dimensions={}
  %add.197 = f32[512]{0} add(f32[512]{0} %param_0.97, f32[512]{0} %broadcast.738), metadata={op_type="FusedBatchNorm" op_name="tower-pred-0/group3/block2/conv2/bn/FusedBatchNorm"}
  ROOT %rsqrt.107 = f32[512]{0} rsqrt(f32[512]{0} %add.197), metadata={op_type="FusedBatchNorm" op_name="tower-pred-0/group3/block2/conv2/bn/FusedBatchNorm"}
}

%fused_computation.38 (param_0.266: f32[512], param_1.308: f32[512], param_2.262: f32[512], param_3.308: f32[1,512,25,38], param_4.265: f32[512]) -> f32[1,512,25,38] {
  %constant_213 = f32[] constant(0), metadata={op_type="Relu" op_name="tower-pred-0/conv0/Relu"}
  %broadcast.736 = f32[1,512,25,38]{3,2,1,0} broadcast(f32[] %constant_213), dimensions={}, metadata={op_type="Relu" op_name="tower-pred-0/group3/block0/conv2/Relu"}
  %param_3.308 = f32[1,512,25,38]{3,2,1,0} parameter(3)
  %param_4.265 = f32[512]{0} parameter(4)
  %broadcast.501 = f32[1,512,25,38]{3,2,1,0} broadcast(f32[512]{0} %param_4.265), dimensions={1}, metadata={op_type="FusedBatchNorm" op_name="tower-pred-0/group3/block2/conv1/bn/FusedBatchNorm"}
  %subtract.80 = f32[1,512,25,38]{3,2,1,0} subtract(f32[1,512,25,38]{3,2,1,0} %param_3.308, f32[1,512,25,38]{3,2,1,0} %broadcast.501), metadata={op_type="FusedBatchNorm" op_name="tower-pred-0/group3/block2/conv1/bn/FusedBatchNorm"}
  %param_2.262 = f32[512]{0} parameter(2)
  %broadcast.500 = f32[1,512,25,38]{3,2,1,0} broadcast(f32[512]{0} %param_2.262), dimensions={1}
  %multiply.134 = f32[1,512,25,38]{3,2,1,0} multiply(f32[1,512,25,38]{3,2,1,0} %subtract.80, f32[1,512,25,38]{3,2,1,0} %broadcast.500), metadata={op_type="FusedBatchNorm" op_name="tower-pred-0/group3/block2/conv1/bn/FusedBatchNorm"}
  %param_1.308 = f32[512]{0} parameter(1)
  %broadcast.499 = f32[1,512,25,38]{3,2,1,0} broadcast(f32[512]{0} %param_1.308), dimensions={1}, metadata={op_type="FusedBatchNorm" op_name="tower-pred-0/group3/block2/conv1/bn/FusedBatchNorm"}
  %multiply.133 = f32[1,512,25,38]{3,2,1,0} multiply(f32[1,512,25,38]{3,2,1,0} %multiply.134, f32[1,512,25,38]{3,2,1,0} %broadcast.499), metadata={op_type="FusedBatchNorm" op_name="tower-pred-0/group3/block2/conv1/bn/FusedBatchNorm"}
  %param_0.266 = f32[512]{0} parameter(0)
  %broadcast.498 = f32[1,512,25,38]{3,2,1,0} broadcast(f32[512]{0} %param_0.266), dimensions={1}, metadata={op_type="FusedBatchNorm" op_name="tower-pred-0/group3/block2/conv1/bn/FusedBatchNorm"}
  %add.198 = f32[1,512,25,38]{3,2,1,0} add(f32[1,512,25,38]{3,2,1,0} %multiply.133, f32[1,512,25,38]{3,2,1,0} %broadcast.498), metadata={op_type="FusedBatchNorm" op_name="tower-pred-0/group3/block2/conv1/bn/FusedBatchNorm"}
  ROOT %maximum.7 = f32[1,512,25,38]{3,2,1,0} maximum(f32[1,512,25,38]{3,2,1,0} %broadcast.736, f32[1,512,25,38]{3,2,1,0} %add.198), metadata={op_type="Relu" op_name="tower-pred-0/group3/block2/conv1/Relu"}
}

%fused_computation.39 (param_0.100: f32[512]) -> f32[512] {
  %param_0.100 = f32[512]{0} parameter(0)
  %constant_214 = f32[] constant(1.001e-05)
  %broadcast.737 = f32[512]{0} broadcast(f32[] %constant_214), dimensions={}
  %add.199 = f32[512]{0} add(f32[512]{0} %param_0.100, f32[512]{0} %broadcast.737), metadata={op_type="FusedBatchNorm" op_name="tower-pred-0/group3/block2/conv1/bn/FusedBatchNorm"}
  ROOT %rsqrt.108 = f32[512]{0} rsqrt(f32[512]{0} %add.199), metadata={op_type="FusedBatchNorm" op_name="tower-pred-0/group3/block2/conv1/bn/FusedBatchNorm"}
}

%fused_computation.40 (param_0.267: f32[1,2048,25,38], param_1.312: f32[2048], param_2.263: f32[2048], param_3.309: f32[2048], param_4.266: f32[1,2048,25,38], param_5.207: f32[2048]) -> f32[1,2048,25,38] {
  %constant_217 = f32[] constant(0), metadata={op_type="Relu" op_name="tower-pred-0/conv0/Relu"}
  %broadcast.740 = f32[1,2048,25,38]{3,2,1,0} broadcast(f32[] %constant_217), dimensions={}, metadata={op_type="Relu" op_name="tower-pred-0/group3/block2/output"}
  %param_0.267 = f32[1,2048,25,38]{3,2,1,0} parameter(0)
  %param_4.266 = f32[1,2048,25,38]{3,2,1,0} parameter(4)
  %param_5.207 = f32[2048]{0} parameter(5)
  %broadcast.505 = f32[1,2048,25,38]{3,2,1,0} broadcast(f32[2048]{0} %param_5.207), dimensions={1}, metadata={op_type="FusedBatchNorm" op_name="tower-pred-0/group3/block1/conv3/bn/FusedBatchNorm"}
  %subtract.81 = f32[1,2048,25,38]{3,2,1,0} subtract(f32[1,2048,25,38]{3,2,1,0} %param_4.266, f32[1,2048,25,38]{3,2,1,0} %broadcast.505), metadata={op_type="FusedBatchNorm" op_name="tower-pred-0/group3/block1/conv3/bn/FusedBatchNorm"}
  %param_3.309 = f32[2048]{0} parameter(3)
  %broadcast.504 = f32[1,2048,25,38]{3,2,1,0} broadcast(f32[2048]{0} %param_3.309), dimensions={1}
  %multiply.136 = f32[1,2048,25,38]{3,2,1,0} multiply(f32[1,2048,25,38]{3,2,1,0} %subtract.81, f32[1,2048,25,38]{3,2,1,0} %broadcast.504), metadata={op_type="FusedBatchNorm" op_name="tower-pred-0/group3/block1/conv3/bn/FusedBatchNorm"}
  %param_2.263 = f32[2048]{0} parameter(2)
  %broadcast.503 = f32[1,2048,25,38]{3,2,1,0} broadcast(f32[2048]{0} %param_2.263), dimensions={1}, metadata={op_type="FusedBatchNorm" op_name="tower-pred-0/group3/block1/conv3/bn/FusedBatchNorm"}
  %multiply.135 = f32[1,2048,25,38]{3,2,1,0} multiply(f32[1,2048,25,38]{3,2,1,0} %multiply.136, f32[1,2048,25,38]{3,2,1,0} %broadcast.503), metadata={op_type="FusedBatchNorm" op_name="tower-pred-0/group3/block1/conv3/bn/FusedBatchNorm"}
  %param_1.312 = f32[2048]{0} parameter(1)
  %broadcast.502 = f32[1,2048,25,38]{3,2,1,0} broadcast(f32[2048]{0} %param_1.312), dimensions={1}, metadata={op_type="FusedBatchNorm" op_name="tower-pred-0/group3/block1/conv3/bn/FusedBatchNorm"}
  %add.201 = f32[1,2048,25,38]{3,2,1,0} add(f32[1,2048,25,38]{3,2,1,0} %multiply.135, f32[1,2048,25,38]{3,2,1,0} %broadcast.502), metadata={op_type="FusedBatchNorm" op_name="tower-pred-0/group3/block1/conv3/bn/FusedBatchNorm"}
  %add.200 = f32[1,2048,25,38]{3,2,1,0} add(f32[1,2048,25,38]{3,2,1,0} %param_0.267, f32[1,2048,25,38]{3,2,1,0} %add.201), metadata={op_type="Add" op_name="tower-pred-0/group3/block1/add"}
  ROOT %maximum.8 = f32[1,2048,25,38]{3,2,1,0} maximum(f32[1,2048,25,38]{3,2,1,0} %broadcast.740, f32[1,2048,25,38]{3,2,1,0} %add.200), metadata={op_type="Relu" op_name="tower-pred-0/group3/block1/output"}
}

%fused_computation.41 (param_0.103: f32[2048]) -> f32[2048] {
  %param_0.103 = f32[2048]{0} parameter(0)
  %constant_222 = f32[] constant(1.001e-05)
  %broadcast.746 = f32[2048]{0} broadcast(f32[] %constant_222), dimensions={}
  %add.202 = f32[2048]{0} add(f32[2048]{0} %param_0.103, f32[2048]{0} %broadcast.746), metadata={op_type="FusedBatchNorm" op_name="tower-pred-0/group3/block1/conv3/bn/FusedBatchNorm"}
  ROOT %rsqrt.109 = f32[2048]{0} rsqrt(f32[2048]{0} %add.202), metadata={op_type="FusedBatchNorm" op_name="tower-pred-0/group3/block1/conv3/bn/FusedBatchNorm"}
}

%fused_computation.42 (param_0.268: f32[512], param_1.313: f32[512], param_2.264: f32[512], param_3.310: f32[1,512,25,38], param_4.267: f32[512]) -> f32[1,512,25,38] {
  %constant_218 = f32[] constant(0), metadata={op_type="Relu" op_name="tower-pred-0/conv0/Relu"}
  %broadcast.741 = f32[1,512,25,38]{3,2,1,0} broadcast(f32[] %constant_218), dimensions={}, metadata={op_type="Relu" op_name="tower-pred-0/group3/block0/conv2/Relu"}
  %param_3.310 = f32[1,512,25,38]{3,2,1,0} parameter(3)
  %param_4.267 = f32[512]{0} parameter(4)
  %broadcast.509 = f32[1,512,25,38]{3,2,1,0} broadcast(f32[512]{0} %param_4.267), dimensions={1}, metadata={op_type="FusedBatchNorm" op_name="tower-pred-0/group3/block1/conv2/bn/FusedBatchNorm"}
  %subtract.82 = f32[1,512,25,38]{3,2,1,0} subtract(f32[1,512,25,38]{3,2,1,0} %param_3.310, f32[1,512,25,38]{3,2,1,0} %broadcast.509), metadata={op_type="FusedBatchNorm" op_name="tower-pred-0/group3/block1/conv2/bn/FusedBatchNorm"}
  %param_2.264 = f32[512]{0} parameter(2)
  %broadcast.508 = f32[1,512,25,38]{3,2,1,0} broadcast(f32[512]{0} %param_2.264), dimensions={1}
  %multiply.138 = f32[1,512,25,38]{3,2,1,0} multiply(f32[1,512,25,38]{3,2,1,0} %subtract.82, f32[1,512,25,38]{3,2,1,0} %broadcast.508), metadata={op_type="FusedBatchNorm" op_name="tower-pred-0/group3/block1/conv2/bn/FusedBatchNorm"}
  %param_1.313 = f32[512]{0} parameter(1)
  %broadcast.507 = f32[1,512,25,38]{3,2,1,0} broadcast(f32[512]{0} %param_1.313), dimensions={1}, metadata={op_type="FusedBatchNorm" op_name="tower-pred-0/group3/block1/conv2/bn/FusedBatchNorm"}
  %multiply.137 = f32[1,512,25,38]{3,2,1,0} multiply(f32[1,512,25,38]{3,2,1,0} %multiply.138, f32[1,512,25,38]{3,2,1,0} %broadcast.507), metadata={op_type="FusedBatchNorm" op_name="tower-pred-0/group3/block1/conv2/bn/FusedBatchNorm"}
  %param_0.268 = f32[512]{0} parameter(0)
  %broadcast.506 = f32[1,512,25,38]{3,2,1,0} broadcast(f32[512]{0} %param_0.268), dimensions={1}, metadata={op_type="FusedBatchNorm" op_name="tower-pred-0/group3/block1/conv2/bn/FusedBatchNorm"}
  %add.203 = f32[1,512,25,38]{3,2,1,0} add(f32[1,512,25,38]{3,2,1,0} %multiply.137, f32[1,512,25,38]{3,2,1,0} %broadcast.506), metadata={op_type="FusedBatchNorm" op_name="tower-pred-0/group3/block1/conv2/bn/FusedBatchNorm"}
  ROOT %maximum.9 = f32[1,512,25,38]{3,2,1,0} maximum(f32[1,512,25,38]{3,2,1,0} %broadcast.741, f32[1,512,25,38]{3,2,1,0} %add.203), metadata={op_type="Relu" op_name="tower-pred-0/group3/block1/conv2/Relu"}
}

%fused_computation.43 (param_0.106: f32[512]) -> f32[512] {
  %param_0.106 = f32[512]{0} parameter(0)
  %constant_221 = f32[] constant(1.001e-05)
  %broadcast.745 = f32[512]{0} broadcast(f32[] %constant_221), dimensions={}
  %add.204 = f32[512]{0} add(f32[512]{0} %param_0.106, f32[512]{0} %broadcast.745), metadata={op_type="FusedBatchNorm" op_name="tower-pred-0/group3/block1/conv2/bn/FusedBatchNorm"}
  ROOT %rsqrt.110 = f32[512]{0} rsqrt(f32[512]{0} %add.204), metadata={op_type="FusedBatchNorm" op_name="tower-pred-0/group3/block1/conv2/bn/FusedBatchNorm"}
}

%fused_computation.44 (param_0.269: f32[512], param_1.314: f32[512], param_2.265: f32[512], param_3.311: f32[1,512,25,38], param_4.268: f32[512]) -> f32[1,512,25,38] {
  %constant_219 = f32[] constant(0), metadata={op_type="Relu" op_name="tower-pred-0/conv0/Relu"}
  %broadcast.743 = f32[1,512,25,38]{3,2,1,0} broadcast(f32[] %constant_219), dimensions={}, metadata={op_type="Relu" op_name="tower-pred-0/group3/block0/conv2/Relu"}
  %param_3.311 = f32[1,512,25,38]{3,2,1,0} parameter(3)
  %param_4.268 = f32[512]{0} parameter(4)
  %broadcast.513 = f32[1,512,25,38]{3,2,1,0} broadcast(f32[512]{0} %param_4.268), dimensions={1}, metadata={op_type="FusedBatchNorm" op_name="tower-pred-0/group3/block1/conv1/bn/FusedBatchNorm"}
  %subtract.83 = f32[1,512,25,38]{3,2,1,0} subtract(f32[1,512,25,38]{3,2,1,0} %param_3.311, f32[1,512,25,38]{3,2,1,0} %broadcast.513), metadata={op_type="FusedBatchNorm" op_name="tower-pred-0/group3/block1/conv1/bn/FusedBatchNorm"}
  %param_2.265 = f32[512]{0} parameter(2)
  %broadcast.512 = f32[1,512,25,38]{3,2,1,0} broadcast(f32[512]{0} %param_2.265), dimensions={1}
  %multiply.140 = f32[1,512,25,38]{3,2,1,0} multiply(f32[1,512,25,38]{3,2,1,0} %subtract.83, f32[1,512,25,38]{3,2,1,0} %broadcast.512), metadata={op_type="FusedBatchNorm" op_name="tower-pred-0/group3/block1/conv1/bn/FusedBatchNorm"}
  %param_1.314 = f32[512]{0} parameter(1)
  %broadcast.511 = f32[1,512,25,38]{3,2,1,0} broadcast(f32[512]{0} %param_1.314), dimensions={1}, metadata={op_type="FusedBatchNorm" op_name="tower-pred-0/group3/block1/conv1/bn/FusedBatchNorm"}
  %multiply.139 = f32[1,512,25,38]{3,2,1,0} multiply(f32[1,512,25,38]{3,2,1,0} %multiply.140, f32[1,512,25,38]{3,2,1,0} %broadcast.511), metadata={op_type="FusedBatchNorm" op_name="tower-pred-0/group3/block1/conv1/bn/FusedBatchNorm"}
  %param_0.269 = f32[512]{0} parameter(0)
  %broadcast.510 = f32[1,512,25,38]{3,2,1,0} broadcast(f32[512]{0} %param_0.269), dimensions={1}, metadata={op_type="FusedBatchNorm" op_name="tower-pred-0/group3/block1/conv1/bn/FusedBatchNorm"}
  %add.205 = f32[1,512,25,38]{3,2,1,0} add(f32[1,512,25,38]{3,2,1,0} %multiply.139, f32[1,512,25,38]{3,2,1,0} %broadcast.510), metadata={op_type="FusedBatchNorm" op_name="tower-pred-0/group3/block1/conv1/bn/FusedBatchNorm"}
  ROOT %maximum.10 = f32[1,512,25,38]{3,2,1,0} maximum(f32[1,512,25,38]{3,2,1,0} %broadcast.743, f32[1,512,25,38]{3,2,1,0} %add.205), metadata={op_type="Relu" op_name="tower-pred-0/group3/block1/conv1/Relu"}
}

%fused_computation.45 (param_0.109: f32[512]) -> f32[512] {
  %param_0.109 = f32[512]{0} parameter(0)
  %constant_220 = f32[] constant(1.001e-05)
  %broadcast.744 = f32[512]{0} broadcast(f32[] %constant_220), dimensions={}
  %add.206 = f32[512]{0} add(f32[512]{0} %param_0.109, f32[512]{0} %broadcast.744), metadata={op_type="FusedBatchNorm" op_name="tower-pred-0/group3/block1/conv1/bn/FusedBatchNorm"}
  ROOT %rsqrt.111 = f32[512]{0} rsqrt(f32[512]{0} %add.206), metadata={op_type="FusedBatchNorm" op_name="tower-pred-0/group3/block1/conv1/bn/FusedBatchNorm"}
}

%fused_computation.46 (param_0.270: f32[2048], param_1.318: f32[2048], param_2.266: f32[2048], param_3.312: f32[1,2048,25,38], param_4.269: f32[2048], param_5.210: f32[2048], param_6.108: f32[2048], param_7.61: f32[2048], param_8.16: f32[1,2048,25,38], param_9.12: f32[2048]) -> f32[1,2048,25,38] {
  %constant_223 = f32[] constant(0), metadata={op_type="Relu" op_name="tower-pred-0/conv0/Relu"}
  %broadcast.747 = f32[1,2048,25,38]{3,2,1,0} broadcast(f32[] %constant_223), dimensions={}, metadata={op_type="Relu" op_name="tower-pred-0/group3/block2/output"}
  %param_8.16 = f32[1,2048,25,38]{3,2,1,0} parameter(8)
  %param_9.12 = f32[2048]{0} parameter(9)
  %broadcast.521 = f32[1,2048,25,38]{3,2,1,0} broadcast(f32[2048]{0} %param_9.12), dimensions={1}, metadata={op_type="FusedBatchNorm" op_name="tower-pred-0/group3/block0/conv3/bn/FusedBatchNorm"}
  %subtract.85 = f32[1,2048,25,38]{3,2,1,0} subtract(f32[1,2048,25,38]{3,2,1,0} %param_8.16, f32[1,2048,25,38]{3,2,1,0} %broadcast.521), metadata={op_type="FusedBatchNorm" op_name="tower-pred-0/group3/block0/conv3/bn/FusedBatchNorm"}
  %param_7.61 = f32[2048]{0} parameter(7)
  %broadcast.520 = f32[1,2048,25,38]{3,2,1,0} broadcast(f32[2048]{0} %param_7.61), dimensions={1}
  %multiply.144 = f32[1,2048,25,38]{3,2,1,0} multiply(f32[1,2048,25,38]{3,2,1,0} %subtract.85, f32[1,2048,25,38]{3,2,1,0} %broadcast.520), metadata={op_type="FusedBatchNorm" op_name="tower-pred-0/group3/block0/conv3/bn/FusedBatchNorm"}
  %param_6.108 = f32[2048]{0} parameter(6)
  %broadcast.519 = f32[1,2048,25,38]{3,2,1,0} broadcast(f32[2048]{0} %param_6.108), dimensions={1}, metadata={op_type="FusedBatchNorm" op_name="tower-pred-0/group3/block0/conv3/bn/FusedBatchNorm"}
  %multiply.143 = f32[1,2048,25,38]{3,2,1,0} multiply(f32[1,2048,25,38]{3,2,1,0} %multiply.144, f32[1,2048,25,38]{3,2,1,0} %broadcast.519), metadata={op_type="FusedBatchNorm" op_name="tower-pred-0/group3/block0/conv3/bn/FusedBatchNorm"}
  %param_5.210 = f32[2048]{0} parameter(5)
  %broadcast.518 = f32[1,2048,25,38]{3,2,1,0} broadcast(f32[2048]{0} %param_5.210), dimensions={1}, metadata={op_type="FusedBatchNorm" op_name="tower-pred-0/group3/block0/conv3/bn/FusedBatchNorm"}
  %add.209 = f32[1,2048,25,38]{3,2,1,0} add(f32[1,2048,25,38]{3,2,1,0} %multiply.143, f32[1,2048,25,38]{3,2,1,0} %broadcast.518), metadata={op_type="FusedBatchNorm" op_name="tower-pred-0/group3/block0/conv3/bn/FusedBatchNorm"}
  %param_3.312 = f32[1,2048,25,38]{3,2,1,0} parameter(3)
  %param_4.269 = f32[2048]{0} parameter(4)
  %broadcast.517 = f32[1,2048,25,38]{3,2,1,0} broadcast(f32[2048]{0} %param_4.269), dimensions={1}, metadata={op_type="FusedBatchNorm" op_name="tower-pred-0/group3/block0/convshortcut/bn/FusedBatchNorm"}
  %subtract.84 = f32[1,2048,25,38]{3,2,1,0} subtract(f32[1,2048,25,38]{3,2,1,0} %param_3.312, f32[1,2048,25,38]{3,2,1,0} %broadcast.517), metadata={op_type="FusedBatchNorm" op_name="tower-pred-0/group3/block0/convshortcut/bn/FusedBatchNorm"}
  %param_2.266 = f32[2048]{0} parameter(2)
  %broadcast.516 = f32[1,2048,25,38]{3,2,1,0} broadcast(f32[2048]{0} %param_2.266), dimensions={1}
  %multiply.142 = f32[1,2048,25,38]{3,2,1,0} multiply(f32[1,2048,25,38]{3,2,1,0} %subtract.84, f32[1,2048,25,38]{3,2,1,0} %broadcast.516), metadata={op_type="FusedBatchNorm" op_name="tower-pred-0/group3/block0/convshortcut/bn/FusedBatchNorm"}
  %param_1.318 = f32[2048]{0} parameter(1)
  %broadcast.515 = f32[1,2048,25,38]{3,2,1,0} broadcast(f32[2048]{0} %param_1.318), dimensions={1}, metadata={op_type="FusedBatchNorm" op_name="tower-pred-0/group3/block0/convshortcut/bn/FusedBatchNorm"}
  %multiply.141 = f32[1,2048,25,38]{3,2,1,0} multiply(f32[1,2048,25,38]{3,2,1,0} %multiply.142, f32[1,2048,25,38]{3,2,1,0} %broadcast.515), metadata={op_type="FusedBatchNorm" op_name="tower-pred-0/group3/block0/convshortcut/bn/FusedBatchNorm"}
  %param_0.270 = f32[2048]{0} parameter(0)
  %broadcast.514 = f32[1,2048,25,38]{3,2,1,0} broadcast(f32[2048]{0} %param_0.270), dimensions={1}, metadata={op_type="FusedBatchNorm" op_name="tower-pred-0/group3/block0/convshortcut/bn/FusedBatchNorm"}
  %add.208 = f32[1,2048,25,38]{3,2,1,0} add(f32[1,2048,25,38]{3,2,1,0} %multiply.141, f32[1,2048,25,38]{3,2,1,0} %broadcast.514), metadata={op_type="FusedBatchNorm" op_name="tower-pred-0/group3/block0/convshortcut/bn/FusedBatchNorm"}
  %add.207 = f32[1,2048,25,38]{3,2,1,0} add(f32[1,2048,25,38]{3,2,1,0} %add.209, f32[1,2048,25,38]{3,2,1,0} %add.208), metadata={op_type="Add" op_name="tower-pred-0/group3/block0/add"}
  ROOT %maximum.11 = f32[1,2048,25,38]{3,2,1,0} maximum(f32[1,2048,25,38]{3,2,1,0} %broadcast.747, f32[1,2048,25,38]{3,2,1,0} %add.207), metadata={op_type="Relu" op_name="tower-pred-0/group3/block0/output"}
}

%fused_computation.47 (param_0.112: f32[2048]) -> f32[2048] {
  %param_0.112 = f32[2048]{0} parameter(0)
  %constant_308 = f32[] constant(1.001e-05)
  %broadcast.845 = f32[2048]{0} broadcast(f32[] %constant_308), dimensions={}
  %add.210 = f32[2048]{0} add(f32[2048]{0} %param_0.112, f32[2048]{0} %broadcast.845), metadata={op_type="FusedBatchNorm" op_name="tower-pred-0/group3/block0/convshortcut/bn/FusedBatchNorm"}
  ROOT %rsqrt.112 = f32[2048]{0} rsqrt(f32[2048]{0} %add.210), metadata={op_type="FusedBatchNorm" op_name="tower-pred-0/group3/block0/convshortcut/bn/FusedBatchNorm"}
}

%fused_computation.48 (param_0.114: f32[2048]) -> f32[2048] {
  %param_0.114 = f32[2048]{0} parameter(0)
  %constant_227 = f32[] constant(1.001e-05)
  %broadcast.752 = f32[2048]{0} broadcast(f32[] %constant_227), dimensions={}
  %add.211 = f32[2048]{0} add(f32[2048]{0} %param_0.114, f32[2048]{0} %broadcast.752), metadata={op_type="FusedBatchNorm" op_name="tower-pred-0/group3/block0/conv3/bn/FusedBatchNorm"}
  ROOT %rsqrt.113 = f32[2048]{0} rsqrt(f32[2048]{0} %add.211), metadata={op_type="FusedBatchNorm" op_name="tower-pred-0/group3/block0/conv3/bn/FusedBatchNorm"}
}

%fused_computation.49 (param_0.271: f32[512], param_1.319: f32[512], param_2.267: f32[512], param_3.313: f32[1,512,25,38], param_4.270: f32[512]) -> f32[1,512,25,38] {
  %constant_224 = f32[] constant(0), metadata={op_type="Relu" op_name="tower-pred-0/conv0/Relu"}
  %broadcast.748 = f32[1,512,25,38]{3,2,1,0} broadcast(f32[] %constant_224), dimensions={}, metadata={op_type="Relu" op_name="tower-pred-0/group3/block0/conv2/Relu"}
  %param_3.313 = f32[1,512,25,38]{3,2,1,0} parameter(3)
  %param_4.270 = f32[512]{0} parameter(4)
  %broadcast.525 = f32[1,512,25,38]{3,2,1,0} broadcast(f32[512]{0} %param_4.270), dimensions={1}, metadata={op_type="FusedBatchNorm" op_name="tower-pred-0/group3/block0/conv2/bn/FusedBatchNorm"}
  %subtract.86 = f32[1,512,25,38]{3,2,1,0} subtract(f32[1,512,25,38]{3,2,1,0} %param_3.313, f32[1,512,25,38]{3,2,1,0} %broadcast.525), metadata={op_type="FusedBatchNorm" op_name="tower-pred-0/group3/block0/conv2/bn/FusedBatchNorm"}
  %param_2.267 = f32[512]{0} parameter(2)
  %broadcast.524 = f32[1,512,25,38]{3,2,1,0} broadcast(f32[512]{0} %param_2.267), dimensions={1}
  %multiply.146 = f32[1,512,25,38]{3,2,1,0} multiply(f32[1,512,25,38]{3,2,1,0} %subtract.86, f32[1,512,25,38]{3,2,1,0} %broadcast.524), metadata={op_type="FusedBatchNorm" op_name="tower-pred-0/group3/block0/conv2/bn/FusedBatchNorm"}
  %param_1.319 = f32[512]{0} parameter(1)
  %broadcast.523 = f32[1,512,25,38]{3,2,1,0} broadcast(f32[512]{0} %param_1.319), dimensions={1}, metadata={op_type="FusedBatchNorm" op_name="tower-pred-0/group3/block0/conv2/bn/FusedBatchNorm"}
  %multiply.145 = f32[1,512,25,38]{3,2,1,0} multiply(f32[1,512,25,38]{3,2,1,0} %multiply.146, f32[1,512,25,38]{3,2,1,0} %broadcast.523), metadata={op_type="FusedBatchNorm" op_name="tower-pred-0/group3/block0/conv2/bn/FusedBatchNorm"}
  %param_0.271 = f32[512]{0} parameter(0)
  %broadcast.522 = f32[1,512,25,38]{3,2,1,0} broadcast(f32[512]{0} %param_0.271), dimensions={1}, metadata={op_type="FusedBatchNorm" op_name="tower-pred-0/group3/block0/conv2/bn/FusedBatchNorm"}
  %add.212 = f32[1,512,25,38]{3,2,1,0} add(f32[1,512,25,38]{3,2,1,0} %multiply.145, f32[1,512,25,38]{3,2,1,0} %broadcast.522), metadata={op_type="FusedBatchNorm" op_name="tower-pred-0/group3/block0/conv2/bn/FusedBatchNorm"}
  ROOT %maximum.12 = f32[1,512,25,38]{3,2,1,0} maximum(f32[1,512,25,38]{3,2,1,0} %broadcast.748, f32[1,512,25,38]{3,2,1,0} %add.212), metadata={op_type="Relu" op_name="tower-pred-0/group3/block0/conv2/Relu"}
}

%fused_computation.50 (param_0.117: f32[512]) -> f32[512] {
  %param_0.117 = f32[512]{0} parameter(0)
  %constant_226 = f32[] constant(1.001e-05)
  %broadcast.751 = f32[512]{0} broadcast(f32[] %constant_226), dimensions={}
  %add.213 = f32[512]{0} add(f32[512]{0} %param_0.117, f32[512]{0} %broadcast.751), metadata={op_type="FusedBatchNorm" op_name="tower-pred-0/group3/block0/conv2/bn/FusedBatchNorm"}
  ROOT %rsqrt.114 = f32[512]{0} rsqrt(f32[512]{0} %add.213), metadata={op_type="FusedBatchNorm" op_name="tower-pred-0/group3/block0/conv2/bn/FusedBatchNorm"}
}

%fused_computation.51 (param_0.120: f32[512], param_1.133: f32[512], param_2.92: f32[512], param_3.123: f32[1,512,50,76], param_4.109: f32[512]) -> f32[1,512,51,77] {
  %constant_201 = f32[] constant(0), metadata={op_type="Relu" op_name="tower-pred-0/conv0/Relu"}
  %broadcast.530 = f32[1,512,50,76]{3,2,1,0} broadcast(f32[] %constant_201), dimensions={}, metadata={op_type="Relu" op_name="tower-pred-0/group3/block0/conv1/Relu"}
  %param_3.123 = f32[1,512,50,76]{3,2,1,0} parameter(3)
  %param_4.109 = f32[512]{0} parameter(4)
  %broadcast.529 = f32[1,512,50,76]{3,2,1,0} broadcast(f32[512]{0} %param_4.109), dimensions={1}, metadata={op_type="FusedBatchNorm" op_name="tower-pred-0/group3/block0/conv1/bn/FusedBatchNorm"}
  %subtract.87 = f32[1,512,50,76]{3,2,1,0} subtract(f32[1,512,50,76]{3,2,1,0} %param_3.123, f32[1,512,50,76]{3,2,1,0} %broadcast.529), metadata={op_type="FusedBatchNorm" op_name="tower-pred-0/group3/block0/conv1/bn/FusedBatchNorm"}
  %param_2.92 = f32[512]{0} parameter(2)
  %broadcast.528 = f32[1,512,50,76]{3,2,1,0} broadcast(f32[512]{0} %param_2.92), dimensions={1}
  %multiply.148 = f32[1,512,50,76]{3,2,1,0} multiply(f32[1,512,50,76]{3,2,1,0} %subtract.87, f32[1,512,50,76]{3,2,1,0} %broadcast.528), metadata={op_type="FusedBatchNorm" op_name="tower-pred-0/group3/block0/conv1/bn/FusedBatchNorm"}
  %param_1.133 = f32[512]{0} parameter(1)
  %broadcast.527 = f32[1,512,50,76]{3,2,1,0} broadcast(f32[512]{0} %param_1.133), dimensions={1}, metadata={op_type="FusedBatchNorm" op_name="tower-pred-0/group3/block0/conv1/bn/FusedBatchNorm"}
  %multiply.147 = f32[1,512,50,76]{3,2,1,0} multiply(f32[1,512,50,76]{3,2,1,0} %multiply.148, f32[1,512,50,76]{3,2,1,0} %broadcast.527), metadata={op_type="FusedBatchNorm" op_name="tower-pred-0/group3/block0/conv1/bn/FusedBatchNorm"}
  %param_0.120 = f32[512]{0} parameter(0)
  %broadcast.526 = f32[1,512,50,76]{3,2,1,0} broadcast(f32[512]{0} %param_0.120), dimensions={1}, metadata={op_type="FusedBatchNorm" op_name="tower-pred-0/group3/block0/conv1/bn/FusedBatchNorm"}
  %add.214 = f32[1,512,50,76]{3,2,1,0} add(f32[1,512,50,76]{3,2,1,0} %multiply.147, f32[1,512,50,76]{3,2,1,0} %broadcast.526), metadata={op_type="FusedBatchNorm" op_name="tower-pred-0/group3/block0/conv1/bn/FusedBatchNorm"}
  %maximum.13 = f32[1,512,50,76]{3,2,1,0} maximum(f32[1,512,50,76]{3,2,1,0} %broadcast.530, f32[1,512,50,76]{3,2,1,0} %add.214), metadata={op_type="Relu" op_name="tower-pred-0/group3/block0/conv1/Relu"}
  ROOT %pad.12 = f32[1,512,51,77]{3,2,1,0} pad(f32[1,512,50,76]{3,2,1,0} %maximum.13, f32[] %constant_201), padding=0_0x0_0x1_0x1_0
}

%fused_computation.52 (param_0.122: f32[512]) -> f32[512] {
  %param_0.122 = f32[512]{0} parameter(0)
  %constant_225 = f32[] constant(1.001e-05)
  %broadcast.750 = f32[512]{0} broadcast(f32[] %constant_225), dimensions={}
  %add.215 = f32[512]{0} add(f32[512]{0} %param_0.122, f32[512]{0} %broadcast.750), metadata={op_type="FusedBatchNorm" op_name="tower-pred-0/group3/block0/conv1/bn/FusedBatchNorm"}
  ROOT %rsqrt.115 = f32[512]{0} rsqrt(f32[512]{0} %add.215), metadata={op_type="FusedBatchNorm" op_name="tower-pred-0/group3/block0/conv1/bn/FusedBatchNorm"}
}

%fused_computation.53 (param_0.272: f32[1,1024,50,76], param_1.323: f32[1024], param_2.268: f32[1024], param_3.314: f32[1024], param_4.271: f32[1,1024,50,76], param_5.212: f32[1024]) -> f32[1,1024,50,76] {
  %constant_228 = f32[] constant(0), metadata={op_type="Relu" op_name="tower-pred-0/conv0/Relu"}
  %broadcast.753 = f32[1,1024,50,76]{3,2,1,0} broadcast(f32[] %constant_228), dimensions={}, metadata={op_type="Relu" op_name="tower-pred-0/group2/block5/output"}
  %param_0.272 = f32[1,1024,50,76]{3,2,1,0} parameter(0)
  %param_4.271 = f32[1,1024,50,76]{3,2,1,0} parameter(4)
  %param_5.212 = f32[1024]{0} parameter(5)
  %broadcast.534 = f32[1,1024,50,76]{3,2,1,0} broadcast(f32[1024]{0} %param_5.212), dimensions={1}, metadata={op_type="FusedBatchNorm" op_name="tower-pred-0/group2/block5/conv3/bn/FusedBatchNorm"}
  %subtract.88 = f32[1,1024,50,76]{3,2,1,0} subtract(f32[1,1024,50,76]{3,2,1,0} %param_4.271, f32[1,1024,50,76]{3,2,1,0} %broadcast.534), metadata={op_type="FusedBatchNorm" op_name="tower-pred-0/group2/block5/conv3/bn/FusedBatchNorm"}
  %param_3.314 = f32[1024]{0} parameter(3)
  %broadcast.533 = f32[1,1024,50,76]{3,2,1,0} broadcast(f32[1024]{0} %param_3.314), dimensions={1}
  %multiply.150 = f32[1,1024,50,76]{3,2,1,0} multiply(f32[1,1024,50,76]{3,2,1,0} %subtract.88, f32[1,1024,50,76]{3,2,1,0} %broadcast.533), metadata={op_type="FusedBatchNorm" op_name="tower-pred-0/group2/block5/conv3/bn/FusedBatchNorm"}
  %param_2.268 = f32[1024]{0} parameter(2)
  %broadcast.532 = f32[1,1024,50,76]{3,2,1,0} broadcast(f32[1024]{0} %param_2.268), dimensions={1}, metadata={op_type="FusedBatchNorm" op_name="tower-pred-0/group2/block5/conv3/bn/FusedBatchNorm"}
  %multiply.149 = f32[1,1024,50,76]{3,2,1,0} multiply(f32[1,1024,50,76]{3,2,1,0} %multiply.150, f32[1,1024,50,76]{3,2,1,0} %broadcast.532), metadata={op_type="FusedBatchNorm" op_name="tower-pred-0/group2/block5/conv3/bn/FusedBatchNorm"}
  %param_1.323 = f32[1024]{0} parameter(1)
  %broadcast.531 = f32[1,1024,50,76]{3,2,1,0} broadcast(f32[1024]{0} %param_1.323), dimensions={1}, metadata={op_type="FusedBatchNorm" op_name="tower-pred-0/group2/block5/conv3/bn/FusedBatchNorm"}
  %add.217 = f32[1,1024,50,76]{3,2,1,0} add(f32[1,1024,50,76]{3,2,1,0} %multiply.149, f32[1,1024,50,76]{3,2,1,0} %broadcast.531), metadata={op_type="FusedBatchNorm" op_name="tower-pred-0/group2/block5/conv3/bn/FusedBatchNorm"}
  %add.216 = f32[1,1024,50,76]{3,2,1,0} add(f32[1,1024,50,76]{3,2,1,0} %param_0.272, f32[1,1024,50,76]{3,2,1,0} %add.217), metadata={op_type="Add" op_name="tower-pred-0/group2/block5/add"}
  ROOT %maximum.14 = f32[1,1024,50,76]{3,2,1,0} maximum(f32[1,1024,50,76]{3,2,1,0} %broadcast.753, f32[1,1024,50,76]{3,2,1,0} %add.216), metadata={op_type="Relu" op_name="tower-pred-0/group2/block5/output"}
}

%fused_computation.54 (param_0.125: f32[1024]) -> f32[1024] {
  %param_0.125 = f32[1024]{0} parameter(0)
  %constant_233 = f32[] constant(1.001e-05)
  %broadcast.759 = f32[1024]{0} broadcast(f32[] %constant_233), dimensions={}
  %add.218 = f32[1024]{0} add(f32[1024]{0} %param_0.125, f32[1024]{0} %broadcast.759), metadata={op_type="FusedBatchNorm" op_name="tower-pred-0/group2/block5/conv3/bn/FusedBatchNorm"}
  ROOT %rsqrt.116 = f32[1024]{0} rsqrt(f32[1024]{0} %add.218), metadata={op_type="FusedBatchNorm" op_name="tower-pred-0/group2/block5/conv3/bn/FusedBatchNorm"}
}

%fused_computation.55 (param_0.273: f32[256], param_1.324: f32[256], param_2.269: f32[256], param_3.315: f32[1,256,50,76], param_4.272: f32[256]) -> f32[1,256,50,76] {
  %constant_229 = f32[] constant(0), metadata={op_type="Relu" op_name="tower-pred-0/conv0/Relu"}
  %broadcast.754 = f32[1,256,50,76]{3,2,1,0} broadcast(f32[] %constant_229), dimensions={}, metadata={op_type="Relu" op_name="tower-pred-0/group2/block0/conv2/Relu"}
  %param_3.315 = f32[1,256,50,76]{3,2,1,0} parameter(3)
  %param_4.272 = f32[256]{0} parameter(4)
  %broadcast.538 = f32[1,256,50,76]{3,2,1,0} broadcast(f32[256]{0} %param_4.272), dimensions={1}, metadata={op_type="FusedBatchNorm" op_name="tower-pred-0/group2/block5/conv2/bn/FusedBatchNorm"}
  %subtract.89 = f32[1,256,50,76]{3,2,1,0} subtract(f32[1,256,50,76]{3,2,1,0} %param_3.315, f32[1,256,50,76]{3,2,1,0} %broadcast.538), metadata={op_type="FusedBatchNorm" op_name="tower-pred-0/group2/block5/conv2/bn/FusedBatchNorm"}
  %param_2.269 = f32[256]{0} parameter(2)
  %broadcast.537 = f32[1,256,50,76]{3,2,1,0} broadcast(f32[256]{0} %param_2.269), dimensions={1}
  %multiply.152 = f32[1,256,50,76]{3,2,1,0} multiply(f32[1,256,50,76]{3,2,1,0} %subtract.89, f32[1,256,50,76]{3,2,1,0} %broadcast.537), metadata={op_type="FusedBatchNorm" op_name="tower-pred-0/group2/block5/conv2/bn/FusedBatchNorm"}
  %param_1.324 = f32[256]{0} parameter(1)
  %broadcast.536 = f32[1,256,50,76]{3,2,1,0} broadcast(f32[256]{0} %param_1.324), dimensions={1}, metadata={op_type="FusedBatchNorm" op_name="tower-pred-0/group2/block5/conv2/bn/FusedBatchNorm"}
  %multiply.151 = f32[1,256,50,76]{3,2,1,0} multiply(f32[1,256,50,76]{3,2,1,0} %multiply.152, f32[1,256,50,76]{3,2,1,0} %broadcast.536), metadata={op_type="FusedBatchNorm" op_name="tower-pred-0/group2/block5/conv2/bn/FusedBatchNorm"}
  %param_0.273 = f32[256]{0} parameter(0)
  %broadcast.535 = f32[1,256,50,76]{3,2,1,0} broadcast(f32[256]{0} %param_0.273), dimensions={1}, metadata={op_type="FusedBatchNorm" op_name="tower-pred-0/group2/block5/conv2/bn/FusedBatchNorm"}
  %add.219 = f32[1,256,50,76]{3,2,1,0} add(f32[1,256,50,76]{3,2,1,0} %multiply.151, f32[1,256,50,76]{3,2,1,0} %broadcast.535), metadata={op_type="FusedBatchNorm" op_name="tower-pred-0/group2/block5/conv2/bn/FusedBatchNorm"}
  ROOT %maximum.15 = f32[1,256,50,76]{3,2,1,0} maximum(f32[1,256,50,76]{3,2,1,0} %broadcast.754, f32[1,256,50,76]{3,2,1,0} %add.219), metadata={op_type="Relu" op_name="tower-pred-0/group2/block5/conv2/Relu"}
}

%fused_computation.56 (param_0.128: f32[256]) -> f32[256] {
  %param_0.128 = f32[256]{0} parameter(0)
  %constant_232 = f32[] constant(1.001e-05)
  %broadcast.758 = f32[256]{0} broadcast(f32[] %constant_232), dimensions={}
  %add.220 = f32[256]{0} add(f32[256]{0} %param_0.128, f32[256]{0} %broadcast.758), metadata={op_type="FusedBatchNorm" op_name="tower-pred-0/group2/block5/conv2/bn/FusedBatchNorm"}
  ROOT %rsqrt.117 = f32[256]{0} rsqrt(f32[256]{0} %add.220), metadata={op_type="FusedBatchNorm" op_name="tower-pred-0/group2/block5/conv2/bn/FusedBatchNorm"}
}

%fused_computation.57 (param_0.274: f32[256], param_1.325: f32[256], param_2.270: f32[256], param_3.316: f32[1,256,50,76], param_4.273: f32[256]) -> f32[1,256,50,76] {
  %constant_230 = f32[] constant(0), metadata={op_type="Relu" op_name="tower-pred-0/conv0/Relu"}
  %broadcast.755 = f32[1,256,50,76]{3,2,1,0} broadcast(f32[] %constant_230), dimensions={}, metadata={op_type="Relu" op_name="tower-pred-0/group2/block0/conv2/Relu"}
  %param_3.316 = f32[1,256,50,76]{3,2,1,0} parameter(3)
  %param_4.273 = f32[256]{0} parameter(4)
  %broadcast.542 = f32[1,256,50,76]{3,2,1,0} broadcast(f32[256]{0} %param_4.273), dimensions={1}, metadata={op_type="FusedBatchNorm" op_name="tower-pred-0/group2/block5/conv1/bn/FusedBatchNorm"}
  %subtract.90 = f32[1,256,50,76]{3,2,1,0} subtract(f32[1,256,50,76]{3,2,1,0} %param_3.316, f32[1,256,50,76]{3,2,1,0} %broadcast.542), metadata={op_type="FusedBatchNorm" op_name="tower-pred-0/group2/block5/conv1/bn/FusedBatchNorm"}
  %param_2.270 = f32[256]{0} parameter(2)
  %broadcast.541 = f32[1,256,50,76]{3,2,1,0} broadcast(f32[256]{0} %param_2.270), dimensions={1}
  %multiply.154 = f32[1,256,50,76]{3,2,1,0} multiply(f32[1,256,50,76]{3,2,1,0} %subtract.90, f32[1,256,50,76]{3,2,1,0} %broadcast.541), metadata={op_type="FusedBatchNorm" op_name="tower-pred-0/group2/block5/conv1/bn/FusedBatchNorm"}
  %param_1.325 = f32[256]{0} parameter(1)
  %broadcast.540 = f32[1,256,50,76]{3,2,1,0} broadcast(f32[256]{0} %param_1.325), dimensions={1}, metadata={op_type="FusedBatchNorm" op_name="tower-pred-0/group2/block5/conv1/bn/FusedBatchNorm"}
  %multiply.153 = f32[1,256,50,76]{3,2,1,0} multiply(f32[1,256,50,76]{3,2,1,0} %multiply.154, f32[1,256,50,76]{3,2,1,0} %broadcast.540), metadata={op_type="FusedBatchNorm" op_name="tower-pred-0/group2/block5/conv1/bn/FusedBatchNorm"}
  %param_0.274 = f32[256]{0} parameter(0)
  %broadcast.539 = f32[1,256,50,76]{3,2,1,0} broadcast(f32[256]{0} %param_0.274), dimensions={1}, metadata={op_type="FusedBatchNorm" op_name="tower-pred-0/group2/block5/conv1/bn/FusedBatchNorm"}
  %add.221 = f32[1,256,50,76]{3,2,1,0} add(f32[1,256,50,76]{3,2,1,0} %multiply.153, f32[1,256,50,76]{3,2,1,0} %broadcast.539), metadata={op_type="FusedBatchNorm" op_name="tower-pred-0/group2/block5/conv1/bn/FusedBatchNorm"}
  ROOT %maximum.16 = f32[1,256,50,76]{3,2,1,0} maximum(f32[1,256,50,76]{3,2,1,0} %broadcast.755, f32[1,256,50,76]{3,2,1,0} %add.221), metadata={op_type="Relu" op_name="tower-pred-0/group2/block5/conv1/Relu"}
}

%fused_computation.58 (param_0.131: f32[256]) -> f32[256] {
  %param_0.131 = f32[256]{0} parameter(0)
  %constant_231 = f32[] constant(1.001e-05)
  %broadcast.757 = f32[256]{0} broadcast(f32[] %constant_231), dimensions={}
  %add.222 = f32[256]{0} add(f32[256]{0} %param_0.131, f32[256]{0} %broadcast.757), metadata={op_type="FusedBatchNorm" op_name="tower-pred-0/group2/block5/conv1/bn/FusedBatchNorm"}
  ROOT %rsqrt.118 = f32[256]{0} rsqrt(f32[256]{0} %add.222), metadata={op_type="FusedBatchNorm" op_name="tower-pred-0/group2/block5/conv1/bn/FusedBatchNorm"}
}

%fused_computation.59 (param_0.275: f32[1,1024,50,76], param_1.329: f32[1024], param_2.271: f32[1024], param_3.317: f32[1024], param_4.274: f32[1,1024,50,76], param_5.215: f32[1024]) -> f32[1,1024,50,76] {
  %constant_234 = f32[] constant(0), metadata={op_type="Relu" op_name="tower-pred-0/conv0/Relu"}
  %broadcast.760 = f32[1,1024,50,76]{3,2,1,0} broadcast(f32[] %constant_234), dimensions={}, metadata={op_type="Relu" op_name="tower-pred-0/group2/block5/output"}
  %param_0.275 = f32[1,1024,50,76]{3,2,1,0} parameter(0)
  %param_4.274 = f32[1,1024,50,76]{3,2,1,0} parameter(4)
  %param_5.215 = f32[1024]{0} parameter(5)
  %broadcast.546 = f32[1,1024,50,76]{3,2,1,0} broadcast(f32[1024]{0} %param_5.215), dimensions={1}, metadata={op_type="FusedBatchNorm" op_name="tower-pred-0/group2/block4/conv3/bn/FusedBatchNorm"}
  %subtract.91 = f32[1,1024,50,76]{3,2,1,0} subtract(f32[1,1024,50,76]{3,2,1,0} %param_4.274, f32[1,1024,50,76]{3,2,1,0} %broadcast.546), metadata={op_type="FusedBatchNorm" op_name="tower-pred-0/group2/block4/conv3/bn/FusedBatchNorm"}
  %param_3.317 = f32[1024]{0} parameter(3)
  %broadcast.545 = f32[1,1024,50,76]{3,2,1,0} broadcast(f32[1024]{0} %param_3.317), dimensions={1}
  %multiply.156 = f32[1,1024,50,76]{3,2,1,0} multiply(f32[1,1024,50,76]{3,2,1,0} %subtract.91, f32[1,1024,50,76]{3,2,1,0} %broadcast.545), metadata={op_type="FusedBatchNorm" op_name="tower-pred-0/group2/block4/conv3/bn/FusedBatchNorm"}
  %param_2.271 = f32[1024]{0} parameter(2)
  %broadcast.544 = f32[1,1024,50,76]{3,2,1,0} broadcast(f32[1024]{0} %param_2.271), dimensions={1}, metadata={op_type="FusedBatchNorm" op_name="tower-pred-0/group2/block4/conv3/bn/FusedBatchNorm"}
  %multiply.155 = f32[1,1024,50,76]{3,2,1,0} multiply(f32[1,1024,50,76]{3,2,1,0} %multiply.156, f32[1,1024,50,76]{3,2,1,0} %broadcast.544), metadata={op_type="FusedBatchNorm" op_name="tower-pred-0/group2/block4/conv3/bn/FusedBatchNorm"}
  %param_1.329 = f32[1024]{0} parameter(1)
  %broadcast.543 = f32[1,1024,50,76]{3,2,1,0} broadcast(f32[1024]{0} %param_1.329), dimensions={1}, metadata={op_type="FusedBatchNorm" op_name="tower-pred-0/group2/block4/conv3/bn/FusedBatchNorm"}
  %add.224 = f32[1,1024,50,76]{3,2,1,0} add(f32[1,1024,50,76]{3,2,1,0} %multiply.155, f32[1,1024,50,76]{3,2,1,0} %broadcast.543), metadata={op_type="FusedBatchNorm" op_name="tower-pred-0/group2/block4/conv3/bn/FusedBatchNorm"}
  %add.223 = f32[1,1024,50,76]{3,2,1,0} add(f32[1,1024,50,76]{3,2,1,0} %param_0.275, f32[1,1024,50,76]{3,2,1,0} %add.224), metadata={op_type="Add" op_name="tower-pred-0/group2/block4/add"}
  ROOT %maximum.17 = f32[1,1024,50,76]{3,2,1,0} maximum(f32[1,1024,50,76]{3,2,1,0} %broadcast.760, f32[1,1024,50,76]{3,2,1,0} %add.223), metadata={op_type="Relu" op_name="tower-pred-0/group2/block4/output"}
}

%fused_computation.60 (param_0.134: f32[1024]) -> f32[1024] {
  %param_0.134 = f32[1024]{0} parameter(0)
  %constant_239 = f32[] constant(1.001e-05)
  %broadcast.766 = f32[1024]{0} broadcast(f32[] %constant_239), dimensions={}
  %add.225 = f32[1024]{0} add(f32[1024]{0} %param_0.134, f32[1024]{0} %broadcast.766), metadata={op_type="FusedBatchNorm" op_name="tower-pred-0/group2/block4/conv3/bn/FusedBatchNorm"}
  ROOT %rsqrt.119 = f32[1024]{0} rsqrt(f32[1024]{0} %add.225), metadata={op_type="FusedBatchNorm" op_name="tower-pred-0/group2/block4/conv3/bn/FusedBatchNorm"}
}

%fused_computation.61 (param_0.276: f32[256], param_1.330: f32[256], param_2.272: f32[256], param_3.318: f32[1,256,50,76], param_4.275: f32[256]) -> f32[1,256,50,76] {
  %constant_235 = f32[] constant(0), metadata={op_type="Relu" op_name="tower-pred-0/conv0/Relu"}
  %broadcast.761 = f32[1,256,50,76]{3,2,1,0} broadcast(f32[] %constant_235), dimensions={}, metadata={op_type="Relu" op_name="tower-pred-0/group2/block0/conv2/Relu"}
  %param_3.318 = f32[1,256,50,76]{3,2,1,0} parameter(3)
  %param_4.275 = f32[256]{0} parameter(4)
  %broadcast.550 = f32[1,256,50,76]{3,2,1,0} broadcast(f32[256]{0} %param_4.275), dimensions={1}, metadata={op_type="FusedBatchNorm" op_name="tower-pred-0/group2/block4/conv2/bn/FusedBatchNorm"}
  %subtract.92 = f32[1,256,50,76]{3,2,1,0} subtract(f32[1,256,50,76]{3,2,1,0} %param_3.318, f32[1,256,50,76]{3,2,1,0} %broadcast.550), metadata={op_type="FusedBatchNorm" op_name="tower-pred-0/group2/block4/conv2/bn/FusedBatchNorm"}
  %param_2.272 = f32[256]{0} parameter(2)
  %broadcast.549 = f32[1,256,50,76]{3,2,1,0} broadcast(f32[256]{0} %param_2.272), dimensions={1}
  %multiply.158 = f32[1,256,50,76]{3,2,1,0} multiply(f32[1,256,50,76]{3,2,1,0} %subtract.92, f32[1,256,50,76]{3,2,1,0} %broadcast.549), metadata={op_type="FusedBatchNorm" op_name="tower-pred-0/group2/block4/conv2/bn/FusedBatchNorm"}
  %param_1.330 = f32[256]{0} parameter(1)
  %broadcast.548 = f32[1,256,50,76]{3,2,1,0} broadcast(f32[256]{0} %param_1.330), dimensions={1}, metadata={op_type="FusedBatchNorm" op_name="tower-pred-0/group2/block4/conv2/bn/FusedBatchNorm"}
  %multiply.157 = f32[1,256,50,76]{3,2,1,0} multiply(f32[1,256,50,76]{3,2,1,0} %multiply.158, f32[1,256,50,76]{3,2,1,0} %broadcast.548), metadata={op_type="FusedBatchNorm" op_name="tower-pred-0/group2/block4/conv2/bn/FusedBatchNorm"}
  %param_0.276 = f32[256]{0} parameter(0)
  %broadcast.547 = f32[1,256,50,76]{3,2,1,0} broadcast(f32[256]{0} %param_0.276), dimensions={1}, metadata={op_type="FusedBatchNorm" op_name="tower-pred-0/group2/block4/conv2/bn/FusedBatchNorm"}
  %add.226 = f32[1,256,50,76]{3,2,1,0} add(f32[1,256,50,76]{3,2,1,0} %multiply.157, f32[1,256,50,76]{3,2,1,0} %broadcast.547), metadata={op_type="FusedBatchNorm" op_name="tower-pred-0/group2/block4/conv2/bn/FusedBatchNorm"}
  ROOT %maximum.18 = f32[1,256,50,76]{3,2,1,0} maximum(f32[1,256,50,76]{3,2,1,0} %broadcast.761, f32[1,256,50,76]{3,2,1,0} %add.226), metadata={op_type="Relu" op_name="tower-pred-0/group2/block4/conv2/Relu"}
}

%fused_computation.62 (param_0.137: f32[256]) -> f32[256] {
  %param_0.137 = f32[256]{0} parameter(0)
  %constant_238 = f32[] constant(1.001e-05)
  %broadcast.765 = f32[256]{0} broadcast(f32[] %constant_238), dimensions={}
  %add.227 = f32[256]{0} add(f32[256]{0} %param_0.137, f32[256]{0} %broadcast.765), metadata={op_type="FusedBatchNorm" op_name="tower-pred-0/group2/block4/conv2/bn/FusedBatchNorm"}
  ROOT %rsqrt.120 = f32[256]{0} rsqrt(f32[256]{0} %add.227), metadata={op_type="FusedBatchNorm" op_name="tower-pred-0/group2/block4/conv2/bn/FusedBatchNorm"}
}

%fused_computation.63 (param_0.277: f32[256], param_1.331: f32[256], param_2.273: f32[256], param_3.319: f32[1,256,50,76], param_4.276: f32[256]) -> f32[1,256,50,76] {
  %constant_236 = f32[] constant(0), metadata={op_type="Relu" op_name="tower-pred-0/conv0/Relu"}
  %broadcast.762 = f32[1,256,50,76]{3,2,1,0} broadcast(f32[] %constant_236), dimensions={}, metadata={op_type="Relu" op_name="tower-pred-0/group2/block0/conv2/Relu"}
  %param_3.319 = f32[1,256,50,76]{3,2,1,0} parameter(3)
  %param_4.276 = f32[256]{0} parameter(4)
  %broadcast.554 = f32[1,256,50,76]{3,2,1,0} broadcast(f32[256]{0} %param_4.276), dimensions={1}, metadata={op_type="FusedBatchNorm" op_name="tower-pred-0/group2/block4/conv1/bn/FusedBatchNorm"}
  %subtract.93 = f32[1,256,50,76]{3,2,1,0} subtract(f32[1,256,50,76]{3,2,1,0} %param_3.319, f32[1,256,50,76]{3,2,1,0} %broadcast.554), metadata={op_type="FusedBatchNorm" op_name="tower-pred-0/group2/block4/conv1/bn/FusedBatchNorm"}
  %param_2.273 = f32[256]{0} parameter(2)
  %broadcast.553 = f32[1,256,50,76]{3,2,1,0} broadcast(f32[256]{0} %param_2.273), dimensions={1}
  %multiply.160 = f32[1,256,50,76]{3,2,1,0} multiply(f32[1,256,50,76]{3,2,1,0} %subtract.93, f32[1,256,50,76]{3,2,1,0} %broadcast.553), metadata={op_type="FusedBatchNorm" op_name="tower-pred-0/group2/block4/conv1/bn/FusedBatchNorm"}
  %param_1.331 = f32[256]{0} parameter(1)
  %broadcast.552 = f32[1,256,50,76]{3,2,1,0} broadcast(f32[256]{0} %param_1.331), dimensions={1}, metadata={op_type="FusedBatchNorm" op_name="tower-pred-0/group2/block4/conv1/bn/FusedBatchNorm"}
  %multiply.159 = f32[1,256,50,76]{3,2,1,0} multiply(f32[1,256,50,76]{3,2,1,0} %multiply.160, f32[1,256,50,76]{3,2,1,0} %broadcast.552), metadata={op_type="FusedBatchNorm" op_name="tower-pred-0/group2/block4/conv1/bn/FusedBatchNorm"}
  %param_0.277 = f32[256]{0} parameter(0)
  %broadcast.551 = f32[1,256,50,76]{3,2,1,0} broadcast(f32[256]{0} %param_0.277), dimensions={1}, metadata={op_type="FusedBatchNorm" op_name="tower-pred-0/group2/block4/conv1/bn/FusedBatchNorm"}
  %add.228 = f32[1,256,50,76]{3,2,1,0} add(f32[1,256,50,76]{3,2,1,0} %multiply.159, f32[1,256,50,76]{3,2,1,0} %broadcast.551), metadata={op_type="FusedBatchNorm" op_name="tower-pred-0/group2/block4/conv1/bn/FusedBatchNorm"}
  ROOT %maximum.19 = f32[1,256,50,76]{3,2,1,0} maximum(f32[1,256,50,76]{3,2,1,0} %broadcast.762, f32[1,256,50,76]{3,2,1,0} %add.228), metadata={op_type="Relu" op_name="tower-pred-0/group2/block4/conv1/Relu"}
}

%fused_computation.64 (param_0.140: f32[256]) -> f32[256] {
  %param_0.140 = f32[256]{0} parameter(0)
  %constant_237 = f32[] constant(1.001e-05)
  %broadcast.763 = f32[256]{0} broadcast(f32[] %constant_237), dimensions={}
  %add.229 = f32[256]{0} add(f32[256]{0} %param_0.140, f32[256]{0} %broadcast.763), metadata={op_type="FusedBatchNorm" op_name="tower-pred-0/group2/block4/conv1/bn/FusedBatchNorm"}
  ROOT %rsqrt.121 = f32[256]{0} rsqrt(f32[256]{0} %add.229), metadata={op_type="FusedBatchNorm" op_name="tower-pred-0/group2/block4/conv1/bn/FusedBatchNorm"}
}

%fused_computation.65 (param_0.278: f32[1,1024,50,76], param_1.335: f32[1024], param_2.274: f32[1024], param_3.320: f32[1024], param_4.277: f32[1,1024,50,76], param_5.218: f32[1024]) -> f32[1,1024,50,76] {
  %constant_240 = f32[] constant(0), metadata={op_type="Relu" op_name="tower-pred-0/conv0/Relu"}
  %broadcast.767 = f32[1,1024,50,76]{3,2,1,0} broadcast(f32[] %constant_240), dimensions={}, metadata={op_type="Relu" op_name="tower-pred-0/group2/block5/output"}
  %param_0.278 = f32[1,1024,50,76]{3,2,1,0} parameter(0)
  %param_4.277 = f32[1,1024,50,76]{3,2,1,0} parameter(4)
  %param_5.218 = f32[1024]{0} parameter(5)
  %broadcast.558 = f32[1,1024,50,76]{3,2,1,0} broadcast(f32[1024]{0} %param_5.218), dimensions={1}, metadata={op_type="FusedBatchNorm" op_name="tower-pred-0/group2/block3/conv3/bn/FusedBatchNorm"}
  %subtract.94 = f32[1,1024,50,76]{3,2,1,0} subtract(f32[1,1024,50,76]{3,2,1,0} %param_4.277, f32[1,1024,50,76]{3,2,1,0} %broadcast.558), metadata={op_type="FusedBatchNorm" op_name="tower-pred-0/group2/block3/conv3/bn/FusedBatchNorm"}
  %param_3.320 = f32[1024]{0} parameter(3)
  %broadcast.557 = f32[1,1024,50,76]{3,2,1,0} broadcast(f32[1024]{0} %param_3.320), dimensions={1}
  %multiply.162 = f32[1,1024,50,76]{3,2,1,0} multiply(f32[1,1024,50,76]{3,2,1,0} %subtract.94, f32[1,1024,50,76]{3,2,1,0} %broadcast.557), metadata={op_type="FusedBatchNorm" op_name="tower-pred-0/group2/block3/conv3/bn/FusedBatchNorm"}
  %param_2.274 = f32[1024]{0} parameter(2)
  %broadcast.556 = f32[1,1024,50,76]{3,2,1,0} broadcast(f32[1024]{0} %param_2.274), dimensions={1}, metadata={op_type="FusedBatchNorm" op_name="tower-pred-0/group2/block3/conv3/bn/FusedBatchNorm"}
  %multiply.161 = f32[1,1024,50,76]{3,2,1,0} multiply(f32[1,1024,50,76]{3,2,1,0} %multiply.162, f32[1,1024,50,76]{3,2,1,0} %broadcast.556), metadata={op_type="FusedBatchNorm" op_name="tower-pred-0/group2/block3/conv3/bn/FusedBatchNorm"}
  %param_1.335 = f32[1024]{0} parameter(1)
  %broadcast.555 = f32[1,1024,50,76]{3,2,1,0} broadcast(f32[1024]{0} %param_1.335), dimensions={1}, metadata={op_type="FusedBatchNorm" op_name="tower-pred-0/group2/block3/conv3/bn/FusedBatchNorm"}
  %add.231 = f32[1,1024,50,76]{3,2,1,0} add(f32[1,1024,50,76]{3,2,1,0} %multiply.161, f32[1,1024,50,76]{3,2,1,0} %broadcast.555), metadata={op_type="FusedBatchNorm" op_name="tower-pred-0/group2/block3/conv3/bn/FusedBatchNorm"}
  %add.230 = f32[1,1024,50,76]{3,2,1,0} add(f32[1,1024,50,76]{3,2,1,0} %param_0.278, f32[1,1024,50,76]{3,2,1,0} %add.231), metadata={op_type="Add" op_name="tower-pred-0/group2/block3/add"}
  ROOT %maximum.20 = f32[1,1024,50,76]{3,2,1,0} maximum(f32[1,1024,50,76]{3,2,1,0} %broadcast.767, f32[1,1024,50,76]{3,2,1,0} %add.230), metadata={op_type="Relu" op_name="tower-pred-0/group2/block3/output"}
}

%fused_computation.66 (param_0.143: f32[1024]) -> f32[1024] {
  %param_0.143 = f32[1024]{0} parameter(0)
  %constant_245 = f32[] constant(1.001e-05)
  %broadcast.773 = f32[1024]{0} broadcast(f32[] %constant_245), dimensions={}
  %add.232 = f32[1024]{0} add(f32[1024]{0} %param_0.143, f32[1024]{0} %broadcast.773), metadata={op_type="FusedBatchNorm" op_name="tower-pred-0/group2/block3/conv3/bn/FusedBatchNorm"}
  ROOT %rsqrt.122 = f32[1024]{0} rsqrt(f32[1024]{0} %add.232), metadata={op_type="FusedBatchNorm" op_name="tower-pred-0/group2/block3/conv3/bn/FusedBatchNorm"}
}

%fused_computation.67 (param_0.279: f32[256], param_1.336: f32[256], param_2.275: f32[256], param_3.321: f32[1,256,50,76], param_4.278: f32[256]) -> f32[1,256,50,76] {
  %constant_241 = f32[] constant(0), metadata={op_type="Relu" op_name="tower-pred-0/conv0/Relu"}
  %broadcast.768 = f32[1,256,50,76]{3,2,1,0} broadcast(f32[] %constant_241), dimensions={}, metadata={op_type="Relu" op_name="tower-pred-0/group2/block0/conv2/Relu"}
  %param_3.321 = f32[1,256,50,76]{3,2,1,0} parameter(3)
  %param_4.278 = f32[256]{0} parameter(4)
  %broadcast.562 = f32[1,256,50,76]{3,2,1,0} broadcast(f32[256]{0} %param_4.278), dimensions={1}, metadata={op_type="FusedBatchNorm" op_name="tower-pred-0/group2/block3/conv2/bn/FusedBatchNorm"}
  %subtract.95 = f32[1,256,50,76]{3,2,1,0} subtract(f32[1,256,50,76]{3,2,1,0} %param_3.321, f32[1,256,50,76]{3,2,1,0} %broadcast.562), metadata={op_type="FusedBatchNorm" op_name="tower-pred-0/group2/block3/conv2/bn/FusedBatchNorm"}
  %param_2.275 = f32[256]{0} parameter(2)
  %broadcast.561 = f32[1,256,50,76]{3,2,1,0} broadcast(f32[256]{0} %param_2.275), dimensions={1}
  %multiply.164 = f32[1,256,50,76]{3,2,1,0} multiply(f32[1,256,50,76]{3,2,1,0} %subtract.95, f32[1,256,50,76]{3,2,1,0} %broadcast.561), metadata={op_type="FusedBatchNorm" op_name="tower-pred-0/group2/block3/conv2/bn/FusedBatchNorm"}
  %param_1.336 = f32[256]{0} parameter(1)
  %broadcast.560 = f32[1,256,50,76]{3,2,1,0} broadcast(f32[256]{0} %param_1.336), dimensions={1}, metadata={op_type="FusedBatchNorm" op_name="tower-pred-0/group2/block3/conv2/bn/FusedBatchNorm"}
  %multiply.163 = f32[1,256,50,76]{3,2,1,0} multiply(f32[1,256,50,76]{3,2,1,0} %multiply.164, f32[1,256,50,76]{3,2,1,0} %broadcast.560), metadata={op_type="FusedBatchNorm" op_name="tower-pred-0/group2/block3/conv2/bn/FusedBatchNorm"}
  %param_0.279 = f32[256]{0} parameter(0)
  %broadcast.559 = f32[1,256,50,76]{3,2,1,0} broadcast(f32[256]{0} %param_0.279), dimensions={1}, metadata={op_type="FusedBatchNorm" op_name="tower-pred-0/group2/block3/conv2/bn/FusedBatchNorm"}
  %add.233 = f32[1,256,50,76]{3,2,1,0} add(f32[1,256,50,76]{3,2,1,0} %multiply.163, f32[1,256,50,76]{3,2,1,0} %broadcast.559), metadata={op_type="FusedBatchNorm" op_name="tower-pred-0/group2/block3/conv2/bn/FusedBatchNorm"}
  ROOT %maximum.21 = f32[1,256,50,76]{3,2,1,0} maximum(f32[1,256,50,76]{3,2,1,0} %broadcast.768, f32[1,256,50,76]{3,2,1,0} %add.233), metadata={op_type="Relu" op_name="tower-pred-0/group2/block3/conv2/Relu"}
}

%fused_computation.68 (param_0.146: f32[256]) -> f32[256] {
  %param_0.146 = f32[256]{0} parameter(0)
  %constant_244 = f32[] constant(1.001e-05)
  %broadcast.772 = f32[256]{0} broadcast(f32[] %constant_244), dimensions={}
  %add.234 = f32[256]{0} add(f32[256]{0} %param_0.146, f32[256]{0} %broadcast.772), metadata={op_type="FusedBatchNorm" op_name="tower-pred-0/group2/block3/conv2/bn/FusedBatchNorm"}
  ROOT %rsqrt.123 = f32[256]{0} rsqrt(f32[256]{0} %add.234), metadata={op_type="FusedBatchNorm" op_name="tower-pred-0/group2/block3/conv2/bn/FusedBatchNorm"}
}

%fused_computation.69 (param_0.280: f32[256], param_1.337: f32[256], param_2.276: f32[256], param_3.322: f32[1,256,50,76], param_4.279: f32[256]) -> f32[1,256,50,76] {
  %constant_242 = f32[] constant(0), metadata={op_type="Relu" op_name="tower-pred-0/conv0/Relu"}
  %broadcast.769 = f32[1,256,50,76]{3,2,1,0} broadcast(f32[] %constant_242), dimensions={}, metadata={op_type="Relu" op_name="tower-pred-0/group2/block0/conv2/Relu"}
  %param_3.322 = f32[1,256,50,76]{3,2,1,0} parameter(3)
  %param_4.279 = f32[256]{0} parameter(4)
  %broadcast.566 = f32[1,256,50,76]{3,2,1,0} broadcast(f32[256]{0} %param_4.279), dimensions={1}, metadata={op_type="FusedBatchNorm" op_name="tower-pred-0/group2/block3/conv1/bn/FusedBatchNorm"}
  %subtract.96 = f32[1,256,50,76]{3,2,1,0} subtract(f32[1,256,50,76]{3,2,1,0} %param_3.322, f32[1,256,50,76]{3,2,1,0} %broadcast.566), metadata={op_type="FusedBatchNorm" op_name="tower-pred-0/group2/block3/conv1/bn/FusedBatchNorm"}
  %param_2.276 = f32[256]{0} parameter(2)
  %broadcast.565 = f32[1,256,50,76]{3,2,1,0} broadcast(f32[256]{0} %param_2.276), dimensions={1}
  %multiply.166 = f32[1,256,50,76]{3,2,1,0} multiply(f32[1,256,50,76]{3,2,1,0} %subtract.96, f32[1,256,50,76]{3,2,1,0} %broadcast.565), metadata={op_type="FusedBatchNorm" op_name="tower-pred-0/group2/block3/conv1/bn/FusedBatchNorm"}
  %param_1.337 = f32[256]{0} parameter(1)
  %broadcast.564 = f32[1,256,50,76]{3,2,1,0} broadcast(f32[256]{0} %param_1.337), dimensions={1}, metadata={op_type="FusedBatchNorm" op_name="tower-pred-0/group2/block3/conv1/bn/FusedBatchNorm"}
  %multiply.165 = f32[1,256,50,76]{3,2,1,0} multiply(f32[1,256,50,76]{3,2,1,0} %multiply.166, f32[1,256,50,76]{3,2,1,0} %broadcast.564), metadata={op_type="FusedBatchNorm" op_name="tower-pred-0/group2/block3/conv1/bn/FusedBatchNorm"}
  %param_0.280 = f32[256]{0} parameter(0)
  %broadcast.563 = f32[1,256,50,76]{3,2,1,0} broadcast(f32[256]{0} %param_0.280), dimensions={1}, metadata={op_type="FusedBatchNorm" op_name="tower-pred-0/group2/block3/conv1/bn/FusedBatchNorm"}
  %add.235 = f32[1,256,50,76]{3,2,1,0} add(f32[1,256,50,76]{3,2,1,0} %multiply.165, f32[1,256,50,76]{3,2,1,0} %broadcast.563), metadata={op_type="FusedBatchNorm" op_name="tower-pred-0/group2/block3/conv1/bn/FusedBatchNorm"}
  ROOT %maximum.22 = f32[1,256,50,76]{3,2,1,0} maximum(f32[1,256,50,76]{3,2,1,0} %broadcast.769, f32[1,256,50,76]{3,2,1,0} %add.235), metadata={op_type="Relu" op_name="tower-pred-0/group2/block3/conv1/Relu"}
}

%fused_computation.70 (param_0.149: f32[256]) -> f32[256] {
  %param_0.149 = f32[256]{0} parameter(0)
  %constant_243 = f32[] constant(1.001e-05)
  %broadcast.770 = f32[256]{0} broadcast(f32[] %constant_243), dimensions={}
  %add.236 = f32[256]{0} add(f32[256]{0} %param_0.149, f32[256]{0} %broadcast.770), metadata={op_type="FusedBatchNorm" op_name="tower-pred-0/group2/block3/conv1/bn/FusedBatchNorm"}
  ROOT %rsqrt.124 = f32[256]{0} rsqrt(f32[256]{0} %add.236), metadata={op_type="FusedBatchNorm" op_name="tower-pred-0/group2/block3/conv1/bn/FusedBatchNorm"}
}

%fused_computation.71 (param_0.281: f32[1,1024,50,76], param_1.341: f32[1024], param_2.277: f32[1024], param_3.323: f32[1024], param_4.280: f32[1,1024,50,76], param_5.221: f32[1024]) -> f32[1,1024,50,76] {
  %constant_246 = f32[] constant(0), metadata={op_type="Relu" op_name="tower-pred-0/conv0/Relu"}
  %broadcast.774 = f32[1,1024,50,76]{3,2,1,0} broadcast(f32[] %constant_246), dimensions={}, metadata={op_type="Relu" op_name="tower-pred-0/group2/block5/output"}
  %param_0.281 = f32[1,1024,50,76]{3,2,1,0} parameter(0)
  %param_4.280 = f32[1,1024,50,76]{3,2,1,0} parameter(4)
  %param_5.221 = f32[1024]{0} parameter(5)
  %broadcast.570 = f32[1,1024,50,76]{3,2,1,0} broadcast(f32[1024]{0} %param_5.221), dimensions={1}, metadata={op_type="FusedBatchNorm" op_name="tower-pred-0/group2/block2/conv3/bn/FusedBatchNorm"}
  %subtract.97 = f32[1,1024,50,76]{3,2,1,0} subtract(f32[1,1024,50,76]{3,2,1,0} %param_4.280, f32[1,1024,50,76]{3,2,1,0} %broadcast.570), metadata={op_type="FusedBatchNorm" op_name="tower-pred-0/group2/block2/conv3/bn/FusedBatchNorm"}
  %param_3.323 = f32[1024]{0} parameter(3)
  %broadcast.569 = f32[1,1024,50,76]{3,2,1,0} broadcast(f32[1024]{0} %param_3.323), dimensions={1}
  %multiply.168 = f32[1,1024,50,76]{3,2,1,0} multiply(f32[1,1024,50,76]{3,2,1,0} %subtract.97, f32[1,1024,50,76]{3,2,1,0} %broadcast.569), metadata={op_type="FusedBatchNorm" op_name="tower-pred-0/group2/block2/conv3/bn/FusedBatchNorm"}
  %param_2.277 = f32[1024]{0} parameter(2)
  %broadcast.568 = f32[1,1024,50,76]{3,2,1,0} broadcast(f32[1024]{0} %param_2.277), dimensions={1}, metadata={op_type="FusedBatchNorm" op_name="tower-pred-0/group2/block2/conv3/bn/FusedBatchNorm"}
  %multiply.167 = f32[1,1024,50,76]{3,2,1,0} multiply(f32[1,1024,50,76]{3,2,1,0} %multiply.168, f32[1,1024,50,76]{3,2,1,0} %broadcast.568), metadata={op_type="FusedBatchNorm" op_name="tower-pred-0/group2/block2/conv3/bn/FusedBatchNorm"}
  %param_1.341 = f32[1024]{0} parameter(1)
  %broadcast.567 = f32[1,1024,50,76]{3,2,1,0} broadcast(f32[1024]{0} %param_1.341), dimensions={1}, metadata={op_type="FusedBatchNorm" op_name="tower-pred-0/group2/block2/conv3/bn/FusedBatchNorm"}
  %add.238 = f32[1,1024,50,76]{3,2,1,0} add(f32[1,1024,50,76]{3,2,1,0} %multiply.167, f32[1,1024,50,76]{3,2,1,0} %broadcast.567), metadata={op_type="FusedBatchNorm" op_name="tower-pred-0/group2/block2/conv3/bn/FusedBatchNorm"}
  %add.237 = f32[1,1024,50,76]{3,2,1,0} add(f32[1,1024,50,76]{3,2,1,0} %param_0.281, f32[1,1024,50,76]{3,2,1,0} %add.238), metadata={op_type="Add" op_name="tower-pred-0/group2/block2/add"}
  ROOT %maximum.23 = f32[1,1024,50,76]{3,2,1,0} maximum(f32[1,1024,50,76]{3,2,1,0} %broadcast.774, f32[1,1024,50,76]{3,2,1,0} %add.237), metadata={op_type="Relu" op_name="tower-pred-0/group2/block2/output"}
}

%fused_computation.72 (param_0.152: f32[1024]) -> f32[1024] {
  %param_0.152 = f32[1024]{0} parameter(0)
  %constant_251 = f32[] constant(1.001e-05)
  %broadcast.780 = f32[1024]{0} broadcast(f32[] %constant_251), dimensions={}
  %add.239 = f32[1024]{0} add(f32[1024]{0} %param_0.152, f32[1024]{0} %broadcast.780), metadata={op_type="FusedBatchNorm" op_name="tower-pred-0/group2/block2/conv3/bn/FusedBatchNorm"}
  ROOT %rsqrt.125 = f32[1024]{0} rsqrt(f32[1024]{0} %add.239), metadata={op_type="FusedBatchNorm" op_name="tower-pred-0/group2/block2/conv3/bn/FusedBatchNorm"}
}

%fused_computation.73 (param_0.282: f32[256], param_1.342: f32[256], param_2.278: f32[256], param_3.324: f32[1,256,50,76], param_4.281: f32[256]) -> f32[1,256,50,76] {
  %constant_247 = f32[] constant(0), metadata={op_type="Relu" op_name="tower-pred-0/conv0/Relu"}
  %broadcast.775 = f32[1,256,50,76]{3,2,1,0} broadcast(f32[] %constant_247), dimensions={}, metadata={op_type="Relu" op_name="tower-pred-0/group2/block0/conv2/Relu"}
  %param_3.324 = f32[1,256,50,76]{3,2,1,0} parameter(3)
  %param_4.281 = f32[256]{0} parameter(4)
  %broadcast.574 = f32[1,256,50,76]{3,2,1,0} broadcast(f32[256]{0} %param_4.281), dimensions={1}, metadata={op_type="FusedBatchNorm" op_name="tower-pred-0/group2/block2/conv2/bn/FusedBatchNorm"}
  %subtract.98 = f32[1,256,50,76]{3,2,1,0} subtract(f32[1,256,50,76]{3,2,1,0} %param_3.324, f32[1,256,50,76]{3,2,1,0} %broadcast.574), metadata={op_type="FusedBatchNorm" op_name="tower-pred-0/group2/block2/conv2/bn/FusedBatchNorm"}
  %param_2.278 = f32[256]{0} parameter(2)
  %broadcast.573 = f32[1,256,50,76]{3,2,1,0} broadcast(f32[256]{0} %param_2.278), dimensions={1}
  %multiply.170 = f32[1,256,50,76]{3,2,1,0} multiply(f32[1,256,50,76]{3,2,1,0} %subtract.98, f32[1,256,50,76]{3,2,1,0} %broadcast.573), metadata={op_type="FusedBatchNorm" op_name="tower-pred-0/group2/block2/conv2/bn/FusedBatchNorm"}
  %param_1.342 = f32[256]{0} parameter(1)
  %broadcast.572 = f32[1,256,50,76]{3,2,1,0} broadcast(f32[256]{0} %param_1.342), dimensions={1}, metadata={op_type="FusedBatchNorm" op_name="tower-pred-0/group2/block2/conv2/bn/FusedBatchNorm"}
  %multiply.169 = f32[1,256,50,76]{3,2,1,0} multiply(f32[1,256,50,76]{3,2,1,0} %multiply.170, f32[1,256,50,76]{3,2,1,0} %broadcast.572), metadata={op_type="FusedBatchNorm" op_name="tower-pred-0/group2/block2/conv2/bn/FusedBatchNorm"}
  %param_0.282 = f32[256]{0} parameter(0)
  %broadcast.571 = f32[1,256,50,76]{3,2,1,0} broadcast(f32[256]{0} %param_0.282), dimensions={1}, metadata={op_type="FusedBatchNorm" op_name="tower-pred-0/group2/block2/conv2/bn/FusedBatchNorm"}
  %add.240 = f32[1,256,50,76]{3,2,1,0} add(f32[1,256,50,76]{3,2,1,0} %multiply.169, f32[1,256,50,76]{3,2,1,0} %broadcast.571), metadata={op_type="FusedBatchNorm" op_name="tower-pred-0/group2/block2/conv2/bn/FusedBatchNorm"}
  ROOT %maximum.24 = f32[1,256,50,76]{3,2,1,0} maximum(f32[1,256,50,76]{3,2,1,0} %broadcast.775, f32[1,256,50,76]{3,2,1,0} %add.240), metadata={op_type="Relu" op_name="tower-pred-0/group2/block2/conv2/Relu"}
}

%fused_computation.74 (param_0.155: f32[256]) -> f32[256] {
  %param_0.155 = f32[256]{0} parameter(0)
  %constant_250 = f32[] constant(1.001e-05)
  %broadcast.779 = f32[256]{0} broadcast(f32[] %constant_250), dimensions={}
  %add.241 = f32[256]{0} add(f32[256]{0} %param_0.155, f32[256]{0} %broadcast.779), metadata={op_type="FusedBatchNorm" op_name="tower-pred-0/group2/block2/conv2/bn/FusedBatchNorm"}
  ROOT %rsqrt.126 = f32[256]{0} rsqrt(f32[256]{0} %add.241), metadata={op_type="FusedBatchNorm" op_name="tower-pred-0/group2/block2/conv2/bn/FusedBatchNorm"}
}

%fused_computation.75 (param_0.283: f32[256], param_1.343: f32[256], param_2.279: f32[256], param_3.325: f32[1,256,50,76], param_4.282: f32[256]) -> f32[1,256,50,76] {
  %constant_248 = f32[] constant(0), metadata={op_type="Relu" op_name="tower-pred-0/conv0/Relu"}
  %broadcast.776 = f32[1,256,50,76]{3,2,1,0} broadcast(f32[] %constant_248), dimensions={}, metadata={op_type="Relu" op_name="tower-pred-0/group2/block0/conv2/Relu"}
  %param_3.325 = f32[1,256,50,76]{3,2,1,0} parameter(3)
  %param_4.282 = f32[256]{0} parameter(4)
  %broadcast.578 = f32[1,256,50,76]{3,2,1,0} broadcast(f32[256]{0} %param_4.282), dimensions={1}, metadata={op_type="FusedBatchNorm" op_name="tower-pred-0/group2/block2/conv1/bn/FusedBatchNorm"}
  %subtract.99 = f32[1,256,50,76]{3,2,1,0} subtract(f32[1,256,50,76]{3,2,1,0} %param_3.325, f32[1,256,50,76]{3,2,1,0} %broadcast.578), metadata={op_type="FusedBatchNorm" op_name="tower-pred-0/group2/block2/conv1/bn/FusedBatchNorm"}
  %param_2.279 = f32[256]{0} parameter(2)
  %broadcast.577 = f32[1,256,50,76]{3,2,1,0} broadcast(f32[256]{0} %param_2.279), dimensions={1}
  %multiply.172 = f32[1,256,50,76]{3,2,1,0} multiply(f32[1,256,50,76]{3,2,1,0} %subtract.99, f32[1,256,50,76]{3,2,1,0} %broadcast.577), metadata={op_type="FusedBatchNorm" op_name="tower-pred-0/group2/block2/conv1/bn/FusedBatchNorm"}
  %param_1.343 = f32[256]{0} parameter(1)
  %broadcast.576 = f32[1,256,50,76]{3,2,1,0} broadcast(f32[256]{0} %param_1.343), dimensions={1}, metadata={op_type="FusedBatchNorm" op_name="tower-pred-0/group2/block2/conv1/bn/FusedBatchNorm"}
  %multiply.171 = f32[1,256,50,76]{3,2,1,0} multiply(f32[1,256,50,76]{3,2,1,0} %multiply.172, f32[1,256,50,76]{3,2,1,0} %broadcast.576), metadata={op_type="FusedBatchNorm" op_name="tower-pred-0/group2/block2/conv1/bn/FusedBatchNorm"}
  %param_0.283 = f32[256]{0} parameter(0)
  %broadcast.575 = f32[1,256,50,76]{3,2,1,0} broadcast(f32[256]{0} %param_0.283), dimensions={1}, metadata={op_type="FusedBatchNorm" op_name="tower-pred-0/group2/block2/conv1/bn/FusedBatchNorm"}
  %add.242 = f32[1,256,50,76]{3,2,1,0} add(f32[1,256,50,76]{3,2,1,0} %multiply.171, f32[1,256,50,76]{3,2,1,0} %broadcast.575), metadata={op_type="FusedBatchNorm" op_name="tower-pred-0/group2/block2/conv1/bn/FusedBatchNorm"}
  ROOT %maximum.25 = f32[1,256,50,76]{3,2,1,0} maximum(f32[1,256,50,76]{3,2,1,0} %broadcast.776, f32[1,256,50,76]{3,2,1,0} %add.242), metadata={op_type="Relu" op_name="tower-pred-0/group2/block2/conv1/Relu"}
}

%fused_computation.76 (param_0.158: f32[256]) -> f32[256] {
  %param_0.158 = f32[256]{0} parameter(0)
  %constant_249 = f32[] constant(1.001e-05)
  %broadcast.777 = f32[256]{0} broadcast(f32[] %constant_249), dimensions={}
  %add.243 = f32[256]{0} add(f32[256]{0} %param_0.158, f32[256]{0} %broadcast.777), metadata={op_type="FusedBatchNorm" op_name="tower-pred-0/group2/block2/conv1/bn/FusedBatchNorm"}
  ROOT %rsqrt.127 = f32[256]{0} rsqrt(f32[256]{0} %add.243), metadata={op_type="FusedBatchNorm" op_name="tower-pred-0/group2/block2/conv1/bn/FusedBatchNorm"}
}

%fused_computation.77 (param_0.284: f32[1,1024,50,76], param_1.347: f32[1024], param_2.280: f32[1024], param_3.326: f32[1024], param_4.283: f32[1,1024,50,76], param_5.224: f32[1024]) -> f32[1,1024,50,76] {
  %constant_252 = f32[] constant(0), metadata={op_type="Relu" op_name="tower-pred-0/conv0/Relu"}
  %broadcast.781 = f32[1,1024,50,76]{3,2,1,0} broadcast(f32[] %constant_252), dimensions={}, metadata={op_type="Relu" op_name="tower-pred-0/group2/block5/output"}
  %param_0.284 = f32[1,1024,50,76]{3,2,1,0} parameter(0)
  %param_4.283 = f32[1,1024,50,76]{3,2,1,0} parameter(4)
  %param_5.224 = f32[1024]{0} parameter(5)
  %broadcast.584 = f32[1,1024,50,76]{3,2,1,0} broadcast(f32[1024]{0} %param_5.224), dimensions={1}, metadata={op_type="FusedBatchNorm" op_name="tower-pred-0/group2/block1/conv3/bn/FusedBatchNorm"}
  %subtract.100 = f32[1,1024,50,76]{3,2,1,0} subtract(f32[1,1024,50,76]{3,2,1,0} %param_4.283, f32[1,1024,50,76]{3,2,1,0} %broadcast.584), metadata={op_type="FusedBatchNorm" op_name="tower-pred-0/group2/block1/conv3/bn/FusedBatchNorm"}
  %param_3.326 = f32[1024]{0} parameter(3)
  %broadcast.583 = f32[1,1024,50,76]{3,2,1,0} broadcast(f32[1024]{0} %param_3.326), dimensions={1}
  %multiply.174 = f32[1,1024,50,76]{3,2,1,0} multiply(f32[1,1024,50,76]{3,2,1,0} %subtract.100, f32[1,1024,50,76]{3,2,1,0} %broadcast.583), metadata={op_type="FusedBatchNorm" op_name="tower-pred-0/group2/block1/conv3/bn/FusedBatchNorm"}
  %param_2.280 = f32[1024]{0} parameter(2)
  %broadcast.581 = f32[1,1024,50,76]{3,2,1,0} broadcast(f32[1024]{0} %param_2.280), dimensions={1}, metadata={op_type="FusedBatchNorm" op_name="tower-pred-0/group2/block1/conv3/bn/FusedBatchNorm"}
  %multiply.173 = f32[1,1024,50,76]{3,2,1,0} multiply(f32[1,1024,50,76]{3,2,1,0} %multiply.174, f32[1,1024,50,76]{3,2,1,0} %broadcast.581), metadata={op_type="FusedBatchNorm" op_name="tower-pred-0/group2/block1/conv3/bn/FusedBatchNorm"}
  %param_1.347 = f32[1024]{0} parameter(1)
  %broadcast.580 = f32[1,1024,50,76]{3,2,1,0} broadcast(f32[1024]{0} %param_1.347), dimensions={1}, metadata={op_type="FusedBatchNorm" op_name="tower-pred-0/group2/block1/conv3/bn/FusedBatchNorm"}
  %add.245 = f32[1,1024,50,76]{3,2,1,0} add(f32[1,1024,50,76]{3,2,1,0} %multiply.173, f32[1,1024,50,76]{3,2,1,0} %broadcast.580), metadata={op_type="FusedBatchNorm" op_name="tower-pred-0/group2/block1/conv3/bn/FusedBatchNorm"}
  %add.244 = f32[1,1024,50,76]{3,2,1,0} add(f32[1,1024,50,76]{3,2,1,0} %param_0.284, f32[1,1024,50,76]{3,2,1,0} %add.245), metadata={op_type="Add" op_name="tower-pred-0/group2/block1/add"}
  ROOT %maximum.26 = f32[1,1024,50,76]{3,2,1,0} maximum(f32[1,1024,50,76]{3,2,1,0} %broadcast.781, f32[1,1024,50,76]{3,2,1,0} %add.244), metadata={op_type="Relu" op_name="tower-pred-0/group2/block1/output"}
}

%fused_computation.78 (param_0.161: f32[1024]) -> f32[1024] {
  %param_0.161 = f32[1024]{0} parameter(0)
  %constant_257 = f32[] constant(1.001e-05)
  %broadcast.787 = f32[1024]{0} broadcast(f32[] %constant_257), dimensions={}
  %add.246 = f32[1024]{0} add(f32[1024]{0} %param_0.161, f32[1024]{0} %broadcast.787), metadata={op_type="FusedBatchNorm" op_name="tower-pred-0/group2/block1/conv3/bn/FusedBatchNorm"}
  ROOT %rsqrt.128 = f32[1024]{0} rsqrt(f32[1024]{0} %add.246), metadata={op_type="FusedBatchNorm" op_name="tower-pred-0/group2/block1/conv3/bn/FusedBatchNorm"}
}

%fused_computation.79 (param_0.285: f32[256], param_1.348: f32[256], param_2.281: f32[256], param_3.327: f32[1,256,50,76], param_4.284: f32[256]) -> f32[1,256,50,76] {
  %constant_253 = f32[] constant(0), metadata={op_type="Relu" op_name="tower-pred-0/conv0/Relu"}
  %broadcast.782 = f32[1,256,50,76]{3,2,1,0} broadcast(f32[] %constant_253), dimensions={}, metadata={op_type="Relu" op_name="tower-pred-0/group2/block0/conv2/Relu"}
  %param_3.327 = f32[1,256,50,76]{3,2,1,0} parameter(3)
  %param_4.284 = f32[256]{0} parameter(4)
  %broadcast.588 = f32[1,256,50,76]{3,2,1,0} broadcast(f32[256]{0} %param_4.284), dimensions={1}, metadata={op_type="FusedBatchNorm" op_name="tower-pred-0/group2/block1/conv2/bn/FusedBatchNorm"}
  %subtract.101 = f32[1,256,50,76]{3,2,1,0} subtract(f32[1,256,50,76]{3,2,1,0} %param_3.327, f32[1,256,50,76]{3,2,1,0} %broadcast.588), metadata={op_type="FusedBatchNorm" op_name="tower-pred-0/group2/block1/conv2/bn/FusedBatchNorm"}
  %param_2.281 = f32[256]{0} parameter(2)
  %broadcast.587 = f32[1,256,50,76]{3,2,1,0} broadcast(f32[256]{0} %param_2.281), dimensions={1}
  %multiply.176 = f32[1,256,50,76]{3,2,1,0} multiply(f32[1,256,50,76]{3,2,1,0} %subtract.101, f32[1,256,50,76]{3,2,1,0} %broadcast.587), metadata={op_type="FusedBatchNorm" op_name="tower-pred-0/group2/block1/conv2/bn/FusedBatchNorm"}
  %param_1.348 = f32[256]{0} parameter(1)
  %broadcast.586 = f32[1,256,50,76]{3,2,1,0} broadcast(f32[256]{0} %param_1.348), dimensions={1}, metadata={op_type="FusedBatchNorm" op_name="tower-pred-0/group2/block1/conv2/bn/FusedBatchNorm"}
  %multiply.175 = f32[1,256,50,76]{3,2,1,0} multiply(f32[1,256,50,76]{3,2,1,0} %multiply.176, f32[1,256,50,76]{3,2,1,0} %broadcast.586), metadata={op_type="FusedBatchNorm" op_name="tower-pred-0/group2/block1/conv2/bn/FusedBatchNorm"}
  %param_0.285 = f32[256]{0} parameter(0)
  %broadcast.585 = f32[1,256,50,76]{3,2,1,0} broadcast(f32[256]{0} %param_0.285), dimensions={1}, metadata={op_type="FusedBatchNorm" op_name="tower-pred-0/group2/block1/conv2/bn/FusedBatchNorm"}
  %add.247 = f32[1,256,50,76]{3,2,1,0} add(f32[1,256,50,76]{3,2,1,0} %multiply.175, f32[1,256,50,76]{3,2,1,0} %broadcast.585), metadata={op_type="FusedBatchNorm" op_name="tower-pred-0/group2/block1/conv2/bn/FusedBatchNorm"}
  ROOT %maximum.27 = f32[1,256,50,76]{3,2,1,0} maximum(f32[1,256,50,76]{3,2,1,0} %broadcast.782, f32[1,256,50,76]{3,2,1,0} %add.247), metadata={op_type="Relu" op_name="tower-pred-0/group2/block1/conv2/Relu"}
}

%fused_computation.80 (param_0.164: f32[256]) -> f32[256] {
  %param_0.164 = f32[256]{0} parameter(0)
  %constant_256 = f32[] constant(1.001e-05)
  %broadcast.785 = f32[256]{0} broadcast(f32[] %constant_256), dimensions={}
  %add.248 = f32[256]{0} add(f32[256]{0} %param_0.164, f32[256]{0} %broadcast.785), metadata={op_type="FusedBatchNorm" op_name="tower-pred-0/group2/block1/conv2/bn/FusedBatchNorm"}
  ROOT %rsqrt.129 = f32[256]{0} rsqrt(f32[256]{0} %add.248), metadata={op_type="FusedBatchNorm" op_name="tower-pred-0/group2/block1/conv2/bn/FusedBatchNorm"}
}

%fused_computation.81 (param_0.286: f32[256], param_1.349: f32[256], param_2.282: f32[256], param_3.328: f32[1,256,50,76], param_4.285: f32[256]) -> f32[1,256,50,76] {
  %constant_254 = f32[] constant(0), metadata={op_type="Relu" op_name="tower-pred-0/conv0/Relu"}
  %broadcast.783 = f32[1,256,50,76]{3,2,1,0} broadcast(f32[] %constant_254), dimensions={}, metadata={op_type="Relu" op_name="tower-pred-0/group2/block0/conv2/Relu"}
  %param_3.328 = f32[1,256,50,76]{3,2,1,0} parameter(3)
  %param_4.285 = f32[256]{0} parameter(4)
  %broadcast.593 = f32[1,256,50,76]{3,2,1,0} broadcast(f32[256]{0} %param_4.285), dimensions={1}, metadata={op_type="FusedBatchNorm" op_name="tower-pred-0/group2/block1/conv1/bn/FusedBatchNorm"}
  %subtract.102 = f32[1,256,50,76]{3,2,1,0} subtract(f32[1,256,50,76]{3,2,1,0} %param_3.328, f32[1,256,50,76]{3,2,1,0} %broadcast.593), metadata={op_type="FusedBatchNorm" op_name="tower-pred-0/group2/block1/conv1/bn/FusedBatchNorm"}
  %param_2.282 = f32[256]{0} parameter(2)
  %broadcast.592 = f32[1,256,50,76]{3,2,1,0} broadcast(f32[256]{0} %param_2.282), dimensions={1}
  %multiply.178 = f32[1,256,50,76]{3,2,1,0} multiply(f32[1,256,50,76]{3,2,1,0} %subtract.102, f32[1,256,50,76]{3,2,1,0} %broadcast.592), metadata={op_type="FusedBatchNorm" op_name="tower-pred-0/group2/block1/conv1/bn/FusedBatchNorm"}
  %param_1.349 = f32[256]{0} parameter(1)
  %broadcast.591 = f32[1,256,50,76]{3,2,1,0} broadcast(f32[256]{0} %param_1.349), dimensions={1}, metadata={op_type="FusedBatchNorm" op_name="tower-pred-0/group2/block1/conv1/bn/FusedBatchNorm"}
  %multiply.177 = f32[1,256,50,76]{3,2,1,0} multiply(f32[1,256,50,76]{3,2,1,0} %multiply.178, f32[1,256,50,76]{3,2,1,0} %broadcast.591), metadata={op_type="FusedBatchNorm" op_name="tower-pred-0/group2/block1/conv1/bn/FusedBatchNorm"}
  %param_0.286 = f32[256]{0} parameter(0)
  %broadcast.589 = f32[1,256,50,76]{3,2,1,0} broadcast(f32[256]{0} %param_0.286), dimensions={1}, metadata={op_type="FusedBatchNorm" op_name="tower-pred-0/group2/block1/conv1/bn/FusedBatchNorm"}
  %add.249 = f32[1,256,50,76]{3,2,1,0} add(f32[1,256,50,76]{3,2,1,0} %multiply.177, f32[1,256,50,76]{3,2,1,0} %broadcast.589), metadata={op_type="FusedBatchNorm" op_name="tower-pred-0/group2/block1/conv1/bn/FusedBatchNorm"}
  ROOT %maximum.28 = f32[1,256,50,76]{3,2,1,0} maximum(f32[1,256,50,76]{3,2,1,0} %broadcast.783, f32[1,256,50,76]{3,2,1,0} %add.249), metadata={op_type="Relu" op_name="tower-pred-0/group2/block1/conv1/Relu"}
}

%fused_computation.82 (param_0.167: f32[256]) -> f32[256] {
  %param_0.167 = f32[256]{0} parameter(0)
  %constant_255 = f32[] constant(1.001e-05)
  %broadcast.784 = f32[256]{0} broadcast(f32[] %constant_255), dimensions={}
  %add.250 = f32[256]{0} add(f32[256]{0} %param_0.167, f32[256]{0} %broadcast.784), metadata={op_type="FusedBatchNorm" op_name="tower-pred-0/group2/block1/conv1/bn/FusedBatchNorm"}
  ROOT %rsqrt.130 = f32[256]{0} rsqrt(f32[256]{0} %add.250), metadata={op_type="FusedBatchNorm" op_name="tower-pred-0/group2/block1/conv1/bn/FusedBatchNorm"}
}

%fused_computation.83 (param_0.287: f32[1024], param_1.353: f32[1024], param_2.283: f32[1024], param_3.329: f32[1,1024,50,76], param_4.286: f32[1024], param_5.227: f32[1024], param_6.114: f32[1024], param_7.62: f32[1024], param_8.17: f32[1,1024,50,76], param_9.13: f32[1024]) -> f32[1,1024,50,76] {
  %constant_258 = f32[] constant(0), metadata={op_type="Relu" op_name="tower-pred-0/conv0/Relu"}
  %broadcast.788 = f32[1,1024,50,76]{3,2,1,0} broadcast(f32[] %constant_258), dimensions={}, metadata={op_type="Relu" op_name="tower-pred-0/group2/block5/output"}
  %param_8.17 = f32[1,1024,50,76]{3,2,1,0} parameter(8)
  %param_9.13 = f32[1024]{0} parameter(9)
  %broadcast.603 = f32[1,1024,50,76]{3,2,1,0} broadcast(f32[1024]{0} %param_9.13), dimensions={1}, metadata={op_type="FusedBatchNorm" op_name="tower-pred-0/group2/block0/conv3/bn/FusedBatchNorm"}
  %subtract.104 = f32[1,1024,50,76]{3,2,1,0} subtract(f32[1,1024,50,76]{3,2,1,0} %param_8.17, f32[1,1024,50,76]{3,2,1,0} %broadcast.603), metadata={op_type="FusedBatchNorm" op_name="tower-pred-0/group2/block0/conv3/bn/FusedBatchNorm"}
  %param_7.62 = f32[1024]{0} parameter(7)
  %broadcast.602 = f32[1,1024,50,76]{3,2,1,0} broadcast(f32[1024]{0} %param_7.62), dimensions={1}
  %multiply.182 = f32[1,1024,50,76]{3,2,1,0} multiply(f32[1,1024,50,76]{3,2,1,0} %subtract.104, f32[1,1024,50,76]{3,2,1,0} %broadcast.602), metadata={op_type="FusedBatchNorm" op_name="tower-pred-0/group2/block0/conv3/bn/FusedBatchNorm"}
  %param_6.114 = f32[1024]{0} parameter(6)
  %broadcast.601 = f32[1,1024,50,76]{3,2,1,0} broadcast(f32[1024]{0} %param_6.114), dimensions={1}, metadata={op_type="FusedBatchNorm" op_name="tower-pred-0/group2/block0/conv3/bn/FusedBatchNorm"}
  %multiply.181 = f32[1,1024,50,76]{3,2,1,0} multiply(f32[1,1024,50,76]{3,2,1,0} %multiply.182, f32[1,1024,50,76]{3,2,1,0} %broadcast.601), metadata={op_type="FusedBatchNorm" op_name="tower-pred-0/group2/block0/conv3/bn/FusedBatchNorm"}
  %param_5.227 = f32[1024]{0} parameter(5)
  %broadcast.600 = f32[1,1024,50,76]{3,2,1,0} broadcast(f32[1024]{0} %param_5.227), dimensions={1}, metadata={op_type="FusedBatchNorm" op_name="tower-pred-0/group2/block0/conv3/bn/FusedBatchNorm"}
  %add.253 = f32[1,1024,50,76]{3,2,1,0} add(f32[1,1024,50,76]{3,2,1,0} %multiply.181, f32[1,1024,50,76]{3,2,1,0} %broadcast.600), metadata={op_type="FusedBatchNorm" op_name="tower-pred-0/group2/block0/conv3/bn/FusedBatchNorm"}
  %param_3.329 = f32[1,1024,50,76]{3,2,1,0} parameter(3)
  %param_4.286 = f32[1024]{0} parameter(4)
  %broadcast.599 = f32[1,1024,50,76]{3,2,1,0} broadcast(f32[1024]{0} %param_4.286), dimensions={1}, metadata={op_type="FusedBatchNorm" op_name="tower-pred-0/group2/block0/convshortcut/bn/FusedBatchNorm"}
  %subtract.103 = f32[1,1024,50,76]{3,2,1,0} subtract(f32[1,1024,50,76]{3,2,1,0} %param_3.329, f32[1,1024,50,76]{3,2,1,0} %broadcast.599), metadata={op_type="FusedBatchNorm" op_name="tower-pred-0/group2/block0/convshortcut/bn/FusedBatchNorm"}
  %param_2.283 = f32[1024]{0} parameter(2)
  %broadcast.597 = f32[1,1024,50,76]{3,2,1,0} broadcast(f32[1024]{0} %param_2.283), dimensions={1}
  %multiply.180 = f32[1,1024,50,76]{3,2,1,0} multiply(f32[1,1024,50,76]{3,2,1,0} %subtract.103, f32[1,1024,50,76]{3,2,1,0} %broadcast.597), metadata={op_type="FusedBatchNorm" op_name="tower-pred-0/group2/block0/convshortcut/bn/FusedBatchNorm"}
  %param_1.353 = f32[1024]{0} parameter(1)
  %broadcast.596 = f32[1,1024,50,76]{3,2,1,0} broadcast(f32[1024]{0} %param_1.353), dimensions={1}, metadata={op_type="FusedBatchNorm" op_name="tower-pred-0/group2/block0/convshortcut/bn/FusedBatchNorm"}
  %multiply.179 = f32[1,1024,50,76]{3,2,1,0} multiply(f32[1,1024,50,76]{3,2,1,0} %multiply.180, f32[1,1024,50,76]{3,2,1,0} %broadcast.596), metadata={op_type="FusedBatchNorm" op_name="tower-pred-0/group2/block0/convshortcut/bn/FusedBatchNorm"}
  %param_0.287 = f32[1024]{0} parameter(0)
  %broadcast.595 = f32[1,1024,50,76]{3,2,1,0} broadcast(f32[1024]{0} %param_0.287), dimensions={1}, metadata={op_type="FusedBatchNorm" op_name="tower-pred-0/group2/block0/convshortcut/bn/FusedBatchNorm"}
  %add.252 = f32[1,1024,50,76]{3,2,1,0} add(f32[1,1024,50,76]{3,2,1,0} %multiply.179, f32[1,1024,50,76]{3,2,1,0} %broadcast.595), metadata={op_type="FusedBatchNorm" op_name="tower-pred-0/group2/block0/convshortcut/bn/FusedBatchNorm"}
  %add.251 = f32[1,1024,50,76]{3,2,1,0} add(f32[1,1024,50,76]{3,2,1,0} %add.253, f32[1,1024,50,76]{3,2,1,0} %add.252), metadata={op_type="Add" op_name="tower-pred-0/group2/block0/add"}
  ROOT %maximum.29 = f32[1,1024,50,76]{3,2,1,0} maximum(f32[1,1024,50,76]{3,2,1,0} %broadcast.788, f32[1,1024,50,76]{3,2,1,0} %add.251), metadata={op_type="Relu" op_name="tower-pred-0/group2/block0/output"}
}

%fused_computation.84 (param_0.170: f32[1024]) -> f32[1024] {
  %param_0.170 = f32[1024]{0} parameter(0)
  %constant_307 = f32[] constant(1.001e-05)
  %broadcast.844 = f32[1024]{0} broadcast(f32[] %constant_307), dimensions={}
  %add.254 = f32[1024]{0} add(f32[1024]{0} %param_0.170, f32[1024]{0} %broadcast.844), metadata={op_type="FusedBatchNorm" op_name="tower-pred-0/group2/block0/convshortcut/bn/FusedBatchNorm"}
  ROOT %rsqrt.131 = f32[1024]{0} rsqrt(f32[1024]{0} %add.254), metadata={op_type="FusedBatchNorm" op_name="tower-pred-0/group2/block0/convshortcut/bn/FusedBatchNorm"}
}

%fused_computation.85 (param_0.172: f32[1024]) -> f32[1024] {
  %param_0.172 = f32[1024]{0} parameter(0)
  %constant_262 = f32[] constant(1.001e-05)
  %broadcast.792 = f32[1024]{0} broadcast(f32[] %constant_262), dimensions={}
  %add.255 = f32[1024]{0} add(f32[1024]{0} %param_0.172, f32[1024]{0} %broadcast.792), metadata={op_type="FusedBatchNorm" op_name="tower-pred-0/group2/block0/conv3/bn/FusedBatchNorm"}
  ROOT %rsqrt.132 = f32[1024]{0} rsqrt(f32[1024]{0} %add.255), metadata={op_type="FusedBatchNorm" op_name="tower-pred-0/group2/block0/conv3/bn/FusedBatchNorm"}
}

%fused_computation.86 (param_0.288: f32[256], param_1.354: f32[256], param_2.284: f32[256], param_3.330: f32[1,256,50,76], param_4.287: f32[256]) -> f32[1,256,50,76] {
  %constant_259 = f32[] constant(0), metadata={op_type="Relu" op_name="tower-pred-0/conv0/Relu"}
  %broadcast.789 = f32[1,256,50,76]{3,2,1,0} broadcast(f32[] %constant_259), dimensions={}, metadata={op_type="Relu" op_name="tower-pred-0/group2/block0/conv2/Relu"}
  %param_3.330 = f32[1,256,50,76]{3,2,1,0} parameter(3)
  %param_4.287 = f32[256]{0} parameter(4)
  %broadcast.607 = f32[1,256,50,76]{3,2,1,0} broadcast(f32[256]{0} %param_4.287), dimensions={1}, metadata={op_type="FusedBatchNorm" op_name="tower-pred-0/group2/block0/conv2/bn/FusedBatchNorm"}
  %subtract.105 = f32[1,256,50,76]{3,2,1,0} subtract(f32[1,256,50,76]{3,2,1,0} %param_3.330, f32[1,256,50,76]{3,2,1,0} %broadcast.607), metadata={op_type="FusedBatchNorm" op_name="tower-pred-0/group2/block0/conv2/bn/FusedBatchNorm"}
  %param_2.284 = f32[256]{0} parameter(2)
  %broadcast.606 = f32[1,256,50,76]{3,2,1,0} broadcast(f32[256]{0} %param_2.284), dimensions={1}
  %multiply.184 = f32[1,256,50,76]{3,2,1,0} multiply(f32[1,256,50,76]{3,2,1,0} %subtract.105, f32[1,256,50,76]{3,2,1,0} %broadcast.606), metadata={op_type="FusedBatchNorm" op_name="tower-pred-0/group2/block0/conv2/bn/FusedBatchNorm"}
  %param_1.354 = f32[256]{0} parameter(1)
  %broadcast.605 = f32[1,256,50,76]{3,2,1,0} broadcast(f32[256]{0} %param_1.354), dimensions={1}, metadata={op_type="FusedBatchNorm" op_name="tower-pred-0/group2/block0/conv2/bn/FusedBatchNorm"}
  %multiply.183 = f32[1,256,50,76]{3,2,1,0} multiply(f32[1,256,50,76]{3,2,1,0} %multiply.184, f32[1,256,50,76]{3,2,1,0} %broadcast.605), metadata={op_type="FusedBatchNorm" op_name="tower-pred-0/group2/block0/conv2/bn/FusedBatchNorm"}
  %param_0.288 = f32[256]{0} parameter(0)
  %broadcast.604 = f32[1,256,50,76]{3,2,1,0} broadcast(f32[256]{0} %param_0.288), dimensions={1}, metadata={op_type="FusedBatchNorm" op_name="tower-pred-0/group2/block0/conv2/bn/FusedBatchNorm"}
  %add.256 = f32[1,256,50,76]{3,2,1,0} add(f32[1,256,50,76]{3,2,1,0} %multiply.183, f32[1,256,50,76]{3,2,1,0} %broadcast.604), metadata={op_type="FusedBatchNorm" op_name="tower-pred-0/group2/block0/conv2/bn/FusedBatchNorm"}
  ROOT %maximum.30 = f32[1,256,50,76]{3,2,1,0} maximum(f32[1,256,50,76]{3,2,1,0} %broadcast.789, f32[1,256,50,76]{3,2,1,0} %add.256), metadata={op_type="Relu" op_name="tower-pred-0/group2/block0/conv2/Relu"}
}

%fused_computation.87 (param_0.175: f32[256]) -> f32[256] {
  %param_0.175 = f32[256]{0} parameter(0)
  %constant_261 = f32[] constant(1.001e-05)
  %broadcast.791 = f32[256]{0} broadcast(f32[] %constant_261), dimensions={}
  %add.257 = f32[256]{0} add(f32[256]{0} %param_0.175, f32[256]{0} %broadcast.791), metadata={op_type="FusedBatchNorm" op_name="tower-pred-0/group2/block0/conv2/bn/FusedBatchNorm"}
  ROOT %rsqrt.133 = f32[256]{0} rsqrt(f32[256]{0} %add.257), metadata={op_type="FusedBatchNorm" op_name="tower-pred-0/group2/block0/conv2/bn/FusedBatchNorm"}
}

%fused_computation.88 (param_0.178: f32[256], param_1.202: f32[256], param_2.160: f32[256], param_3.198: f32[1,256,100,152], param_4.173: f32[256]) -> f32[1,256,101,153] {
  %constant_202 = f32[] constant(0), metadata={op_type="Relu" op_name="tower-pred-0/conv0/Relu"}
  %broadcast.612 = f32[1,256,100,152]{3,2,1,0} broadcast(f32[] %constant_202), dimensions={}, metadata={op_type="Relu" op_name="tower-pred-0/group2/block0/conv1/Relu"}
  %param_3.198 = f32[1,256,100,152]{3,2,1,0} parameter(3)
  %param_4.173 = f32[256]{0} parameter(4)
  %broadcast.611 = f32[1,256,100,152]{3,2,1,0} broadcast(f32[256]{0} %param_4.173), dimensions={1}, metadata={op_type="FusedBatchNorm" op_name="tower-pred-0/group2/block0/conv1/bn/FusedBatchNorm"}
  %subtract.106 = f32[1,256,100,152]{3,2,1,0} subtract(f32[1,256,100,152]{3,2,1,0} %param_3.198, f32[1,256,100,152]{3,2,1,0} %broadcast.611), metadata={op_type="FusedBatchNorm" op_name="tower-pred-0/group2/block0/conv1/bn/FusedBatchNorm"}
  %param_2.160 = f32[256]{0} parameter(2)
  %broadcast.610 = f32[1,256,100,152]{3,2,1,0} broadcast(f32[256]{0} %param_2.160), dimensions={1}
  %multiply.186 = f32[1,256,100,152]{3,2,1,0} multiply(f32[1,256,100,152]{3,2,1,0} %subtract.106, f32[1,256,100,152]{3,2,1,0} %broadcast.610), metadata={op_type="FusedBatchNorm" op_name="tower-pred-0/group2/block0/conv1/bn/FusedBatchNorm"}
  %param_1.202 = f32[256]{0} parameter(1)
  %broadcast.609 = f32[1,256,100,152]{3,2,1,0} broadcast(f32[256]{0} %param_1.202), dimensions={1}, metadata={op_type="FusedBatchNorm" op_name="tower-pred-0/group2/block0/conv1/bn/FusedBatchNorm"}
  %multiply.185 = f32[1,256,100,152]{3,2,1,0} multiply(f32[1,256,100,152]{3,2,1,0} %multiply.186, f32[1,256,100,152]{3,2,1,0} %broadcast.609), metadata={op_type="FusedBatchNorm" op_name="tower-pred-0/group2/block0/conv1/bn/FusedBatchNorm"}
  %param_0.178 = f32[256]{0} parameter(0)
  %broadcast.608 = f32[1,256,100,152]{3,2,1,0} broadcast(f32[256]{0} %param_0.178), dimensions={1}, metadata={op_type="FusedBatchNorm" op_name="tower-pred-0/group2/block0/conv1/bn/FusedBatchNorm"}
  %add.258 = f32[1,256,100,152]{3,2,1,0} add(f32[1,256,100,152]{3,2,1,0} %multiply.185, f32[1,256,100,152]{3,2,1,0} %broadcast.608), metadata={op_type="FusedBatchNorm" op_name="tower-pred-0/group2/block0/conv1/bn/FusedBatchNorm"}
  %maximum.31 = f32[1,256,100,152]{3,2,1,0} maximum(f32[1,256,100,152]{3,2,1,0} %broadcast.612, f32[1,256,100,152]{3,2,1,0} %add.258), metadata={op_type="Relu" op_name="tower-pred-0/group2/block0/conv1/Relu"}
  ROOT %pad.13 = f32[1,256,101,153]{3,2,1,0} pad(f32[1,256,100,152]{3,2,1,0} %maximum.31, f32[] %constant_202), padding=0_0x0_0x1_0x1_0
}

%fused_computation.89 (param_0.180: f32[256]) -> f32[256] {
  %param_0.180 = f32[256]{0} parameter(0)
  %constant_260 = f32[] constant(1.001e-05)
  %broadcast.790 = f32[256]{0} broadcast(f32[] %constant_260), dimensions={}
  %add.259 = f32[256]{0} add(f32[256]{0} %param_0.180, f32[256]{0} %broadcast.790), metadata={op_type="FusedBatchNorm" op_name="tower-pred-0/group2/block0/conv1/bn/FusedBatchNorm"}
  ROOT %rsqrt.134 = f32[256]{0} rsqrt(f32[256]{0} %add.259), metadata={op_type="FusedBatchNorm" op_name="tower-pred-0/group2/block0/conv1/bn/FusedBatchNorm"}
}

%fused_computation.90 (param_0.289: f32[1,512,100,152], param_1.358: f32[512], param_2.285: f32[512], param_3.331: f32[512], param_4.288: f32[1,512,100,152], param_5.229: f32[512]) -> f32[1,512,100,152] {
  %constant_263 = f32[] constant(0), metadata={op_type="Relu" op_name="tower-pred-0/conv0/Relu"}
  %broadcast.794 = f32[1,512,100,152]{3,2,1,0} broadcast(f32[] %constant_263), dimensions={}, metadata={op_type="Relu" op_name="tower-pred-0/group1/block3/output"}
  %param_0.289 = f32[1,512,100,152]{3,2,1,0} parameter(0)
  %param_4.288 = f32[1,512,100,152]{3,2,1,0} parameter(4)
  %param_5.229 = f32[512]{0} parameter(5)
  %broadcast.616 = f32[1,512,100,152]{3,2,1,0} broadcast(f32[512]{0} %param_5.229), dimensions={1}, metadata={op_type="FusedBatchNorm" op_name="tower-pred-0/group1/block3/conv3/bn/FusedBatchNorm"}
  %subtract.107 = f32[1,512,100,152]{3,2,1,0} subtract(f32[1,512,100,152]{3,2,1,0} %param_4.288, f32[1,512,100,152]{3,2,1,0} %broadcast.616), metadata={op_type="FusedBatchNorm" op_name="tower-pred-0/group1/block3/conv3/bn/FusedBatchNorm"}
  %param_3.331 = f32[512]{0} parameter(3)
  %broadcast.615 = f32[1,512,100,152]{3,2,1,0} broadcast(f32[512]{0} %param_3.331), dimensions={1}
  %multiply.188 = f32[1,512,100,152]{3,2,1,0} multiply(f32[1,512,100,152]{3,2,1,0} %subtract.107, f32[1,512,100,152]{3,2,1,0} %broadcast.615), metadata={op_type="FusedBatchNorm" op_name="tower-pred-0/group1/block3/conv3/bn/FusedBatchNorm"}
  %param_2.285 = f32[512]{0} parameter(2)
  %broadcast.614 = f32[1,512,100,152]{3,2,1,0} broadcast(f32[512]{0} %param_2.285), dimensions={1}, metadata={op_type="FusedBatchNorm" op_name="tower-pred-0/group1/block3/conv3/bn/FusedBatchNorm"}
  %multiply.187 = f32[1,512,100,152]{3,2,1,0} multiply(f32[1,512,100,152]{3,2,1,0} %multiply.188, f32[1,512,100,152]{3,2,1,0} %broadcast.614), metadata={op_type="FusedBatchNorm" op_name="tower-pred-0/group1/block3/conv3/bn/FusedBatchNorm"}
  %param_1.358 = f32[512]{0} parameter(1)
  %broadcast.613 = f32[1,512,100,152]{3,2,1,0} broadcast(f32[512]{0} %param_1.358), dimensions={1}, metadata={op_type="FusedBatchNorm" op_name="tower-pred-0/group1/block3/conv3/bn/FusedBatchNorm"}
  %add.261 = f32[1,512,100,152]{3,2,1,0} add(f32[1,512,100,152]{3,2,1,0} %multiply.187, f32[1,512,100,152]{3,2,1,0} %broadcast.613), metadata={op_type="FusedBatchNorm" op_name="tower-pred-0/group1/block3/conv3/bn/FusedBatchNorm"}
  %add.260 = f32[1,512,100,152]{3,2,1,0} add(f32[1,512,100,152]{3,2,1,0} %param_0.289, f32[1,512,100,152]{3,2,1,0} %add.261), metadata={op_type="Add" op_name="tower-pred-0/group1/block3/add"}
  ROOT %maximum.32 = f32[1,512,100,152]{3,2,1,0} maximum(f32[1,512,100,152]{3,2,1,0} %broadcast.794, f32[1,512,100,152]{3,2,1,0} %add.260), metadata={op_type="Relu" op_name="tower-pred-0/group1/block3/output"}
}

%fused_computation.91 (param_0.183: f32[512]) -> f32[512] {
  %param_0.183 = f32[512]{0} parameter(0)
  %constant_268 = f32[] constant(1.001e-05)
  %broadcast.799 = f32[512]{0} broadcast(f32[] %constant_268), dimensions={}
  %add.262 = f32[512]{0} add(f32[512]{0} %param_0.183, f32[512]{0} %broadcast.799), metadata={op_type="FusedBatchNorm" op_name="tower-pred-0/group1/block3/conv3/bn/FusedBatchNorm"}
  ROOT %rsqrt.135 = f32[512]{0} rsqrt(f32[512]{0} %add.262), metadata={op_type="FusedBatchNorm" op_name="tower-pred-0/group1/block3/conv3/bn/FusedBatchNorm"}
}

…
  %custom-call.124 = (f32[1,256,50,76]{3,2,1,0}, u8[22808]{0}) custom-call(f32[1,1024,50,76]{3,2,1,0} %fusion.59, f32[1,1,1024,256]{1,0,2,3} %copy.123), window={size=1x1}, dim_labels=bf01_01io->bf01, custom_call_target="__cudnn$convForward", metadata={op_type="Conv2D" op_name="tower-pred-0/group2/block5/conv1/Conv2D"}, backend_config="{\"algorithm\":\"1\",\"convResultScale\":1}"
  %get-tuple-element.120 = f32[1,256,50,76]{3,2,1,0} get-tuple-element((f32[1,256,50,76]{3,2,1,0}, u8[22808]{0}) %custom-call.124), index=0
  %arg207.208 = f32[256]{0} parameter(207), parameter_replication={false}, metadata={op_name="XLA_Args"}
  %fusion.57 = f32[1,256,50,76]{3,2,1,0} fusion(f32[256]{0} %arg206.207, f32[256]{0} %arg205.206, f32[256]{0} %fusion.58, f32[1,256,50,76]{3,2,1,0} %get-tuple-element.120, f32[256]{0} %arg207.208), kind=kLoop, calls=%fused_computation.57, metadata={op_type="Relu" op_name="tower-pred-0/group2/block5/conv1/Relu"}
  %arg209.210 = f32[3,3,256,256]{3,2,1,0} parameter(209), parameter_replication={false}, metadata={op_name="XLA_Args"}
  %copy.124 = f32[3,3,256,256]{1,0,2,3} copy(f32[3,3,256,256]{3,2,1,0} %arg209.210), metadata={op_name="XLA_Args"}
  %custom-call.125 = (f32[1,256,50,76]{3,2,1,0}, u8[6554624]{0}) custom-call(f32[1,256,50,76]{3,2,1,0} %fusion.57, f32[3,3,256,256]{1,0,2,3} %copy.124), window={size=3x3 pad=1_1x1_1}, dim_labels=bf01_01io->bf01, custom_call_target="__cudnn$convForward", metadata={op_type="Conv2D" op_name="tower-pred-0/group2/block5/conv2/Conv2D"}, backend_config="{\"algorithm\":\"6\",\"tensorOpsEnabled\":true,\"convResultScale\":1}"
  %get-tuple-element.121 = f32[1,256,50,76]{3,2,1,0} get-tuple-element((f32[1,256,50,76]{3,2,1,0}, u8[6554624]{0}) %custom-call.125), index=0
  %arg212.213 = f32[256]{0} parameter(212), parameter_replication={false}, metadata={op_name="XLA_Args"}
  %fusion.55 = f32[1,256,50,76]{3,2,1,0} fusion(f32[256]{0} %arg211.212, f32[256]{0} %arg210.211, f32[256]{0} %fusion.56, f32[1,256,50,76]{3,2,1,0} %get-tuple-element.121, f32[256]{0} %arg212.213), kind=kLoop, calls=%fused_computation.55, metadata={op_type="Relu" op_name="tower-pred-0/group2/block5/conv2/Relu"}
  %arg214.215 = f32[1,1,256,1024]{3,2,1,0} parameter(214), parameter_replication={false}, metadata={op_name="XLA_Args"}
  %copy.125 = f32[1,1,256,1024]{1,0,2,3} copy(f32[1,1,256,1024]{3,2,1,0} %arg214.215), metadata={op_name="XLA_Args"}
  %custom-call.126 = (f32[1,1024,50,76]{3,2,1,0}, u8[22808]{0}) custom-call(f32[1,256,50,76]{3,2,1,0} %fusion.55, f32[1,1,256,1024]{1,0,2,3} %copy.125), window={size=1x1}, dim_labels=bf01_01io->bf01, custom_call_target="__cudnn$convForward", metadata={op_type="Conv2D" op_name="tower-pred-0/group2/block5/conv3/Conv2D"}, backend_config="{\"algorithm\":\"1\",\"tensorOpsEnabled\":true,\"convResultScale\":1}"
  %get-tuple-element.122 = f32[1,1024,50,76]{3,2,1,0} get-tuple-element((f32[1,1024,50,76]{3,2,1,0}, u8[22808]{0}) %custom-call.126), index=0
  %arg217.218 = f32[1024]{0} parameter(217), parameter_replication={false}, metadata={op_name="XLA_Args"}
  %fusion.53 = f32[1,1024,50,76]{3,2,1,0} fusion(f32[1,1024,50,76]{3,2,1,0} %fusion.59, f32[1024]{0} %arg216.217, f32[1024]{0} %arg215.216, f32[1024]{0} %fusion.54, f32[1,1024,50,76]{3,2,1,0} %get-tuple-element.122, f32[1024]{0} %arg217.218), kind=kLoop, calls=%fused_computation.53, metadata={op_type="Relu" op_name="tower-pred-0/group2/block5/output"}
  %arg219.220 = f32[1,1,1024,2048]{3,2,1,0} parameter(219), parameter_replication={false}, metadata={op_name="XLA_Args"}
  %copy.129 = f32[1,1,1024,2048]{1,0,2,3} copy(f32[1,1,1024,2048]{3,2,1,0} %arg219.220), metadata={op_name="XLA_Args"}
  %custom-call.130 = (f32[1,2048,25,38]{3,2,1,0}, u8[0]{0}) custom-call(f32[1,1024,50,76]{3,2,1,0} %fusion.53, f32[1,1,1024,2048]{1,0,2,3} %copy.129), window={size=1x1 stride=2x2}, dim_labels=bf01_01io->bf01, custom_call_target="__cudnn$convForward", metadata={op_type="Conv2D" op_name="tower-pred-0/group3/block0/convshortcut/Conv2D"}, backend_config="{\"convResultScale\":1}"
  %get-tuple-element.126 = f32[1,2048,25,38]{3,2,1,0} get-tuple-element((f32[1,2048,25,38]{3,2,1,0}, u8[0]{0}) %custom-call.130), index=0
  %arg224.225 = f32[2048]{0} parameter(224), parameter_replication={false}, metadata={op_name="XLA_Args"}
  %arg238.239 = f32[2048]{0} parameter(238), parameter_replication={false}, metadata={op_name="XLA_Args"}
  %arg237.238 = f32[2048]{0} parameter(237), parameter_replication={false}, metadata={op_name="XLA_Args"}
  %arg240.241 = f32[2048]{0} parameter(240), parameter_replication={false}, metadata={op_name="XLA_Args"}
  %fusion.48 = f32[2048]{0} fusion(f32[2048]{0} %arg240.241), kind=kLoop, calls=%fused_computation.48, metadata={op_type="FusedBatchNorm" op_name="tower-pred-0/group3/block0/conv3/bn/FusedBatchNorm"}
  %arg233.234 = f32[512]{0} parameter(233), parameter_replication={false}, metadata={op_name="XLA_Args"}
  %arg232.233 = f32[512]{0} parameter(232), parameter_replication={false}, metadata={op_name="XLA_Args"}
  %arg235.236 = f32[512]{0} parameter(235), parameter_replication={false}, metadata={op_name="XLA_Args"}
  %fusion.50 = f32[512]{0} fusion(f32[512]{0} %arg235.236), kind=kLoop, calls=%fused_computation.50, metadata={op_type="FusedBatchNorm" op_name="tower-pred-0/group3/block0/conv2/bn/FusedBatchNorm"}
  %arg227.228 = f32[512]{0} parameter(227), parameter_replication={false}, metadata={op_name="XLA_Args"}
  %arg226.227 = f32[512]{0} parameter(226), parameter_replication={false}, metadata={op_name="XLA_Args"}
  %arg229.230 = f32[512]{0} parameter(229), parameter_replication={false}, metadata={op_name="XLA_Args"}
  %fusion.52 = f32[512]{0} fusion(f32[512]{0} %arg229.230), kind=kLoop, calls=%fused_computation.52, metadata={op_type="FusedBatchNorm" op_name="tower-pred-0/group3/block0/conv1/bn/FusedBatchNorm"}
  %arg220.221 = f32[1,1,1024,512]{3,2,1,0} parameter(220), parameter_replication={false}, metadata={op_name="XLA_Args"}
  %copy.126 = f32[1,1,1024,512]{1,0,2,3} copy(f32[1,1,1024,512]{3,2,1,0} %arg220.221), metadata={op_name="XLA_Args"}
  %custom-call.128 = (f32[1,512,50,76]{3,2,1,0}, u8[22808]{0}) custom-call(f32[1,1024,50,76]{3,2,1,0} %fusion.53, f32[1,1,1024,512]{1,0,2,3} %copy.126), window={size=1x1}, dim_labels=bf01_01io->bf01, custom_call_target="__cudnn$convForward", metadata={op_type="Conv2D" op_name="tower-pred-0/group3/block0/conv1/Conv2D"}, backend_config="{\"algorithm\":\"1\",\"tensorOpsEnabled\":true,\"convResultScale\":1}"
  %get-tuple-element.124 = f32[1,512,50,76]{3,2,1,0} get-tuple-element((f32[1,512,50,76]{3,2,1,0}, u8[22808]{0}) %custom-call.128), index=0
  %arg228.229 = f32[512]{0} parameter(228), parameter_replication={false}, metadata={op_name="XLA_Args"}
  %fusion.51 = f32[1,512,51,77]{3,2,1,0} fusion(f32[512]{0} %arg227.228, f32[512]{0} %arg226.227, f32[512]{0} %fusion.52, f32[1,512,50,76]{3,2,1,0} %get-tuple-element.124, f32[512]{0} %arg228.229), kind=kLoop, calls=%fused_computation.51
  %arg231.232 = f32[3,3,512,512]{3,2,1,0} parameter(231), parameter_replication={false}, metadata={op_name="XLA_Args"}
  %copy.127 = f32[3,3,512,512]{1,0,2,3} copy(f32[3,3,512,512]{3,2,1,0} %arg231.232), metadata={op_name="XLA_Args"}
  %custom-call.160 = (f32[1,512,25,38]{3,2,1,0}, u8[5708]{0}) custom-call(f32[1,512,51,77]{3,2,1,0} %fusion.51, f32[3,3,512,512]{1,0,2,3} %copy.127), window={size=3x3 stride=2x2}, dim_labels=bf01_01io->bf01, custom_call_target="__cudnn$convForward", metadata={op_type="Conv2D" op_name="tower-pred-0/group3/block0/conv2/Conv2D"}, backend_config="{\"algorithm\":\"1\",\"tensorOpsEnabled\":true,\"convResultScale\":1}"
  %get-tuple-element.156 = f32[1,512,25,38]{3,2,1,0} get-tuple-element((f32[1,512,25,38]{3,2,1,0}, u8[5708]{0}) %custom-call.160), index=0
  %arg234.235 = f32[512]{0} parameter(234), parameter_replication={false}, metadata={op_name="XLA_Args"}
  %fusion.49 = f32[1,512,25,38]{3,2,1,0} fusion(f32[512]{0} %arg233.234, f32[512]{0} %arg232.233, f32[512]{0} %fusion.50, f32[1,512,25,38]{3,2,1,0} %get-tuple-element.156, f32[512]{0} %arg234.235), kind=kLoop, calls=%fused_computation.49, metadata={op_type="Relu" op_name="tower-pred-0/group3/block0/conv2/Relu"}
  %arg236.237 = f32[1,1,512,2048]{3,2,1,0} parameter(236), parameter_replication={false}, metadata={op_name="XLA_Args"}
  %copy.128 = f32[1,1,512,2048]{1,0,2,3} copy(f32[1,1,512,2048]{3,2,1,0} %arg236.237), metadata={op_name="XLA_Args"}
  %custom-call.129 = (f32[1,2048,25,38]{3,2,1,0}, u8[5708]{0}) custom-call(f32[1,512,25,38]{3,2,1,0} %fusion.49, f32[1,1,512,2048]{1,0,2,3} %copy.128), window={size=1x1}, dim_labels=bf01_01io->bf01, custom_call_target="__cudnn$convForward", metadata={op_type="Conv2D" op_name="tower-pred-0/group3/block0/conv3/Conv2D"}, backend_config="{\"algorithm\":\"1\",\"convResultScale\":1}"
  %get-tuple-element.125 = f32[1,2048,25,38]{3,2,1,0} get-tuple-element((f32[1,2048,25,38]{3,2,1,0}, u8[5708]{0}) %custom-call.129), index=0
  %arg239.240 = f32[2048]{0} parameter(239), parameter_replication={false}, metadata={op_name="XLA_Args"}
  %fusion.46 = f32[1,2048,25,38]{3,2,1,0} fusion(f32[2048]{0} %arg223.224, f32[2048]{0} %arg222.223, f32[2048]{0} %fusion.47, f32[1,2048,25,38]{3,2,1,0} %get-tuple-element.126, f32[2048]{0} %arg224.225, f32[2048]{0} %arg238.239, f32[2048]{0} %arg237.238, f32[2048]{0} %fusion.48, f32[1,2048,25,38]{3,2,1,0} %get-tuple-element.125, f32[2048]{0} %arg239.240), kind=kLoop, calls=%fused_computation.46, metadata={op_type="Relu" op_name="tower-pred-0/group3/block0/output"}
  %arg253.254 = f32[2048]{0} parameter(253), parameter_replication={false}, metadata={op_name="XLA_Args"}
  %arg252.253 = f32[2048]{0} parameter(252), parameter_replication={false}, metadata={op_name="XLA_Args"}
  %arg255.256 = f32[2048]{0} parameter(255), parameter_replication={false}, metadata={op_name="XLA_Args"}
  %fusion.41 = f32[2048]{0} fusion(f32[2048]{0} %arg255.256), kind=kLoop, calls=%fused_computation.41, metadata={op_type="FusedBatchNorm" op_name="tower-pred-0/group3/block1/conv3/bn/FusedBatchNorm"}
  %arg248.249 = f32[512]{0} parameter(248), parameter_replication={false}, metadata={op_name="XLA_Args"}
  %arg247.248 = f32[512]{0} parameter(247), parameter_replication={false}, metadata={op_name="XLA_Args"}
  %arg250.251 = f32[512]{0} parameter(250), parameter_replication={false}, metadata={op_name="XLA_Args"}
  %fusion.43 = f32[512]{0} fusion(f32[512]{0} %arg250.251), kind=kLoop, calls=%fused_computation.43, metadata={op_type="FusedBatchNorm" op_name="tower-pred-0/group3/block1/conv2/bn/FusedBatchNorm"}
  %arg243.244 = f32[512]{0} parameter(243), parameter_replication={false}, metadata={op_name="XLA_Args"}
  %arg242.243 = f32[512]{0} parameter(242), parameter_replication={false}, metadata={op_name="XLA_Args"}
  %arg245.246 = f32[512]{0} parameter(245), parameter_replication={false}, metadata={op_name="XLA_Args"}
  %fusion.45 = f32[512]{0} fusion(f32[512]{0} %arg245.246), kind=kLoop, calls=%fused_computation.45, metadata={op_type="FusedBatchNorm" op_name="tower-pred-0/group3/block1/conv1/bn/FusedBatchNorm"}
  %arg241.242 = f32[1,1,2048,512]{3,2,1,0} parameter(241), parameter_replication={false}, metadata={op_name="XLA_Args"}
  %copy.130 = f32[1,1,2048,512]{1,0,2,3} copy(f32[1,1,2048,512]{3,2,1,0} %arg241.242), metadata={op_name="XLA_Args"}
  %custom-call.131 = (f32[1,512,25,38]{3,2,1,0}, u8[5708]{0}) custom-call(f32[1,2048,25,38]{3,2,1,0} %fusion.46, f32[1,1,2048,512]{1,0,2,3} %copy.130), window={size=1x1}, dim_labels=bf01_01io->bf01, custom_call_target="__cudnn$convForward", metadata={op_type="Conv2D" op_name="tower-pred-0/group3/block1/conv1/Conv2D"}, backend_config="{\"algorithm\":\"1\",\"convResultScale\":1}"
  %get-tuple-element.127 = f32[1,512,25,38]{3,2,1,0} get-tuple-element((f32[1,512,25,38]{3,2,1,0}, u8[5708]{0}) %custom-call.131), index=0
  %arg244.245 = f32[512]{0} parameter(244), parameter_replication={false}, metadata={op_name="XLA_Args"}
  %fusion.44 = f32[1,512,25,38]{3,2,1,0} fusion(f32[512]{0} %arg243.244, f32[512]{0} %arg242.243, f32[512]{0} %fusion.45, f32[1,512,25,38]{3,2,1,0} %get-tuple-element.127, f32[512]{0} %arg244.245), kind=kLoop, calls=%fused_computation.44, metadata={op_type="Relu" op_name="tower-pred-0/group3/block1/conv1/Relu"}
  %arg246.247 = f32[3,3,512,512]{3,2,1,0} parameter(246), parameter_replication={false}, metadata={op_name="XLA_Args"}
  %copy.131 = f32[3,3,512,512]{1,0,2,3} copy(f32[3,3,512,512]{3,2,1,0} %arg246.247), metadata={op_name="XLA_Args"}
  %custom-call.132 = (f32[1,512,25,38]{3,2,1,0}, u8[26216448]{0}) custom-call(f32[1,512,25,38]{3,2,1,0} %fusion.44, f32[3,3,512,512]{1,0,2,3} %copy.131), window={size=3x3 pad=1_1x1_1}, dim_labels=bf01_01io->bf01, custom_call_target="__cudnn$convForward", metadata={op_type="Conv2D" op_name="tower-pred-0/group3/block1/conv2/Conv2D"}, backend_config="{\"algorithm\":\"6\",\"convResultScale\":1}"
  %get-tuple-element.128 = f32[1,512,25,38]{3,2,1,0} get-tuple-element((f32[1,512,25,38]{3,2,1,0}, u8[26216448]{0}) %custom-call.132), index=0
  %arg249.250 = f32[512]{0} parameter(249), parameter_replication={false}, metadata={op_name="XLA_Args"}
  %fusion.42 = f32[1,512,25,38]{3,2,1,0} fusion(f32[512]{0} %arg248.249, f32[512]{0} %arg247.248, f32[512]{0} %fusion.43, f32[1,512,25,38]{3,2,1,0} %get-tuple-element.128, f32[512]{0} %arg249.250), kind=kLoop, calls=%fused_computation.42, metadata={op_type="Relu" op_name="tower-pred-0/group3/block1/conv2/Relu"}
  %arg251.252 = f32[1,1,512,2048]{3,2,1,0} parameter(251), parameter_replication={false}, metadata={op_name="XLA_Args"}
  %copy.132 = f32[1,1,512,2048]{1,0,2,3} copy(f32[1,1,512,2048]{3,2,1,0} %arg251.252), metadata={op_name="XLA_Args"}
  %custom-call.133 = (f32[1,2048,25,38]{3,2,1,0}, u8[5708]{0}) custom-call(f32[1,512,25,38]{3,2,1,0} %fusion.42, f32[1,1,512,2048]{1,0,2,3} %copy.132), window={size=1x1}, dim_labels=bf01_01io->bf01, custom_call_target="__cudnn$convForward", metadata={op_type="Conv2D" op_name="tower-pred-0/group3/block1/conv3/Conv2D"}, backend_config="{\"algorithm\":\"1\",\"convResultScale\":1}"
  %get-tuple-element.129 = f32[1,2048,25,38]{3,2,1,0} get-tuple-element((f32[1,2048,25,38]{3,2,1,0}, u8[5708]{0}) %custom-call.133), index=0
  %arg254.255 = f32[2048]{0} parameter(254), parameter_replication={false}, metadata={op_name="XLA_Args"}
  %fusion.40 = f32[1,2048,25,38]{3,2,1,0} fusion(f32[1,2048,25,38]{3,2,1,0} %fusion.46, f32[2048]{0} %arg253.254, f32[2048]{0} %arg252.253, f32[2048]{0} %fusion.41, f32[1,2048,25,38]{3,2,1,0} %get-tuple-element.129, f32[2048]{0} %arg254.255), kind=kLoop, calls=%fused_computation.40, metadata={op_type="Relu" op_name="tower-pred-0/group3/block1/output"}
  %arg268.269 = f32[2048]{0} parameter(268), parameter_replication={false}, metadata={op_name="XLA_Args"}
  %arg267.268 = f32[2048]{0} parameter(267), parameter_replication={false}, metadata={op_name="XLA_Args"}
  %arg270.271 = f32[2048]{0} parameter(270), parameter_replication={false}, metadata={op_name="XLA_Args"}
  %fusion.35 = f32[2048]{0} fusion(f32[2048]{0} %arg270.271), kind=kLoop, calls=%fused_computation.35, metadata={op_type="FusedBatchNorm" op_name="tower-pred-0/group3/block2/conv3/bn/FusedBatchNorm"}
  %arg263.264 = f32[512]{0} parameter(263), parameter_replication={false}, metadata={op_name="XLA_Args"}
  %arg262.263 = f32[512]{0} parameter(262), parameter_replication={false}, metadata={op_name="XLA_Args"}
  %arg265.266 = f32[512]{0} parameter(265), parameter_replication={false}, metadata={op_name="XLA_Args"}
  %fusion.37 = f32[512]{0} fusion(f32[512]{0} %arg265.266), kind=kLoop, calls=%fused_computation.37, metadata={op_type="FusedBatchNorm" op_name="tower-pred-0/group3/block2/conv2/bn/FusedBatchNorm"}
  %arg258.259 = f32[512]{0} parameter(258), parameter_replication={false}, metadata={op_name="XLA_Args"}
  %arg257.258 = f32[512]{0} parameter(257), parameter_replication={false}, metadata={op_name="XLA_Args"}
  %arg260.261 = f32[512]{0} parameter(260), parameter_replication={false}, metadata={op_name="XLA_Args"}
  %fusion.39 = f32[512]{0} fusion(f32[512]{0} %arg260.261), kind=kLoop, calls=%fused_computation.39, metadata={op_type="FusedBatchNorm" op_name="tower-pred-0/group3/block2/conv1/bn/FusedBatchNorm"}
  %arg256.257 = f32[1,1,2048,512]{3,2,1,0} parameter(256), parameter_replication={false}, metadata={op_name="XLA_Args"}
  %copy.133 = f32[1,1,2048,512]{1,0,2,3} copy(f32[1,1,2048,512]{3,2,1,0} %arg256.257), metadata={op_name="XLA_Args"}
  %custom-call.134 = (f32[1,512,25,38]{3,2,1,0}, u8[5708]{0}) custom-call(f32[1,2048,25,38]{3,2,1,0} %fusion.40, f32[1,1,2048,512]{1,0,2,3} %copy.133), window={size=1x1}, dim_labels=bf01_01io->bf01, custom_call_target="__cudnn$convForward", metadata={op_type="Conv2D" op_name="tower-pred-0/group3/block2/conv1/Conv2D"}, backend_config="{\"algorithm\":\"1\",\"convResultScale\":1}"
  %get-tuple-element.130 = f32[1,512,25,38]{3,2,1,0} get-tuple-element((f32[1,512,25,38]{3,2,1,0}, u8[5708]{0}) %custom-call.134), index=0
  %arg259.260 = f32[512]{0} parameter(259), parameter_replication={false}, metadata={op_name="XLA_Args"}
  %fusion.38 = f32[1,512,25,38]{3,2,1,0} fusion(f32[512]{0} %arg258.259, f32[512]{0} %arg257.258, f32[512]{0} %fusion.39, f32[1,512,25,38]{3,2,1,0} %get-tuple-element.130, f32[512]{0} %arg259.260), kind=kLoop, calls=%fused_computation.38, metadata={op_type="Relu" op_name="tower-pred-0/group3/block2/conv1/Relu"}
  %arg261.262 = f32[3,3,512,512]{3,2,1,0} parameter(261), parameter_replication={false}, metadata={op_name="XLA_Args"}
  %copy.134 = f32[3,3,512,512]{1,0,2,3} copy(f32[3,3,512,512]{3,2,1,0} %arg261.262), metadata={op_name="XLA_Args"}
  %custom-call.135 = (f32[1,512,25,38]{3,2,1,0}, u8[26216448]{0}) custom-call(f32[1,512,25,38]{3,2,1,0} %fusion.38, f32[3,3,512,512]{1,0,2,3} %copy.134), window={size=3x3 pad=1_1x1_1}, dim_labels=bf01_01io->bf01, custom_call_target="__cudnn$convForward", metadata={op_type="Conv2D" op_name="tower-pred-0/group3/block2/conv2/Conv2D"}, backend_config="{\"algorithm\":\"6\",\"convResultScale\":1}"
  %get-tuple-element.131 = f32[1,512,25,38]{3,2,1,0} get-tuple-element((f32[1,512,25,38]{3,2,1,0}, u8[26216448]{0}) %custom-call.135), index=0
  %arg264.265 = f32[512]{0} parameter(264), parameter_replication={false}, metadata={op_name="XLA_Args"}
  %fusion.36 = f32[1,512,25,38]{3,2,1,0} fusion(f32[512]{0} %arg263.264, f32[512]{0} %arg262.263, f32[512]{0} %fusion.37, f32[1,512,25,38]{3,2,1,0} %get-tuple-element.131, f32[512]{0} %arg264.265), kind=kLoop, calls=%fused_computation.36, metadata={op_type="Relu" op_name="tower-pred-0/group3/block2/conv2/Relu"}
  %arg266.267 = f32[1,1,512,2048]{3,2,1,0} parameter(266), parameter_replication={false}, metadata={op_name="XLA_Args"}
  %copy.135 = f32[1,1,512,2048]{1,0,2,3} copy(f32[1,1,512,2048]{3,2,1,0} %arg266.267), metadata={op_name="XLA_Args"}
  %custom-call.136 = (f32[1,2048,25,38]{3,2,1,0}, u8[5708]{0}) custom-call(f32[1,512,25,38]{3,2,1,0} %fusion.36, f32[1,1,512,2048]{1,0,2,3} %copy.135), window={size=1x1}, dim_labels=bf01_01io->bf01, custom_call_target="__cudnn$convForward", metadata={op_type="Conv2D" op_name="tower-pred-0/group3/block2/conv3/Conv2D"}, backend_config="{\"algorithm\":\"1\",\"convResultScale\":1}"
  %get-tuple-element.132 = f32[1,2048,25,38]{3,2,1,0} get-tuple-element((f32[1,2048,25,38]{3,2,1,0}, u8[5708]{0}) %custom-call.136), index=0
  %arg269.270 = f32[2048]{0} parameter(269), parameter_replication={false}, metadata={op_name="XLA_Args"}
  %fusion.34 = f32[1,2048,25,38]{3,2,1,0} fusion(f32[1,2048,25,38]{3,2,1,0} %fusion.40, f32[2048]{0} %arg268.269, f32[2048]{0} %arg267.268, f32[2048]{0} %fusion.35, f32[1,2048,25,38]{3,2,1,0} %get-tuple-element.132, f32[2048]{0} %arg269.270), kind=kLoop, calls=%fused_computation.34, metadata={op_type="Relu" op_name="tower-pred-0/group3/block2/output"}
  %arg271.272 = f32[1,1,2048,256]{3,2,1,0} parameter(271), parameter_replication={false}, metadata={op_name="XLA_Args"}
  %copy.136 = f32[1,1,2048,256]{1,0,2,3} copy(f32[1,1,2048,256]{3,2,1,0} %arg271.272), metadata={op_name="XLA_Args"}
  %custom-call.137 = (f32[1,256,25,38]{3,2,1,0}, u8[0]{0}) custom-call(f32[1,2048,25,38]{3,2,1,0} %fusion.34, f32[1,1,2048,256]{1,0,2,3} %copy.136), window={size=1x1}, dim_labels=bf01_01io->bf01, custom_call_target="__cudnn$convForward", metadata={op_type="Conv2D" op_name="tower-pred-0/fpn/lateral_1x1_c5/Conv2D"}, backend_config="{\"convResultScale\":1}"
  %get-tuple-element.133 = f32[1,256,25,38]{3,2,1,0} get-tuple-element((f32[1,256,25,38]{3,2,1,0}, u8[0]{0}) %custom-call.137), index=0
  %arg272.273 = f32[256]{0} parameter(272), parameter_replication={false}, metadata={op_name="XLA_Args"}
  %fusion.33 = f32[1,256,25,38]{3,2,1,0} fusion(f32[1,256,25,38]{3,2,1,0} %get-tuple-element.133, f32[256]{0} %arg272.273), kind=kLoop, calls=%fused_computation.33, metadata={op_type="BiasAdd" op_name="tower-pred-0/fpn/lateral_1x1_c5/BiasAdd"}
  %arg273.274 = f32[3,3,256,256]{3,2,1,0} parameter(273), parameter_replication={false}, metadata={op_name="XLA_Args"}
  %copy.137 = f32[3,3,256,256]{1,0,2,3} copy(f32[3,3,256,256]{3,2,1,0} %arg273.274), metadata={op_name="XLA_Args"}
  %custom-call.138 = (f32[1,256,25,38]{3,2,1,0}, u8[6554624]{0}) custom-call(f32[1,256,25,38]{3,2,1,0} %fusion.33, f32[3,3,256,256]{1,0,2,3} %copy.137), window={size=3x3 pad=1_1x1_1}, dim_labels=bf01_01io->bf01, custom_call_target="__cudnn$convForward", metadata={op_type="Conv2D" op_name="tower-pred-0/fpn/posthoc_3x3_p5/Conv2D"}, backend_config="{\"algorithm\":\"6\",\"convResultScale\":1}"
  %get-tuple-element.134 = f32[1,256,25,38]{3,2,1,0} get-tuple-element((f32[1,256,25,38]{3,2,1,0}, u8[6554624]{0}) %custom-call.138), index=0
  %arg274.275 = f32[256]{0} parameter(274), parameter_replication={false}, metadata={op_name="XLA_Args"}
  %fusion.32 = f32[1,256,25,38]{3,2,1,0} fusion(f32[1,256,25,38]{3,2,1,0} %get-tuple-element.134, f32[256]{0} %arg274.275), kind=kLoop, calls=%fused_computation.32, metadata={op_type="BiasAdd" op_name="tower-pred-0/fpn/posthoc_3x3_p5/BiasAdd"}
  %arg221.222 = f32[1,1,1024,256]{3,2,1,0} parameter(221), parameter_replication={false}, metadata={op_name="XLA_Args"}
  %copy.138 = f32[1,1,1024,256]{1,0,2,3} copy(f32[1,1,1024,256]{3,2,1,0} %arg221.222), metadata={op_name="XLA_Args"}
  %custom-call.127 = (f32[1,256,50,76]{3,2,1,0}, u8[22808]{0}) custom-call(f32[1,1024,50,76]{3,2,1,0} %fusion.53, f32[1,1,1024,256]{1,0,2,3} %copy.138), window={size=1x1}, dim_labels=bf01_01io->bf01, custom_call_target="__cudnn$convForward", metadata={op_type="Conv2D" op_name="tower-pred-0/fpn/lateral_1x1_c4/Conv2D"}, backend_config="{\"algorithm\":\"1\",\"convResultScale\":1}"
  %get-tuple-element.123 = f32[1,256,50,76]{3,2,1,0} get-tuple-element((f32[1,256,50,76]{3,2,1,0}, u8[22808]{0}) %custom-call.127), index=0
  %arg230.231 = f32[256]{0} parameter(230), parameter_replication={false}, metadata={op_name="XLA_Args"}
  %fusion.31 = f32[1,256,50,76]{3,2,1,0} fusion(f32[1,256,25,38]{3,2,1,0} %fusion.33, f32[1,256,50,76]{3,2,1,0} %get-tuple-element.123, f32[256]{0} %arg230.231), kind=kLoop, calls=%fused_computation.31, metadata={op_type="Add" op_name="tower-pred-0/fpn/add"}
  %arg281.282 = f32[3,3,256,256]{3,2,1,0} parameter(281), parameter_replication={false}, metadata={op_name="XLA_Args"}
  %copy.139 = f32[3,3,256,256]{1,0,2,3} copy(f32[3,3,256,256]{3,2,1,0} %arg281.282), metadata={op_name="XLA_Args"}
  %custom-call.143 = (f32[1,256,50,76]{3,2,1,0}, u8[6554624]{0}) custom-call(f32[1,256,50,76]{3,2,1,0} %fusion.31, f32[3,3,256,256]{1,0,2,3} %copy.139), window={size=3x3 pad=1_1x1_1}, dim_labels=bf01_01io->bf01, custom_call_target="__cudnn$convForward", metadata={op_type="Conv2D" op_name="tower-pred-0/fpn/posthoc_3x3_p4/Conv2D"}, backend_config="{\"algorithm\":\"6\",\"tensorOpsEnabled\":true,\"convResultScale\":1}"
  %get-tuple-element.139 = f32[1,256,50,76]{3,2,1,0} get-tuple-element((f32[1,256,50,76]{3,2,1,0}, u8[6554624]{0}) %custom-call.143), index=0
  %arg282.283 = f32[256]{0} parameter(282), parameter_replication={false}, metadata={op_name="XLA_Args"}
  %fusion.30 = f32[1,256,50,76]{3,2,1,0} fusion(f32[1,256,50,76]{3,2,1,0} %get-tuple-element.139, f32[256]{0} %arg282.283), kind=kLoop, calls=%fused_computation.30, metadata={op_type="BiasAdd" op_name="tower-pred-0/fpn/posthoc_3x3_p4/BiasAdd"}
  %arg275.276 = f32[3,3,256,256]{3,2,1,0} parameter(275), parameter_replication={false}, metadata={op_name="XLA_Args"}
  %copy.140 = f32[3,3,256,256]{1,0,2,3} copy(f32[3,3,256,256]{3,2,1,0} %arg275.276), metadata={op_name="XLA_Args"}
  %arg276.277 = f32[256]{0} parameter(276), parameter_replication={false}, metadata={op_name="XLA_Args"}
  %custom-call.153 = (f32[1,256,25,38]{3,2,1,0}, u8[6554624]{0}) custom-call(f32[1,256,25,38]{3,2,1,0} %fusion.32, f32[3,3,256,256]{1,0,2,3} %copy.140, f32[256]{0} %arg276.277), window={size=3x3 pad=1_1x1_1}, dim_labels=bf01_01io->bf01, custom_call_target="__cudnn$convBiasActivationForward", metadata={op_type="Conv2D" op_name="tower-pred-0/rpn_3/conv0/Conv2D"}, backend_config="{\"algorithm\":\"6\",\"activationMode\":\"2\",\"convResultScale\":1}"
  %get-tuple-element.149 = f32[1,256,25,38]{3,2,1,0} get-tuple-element((f32[1,256,25,38]{3,2,1,0}, u8[6554624]{0}) %custom-call.153), index=0
  %arg277.278 = f32[1,1,256,3]{3,2,1,0} parameter(277), parameter_replication={false}, metadata={op_name="XLA_Args"}
  %copy.143 = f32[1,1,256,3]{1,0,2,3} copy(f32[1,1,256,3]{3,2,1,0} %arg277.278), metadata={op_name="XLA_Args"}
  %custom-call.142 = (f32[1,3,25,38]{3,2,1,0}, u8[0]{0}) custom-call(f32[1,256,25,38]{3,2,1,0} %get-tuple-element.149, f32[1,1,256,3]{1,0,2,3} %copy.143), window={size=1x1}, dim_labels=bf01_01io->bf01, custom_call_target="__cudnn$convForward", metadata={op_type="Conv2D" op_name="tower-pred-0/rpn_3/class/Conv2D"}, backend_config="{\"convResultScale\":1}"
  %get-tuple-element.138 = f32[1,3,25,38]{3,2,1,0} get-tuple-element((f32[1,3,25,38]{3,2,1,0}, u8[0]{0}) %custom-call.142), index=0
  %arg279.280 = f32[3]{0} parameter(279), parameter_replication={false}, metadata={op_name="XLA_Args"}
  %fusion.27 = f32[2850]{0} fusion(f32[1,3,25,38]{3,2,1,0} %get-tuple-element.138, f32[3]{0} %arg279.280), kind=kLoop, calls=%fused_computation.27, metadata={op_type="Reshape" op_name="tower-pred-0/generate_fpn_proposals/Lvl5/Reshape_1"}
  %iota.1187 = s32[2850]{0} iota(), iota_dimension=0, metadata={op_type="TopKV2" op_name="tower-pred-0/generate_fpn_proposals/Lvl5/generate_rpn_proposals/TopKV2"}
  %sort.1210 = (f32[2850]{0}, s32[2850]{0}) sort(f32[2850]{0} %fusion.27, s32[2850]{0} %iota.1187), dimensions={0}, is_stable=true, to_apply=%compare-greater-than.1188, metadata={op_type="TopKV2" op_name="tower-pred-0/generate_fpn_proposals/Lvl5/generate_rpn_proposals/TopKV2"}
  %get-tuple-element.1213 = s32[2850]{0} get-tuple-element((f32[2850]{0}, s32[2850]{0}) %sort.1210), index=1, metadata={op_type="TopKV2" op_name="tower-pred-0/generate_fpn_proposals/Lvl5/generate_rpn_proposals/TopKV2"}
  %arg278.279 = f32[1,1,256,12]{3,2,1,0} parameter(278), parameter_replication={false}, metadata={op_name="XLA_Args"}
  %copy.141 = f32[1,1,256,12]{1,0,2,3} copy(f32[1,1,256,12]{3,2,1,0} %arg278.279), metadata={op_name="XLA_Args"}
  %custom-call.141 = (f32[1,12,25,38]{3,2,1,0}, u8[0]{0}) custom-call(f32[1,256,25,38]{3,2,1,0} %get-tuple-element.149, f32[1,1,256,12]{1,0,2,3} %copy.141), window={size=1x1}, dim_labels=bf01_01io->bf01, custom_call_target="__cudnn$convForward", metadata={op_type="Conv2D" op_name="tower-pred-0/rpn_3/box/Conv2D"}, backend_config="{\"convResultScale\":1}"
  %get-tuple-element.137 = f32[1,12,25,38]{3,2,1,0} get-tuple-element((f32[1,12,25,38]{3,2,1,0}, u8[0]{0}) %custom-call.141), index=0
  %arg280.281 = f32[12]{0} parameter(280), parameter_replication={false}, metadata={op_name="XLA_Args"}
  %fusion.28 = f32[2850,1,2]{2,1,0} fusion(f32[1,12,25,38]{3,2,1,0} %get-tuple-element.137, f32[12]{0} %arg280.281), kind=kLoop, calls=%fused_computation.28, metadata={op_type="Exp" op_name="tower-pred-0/decode_bbox_target_3/Exp"}
  %constant_72 = f32[2850,1,2]{2,1,0} constant({...}), metadata={op_type="Sub" op_name="tower-pred-0/decode_bbox_target_3/sub"}
  %constant_71 = f32[2850,1,2]{2,1,0} constant({...}), metadata={op_type="Add" op_name="tower-pred-0/decode_bbox_target_3/add"}
  %constant_99 = f32[2]{0} constant({1199, 800}), metadata={op_type="Cast" op_name="tower-pred-0/generate_fpn_proposals/Lvl6/generate_rpn_proposals/clip_boxes/Cast"}
  %custom-call.154 = (f32[1,256,50,76]{3,2,1,0}, u8[6554624]{0}) custom-call(f32[1,256,50,76]{3,2,1,0} %fusion.30, f32[3,3,256,256]{1,0,2,3} %copy.140, f32[256]{0} %arg276.277), window={size=3x3 pad=1_1x1_1}, dim_labels=bf01_01io->bf01, custom_call_target="__cudnn$convBiasActivationForward", metadata={op_type="Conv2D" op_name="tower-pred-0/rpn_2/conv0/Conv2D"}, backend_config="{\"algorithm\":\"6\",\"activationMode\":\"2\",\"convResultScale\":1}"
  %get-tuple-element.150 = f32[1,256,50,76]{3,2,1,0} get-tuple-element((f32[1,256,50,76]{3,2,1,0}, u8[6554624]{0}) %custom-call.154), index=0
  %custom-call.145 = (f32[1,3,50,76]{3,2,1,0}, u8[0]{0}) custom-call(f32[1,256,50,76]{3,2,1,0} %get-tuple-element.150, f32[1,1,256,3]{1,0,2,3} %copy.143), window={size=1x1}, dim_labels=bf01_01io->bf01, custom_call_target="__cudnn$convForward", metadata={op_type="Conv2D" op_name="tower-pred-0/rpn_2/class/Conv2D"}, backend_config="{\"convResultScale\":1}"
  %get-tuple-element.141 = f32[1,3,50,76]{3,2,1,0} get-tuple-element((f32[1,3,50,76]{3,2,1,0}, u8[0]{0}) %custom-call.145), index=0
  %fusion.16 = f32[11400]{0} fusion(f32[1,3,50,76]{3,2,1,0} %get-tuple-element.141, f32[3]{0} %arg279.280), kind=kLoop, calls=%fused_computation.16, metadata={op_type="Reshape" op_name="tower-pred-0/generate_fpn_proposals/Lvl4/Reshape_1"}
  %iota.1340 = s32[11400]{0} iota(), iota_dimension=0, metadata={op_type="TopKV2" op_name="tower-pred-0/generate_fpn_proposals/Lvl4/generate_rpn_proposals/TopKV2"}
  %sort.1363 = (f32[11400]{0}, s32[11400]{0}) sort(f32[11400]{0} %fusion.16, s32[11400]{0} %iota.1340), dimensions={0}, is_stable=true, to_apply=%compare-greater-than.1341, metadata={op_type="TopKV2" op_name="tower-pred-0/generate_fpn_proposals/Lvl4/generate_rpn_proposals/TopKV2"}
  %get-tuple-element.1366 = s32[11400]{0} get-tuple-element((f32[11400]{0}, s32[11400]{0}) %sort.1363), index=1, metadata={op_type="TopKV2" op_name="tower-pred-0/generate_fpn_proposals/Lvl4/generate_rpn_proposals/TopKV2"}
  %custom-call.144 = (f32[1,12,50,76]{3,2,1,0}, u8[0]{0}) custom-call(f32[1,256,50,76]{3,2,1,0} %get-tuple-element.150, f32[1,1,256,12]{1,0,2,3} %copy.141), window={size=1x1}, dim_labels=bf01_01io->bf01, custom_call_target="__cudnn$convForward", metadata={op_type="Conv2D" op_name="tower-pred-0/rpn_2/box/Conv2D"}, backend_config="{\"convResultScale\":1}"
  %get-tuple-element.140 = f32[1,12,50,76]{3,2,1,0} get-tuple-element((f32[1,12,50,76]{3,2,1,0}, u8[0]{0}) %custom-call.144), index=0
  %fusion.17 = f32[11400,1,2]{2,1,0} fusion(f32[1,12,50,76]{3,2,1,0} %get-tuple-element.140, f32[12]{0} %arg280.281), kind=kLoop, calls=%fused_computation.17, metadata={op_type="Exp" op_name="tower-pred-0/decode_bbox_target_2/Exp"}
  %constant_86 = f32[11400,1,2]{2,1,0} constant({...}), metadata={op_type="Sub" op_name="tower-pred-0/decode_bbox_target_2/sub"}
  %constant_85 = f32[11400,1,2]{2,1,0} constant({...}), metadata={op_type="Add" op_name="tower-pred-0/decode_bbox_target_2/add"}
  %arg124.125 = f32[1,1,512,256]{3,2,1,0} parameter(124), parameter_replication={false}, metadata={op_name="XLA_Args"}
  %copy.148 = f32[1,1,512,256]{1,0,2,3} copy(f32[1,1,512,256]{3,2,1,0} %arg124.125), metadata={op_name="XLA_Args"}
  %custom-call.108 = (f32[1,256,100,152]{3,2,1,0}, u8[91208]{0}) custom-call(f32[1,512,100,152]{3,2,1,0} %fusion.90, f32[1,1,512,256]{1,0,2,3} %copy.148), window={size=1x1}, dim_labels=bf01_01io->bf01, custom_call_target="__cudnn$convForward", metadata={op_type="Conv2D" op_name="tower-pred-0/fpn/lateral_1x1_c3/Conv2D"}, backend_config="{\"algorithm\":\"1\",\"convResultScale\":1}"
  %get-tuple-element.104 = f32[1,256,100,152]{3,2,1,0} get-tuple-element((f32[1,256,100,152]{3,2,1,0}, u8[91208]{0}) %custom-call.108), index=0
  %arg133.134 = f32[256]{0} parameter(133), parameter_replication={false}, metadata={op_name="XLA_Args"}
  %fusion.20 = f32[1,256,100,152]{3,2,1,0} fusion(f32[1,256,50,76]{3,2,1,0} %fusion.31, f32[1,256,100,152]{3,2,1,0} %get-tuple-element.104, f32[256]{0} %arg133.134), kind=kLoop, calls=%fused_computation.20, metadata={op_type="Add" op_name="tower-pred-0/fpn/add_1"}
  %arg283.284 = f32[3,3,256,256]{3,2,1,0} parameter(283), parameter_replication={false}, metadata={op_name="XLA_Args"}
  %copy.149 = f32[3,3,256,256]{1,0,2,3} copy(f32[3,3,256,256]{3,2,1,0} %arg283.284), metadata={op_name="XLA_Args"}
  %custom-call.146 = (f32[1,256,100,152]{3,2,1,0}, u8[6554624]{0}) custom-call(f32[1,256,100,152]{3,2,1,0} %fusion.20, f32[3,3,256,256]{1,0,2,3} %copy.149), window={size=3x3 pad=1_1x1_1}, dim_labels=bf01_01io->bf01, custom_call_target="__cudnn$convForward", metadata={op_type="Conv2D" op_name="tower-pred-0/fpn/posthoc_3x3_p3/Conv2D"}, backend_config="{\"algorithm\":\"6\",\"tensorOpsEnabled\":true,\"convResultScale\":1}"
  %get-tuple-element.142 = f32[1,256,100,152]{3,2,1,0} get-tuple-element((f32[1,256,100,152]{3,2,1,0}, u8[6554624]{0}) %custom-call.146), index=0
  %arg284.285 = f32[256]{0} parameter(284), parameter_replication={false}, metadata={op_name="XLA_Args"}
  %fusion.19 = f32[1,256,100,152]{3,2,1,0} fusion(f32[1,256,100,152]{3,2,1,0} %get-tuple-element.142, f32[256]{0} %arg284.285), kind=kLoop, calls=%fused_computation.19, metadata={op_type="BiasAdd" op_name="tower-pred-0/fpn/posthoc_3x3_p3/BiasAdd"}
  %custom-call.155 = (f32[1,256,100,152]{3,2,1,0}, u8[6554624]{0}) custom-call(f32[1,256,100,152]{3,2,1,0} %fusion.19, f32[3,3,256,256]{1,0,2,3} %copy.140, f32[256]{0} %arg276.277), window={size=3x3 pad=1_1x1_1}, dim_labels=bf01_01io->bf01, custom_call_target="__cudnn$convBiasActivationForward", metadata={op_type="Conv2D" op_name="tower-pred-0/rpn_1/conv0/Conv2D"}, backend_config="{\"algorithm\":\"6\",\"activationMode\":\"2\",\"convResultScale\":1}"
  %get-tuple-element.151 = f32[1,256,100,152]{3,2,1,0} get-tuple-element((f32[1,256,100,152]{3,2,1,0}, u8[6554624]{0}) %custom-call.155), index=0
  %custom-call.148 = (f32[1,3,100,152]{3,2,1,0}, u8[0]{0}) custom-call(f32[1,256,100,152]{3,2,1,0} %get-tuple-element.151, f32[1,1,256,3]{1,0,2,3} %copy.143), window={size=1x1}, dim_labels=bf01_01io->bf01, custom_call_target="__cudnn$convForward", metadata={op_type="Conv2D" op_name="tower-pred-0/rpn_1/class/Conv2D"}, backend_config="{\"convResultScale\":1}"
  %get-tuple-element.144 = f32[1,3,100,152]{3,2,1,0} get-tuple-element((f32[1,3,100,152]{3,2,1,0}, u8[0]{0}) %custom-call.148), index=0
  %fusion.10 = f32[45600]{0} fusion(f32[1,3,100,152]{3,2,1,0} %get-tuple-element.144, f32[3]{0} %arg279.280), kind=kLoop, calls=%fused_computation.10, metadata={op_type="Reshape" op_name="tower-pred-0/generate_fpn_proposals/Lvl3/Reshape_1"}
  %iota.1493 = s32[45600]{0} iota(), iota_dimension=0, metadata={op_type="TopKV2" op_name="tower-pred-0/generate_fpn_proposals/Lvl3/generate_rpn_proposals/TopKV2"}
  %sort.1516 = (f32[45600]{0}, s32[45600]{0}) sort(f32[45600]{0} %fusion.10, s32[45600]{0} %iota.1493), dimensions={0}, is_stable=true, to_apply=%compare-greater-than.1494, metadata={op_type="TopKV2" op_name="tower-pred-0/generate_fpn_proposals/Lvl3/generate_rpn_proposals/TopKV2"}
  %get-tuple-element.1519 = s32[45600]{0} get-tuple-element((f32[45600]{0}, s32[45600]{0}) %sort.1516), index=1, metadata={op_type="TopKV2" op_name="tower-pred-0/generate_fpn_proposals/Lvl3/generate_rpn_proposals/TopKV2"}
  %custom-call.147 = (f32[1,12,100,152]{3,2,1,0}, u8[0]{0}) custom-call(f32[1,256,100,152]{3,2,1,0} %get-tuple-element.151, f32[1,1,256,12]{1,0,2,3} %copy.141), window={size=1x1}, dim_labels=bf01_01io->bf01, custom_call_target="__cudnn$convForward", metadata={op_type="Conv2D" op_name="tower-pred-0/rpn_1/box/Conv2D"}, backend_config="{\"convResultScale\":1}"
  %get-tuple-element.143 = f32[1,12,100,152]{3,2,1,0} get-tuple-element((f32[1,12,100,152]{3,2,1,0}, u8[0]{0}) %custom-call.147), index=0
  %fusion.11 = f32[45600,1,2]{2,1,0} fusion(f32[1,12,100,152]{3,2,1,0} %get-tuple-element.143, f32[12]{0} %arg280.281), kind=kLoop, calls=%fused_computation.11, metadata={op_type="Exp" op_name="tower-pred-0/decode_bbox_target_1/Exp"}
  %constant_92 = f32[45600,1,2]{2,1,0} constant({...}), metadata={op_type="Sub" op_name="tower-pred-0/decode_bbox_target_1/sub"}
  %constant_91 = f32[45600,1,2]{2,1,0} constant({...}), metadata={op_type="Add" op_name="tower-pred-0/decode_bbox_target_1/add"}
  %arg57.58 = f32[1,1,256,256]{3,2,1,0} parameter(57), parameter_replication={false}, metadata={op_name="XLA_Args"}
  %copy.154 = f32[1,1,256,256]{1,0,2,3} copy(f32[1,1,256,256]{3,2,1,0} %arg57.58), metadata={op_name="XLA_Args"}
  %custom-call.95 = (f32[1,256,200,304]{3,2,1,0}, u8[364808]{0}) custom-call(f32[1,256,200,304]{3,2,1,0} %fusion.115, f32[1,1,256,256]{1,0,2,3} %copy.154), window={size=1x1}, dim_labels=bf01_01io->bf01, custom_call_target="__cudnn$convForward", metadata={op_type="Conv2D" op_name="tower-pred-0/fpn/lateral_1x1_c2/Conv2D"}, backend_config="{\"algorithm\":\"1\",\"tensorOpsEnabled\":true,\"convResultScale\":1}"
  %get-tuple-element.91 = f32[1,256,200,304]{3,2,1,0} get-tuple-element((f32[1,256,200,304]{3,2,1,0}, u8[364808]{0}) %custom-call.95), index=0
  %arg66.67 = f32[256]{0} parameter(66), parameter_replication={false}, metadata={op_name="XLA_Args"}
  %fusion.14 = f32[1,256,200,304]{3,2,1,0} fusion(f32[1,256,100,152]{3,2,1,0} %fusion.20, f32[1,256,200,304]{3,2,1,0} %get-tuple-element.91, f32[256]{0} %arg66.67), kind=kLoop, calls=%fused_computation.14, metadata={op_type="Add" op_name="tower-pred-0/fpn/add_2"}
  %arg285.286 = f32[3,3,256,256]{3,2,1,0} parameter(285), parameter_replication={false}, metadata={op_name="XLA_Args"}
  %copy.155 = f32[3,3,256,256]{1,0,2,3} copy(f32[3,3,256,256]{3,2,1,0} %arg285.286), metadata={op_name="XLA_Args"}
  %custom-call.149 = (f32[1,256,200,304]{3,2,1,0}, u8[6554624]{0}) custom-call(f32[1,256,200,304]{3,2,1,0} %fusion.14, f32[3,3,256,256]{1,0,2,3} %copy.155), window={size=3x3 pad=1_1x1_1}, dim_labels=bf01_01io->bf01, custom_call_target="__cudnn$convForward", metadata={op_type="Conv2D" op_name="tower-pred-0/fpn/posthoc_3x3_p2/Conv2D"}, backend_config="{\"algorithm\":\"6\",\"convResultScale\":1}"
  %get-tuple-element.145 = f32[1,256,200,304]{3,2,1,0} get-tuple-element((f32[1,256,200,304]{3,2,1,0}, u8[6554624]{0}) %custom-call.149), index=0
  %arg286.287 = f32[256]{0} parameter(286), parameter_replication={false}, metadata={op_name="XLA_Args"}
  %fusion.13 = f32[1,256,200,304]{3,2,1,0} fusion(f32[1,256,200,304]{3,2,1,0} %get-tuple-element.145, f32[256]{0} %arg286.287), kind=kLoop, calls=%fused_computation.13, metadata={op_type="BiasAdd" op_name="tower-pred-0/fpn/posthoc_3x3_p2/BiasAdd"}
  %custom-call.156 = (f32[1,256,200,304]{3,2,1,0}, u8[6554624]{0}) custom-call(f32[1,256,200,304]{3,2,1,0} %fusion.13, f32[3,3,256,256]{1,0,2,3} %copy.140, f32[256]{0} %arg276.277), window={size=3x3 pad=1_1x1_1}, dim_labels=bf01_01io->bf01, custom_call_target="__cudnn$convBiasActivationForward", metadata={op_type="Conv2D" op_name="tower-pred-0/rpn/conv0/Conv2D"}, backend_config="{\"algorithm\":\"6\",\"activationMode\":\"2\",\"convResultScale\":1}"
  %get-tuple-element.152 = f32[1,256,200,304]{3,2,1,0} get-tuple-element((f32[1,256,200,304]{3,2,1,0}, u8[6554624]{0}) %custom-call.156), index=0
  %custom-call.151 = (f32[1,3,200,304]{3,2,1,0}, u8[364808]{0}) custom-call(f32[1,256,200,304]{3,2,1,0} %get-tuple-element.152, f32[1,1,256,3]{1,0,2,3} %copy.143), window={size=1x1}, dim_labels=bf01_01io->bf01, custom_call_target="__cudnn$convForward", metadata={op_type="Conv2D" op_name="tower-pred-0/rpn/class/Conv2D"}, backend_config="{\"algorithm\":\"1\",\"tensorOpsEnabled\":true,\"convResultScale\":1}"
  %get-tuple-element.147 = f32[1,3,200,304]{3,2,1,0} get-tuple-element((f32[1,3,200,304]{3,2,1,0}, u8[364808]{0}) %custom-call.151), index=0
  %fusion.6 = f32[182400]{0} fusion(f32[1,3,200,304]{3,2,1,0} %get-tuple-element.147, f32[3]{0} %arg279.280), kind=kLoop, calls=%fused_computation.6, metadata={op_type="Reshape" op_name="tower-pred-0/generate_fpn_proposals/Lvl2/Reshape_1"}
  %iota.1646 = s32[182400]{0} iota(), iota_dimension=0, metadata={op_type="TopKV2" op_name="tower-pred-0/generate_fpn_proposals/Lvl2/generate_rpn_proposals/TopKV2"}
  %sort.1669 = (f32[182400]{0}, s32[182400]{0}) sort(f32[182400]{0} %fusion.6, s32[182400]{0} %iota.1646), dimensions={0}, is_stable=true, to_apply=%compare-greater-than.1647, metadata={op_type="TopKV2" op_name="tower-pred-0/generate_fpn_proposals/Lvl2/generate_rpn_proposals/TopKV2"}
  %get-tuple-element.1672 = s32[182400]{0} get-tuple-element((f32[182400]{0}, s32[182400]{0}) %sort.1669), index=1, metadata={op_type="TopKV2" op_name="tower-pred-0/generate_fpn_proposals/Lvl2/generate_rpn_proposals/TopKV2"}
  %custom-call.150 = (f32[1,12,200,304]{3,2,1,0}, u8[364808]{0}) custom-call(f32[1,256,200,304]{3,2,1,0} %get-tuple-element.152, f32[1,1,256,12]{1,0,2,3} %copy.141), window={size=1x1}, dim_labels=bf01_01io->bf01, custom_call_target="__cudnn$convForward", metadata={op_type="Conv2D" op_name="tower-pred-0/rpn/box/Conv2D"}, backend_config="{\"algorithm\":\"1\",\"convResultScale\":1}"
  %get-tuple-element.146 = f32[1,12,200,304]{3,2,1,0} get-tuple-element((f32[1,12,200,304]{3,2,1,0}, u8[364808]{0}) %custom-call.150), index=0
  %fusion.7 = f32[182400,1,2]{2,1,0} fusion(f32[1,12,200,304]{3,2,1,0} %get-tuple-element.146, f32[12]{0} %arg280.281), kind=kLoop, calls=%fused_computation.7, metadata={op_type="Exp" op_name="tower-pred-0/decode_bbox_target/Exp"}
  %constant_98 = f32[182400,1,2]{2,1,0} constant({...}), metadata={op_type="Sub" op_name="tower-pred-0/decode_bbox_target/sub"}
  %constant_97 = f32[182400,1,2]{2,1,0} constant({...}), metadata={op_type="Add" op_name="tower-pred-0/decode_bbox_target/add"}
  %fusion.25 = (f32[1000,4]{1,0}, f32[1000,4]{1,0}, f32[1000,4]{1,0}, f32[1000,4]{1,0}) fusion(s32[2850]{0} %get-tuple-element.1213, f32[2850,1,2]{2,1,0} %fusion.28, f32[2850,1,2]{2,1,0} %constant_72, f32[2850,1,2]{2,1,0} %constant_71, f32[1,12,25,38]{3,2,1,0} %get-tuple-element.137, f32[12]{0} %arg280.281, f32[2]{0} %constant_99, s32[11400]{0} %get-tuple-element.1366, f32[11400,1,2]{2,1,0} %fusion.17, f32[11400,1,2]{2,1,0} %constant_86, f32[1,12,50,76]{3,2,1,0} %get-tuple-element.140, f32[11400,1,2]{2,1,0} %constant_85, s32[45600]{0} %get-tuple-element.1519, f32[45600,1,2]{2,1,0} %fusion.11, f32[45600,1,2]{2,1,0} %constant_92, f32[1,12,100,152]{3,2,1,0} %get-tuple-element.143, f32[45600,1,2]{2,1,0} %constant_91, s32[182400]{0} %get-tuple-element.1672, f32[182400,1,2]{2,1,0} %fusion.7, f32[182400,1,2]{2,1,0} %constant_98, f32[1,12,200,304]{3,2,1,0} %get-tuple-element.146, f32[182400,1,2]{2,1,0} %constant_97), kind=kLoop, calls=%fused_computation.25, metadata={op_type="Minimum" op_name="tower-pred-0/generate_fpn_proposals/Lvl5/generate_rpn_proposals/clip_boxes/Minimum"}
  %get-tuple-element.157 = f32[1000,4]{1,0} get-tuple-element((f32[1000,4]{1,0}, f32[1000,4]{1,0}, f32[1000,4]{1,0}, f32[1000,4]{1,0}) %fusion.25), index=0
  %get-tuple-element.1211 = f32[2850]{0} get-tuple-element((f32[2850]{0}, s32[2850]{0}) %sort.1210), index=0, metadata={op_type="TopKV2" op_name="tower-pred-0/generate_fpn_proposals/Lvl5/generate_rpn_proposals/TopKV2"}
  %slice.1212 = f32[1000]{0} slice(f32[2850]{0} %get-tuple-element.1211), slice={[0:1000]}, metadata={op_type="TopKV2" op_name="tower-pred-0/generate_fpn_proposals/Lvl5/generate_rpn_proposals/TopKV2"}
  %constant_637 = f32[] constant(-inf), metadata={op_type="MaxPool" op_name="tower-pred-0/pool0/MaxPool"}
  %reduce-window.1056 = f32[1,256,13,19]{3,2,1,0} reduce-window(f32[1,256,25,38]{3,2,1,0} %fusion.32, f32[] %constant_637), window={size=1x1x1x1 stride=1x1x2x2}, to_apply=%max_F32.1052, metadata={op_type="MaxPool" op_name="tower-pred-0/fpn/maxpool_p6/MaxPool"}
  %custom-call.152 = (f32[1,256,13,19]{3,2,1,0}, u8[6554624]{0}) custom-call(f32[1,256,13,19]{3,2,1,0} %reduce-window.1056, f32[3,3,256,256]{1,0,2,3} %copy.140, f32[256]{0} %arg276.277), window={size=3x3 pad=1_1x1_1}, dim_labels=bf01_01io->bf01, custom_call_target="__cudnn$convBiasActivationForward", metadata={op_type="Conv2D" op_name="tower-pred-0/rpn_4/conv0/Conv2D"}, backend_config="{\"algorithm\":\"6\",\"activationMode\":\"2\",\"convResultScale\":1}"
  %get-tuple-element.148 = f32[1,256,13,19]{3,2,1,0} get-tuple-element((f32[1,256,13,19]{3,2,1,0}, u8[6554624]{0}) %custom-call.152), index=0
  %custom-call.140 = (f32[1,3,13,19]{3,2,1,0}, u8[0]{0}) custom-call(f32[1,256,13,19]{3,2,1,0} %get-tuple-element.148, f32[1,1,256,3]{1,0,2,3} %copy.143), window={size=1x1}, dim_labels=bf01_01io->bf01, custom_call_target="__cudnn$convForward", metadata={op_type="Conv2D" op_name="tower-pred-0/rpn_4/class/Conv2D"}, backend_config="{\"convResultScale\":1}"
  %get-tuple-element.136 = f32[1,3,13,19]{3,2,1,0} get-tuple-element((f32[1,3,13,19]{3,2,1,0}, u8[0]{0}) %custom-call.140), index=0
  %fusion.22 = f32[741]{0} fusion(f32[1,3,13,19]{3,2,1,0} %get-tuple-element.136, f32[3]{0} %arg279.280), kind=kLoop, calls=%fused_computation.22, metadata={op_type="Reshape" op_name="tower-pred-0/generate_fpn_proposals/Lvl6/Reshape_1"}
  %iota.1113 = s32[741]{0} iota(), iota_dimension=0, metadata={op_type="TopKV2" op_name="tower-pred-0/generate_fpn_proposals/Lvl6/generate_rpn_proposals/TopKV2"}
  %sort.1136 = (f32[741]{0}, s32[741]{0}) sort(f32[741]{0} %fusion.22, s32[741]{0} %iota.1113), dimensions={0}, is_stable=true, to_apply=%compare-greater-than.1114, metadata={op_type="TopKV2" op_name="tower-pred-0/generate_fpn_proposals/Lvl6/generate_rpn_proposals/TopKV2"}
  %get-tuple-element.1139 = s32[741]{0} get-tuple-element((f32[741]{0}, s32[741]{0}) %sort.1136), index=1, metadata={op_type="TopKV2" op_name="tower-pred-0/generate_fpn_proposals/Lvl6/generate_rpn_proposals/TopKV2"}
  %custom-call.139 = (f32[1,12,13,19]{3,2,1,0}, u8[0]{0}) custom-call(f32[1,256,13,19]{3,2,1,0} %get-tuple-element.148, f32[1,1,256,12]{1,0,2,3} %copy.141), window={size=1x1}, dim_labels=bf01_01io->bf01, custom_call_target="__cudnn$convForward", metadata={op_type="Conv2D" op_name="tower-pred-0/rpn_4/box/Conv2D"}, backend_config="{\"convResultScale\":1}"
  %get-tuple-element.135 = f32[1,12,13,19]{3,2,1,0} get-tuple-element((f32[1,12,13,19]{3,2,1,0}, u8[0]{0}) %custom-call.139), index=0
  %fusion.23 = f32[741,1,2]{2,1,0} fusion(f32[1,12,13,19]{3,2,1,0} %get-tuple-element.135, f32[12]{0} %arg280.281), kind=kLoop, calls=%fused_computation.23, metadata={op_type="Exp" op_name="tower-pred-0/decode_bbox_target_4/Exp"}
  %constant_80 = f32[741,1,2]{2,1,0} constant({...}), metadata={op_type="Sub" op_name="tower-pred-0/decode_bbox_target_4/sub"}
  %constant_79 = f32[741,1,2]{2,1,0} constant({...}), metadata={op_type="Add" op_name="tower-pred-0/decode_bbox_target_4/add"}
  %fusion.21 = f32[741,4]{1,0} fusion(s32[741]{0} %get-tuple-element.1139, f32[741,1,2]{2,1,0} %fusion.23, f32[741,1,2]{2,1,0} %constant_80, f32[741,1,2]{2,1,0} %constant_79, f32[2]{0} %constant_99, f32[1,12,13,19]{3,2,1,0} %get-tuple-element.135, f32[12]{0} %arg280.281), kind=kLoop, calls=%fused_computation.21, metadata={op_type="Minimum" op_name="tower-pred-0/generate_fpn_proposals/Lvl6/generate_rpn_proposals/clip_boxes/Minimum"}
  %get-tuple-element.1137 = f32[741]{0} get-tuple-element((f32[741]{0}, s32[741]{0}) %sort.1136), index=0, metadata={op_type="TopKV2" op_name="tower-pred-0/generate_fpn_proposals/Lvl6/generate_rpn_proposals/TopKV2"}
  %get-tuple-element.158 = f32[1000,4]{1,0} get-tuple-element((f32[1000,4]{1,0}, f32[1000,4]{1,0}, f32[1000,4]{1,0}, f32[1000,4]{1,0}) %fusion.25), index=1
  %get-tuple-element.1364 = f32[11400]{0} get-tuple-element((f32[11400]{0}, s32[11400]{0}) %sort.1363), index=0, metadata={op_type="TopKV2" op_name="tower-pred-0/generate_fpn_proposals/Lvl4/generate_rpn_proposals/TopKV2"}
  %slice.1365 = f32[1000]{0} slice(f32[11400]{0} %get-tuple-element.1364), slice={[0:1000]}, metadata={op_type="TopKV2" op_name="tower-pred-0/generate_fpn_proposals/Lvl4/generate_rpn_proposals/TopKV2"}
  %get-tuple-element.159 = f32[1000,4]{1,0} get-tuple-element((f32[1000,4]{1,0}, f32[1000,4]{1,0}, f32[1000,4]{1,0}, f32[1000,4]{1,0}) %fusion.25), index=2
  %get-tuple-element.1517 = f32[45600]{0} get-tuple-element((f32[45600]{0}, s32[45600]{0}) %sort.1516), index=0, metadata={op_type="TopKV2" op_name="tower-pred-0/generate_fpn_proposals/Lvl3/generate_rpn_proposals/TopKV2"}
  %slice.1518 = f32[1000]{0} slice(f32[45600]{0} %get-tuple-element.1517), slice={[0:1000]}, metadata={op_type="TopKV2" op_name="tower-pred-0/generate_fpn_proposals/Lvl3/generate_rpn_proposals/TopKV2"}
  %get-tuple-element.160 = f32[1000,4]{1,0} get-tuple-element((f32[1000,4]{1,0}, f32[1000,4]{1,0}, f32[1000,4]{1,0}, f32[1000,4]{1,0}) %fusion.25), index=3
  %get-tuple-element.1670 = f32[182400]{0} get-tuple-element((f32[182400]{0}, s32[182400]{0}) %sort.1669), index=0, metadata={op_type="TopKV2" op_name="tower-pred-0/generate_fpn_proposals/Lvl2/generate_rpn_proposals/TopKV2"}
  %slice.1671 = f32[1000]{0} slice(f32[182400]{0} %get-tuple-element.1670), slice={[0:1000]}, metadata={op_type="TopKV2" op_name="tower-pred-0/generate_fpn_proposals/Lvl2/generate_rpn_proposals/TopKV2"}
  ROOT %tuple.1698 = (f32[1,256,25,38]{3,2,1,0}, f32[1,256,50,76]{3,2,1,0}, f32[1000,4]{1,0}, f32[1000]{0}, f32[741,4]{1,0}, f32[741]{0}, f32[1,256,100,152]{3,2,1,0}, f32[1000,4]{1,0}, f32[1000]{0}, f32[1,256,200,304]{3,2,1,0}, f32[1000,4]{1,0}, f32[1000]{0}, f32[1000,4]{1,0}, f32[1000]{0}) tuple(f32[1,256,25,38]{3,2,1,0} %fusion.32, f32[1,256,50,76]{3,2,1,0} %fusion.30, f32[1000,4]{1,0} %get-tuple-element.157, f32[1000]{0} %slice.1212, f32[741,4]{1,0} %fusion.21, f32[741]{0} %get-tuple-element.1137, f32[1,256,100,152]{3,2,1,0} %fusion.19, f32[1000,4]{1,0} %get-tuple-element.158, f32[1000]{0} %slice.1365, f32[1,256,200,304]{3,2,1,0} %fusion.13, f32[1000,4]{1,0} %get-tuple-element.159, f32[1000]{0} %slice.1518, f32[1000,4]{1,0} %get-tuple-element.160, f32[1000]{0} %slice.1671), metadata={op_name="XLA_Retvals"}
}

