HloModule cluster_18__XlaCompiledKernel_true__XlaNumConstantArgs_143__XlaNumResourceArgs_0_.4119

%scatter-combiner.3589 (p0.3590: f32[], p1.3591: f32[]) -> f32[] {
  %p0.3590 = f32[] parameter(0)
  %p1.3591 = f32[] parameter(1)
  ROOT %add.3592 = f32[] add(f32[] %p0.3590, f32[] %p1.3591)
}

%fused_computation.1 (param_0.706: f32[16,256,14,14], param_1.715: s64[16], param_2.457: s64[]) -> f32[16,256,14,14] {
  %constant_352 = f32[] constant(0), metadata={op_type="Sum" op_name="tower0/wd_cost_internals/Sum_53"}
  %broadcast.104 = f32[16,256,14,14]{1,3,2,0} broadcast(f32[] %constant_352), dimensions={}, metadata={op_type="UnsortedSegmentSum" op_name="tower0/gradients/tower0/multilevel_roi_align_mask/roi_level2/roi_align/AvgPool_grad/AvgPoolGrad/grad"}
  %param_1.715 = s64[16]{0} parameter(1)
  %param_2.457 = s64[] parameter(2)
  %broadcast.24 = s64[16]{0} broadcast(s64[] %param_2.457), dimensions={}, metadata={op_type="Sub" op_name="tower0/gradients/tower0/multilevel_roi_align_mask/concat_grad/sub_2"}
  %subtract.0 = s64[16]{0} subtract(s64[16]{0} %param_1.715, s64[16]{0} %broadcast.24), metadata={op_type="Sub" op_name="tower0/gradients/tower0/multilevel_roi_align_mask/concat_grad/sub_2"}
  %param_0.706 = f32[16,256,14,14]{1,3,2,0} parameter(0)
  ROOT %scatter.0 = f32[16,256,14,14]{1,3,2,0} scatter(f32[16,256,14,14]{1,3,2,0} %broadcast.104, s64[16]{0} %subtract.0, f32[16,256,14,14]{1,3,2,0} %param_0.706), update_window_dims={1,2,3}, inserted_window_dims={0}, scatter_dims_to_operand_dims={0}, index_vector_dim=1, to_apply=%scatter-combiner.3589, metadata={op_type="UnsortedSegmentSum" op_name="tower0/gradients/tower0/multilevel_roi_align_mask/roi_level4/roi_align/AvgPool_grad/AvgPoolGrad/grad"}
}

%add_F32.3578 (lhs.3579: f32[], rhs.3580: f32[]) -> f32[] {
  %lhs.3579 = f32[] parameter(0)
  %rhs.3580 = f32[] parameter(1)
  ROOT %add.3581 = f32[] add(f32[] %lhs.3579, f32[] %rhs.3580)
}

%fused_computation.2 (param_0.8: f32[10,256,14,14], param_1.9: f32[14,14]) -> f32[10,28,28,256] {
  %param_0.8 = f32[10,256,14,14]{1,3,2,0} parameter(0)
  %param_1.9 = f32[14,14]{1,0} parameter(1)
  %broadcast.25 = f32[10,256,14,14]{1,3,2,0} broadcast(f32[14,14]{1,0} %param_1.9), dimensions={2,3}, metadata={op_type="AvgPoolGrad" op_name="tower0/gradients/tower0/multilevel_roi_align_mask/roi_level3/roi_align/AvgPool_grad/AvgPoolGrad"}
  %divide.3 = f32[10,256,14,14]{1,3,2,0} divide(f32[10,256,14,14]{1,3,2,0} %param_0.8, f32[10,256,14,14]{1,3,2,0} %broadcast.25), metadata={op_type="AvgPoolGrad" op_name="tower0/gradients/tower0/multilevel_roi_align_mask/roi_level3/roi_align/AvgPool_grad/AvgPoolGrad"}
  %constant_115 = f32[] constant(0), metadata={op_type="Sum" op_name="tower0/wd_cost_internals/Sum_53"}
  %pad.1 = f32[10,256,29,29]{1,3,2,0} pad(f32[10,256,14,14]{1,3,2,0} %divide.3, f32[] %constant_115), padding=0_0_0x0_0_0x1_1_1x1_1_1, metadata={op_type="AvgPoolGrad" op_name="tower0/gradients/tower0/multilevel_roi_align_mask/roi_level3/roi_align/AvgPool_grad/AvgPoolGrad"}
  %reduce-window.1 = f32[10,256,28,28]{1,3,2,0} reduce-window(f32[10,256,29,29]{1,3,2,0} %pad.1, f32[] %constant_115), window={size=1x1x2x2}, to_apply=%add_F32.3578, metadata={op_type="AvgPoolGrad" op_name="tower0/gradients/tower0/multilevel_roi_align_mask/roi_level3/roi_align/AvgPool_grad/AvgPoolGrad"}
  ROOT %bitcast.74 = f32[10,28,28,256]{3,2,1,0} bitcast(f32[10,256,28,28]{1,3,2,0} %reduce-window.1), metadata={op_type="Transpose" op_name="tower0/gradients/tower0/multilevel_roi_align_mask/roi_level3/roi_align/crop_and_resize/transpose_1_grad/transpose"}
}

%scatter-combiner.3558 (p0.3559: f32[], p1.3560: f32[]) -> f32[] {
  %p0.3559 = f32[] parameter(0)
  %p1.3560 = f32[] parameter(1)
  ROOT %add.3561 = f32[] add(f32[] %p0.3559, f32[] %p1.3560)
}

%fused_computation.3 (param_0.10: f32[10,256,14,14], param_1.12: s64[10], param_2.7: s64[]) -> f32[10,256,14,14] {
  %constant_116 = f32[] constant(0), metadata={op_type="Sum" op_name="tower0/wd_cost_internals/Sum_53"}
  %broadcast.27 = f32[10,256,14,14]{1,3,2,0} broadcast(f32[] %constant_116), dimensions={}, metadata={op_type="UnsortedSegmentSum" op_name="tower0/gradients/tower0/multilevel_roi_align_mask/roi_level3/roi_align/AvgPool_grad/AvgPoolGrad/grad"}
  %param_1.12 = s64[10]{0} parameter(1)
  %param_2.7 = s64[] parameter(2)
  %broadcast.26 = s64[10]{0} broadcast(s64[] %param_2.7), dimensions={}, metadata={op_type="Sub" op_name="tower0/gradients/tower0/multilevel_roi_align_mask/concat_grad/sub_1"}
  %subtract.1 = s64[10]{0} subtract(s64[10]{0} %param_1.12, s64[10]{0} %broadcast.26), metadata={op_type="Sub" op_name="tower0/gradients/tower0/multilevel_roi_align_mask/concat_grad/sub_1"}
  %param_0.10 = f32[10,256,14,14]{1,3,2,0} parameter(0)
  ROOT %scatter.1 = f32[10,256,14,14]{1,3,2,0} scatter(f32[10,256,14,14]{1,3,2,0} %broadcast.27, s64[10]{0} %subtract.1, f32[10,256,14,14]{1,3,2,0} %param_0.10), update_window_dims={1,2,3}, inserted_window_dims={0}, scatter_dims_to_operand_dims={0}, index_vector_dim=1, to_apply=%scatter-combiner.3558, metadata={op_type="UnsortedSegmentSum" op_name="tower0/gradients/tower0/multilevel_roi_align_mask/roi_level3/roi_align/AvgPool_grad/AvgPoolGrad/grad"}
}

%add_F32.3547 (lhs.3548: f32[], rhs.3549: f32[]) -> f32[] {
  %lhs.3548 = f32[] parameter(0)
  %rhs.3549 = f32[] parameter(1)
  ROOT %add.3550 = f32[] add(f32[] %lhs.3548, f32[] %rhs.3549)
}

%add_F32.3609 (lhs.3610: f32[], rhs.3611: f32[]) -> f32[] {
  %lhs.3610 = f32[] parameter(0)
  %rhs.3611 = f32[] parameter(1)
  ROOT %add.3612 = f32[] add(f32[] %lhs.3610, f32[] %rhs.3611)
}

%fused_computation.4 (param_0.14: f32[16,256,14,14], param_1.724: f32[14,14], param_2.636: f32[16,256,14,14]) -> (f32[16,28,28,256], f32[16,28,28,256]) {
  %param_0.14 = f32[16,256,14,14]{1,3,2,0} parameter(0)
  %param_1.724 = f32[14,14]{1,0} parameter(1)
  %broadcast.105 = f32[16,256,14,14]{1,3,2,0} broadcast(f32[14,14]{1,0} %param_1.724), dimensions={2,3}, metadata={op_type="AvgPoolGrad" op_name="tower0/gradients/tower0/multilevel_roi_align_mask/roi_level2/roi_align/AvgPool_grad/AvgPoolGrad"}
  %divide.4 = f32[16,256,14,14]{1,3,2,0} divide(f32[16,256,14,14]{1,3,2,0} %param_0.14, f32[16,256,14,14]{1,3,2,0} %broadcast.105), metadata={op_type="AvgPoolGrad" op_name="tower0/gradients/tower0/multilevel_roi_align_mask/roi_level2/roi_align/AvgPool_grad/AvgPoolGrad"}
  %constant_117 = f32[] constant(0), metadata={op_type="Sum" op_name="tower0/wd_cost_internals/Sum_53"}
  %pad.2 = f32[16,256,29,29]{1,3,2,0} pad(f32[16,256,14,14]{1,3,2,0} %divide.4, f32[] %constant_117), padding=0_0_0x0_0_0x1_1_1x1_1_1, metadata={op_type="AvgPoolGrad" op_name="tower0/gradients/tower0/multilevel_roi_align_mask/roi_level2/roi_align/AvgPool_grad/AvgPoolGrad"}
  %reduce-window.2 = f32[16,256,28,28]{1,3,2,0} reduce-window(f32[16,256,29,29]{1,3,2,0} %pad.2, f32[] %constant_117), window={size=1x1x2x2}, to_apply=%add_F32.3547, metadata={op_type="AvgPoolGrad" op_name="tower0/gradients/tower0/multilevel_roi_align_mask/roi_level2/roi_align/AvgPool_grad/AvgPoolGrad"}
  %bitcast.75 = f32[16,28,28,256]{3,2,1,0} bitcast(f32[16,256,28,28]{1,3,2,0} %reduce-window.2), metadata={op_type="Transpose" op_name="tower0/gradients/tower0/multilevel_roi_align_mask/roi_level2/roi_align/crop_and_resize/transpose_1_grad/transpose"}
  %param_2.636 = f32[16,256,14,14]{1,3,2,0} parameter(2)
  %divide.2.clone.1 = f32[16,256,14,14]{1,3,2,0} divide(f32[16,256,14,14]{1,3,2,0} %param_2.636, f32[16,256,14,14]{1,3,2,0} %broadcast.105), metadata={op_type="AvgPoolGrad" op_name="tower0/gradients/tower0/multilevel_roi_align_mask/roi_level4/roi_align/AvgPool_grad/AvgPoolGrad"}
  %pad.0.clone.1 = f32[16,256,29,29]{1,3,2,0} pad(f32[16,256,14,14]{1,3,2,0} %divide.2.clone.1, f32[] %constant_117), padding=0_0_0x0_0_0x1_1_1x1_1_1, metadata={op_type="AvgPoolGrad" op_name="tower0/gradients/tower0/multilevel_roi_align_mask/roi_level4/roi_align/AvgPool_grad/AvgPoolGrad"}
  %reduce-window.0.clone.1 = f32[16,256,28,28]{1,3,2,0} reduce-window(f32[16,256,29,29]{1,3,2,0} %pad.0.clone.1, f32[] %constant_117), window={size=1x1x2x2}, to_apply=%add_F32.3609, metadata={op_type="AvgPoolGrad" op_name="tower0/gradients/tower0/multilevel_roi_align_mask/roi_level4/roi_align/AvgPool_grad/AvgPoolGrad"}
  %bitcast.73.clone.1 = f32[16,28,28,256]{3,2,1,0} bitcast(f32[16,256,28,28]{1,3,2,0} %reduce-window.0.clone.1), metadata={op_type="Transpose" op_name="tower0/gradients/tower0/multilevel_roi_align_mask/roi_level4/roi_align/crop_and_resize/transpose_1_grad/transpose"}
  ROOT %tuple.25 = (f32[16,28,28,256]{3,2,1,0}, f32[16,28,28,256]{3,2,1,0}) tuple(f32[16,28,28,256]{3,2,1,0} %bitcast.75, f32[16,28,28,256]{3,2,1,0} %bitcast.73.clone.1)
}

%add_F32.3537 (lhs.3538: f32[], rhs.3539: f32[]) -> f32[] {
  %lhs.3538 = f32[] parameter(0)
  %rhs.3539 = f32[] parameter(1)
  ROOT %add.3540 = f32[] add(f32[] %lhs.3538, f32[] %rhs.3539)
}

%fused_computation.5 () -> f32[14,14] {
  %constant_118 = f32[] constant(1), metadata={op_type="SparseSoftmaxCrossEntropyWithLogits" op_name="tower0/fastrcnn_losses/SparseSoftmaxCrossEntropyWithLogits/SparseSoftmaxCrossEntropyWithLogits"}
  %broadcast.28 = f32[28,28]{1,0} broadcast(f32[] %constant_118), dimensions={}, metadata={op_type="AvgPoolGrad" op_name="tower0/gradients/tower0/multilevel_roi_align_mask/roi_level2/roi_align/AvgPool_grad/AvgPoolGrad"}
  %constant_119 = f32[] constant(0), metadata={op_type="Sum" op_name="tower0/wd_cost_internals/Sum_53"}
  ROOT %reduce-window.3 = f32[14,14]{1,0} reduce-window(f32[28,28]{1,0} %broadcast.28, f32[] %constant_119), window={size=2x2 stride=2x2}, to_apply=%add_F32.3537, metadata={op_type="AvgPoolGrad" op_name="tower0/gradients/tower0/multilevel_roi_align_mask/roi_level2/roi_align/AvgPool_grad/AvgPoolGrad"}
}

%fused_computation.6 (param_0.18: f32[3,3,256,256], param_1.731: f32[3,3,256,256]) -> f32[3,3,256,256] {
  %param_0.18 = f32[3,3,256,256]{1,0,2,3} parameter(0)
  %param_1.731 = f32[3,3,256,256]{3,2,1,0} parameter(1)
  %copy.56 = f32[3,3,256,256]{1,0,2,3} copy(f32[3,3,256,256]{3,2,1,0} %param_1.731), metadata={op_name="XLA_Args"}
  %constant_354 = f32[] constant(0.0001), metadata={op_type="Const" op_name="tower0/gradients/tower0/wd_cost_internals/Square_30_grad/Mul"}
  %broadcast.107 = f32[3,3,256,256]{1,0,2,3} broadcast(f32[] %constant_354), dimensions={}, metadata={op_type="Const" op_name="tower0/gradients/tower0/wd_cost_internals/Square_30_grad/Mul"}
  %multiply.9 = f32[3,3,256,256]{1,0,2,3} multiply(f32[3,3,256,256]{1,0,2,3} %copy.56, f32[3,3,256,256]{1,0,2,3} %broadcast.107), metadata={op_type="Mul" op_name="tower0/gradients/tower0/wd_cost_internals/Square_57_grad/Mul_1"}
  %add.7 = f32[3,3,256,256]{1,0,2,3} add(f32[3,3,256,256]{1,0,2,3} %param_0.18, f32[3,3,256,256]{1,0,2,3} %multiply.9), metadata={op_type="AddN" op_name="tower0/gradients/AddN_43"}
  ROOT %copy.50 = f32[3,3,256,256]{3,2,1,0} copy(f32[3,3,256,256]{1,0,2,3} %add.7), metadata={op_name="XLA_Retvals"}
}

%fused_computation.7 (param_0.20: f32[3,3,256,256], param_1.732: f32[3,3,256,256]) -> f32[3,3,256,256] {
  %param_0.20 = f32[3,3,256,256]{1,0,2,3} parameter(0)
  %param_1.732 = f32[3,3,256,256]{3,2,1,0} parameter(1)
  %copy.57 = f32[3,3,256,256]{1,0,2,3} copy(f32[3,3,256,256]{3,2,1,0} %param_1.732), metadata={op_name="XLA_Args"}
  %constant_355 = f32[] constant(0.0001), metadata={op_type="Const" op_name="tower0/gradients/tower0/wd_cost_internals/Square_30_grad/Mul"}
  %broadcast.108 = f32[3,3,256,256]{1,0,2,3} broadcast(f32[] %constant_355), dimensions={}, metadata={op_type="Const" op_name="tower0/gradients/tower0/wd_cost_internals/Square_30_grad/Mul"}
  %multiply.10 = f32[3,3,256,256]{1,0,2,3} multiply(f32[3,3,256,256]{1,0,2,3} %copy.57, f32[3,3,256,256]{1,0,2,3} %broadcast.108), metadata={op_type="Mul" op_name="tower0/gradients/tower0/wd_cost_internals/Square_58_grad/Mul_1"}
  %add.8 = f32[3,3,256,256]{1,0,2,3} add(f32[3,3,256,256]{1,0,2,3} %param_0.20, f32[3,3,256,256]{1,0,2,3} %multiply.10), metadata={op_type="AddN" op_name="tower0/gradients/AddN_34"}
  ROOT %copy.51 = f32[3,3,256,256]{3,2,1,0} copy(f32[3,3,256,256]{1,0,2,3} %add.8), metadata={op_name="XLA_Retvals"}
}

%fused_computation.8 (param_0.22: f32[3,3,256,256], param_1.733: f32[3,3,256,256]) -> f32[3,3,256,256] {
  %param_0.22 = f32[3,3,256,256]{1,0,2,3} parameter(0)
  %param_1.733 = f32[3,3,256,256]{3,2,1,0} parameter(1)
  %copy.58 = f32[3,3,256,256]{1,0,2,3} copy(f32[3,3,256,256]{3,2,1,0} %param_1.733), metadata={op_name="XLA_Args"}
  %constant_356 = f32[] constant(0.0001), metadata={op_type="Const" op_name="tower0/gradients/tower0/wd_cost_internals/Square_30_grad/Mul"}
  %broadcast.109 = f32[3,3,256,256]{1,0,2,3} broadcast(f32[] %constant_356), dimensions={}, metadata={op_type="Const" op_name="tower0/gradients/tower0/wd_cost_internals/Square_30_grad/Mul"}
  %multiply.11 = f32[3,3,256,256]{1,0,2,3} multiply(f32[3,3,256,256]{1,0,2,3} %copy.58, f32[3,3,256,256]{1,0,2,3} %broadcast.109), metadata={op_type="Mul" op_name="tower0/gradients/tower0/wd_cost_internals/Square_59_grad/Mul_1"}
  %add.9 = f32[3,3,256,256]{1,0,2,3} add(f32[3,3,256,256]{1,0,2,3} %param_0.22, f32[3,3,256,256]{1,0,2,3} %multiply.11), metadata={op_type="AddN" op_name="tower0/gradients/AddN_33"}
  ROOT %copy.52 = f32[3,3,256,256]{3,2,1,0} copy(f32[3,3,256,256]{1,0,2,3} %add.9), metadata={op_name="XLA_Retvals"}
}

%fused_computation.9 (param_0.24: f32[3,3,256,256], param_1.734: f32[3,3,256,256]) -> f32[3,3,256,256] {
  %param_0.24 = f32[3,3,256,256]{1,0,2,3} parameter(0)
  %param_1.734 = f32[3,3,256,256]{3,2,1,0} parameter(1)
  %copy.59 = f32[3,3,256,256]{1,0,2,3} copy(f32[3,3,256,256]{3,2,1,0} %param_1.734), metadata={op_name="XLA_Args"}
  %constant_357 = f32[] constant(0.0001), metadata={op_type="Const" op_name="tower0/gradients/tower0/wd_cost_internals/Square_30_grad/Mul"}
  %broadcast.110 = f32[3,3,256,256]{1,0,2,3} broadcast(f32[] %constant_357), dimensions={}, metadata={op_type="Const" op_name="tower0/gradients/tower0/wd_cost_internals/Square_30_grad/Mul"}
  %multiply.12 = f32[3,3,256,256]{1,0,2,3} multiply(f32[3,3,256,256]{1,0,2,3} %copy.59, f32[3,3,256,256]{1,0,2,3} %broadcast.110), metadata={op_type="Mul" op_name="tower0/gradients/tower0/wd_cost_internals/Square_60_grad/Mul_1"}
  %add.10 = f32[3,3,256,256]{1,0,2,3} add(f32[3,3,256,256]{1,0,2,3} %param_0.24, f32[3,3,256,256]{1,0,2,3} %multiply.12), metadata={op_type="AddN" op_name="tower0/gradients/AddN_31"}
  ROOT %copy.53 = f32[3,3,256,256]{3,2,1,0} copy(f32[3,3,256,256]{1,0,2,3} %add.10), metadata={op_name="XLA_Retvals"}
}

%fused_computation.10 (param_0.26: f32[2,2,256,256], param_1.735: f32[2,2,256,256]) -> f32[2,2,256,256] {
  %param_0.26 = f32[2,2,256,256]{1,0,2,3} parameter(0)
  %param_1.735 = f32[2,2,256,256]{3,2,1,0} parameter(1)
  %copy.60 = f32[2,2,256,256]{1,0,2,3} copy(f32[2,2,256,256]{3,2,1,0} %param_1.735), metadata={op_name="XLA_Args"}
  %constant_120 = f32[] constant(0.0001), metadata={op_type="Const" op_name="tower0/gradients/tower0/wd_cost_internals/Square_30_grad/Mul"}
  %broadcast.29 = f32[2,2,256,256]{1,0,2,3} broadcast(f32[] %constant_120), dimensions={}, metadata={op_type="Const" op_name="tower0/gradients/tower0/wd_cost_internals/Square_61_grad/Mul"}
  %multiply.13 = f32[2,2,256,256]{1,0,2,3} multiply(f32[2,2,256,256]{1,0,2,3} %copy.60, f32[2,2,256,256]{1,0,2,3} %broadcast.29), metadata={op_type="Mul" op_name="tower0/gradients/tower0/wd_cost_internals/Square_61_grad/Mul_1"}
  %add.11 = f32[2,2,256,256]{1,0,2,3} add(f32[2,2,256,256]{1,0,2,3} %param_0.26, f32[2,2,256,256]{1,0,2,3} %multiply.13), metadata={op_type="AddN" op_name="tower0/gradients/AddN_30"}
  ROOT %copy.54 = f32[2,2,256,256]{3,2,1,0} copy(f32[2,2,256,256]{1,0,2,3} %add.11), metadata={op_name="XLA_Retvals"}
}

%fused_computation.11 (param_0.28: f32[1,1,256,80], param_1.736: f32[1,1,256,80]) -> f32[1,1,256,80] {
  %param_0.28 = f32[1,1,256,80]{1,0,2,3} parameter(0)
  %param_1.736 = f32[1,1,256,80]{3,2,1,0} parameter(1)
  %copy.61 = f32[1,1,256,80]{1,0,2,3} copy(f32[1,1,256,80]{3,2,1,0} %param_1.736), metadata={op_name="XLA_Args"}
  %constant_121 = f32[] constant(0.0001), metadata={op_type="Const" op_name="tower0/gradients/tower0/wd_cost_internals/Square_30_grad/Mul"}
  %broadcast.30 = f32[1,1,256,80]{1,0,2,3} broadcast(f32[] %constant_121), dimensions={}, metadata={op_type="Const" op_name="tower0/gradients/tower0/wd_cost_internals/Square_62_grad/Mul"}
  %multiply.14 = f32[1,1,256,80]{1,0,2,3} multiply(f32[1,1,256,80]{1,0,2,3} %copy.61, f32[1,1,256,80]{1,0,2,3} %broadcast.30), metadata={op_type="Mul" op_name="tower0/gradients/tower0/wd_cost_internals/Square_62_grad/Mul_1"}
  %add.12 = f32[1,1,256,80]{1,0,2,3} add(f32[1,1,256,80]{1,0,2,3} %param_0.28, f32[1,1,256,80]{1,0,2,3} %multiply.14), metadata={op_type="AddN" op_name="tower0/gradients/AddN_26"}
  ROOT %copy.55 = f32[1,1,256,80]{3,2,1,0} copy(f32[1,1,256,80]{1,0,2,3} %add.12), metadata={op_name="XLA_Retvals"}
}

%add_F32.3849 (lhs.3850: f32[], rhs.3851: f32[]) -> f32[] {
  %lhs.3850 = f32[] parameter(0)
  %rhs.3851 = f32[] parameter(1)
  ROOT %add.3852 = f32[] add(f32[] %lhs.3850, f32[] %rhs.3851)
}

%fused_computation.17 (param_0.44: f32[1,256,7,7], param_1.48: f32[7,7]) -> f32[1,14,14,256] {
  %param_0.44 = f32[1,256,7,7]{1,3,2,0} parameter(0)
  %param_1.48 = f32[7,7]{1,0} parameter(1)
  %broadcast.32 = f32[1,256,7,7]{1,3,2,0} broadcast(f32[7,7]{1,0} %param_1.48), dimensions={2,3}, metadata={op_type="AvgPoolGrad" op_name="tower0/gradients/tower0/multilevel_roi_align/roi_level5/roi_align/AvgPool_grad/AvgPoolGrad"}
  %divide.5 = f32[1,256,7,7]{1,3,2,0} divide(f32[1,256,7,7]{1,3,2,0} %param_0.44, f32[1,256,7,7]{1,3,2,0} %broadcast.32), metadata={op_type="AvgPoolGrad" op_name="tower0/gradients/tower0/multilevel_roi_align/roi_level5/roi_align/AvgPool_grad/AvgPoolGrad"}
  %constant_126 = f32[] constant(0), metadata={op_type="Sum" op_name="tower0/wd_cost_internals/Sum_53"}
  %pad.3 = f32[1,256,15,15]{1,3,2,0} pad(f32[1,256,7,7]{1,3,2,0} %divide.5, f32[] %constant_126), padding=0_0_0x0_0_0x1_1_1x1_1_1, metadata={op_type="AvgPoolGrad" op_name="tower0/gradients/tower0/multilevel_roi_align/roi_level5/roi_align/AvgPool_grad/AvgPoolGrad"}
  %reduce-window.4 = f32[1,256,14,14]{1,3,2,0} reduce-window(f32[1,256,15,15]{1,3,2,0} %pad.3, f32[] %constant_126), window={size=1x1x2x2}, to_apply=%add_F32.3849, metadata={op_type="AvgPoolGrad" op_name="tower0/gradients/tower0/multilevel_roi_align/roi_level5/roi_align/AvgPool_grad/AvgPoolGrad"}
  ROOT %bitcast.76 = f32[1,14,14,256]{3,2,1,0} bitcast(f32[1,256,14,14]{1,3,2,0} %reduce-window.4), metadata={op_type="Transpose" op_name="tower0/gradients/tower0/multilevel_roi_align/roi_level5/roi_align/crop_and_resize/transpose_1_grad/transpose"}
}

%scatter-combiner.3829 (p0.3830: f32[], p1.3831: f32[]) -> f32[] {
  %p0.3830 = f32[] parameter(0)
  %p1.3831 = f32[] parameter(1)
  ROOT %add.3832 = f32[] add(f32[] %p0.3830, f32[] %p1.3831)
}

%fused_computation.18 (param_0.46: f32[1,256,7,7], param_1.51: s64[1], param_2.35: s64[]) -> f32[1,256,7,7] {
  %constant_127 = f32[] constant(0), metadata={op_type="Sum" op_name="tower0/wd_cost_internals/Sum_53"}
  %broadcast.33 = f32[1,256,7,7]{1,3,2,0} broadcast(f32[] %constant_127), dimensions={}, metadata={op_type="UnsortedSegmentSum" op_name="tower0/gradients/tower0/multilevel_roi_align/roi_level5/roi_align/AvgPool_grad/AvgPoolGrad/grad"}
  %param_1.51 = s64[1]{0} parameter(1)
  %param_2.35 = s64[] parameter(2)
  %bitcast.77 = s64[1]{0} bitcast(s64[] %param_2.35), metadata={op_type="Sub" op_name="tower0/gradients/tower0/multilevel_roi_align/concat_grad/sub_3"}
  %subtract.6 = s64[1]{0} subtract(s64[1]{0} %param_1.51, s64[1]{0} %bitcast.77), metadata={op_type="Sub" op_name="tower0/gradients/tower0/multilevel_roi_align/concat_grad/sub_3"}
  %param_0.46 = f32[1,256,7,7]{1,3,2,0} parameter(0)
  ROOT %scatter.2 = f32[1,256,7,7]{1,3,2,0} scatter(f32[1,256,7,7]{1,3,2,0} %broadcast.33, s64[1]{0} %subtract.6, f32[1,256,7,7]{1,3,2,0} %param_0.46), update_window_dims={1,2,3}, inserted_window_dims={0}, scatter_dims_to_operand_dims={0}, index_vector_dim=1, to_apply=%scatter-combiner.3829, metadata={op_type="UnsortedSegmentSum" op_name="tower0/gradients/tower0/multilevel_roi_align/roi_level5/roi_align/AvgPool_grad/AvgPoolGrad/grad"}
}

%add_F32.3942 (lhs.3943: f32[], rhs.3944: f32[]) -> f32[] {
  %lhs.3943 = f32[] parameter(0)
  %rhs.3944 = f32[] parameter(1)
  ROOT %add.3945 = f32[] add(f32[] %lhs.3943, f32[] %rhs.3944)
}

%fused_computation.19 (param_0.50: f32[20,256,7,7], param_1.55: f32[7,7]) -> f32[20,14,14,256] {
  %param_0.50 = f32[20,256,7,7]{1,3,2,0} parameter(0)
  %param_1.55 = f32[7,7]{1,0} parameter(1)
  %broadcast.34 = f32[20,256,7,7]{1,3,2,0} broadcast(f32[7,7]{1,0} %param_1.55), dimensions={2,3}, metadata={op_type="AvgPoolGrad" op_name="tower0/gradients/tower0/multilevel_roi_align/roi_level4/roi_align/AvgPool_grad/AvgPoolGrad"}
  %divide.6 = f32[20,256,7,7]{1,3,2,0} divide(f32[20,256,7,7]{1,3,2,0} %param_0.50, f32[20,256,7,7]{1,3,2,0} %broadcast.34), metadata={op_type="AvgPoolGrad" op_name="tower0/gradients/tower0/multilevel_roi_align/roi_level4/roi_align/AvgPool_grad/AvgPoolGrad"}
  %constant_128 = f32[] constant(0), metadata={op_type="Sum" op_name="tower0/wd_cost_internals/Sum_53"}
  %pad.4 = f32[20,256,15,15]{1,3,2,0} pad(f32[20,256,7,7]{1,3,2,0} %divide.6, f32[] %constant_128), padding=0_0_0x0_0_0x1_1_1x1_1_1, metadata={op_type="AvgPoolGrad" op_name="tower0/gradients/tower0/multilevel_roi_align/roi_level4/roi_align/AvgPool_grad/AvgPoolGrad"}
  %reduce-window.5 = f32[20,256,14,14]{1,3,2,0} reduce-window(f32[20,256,15,15]{1,3,2,0} %pad.4, f32[] %constant_128), window={size=1x1x2x2}, to_apply=%add_F32.3942, metadata={op_type="AvgPoolGrad" op_name="tower0/gradients/tower0/multilevel_roi_align/roi_level4/roi_align/AvgPool_grad/AvgPoolGrad"}
  ROOT %bitcast.78 = f32[20,14,14,256]{3,2,1,0} bitcast(f32[20,256,14,14]{1,3,2,0} %reduce-window.5), metadata={op_type="Transpose" op_name="tower0/gradients/tower0/multilevel_roi_align/roi_level4/roi_align/crop_and_resize/transpose_1_grad/transpose"}
}

%scatter-combiner.3922 (p0.3923: f32[], p1.3924: f32[]) -> f32[] {
  %p0.3923 = f32[] parameter(0)
  %p1.3924 = f32[] parameter(1)
  ROOT %add.3925 = f32[] add(f32[] %p0.3923, f32[] %p1.3924)
}

%fused_computation.20 (param_0.52: f32[20,256,7,7], param_1.58: s64[20], param_2.40: s64[]) -> f32[20,256,7,7] {
  %constant_129 = f32[] constant(0), metadata={op_type="Sum" op_name="tower0/wd_cost_internals/Sum_53"}
  %broadcast.36 = f32[20,256,7,7]{1,3,2,0} broadcast(f32[] %constant_129), dimensions={}, metadata={op_type="UnsortedSegmentSum" op_name="tower0/gradients/tower0/multilevel_roi_align/roi_level4/roi_align/AvgPool_grad/AvgPoolGrad/grad"}
  %param_1.58 = s64[20]{0} parameter(1)
  %param_2.40 = s64[] parameter(2)
  %broadcast.35 = s64[20]{0} broadcast(s64[] %param_2.40), dimensions={}, metadata={op_type="Sub" op_name="tower0/gradients/tower0/multilevel_roi_align/concat_grad/sub_2"}
  %subtract.7 = s64[20]{0} subtract(s64[20]{0} %param_1.58, s64[20]{0} %broadcast.35), metadata={op_type="Sub" op_name="tower0/gradients/tower0/multilevel_roi_align/concat_grad/sub_2"}
  %param_0.52 = f32[20,256,7,7]{1,3,2,0} parameter(0)
  ROOT %scatter.3 = f32[20,256,7,7]{1,3,2,0} scatter(f32[20,256,7,7]{1,3,2,0} %broadcast.36, s64[20]{0} %subtract.7, f32[20,256,7,7]{1,3,2,0} %param_0.52), update_window_dims={1,2,3}, inserted_window_dims={0}, scatter_dims_to_operand_dims={0}, index_vector_dim=1, to_apply=%scatter-combiner.3922, metadata={op_type="UnsortedSegmentSum" op_name="tower0/gradients/tower0/multilevel_roi_align/roi_level4/roi_align/AvgPool_grad/AvgPoolGrad/grad"}
}

%add_F32.3911 (lhs.3912: f32[], rhs.3913: f32[]) -> f32[] {
  %lhs.3912 = f32[] parameter(0)
  %rhs.3913 = f32[] parameter(1)
  ROOT %add.3914 = f32[] add(f32[] %lhs.3912, f32[] %rhs.3913)
}

%fused_computation.21 (param_0.56: f32[51,256,7,7], param_1.62: f32[7,7]) -> f32[51,14,14,256] {
  %param_0.56 = f32[51,256,7,7]{1,3,2,0} parameter(0)
  %param_1.62 = f32[7,7]{1,0} parameter(1)
  %broadcast.37 = f32[51,256,7,7]{1,3,2,0} broadcast(f32[7,7]{1,0} %param_1.62), dimensions={2,3}, metadata={op_type="AvgPoolGrad" op_name="tower0/gradients/tower0/multilevel_roi_align/roi_level3/roi_align/AvgPool_grad/AvgPoolGrad"}
  %divide.7 = f32[51,256,7,7]{1,3,2,0} divide(f32[51,256,7,7]{1,3,2,0} %param_0.56, f32[51,256,7,7]{1,3,2,0} %broadcast.37), metadata={op_type="AvgPoolGrad" op_name="tower0/gradients/tower0/multilevel_roi_align/roi_level3/roi_align/AvgPool_grad/AvgPoolGrad"}
  %constant_130 = f32[] constant(0), metadata={op_type="Sum" op_name="tower0/wd_cost_internals/Sum_53"}
  %pad.5 = f32[51,256,15,15]{1,3,2,0} pad(f32[51,256,7,7]{1,3,2,0} %divide.7, f32[] %constant_130), padding=0_0_0x0_0_0x1_1_1x1_1_1, metadata={op_type="AvgPoolGrad" op_name="tower0/gradients/tower0/multilevel_roi_align/roi_level3/roi_align/AvgPool_grad/AvgPoolGrad"}
  %reduce-window.6 = f32[51,256,14,14]{1,3,2,0} reduce-window(f32[51,256,15,15]{1,3,2,0} %pad.5, f32[] %constant_130), window={size=1x1x2x2}, to_apply=%add_F32.3911, metadata={op_type="AvgPoolGrad" op_name="tower0/gradients/tower0/multilevel_roi_align/roi_level3/roi_align/AvgPool_grad/AvgPoolGrad"}
  ROOT %bitcast.79 = f32[51,14,14,256]{3,2,1,0} bitcast(f32[51,256,14,14]{1,3,2,0} %reduce-window.6), metadata={op_type="Transpose" op_name="tower0/gradients/tower0/multilevel_roi_align/roi_level3/roi_align/crop_and_resize/transpose_1_grad/transpose"}
}

%scatter-combiner.3891 (p0.3892: f32[], p1.3893: f32[]) -> f32[] {
  %p0.3892 = f32[] parameter(0)
  %p1.3893 = f32[] parameter(1)
  ROOT %add.3894 = f32[] add(f32[] %p0.3892, f32[] %p1.3893)
}

%fused_computation.22 (param_0.58: f32[51,256,7,7], param_1.65: s64[51], param_2.45: s64[]) -> f32[51,256,7,7] {
  %constant_131 = f32[] constant(0), metadata={op_type="Sum" op_name="tower0/wd_cost_internals/Sum_53"}
  %broadcast.39 = f32[51,256,7,7]{1,3,2,0} broadcast(f32[] %constant_131), dimensions={}, metadata={op_type="UnsortedSegmentSum" op_name="tower0/gradients/tower0/multilevel_roi_align/roi_level3/roi_align/AvgPool_grad/AvgPoolGrad/grad"}
  %param_1.65 = s64[51]{0} parameter(1)
  %param_2.45 = s64[] parameter(2)
  %broadcast.38 = s64[51]{0} broadcast(s64[] %param_2.45), dimensions={}, metadata={op_type="Sub" op_name="tower0/gradients/tower0/multilevel_roi_align/concat_grad/sub_1"}
  %subtract.8 = s64[51]{0} subtract(s64[51]{0} %param_1.65, s64[51]{0} %broadcast.38), metadata={op_type="Sub" op_name="tower0/gradients/tower0/multilevel_roi_align/concat_grad/sub_1"}
  %param_0.58 = f32[51,256,7,7]{1,3,2,0} parameter(0)
  ROOT %scatter.4 = f32[51,256,7,7]{1,3,2,0} scatter(f32[51,256,7,7]{1,3,2,0} %broadcast.39, s64[51]{0} %subtract.8, f32[51,256,7,7]{1,3,2,0} %param_0.58), update_window_dims={1,2,3}, inserted_window_dims={0}, scatter_dims_to_operand_dims={0}, index_vector_dim=1, to_apply=%scatter-combiner.3891, metadata={op_type="UnsortedSegmentSum" op_name="tower0/gradients/tower0/multilevel_roi_align/roi_level3/roi_align/AvgPool_grad/AvgPoolGrad/grad"}
}

%add_F32.3880 (lhs.3881: f32[], rhs.3882: f32[]) -> f32[] {
  %lhs.3881 = f32[] parameter(0)
  %rhs.3882 = f32[] parameter(1)
  ROOT %add.3883 = f32[] add(f32[] %lhs.3881, f32[] %rhs.3882)
}

%fused_computation.23 (param_0.62: f32[440,256,7,7], param_1.69: f32[7,7]) -> f32[440,14,14,256] {
  %param_0.62 = f32[440,256,7,7]{1,3,2,0} parameter(0)
  %param_1.69 = f32[7,7]{1,0} parameter(1)
  %broadcast.40 = f32[440,256,7,7]{1,3,2,0} broadcast(f32[7,7]{1,0} %param_1.69), dimensions={2,3}, metadata={op_type="AvgPoolGrad" op_name="tower0/gradients/tower0/multilevel_roi_align/roi_level2/roi_align/AvgPool_grad/AvgPoolGrad"}
  %divide.8 = f32[440,256,7,7]{1,3,2,0} divide(f32[440,256,7,7]{1,3,2,0} %param_0.62, f32[440,256,7,7]{1,3,2,0} %broadcast.40), metadata={op_type="AvgPoolGrad" op_name="tower0/gradients/tower0/multilevel_roi_align/roi_level2/roi_align/AvgPool_grad/AvgPoolGrad"}
  %constant_132 = f32[] constant(0), metadata={op_type="Sum" op_name="tower0/wd_cost_internals/Sum_53"}
  %pad.6 = f32[440,256,15,15]{1,3,2,0} pad(f32[440,256,7,7]{1,3,2,0} %divide.8, f32[] %constant_132), padding=0_0_0x0_0_0x1_1_1x1_1_1, metadata={op_type="AvgPoolGrad" op_name="tower0/gradients/tower0/multilevel_roi_align/roi_level2/roi_align/AvgPool_grad/AvgPoolGrad"}
  %reduce-window.7 = f32[440,256,14,14]{1,3,2,0} reduce-window(f32[440,256,15,15]{1,3,2,0} %pad.6, f32[] %constant_132), window={size=1x1x2x2}, to_apply=%add_F32.3880, metadata={op_type="AvgPoolGrad" op_name="tower0/gradients/tower0/multilevel_roi_align/roi_level2/roi_align/AvgPool_grad/AvgPoolGrad"}
  ROOT %bitcast.80 = f32[440,14,14,256]{3,2,1,0} bitcast(f32[440,256,14,14]{1,3,2,0} %reduce-window.7), metadata={op_type="Transpose" op_name="tower0/gradients/tower0/multilevel_roi_align/roi_level2/roi_align/crop_and_resize/transpose_1_grad/transpose"}
}

%add_F32.3870 (lhs.3871: f32[], rhs.3872: f32[]) -> f32[] {
  %lhs.3871 = f32[] parameter(0)
  %rhs.3872 = f32[] parameter(1)
  ROOT %add.3873 = f32[] add(f32[] %lhs.3871, f32[] %rhs.3872)
}

%fused_computation.24 () -> f32[7,7] {
  %constant_133 = f32[] constant(1), metadata={op_type="SparseSoftmaxCrossEntropyWithLogits" op_name="tower0/fastrcnn_losses/SparseSoftmaxCrossEntropyWithLogits/SparseSoftmaxCrossEntropyWithLogits"}
  %broadcast.41 = f32[14,14]{1,0} broadcast(f32[] %constant_133), dimensions={}, metadata={op_type="AvgPoolGrad" op_name="tower0/gradients/tower0/multilevel_roi_align/roi_level2/roi_align/AvgPool_grad/AvgPoolGrad"}
  %constant_134 = f32[] constant(0), metadata={op_type="Sum" op_name="tower0/wd_cost_internals/Sum_53"}
  ROOT %reduce-window.8 = f32[7,7]{1,0} reduce-window(f32[14,14]{1,0} %broadcast.41, f32[] %constant_134), window={size=2x2 stride=2x2}, to_apply=%add_F32.3870, metadata={op_type="AvgPoolGrad" op_name="tower0/gradients/tower0/multilevel_roi_align/roi_level2/roi_align/AvgPool_grad/AvgPoolGrad"}
}

%scatter-combiner.3860 (p0.3861: f32[], p1.3862: f32[]) -> f32[] {
  %p0.3861 = f32[] parameter(0)
  %p1.3862 = f32[] parameter(1)
  ROOT %add.3863 = f32[] add(f32[] %p0.3861, f32[] %p1.3862)
}

%fused_computation.25 (param_0.66: s64[440], param_1.73: f32[440,256,7,7]) -> f32[440,256,7,7] {
  %constant_135 = f32[] constant(0), metadata={op_type="Sum" op_name="tower0/wd_cost_internals/Sum_53"}
  %broadcast.42 = f32[440,256,7,7]{1,3,2,0} broadcast(f32[] %constant_135), dimensions={}, metadata={op_type="UnsortedSegmentSum" op_name="tower0/gradients/tower0/multilevel_roi_align/roi_level2/roi_align/AvgPool_grad/AvgPoolGrad/grad"}
  %param_0.66 = s64[440]{0} parameter(0)
  %param_1.73 = f32[440,256,7,7]{1,3,2,0} parameter(1)
  ROOT %scatter.5 = f32[440,256,7,7]{1,3,2,0} scatter(f32[440,256,7,7]{1,3,2,0} %broadcast.42, s64[440]{0} %param_0.66, f32[440,256,7,7]{1,3,2,0} %param_1.73), update_window_dims={1,2,3}, inserted_window_dims={0}, scatter_dims_to_operand_dims={0}, index_vector_dim=1, to_apply=%scatter-combiner.3860, metadata={op_type="UnsortedSegmentSum" op_name="tower0/gradients/tower0/multilevel_roi_align/roi_level2/roi_align/AvgPool_grad/AvgPoolGrad/grad"}
}

%fused_computation.29 (param_0.732: f32[42,28,28], param_1.765: f32[42,28,28,1]) -> u8[42,56,28,1] {
  %param_1.765 = f32[42,28,28,1]{3,2,1,0} parameter(1)
  %bitcast.143 = f32[42,28,28]{2,1,0} bitcast(f32[42,28,28,1]{3,2,1,0} %param_1.765), metadata={op_type="Squeeze" op_name="tower0/sampled_fg_mask_targets"}
  %param_0.732 = f32[42,28,28]{2,1,0} parameter(0)
  %concatenate.11 = f32[42,56,28]{2,1,0} concatenate(f32[42,28,28]{2,1,0} %bitcast.143, f32[42,28,28]{2,1,0} %param_0.732), dimensions={1}, metadata={op_type="ConcatV2" op_name="tower0/maskrcnn_loss/mask_viz/concat"}
  %constant_138 = f32[] constant(255), metadata={op_type="Mul" op_name="tower0/maskrcnn_loss/mask_viz/mul"}
  %broadcast.43 = f32[42,56,28]{2,1,0} broadcast(f32[] %constant_138), dimensions={}, metadata={op_type="Mul" op_name="tower0/maskrcnn_loss/mask_viz/mul"}
  %multiply.22 = f32[42,56,28]{2,1,0} multiply(f32[42,56,28]{2,1,0} %concatenate.11, f32[42,56,28]{2,1,0} %broadcast.43), metadata={op_type="Mul" op_name="tower0/maskrcnn_loss/mask_viz/mul"}
  %convert.3 = u8[42,56,28]{2,1,0} convert(f32[42,56,28]{2,1,0} %multiply.22), metadata={op_type="Cast" op_name="tower0/maskrcnn_loss/mask_viz/viz"}
  ROOT %bitcast.81 = u8[42,56,28,1]{3,2,1,0} bitcast(u8[42,56,28]{2,1,0} %convert.3), metadata={op_type="Cast" op_name="tower0/maskrcnn_loss/mask_viz/viz"}
}

%fused_computation.31 (param_0.80: f32[12544,1024], param_1.89: f32[12544,1024]) -> f32[12544,1024] {
  %param_0.80 = f32[12544,1024]{1,0} parameter(0)
  %param_1.89 = f32[12544,1024]{1,0} parameter(1)
  %constant_140 = f32[] constant(0.0001), metadata={op_type="Const" op_name="tower0/gradients/tower0/wd_cost_internals/Square_30_grad/Mul"}
  %broadcast.45 = f32[12544,1024]{1,0} broadcast(f32[] %constant_140), dimensions={}, metadata={op_type="Const" op_name="tower0/gradients/tower0/wd_cost_internals/Square_53_grad/Mul"}
  %multiply.25 = f32[12544,1024]{1,0} multiply(f32[12544,1024]{1,0} %param_1.89, f32[12544,1024]{1,0} %broadcast.45), metadata={op_type="Mul" op_name="tower0/gradients/tower0/wd_cost_internals/Square_53_grad/Mul_1"}
  ROOT %add.20 = f32[12544,1024]{1,0} add(f32[12544,1024]{1,0} %param_0.80, f32[12544,1024]{1,0} %multiply.25), metadata={op_type="AddN" op_name="tower0/gradients/AddN_32"}
}

%fused_computation.33 (param_0.83: f32[1024,1024], param_1.93: f32[1024,1024]) -> f32[1024,1024] {
  %param_0.83 = f32[1024,1024]{1,0} parameter(0)
  %param_1.93 = f32[1024,1024]{1,0} parameter(1)
  %constant_141 = f32[] constant(0.0001), metadata={op_type="Const" op_name="tower0/gradients/tower0/wd_cost_internals/Square_30_grad/Mul"}
  %broadcast.46 = f32[1024,1024]{1,0} broadcast(f32[] %constant_141), dimensions={}, metadata={op_type="Const" op_name="tower0/gradients/tower0/wd_cost_internals/Square_54_grad/Mul"}
  %multiply.26 = f32[1024,1024]{1,0} multiply(f32[1024,1024]{1,0} %param_1.93, f32[1024,1024]{1,0} %broadcast.46), metadata={op_type="Mul" op_name="tower0/gradients/tower0/wd_cost_internals/Square_54_grad/Mul_1"}
  ROOT %add.21 = f32[1024,1024]{1,0} add(f32[1024,1024]{1,0} %param_0.83, f32[1024,1024]{1,0} %multiply.26), metadata={op_type="AddN" op_name="tower0/gradients/AddN_29"}
}

%fused_computation.35 (param_0.86: f32[1024,324], param_1.98: f32[1024,324]) -> f32[1024,324] {
  %param_0.86 = f32[1024,324]{1,0} parameter(0)
  %param_1.98 = f32[1024,324]{1,0} parameter(1)
  %constant_142 = f32[] constant(0.0001), metadata={op_type="Const" op_name="tower0/gradients/tower0/wd_cost_internals/Square_30_grad/Mul"}
  %broadcast.47 = f32[1024,324]{1,0} broadcast(f32[] %constant_142), dimensions={}, metadata={op_type="Const" op_name="tower0/gradients/tower0/wd_cost_internals/Square_56_grad/Mul"}
  %multiply.27 = f32[1024,324]{1,0} multiply(f32[1024,324]{1,0} %param_1.98, f32[1024,324]{1,0} %broadcast.47), metadata={op_type="Mul" op_name="tower0/gradients/tower0/wd_cost_internals/Square_56_grad/Mul_1"}
  ROOT %add.23 = f32[1024,324]{1,0} add(f32[1024,324]{1,0} %param_0.86, f32[1024,324]{1,0} %multiply.27), metadata={op_type="AddN" op_name="tower0/gradients/AddN_22"}
}

%scatter-combiner.3779 (p0.3780: f32[], p1.3781: f32[]) -> f32[] {
  %p0.3780 = f32[] parameter(0)
  %p1.3781 = f32[] parameter(1)
  ROOT %add.3782 = f32[] add(f32[] %p0.3780, f32[] %p1.3781)
}

%fused_computation.36 (param_0.737: f32[3402,4], param_1.770: s64[42,1]) -> f32[512,81,4] {
  %constant_143 = f32[] constant(0), metadata={op_type="Sum" op_name="tower0/wd_cost_internals/Sum_53"}
  %broadcast.48 = f32[512,81,4]{2,1,0} broadcast(f32[] %constant_143), dimensions={}, metadata={op_type="UnsortedSegmentSum" op_name="tower0/gradients/tower0/fastrcnn/outputs/output_box_grad/Reshape/tensor"}
  %param_1.770 = s64[42,1]{1,0} parameter(1)
  %bitcast.145 = s64[42]{0} bitcast(s64[42,1]{1,0} %param_1.770), metadata={op_type="StridedSlice" op_name="tower0/fastrcnn_losses/strided_slice"}
  %param_0.737 = f32[3402,4]{1,0} parameter(0)
  %bitcast.82 = f32[42,81,4]{2,1,0} bitcast(f32[3402,4]{1,0} %param_0.737), metadata={op_type="Reshape" op_name="tower0/gradients/tower0/fg_box_logits_grad/Reshape"}
  ROOT %scatter.6 = f32[512,81,4]{2,1,0} scatter(f32[512,81,4]{2,1,0} %broadcast.48, s64[42]{0} %bitcast.145, f32[42,81,4]{2,1,0} %bitcast.82), update_window_dims={1,2}, inserted_window_dims={0}, scatter_dims_to_operand_dims={0}, index_vector_dim=1, to_apply=%scatter-combiner.3779, metadata={op_type="UnsortedSegmentSum" op_name="tower0/gradients/tower0/fastrcnn/outputs/output_box_grad/Reshape/tensor"}
}

%scatter-combiner.3697 (p0.3698: f32[], p1.3699: f32[]) -> f32[] {
  %p0.3698 = f32[] parameter(0)
  %p1.3699 = f32[] parameter(1)
  ROOT %add.3700 = f32[] add(f32[] %p0.3698, f32[] %p1.3699)
}

%fused_computation.37 (param_0.90: s64[42], param_1.103: f32[], param_2.72: f32[42,4]) -> f32[3402,4] {
  %constant_145 = f32[] constant(0), metadata={op_type="Sum" op_name="tower0/wd_cost_internals/Sum_53"}
  %broadcast.51 = f32[3402,4]{1,0} broadcast(f32[] %constant_145), dimensions={}, metadata={op_type="UnsortedSegmentSum" op_name="tower0/gradients/tower0/fastrcnn_losses/Gather/Reshape_2_grad/Reshape/tensor"}
  %param_0.90 = s64[42]{0} parameter(0)
  %param_2.72 = f32[42,4]{1,0} parameter(2)
  %compare.5 = pred[42,4]{1,0} compare(f32[42,4]{1,0} %param_2.72, f32[42,4]{1,0} %param_2.72), direction=NE, metadata={op_type="Sign" op_name="tower0/gradients/tower0/fastrcnn_losses/Abs_grad/Sign"}
  %broadcast.50 = f32[42,4]{1,0} broadcast(f32[] %constant_145), dimensions={}, metadata={op_type="Sign" op_name="tower0/gradients/tower0/fastrcnn_losses/Abs_grad/Sign"}
  %sign.0 = f32[42,4]{1,0} sign(f32[42,4]{1,0} %param_2.72), metadata={op_type="Sign" op_name="tower0/gradients/tower0/fastrcnn_losses/Abs_grad/Sign"}
  %select.3 = f32[42,4]{1,0} select(pred[42,4]{1,0} %compare.5, f32[42,4]{1,0} %broadcast.50, f32[42,4]{1,0} %sign.0), metadata={op_type="Sign" op_name="tower0/gradients/tower0/fastrcnn_losses/Abs_grad/Sign"}
  %constant_144 = f32[] constant(1), metadata={op_type="SparseSoftmaxCrossEntropyWithLogits" op_name="tower0/fastrcnn_losses/SparseSoftmaxCrossEntropyWithLogits/SparseSoftmaxCrossEntropyWithLogits"}
  %param_1.103 = f32[] parameter(1)
  %divide.9 = f32[] divide(f32[] %constant_144, f32[] %param_1.103), metadata={op_type="Reciprocal" op_name="tower0/gradients/tower0/fastrcnn_losses/box_loss_grad/RealDiv"}
  %broadcast.49 = f32[42,4]{1,0} broadcast(f32[] %divide.9), dimensions={}
  %multiply.28 = f32[42,4]{1,0} multiply(f32[42,4]{1,0} %select.3, f32[42,4]{1,0} %broadcast.49), metadata={op_type="Mul" op_name="tower0/gradients/tower0/fastrcnn_losses/Abs_grad/mul"}
  %negate.3 = f32[42,4]{1,0} negate(f32[42,4]{1,0} %multiply.28), metadata={op_type="Neg" op_name="tower0/gradients/tower0/fastrcnn_losses/sub_grad/Neg"}
  ROOT %scatter.7 = f32[3402,4]{1,0} scatter(f32[3402,4]{1,0} %broadcast.51, s64[42]{0} %param_0.90, f32[42,4]{1,0} %negate.3), update_window_dims={1}, inserted_window_dims={0}, scatter_dims_to_operand_dims={0}, index_vector_dim=1, to_apply=%scatter-combiner.3697, metadata={op_type="UnsortedSegmentSum" op_name="tower0/gradients/tower0/fastrcnn_losses/Gather/Reshape_2_grad/Reshape/tensor"}
}

%fused_computation.39 (param_0.94: s32[1]) -> f32[] {
  %param_0.94 = s32[1]{0} parameter(0)
  %bitcast.83 = s32[] bitcast(s32[1]{0} %param_0.94), metadata={op_type="StridedSlice" op_name="tower0/fastrcnn_losses/strided_slice_1"}
  ROOT %convert.4 = f32[] convert(s32[] %bitcast.83), metadata={op_type="Cast" op_name="tower0/fastrcnn_losses/Cast"}
}

%tower0_fastrcnn_losses_Sum-reduction.3656 (x.3657: f32[], y.3658: f32[]) -> f32[] {
  %x.3657 = f32[] parameter(0)
  %y.3658 = f32[] parameter(1)
  ROOT %add.3659 = f32[] add(f32[] %x.3657, f32[] %y.3658)
}

%fused_computation.40 (param_0.880: s64[42], param_1.992: f32[42,81,4], param_2.693: f32[42,4], param_3.543: f32[42,4], param_4.502: f32[], param_5.349: f32[4]) -> (f32[], f32[42,4]) {
  %param_5.349 = f32[4]{0} parameter(5)
  %broadcast.53.clone.1 = f32[42,4]{1,0} broadcast(f32[4]{0} %param_5.349), dimensions={1}, metadata={op_type="Mul" op_name="tower0/mul_2"}
  %param_4.502 = f32[] parameter(4)
  %broadcast.52.clone.1 = f32[42,1,2]{2,1,0} broadcast(f32[] %param_4.502), dimensions={}, metadata={op_type="Mul" op_name="tower0/encode_bbox_target/mul_1"}
  %param_3.543 = f32[42,4]{1,0} parameter(3)
  %bitcast.87.clone.1 = f32[42,2,2]{2,1,0} bitcast(f32[42,4]{1,0} %param_3.543), metadata={op_type="Reshape" op_name="tower0/encode_bbox_target/Reshape_1"}
  %slice.3.clone.1 = f32[42,1,2]{2,1,0} slice(f32[42,2,2]{2,1,0} %bitcast.87.clone.1), slice={[0:42], [0:1], [0:2]}, metadata={op_type="Split" op_name="tower0/encode_bbox_target/split_1"}
  %slice.2.clone.1 = f32[42,1,2]{2,1,0} slice(f32[42,2,2]{2,1,0} %bitcast.87.clone.1), slice={[0:42], [1:2], [0:2]}, metadata={op_type="Split" op_name="tower0/encode_bbox_target/split_1"}
  %add.25.clone.1 = f32[42,1,2]{2,1,0} add(f32[42,1,2]{2,1,0} %slice.3.clone.1, f32[42,1,2]{2,1,0} %slice.2.clone.1), metadata={op_type="Add" op_name="tower0/encode_bbox_target/add_1"}
  %multiply.32.clone.1 = f32[42,1,2]{2,1,0} multiply(f32[42,1,2]{2,1,0} %broadcast.52.clone.1, f32[42,1,2]{2,1,0} %add.25.clone.1), metadata={op_type="Mul" op_name="tower0/encode_bbox_target/mul_1"}
  %param_2.693 = f32[42,4]{1,0} parameter(2)
  %bitcast.86.clone.1 = f32[42,2,2]{2,1,0} bitcast(f32[42,4]{1,0} %param_2.693), metadata={op_type="Reshape" op_name="tower0/encode_bbox_target/Reshape"}
  %slice.1.clone.1 = f32[42,1,2]{2,1,0} slice(f32[42,2,2]{2,1,0} %bitcast.86.clone.1), slice={[0:42], [0:1], [0:2]}, metadata={op_type="Split" op_name="tower0/encode_bbox_target/split"}
  %slice.0.clone.1 = f32[42,1,2]{2,1,0} slice(f32[42,2,2]{2,1,0} %bitcast.86.clone.1), slice={[0:42], [1:2], [0:2]}, metadata={op_type="Split" op_name="tower0/encode_bbox_target/split"}
  %add.24.clone.1 = f32[42,1,2]{2,1,0} add(f32[42,1,2]{2,1,0} %slice.1.clone.1, f32[42,1,2]{2,1,0} %slice.0.clone.1), metadata={op_type="Add" op_name="tower0/encode_bbox_target/add"}
  %multiply.31.clone.1 = f32[42,1,2]{2,1,0} multiply(f32[42,1,2]{2,1,0} %broadcast.52.clone.1, f32[42,1,2]{2,1,0} %add.24.clone.1), metadata={op_type="Mul" op_name="tower0/encode_bbox_target/mul"}
  %subtract.14.clone.1 = f32[42,1,2]{2,1,0} subtract(f32[42,1,2]{2,1,0} %multiply.32.clone.1, f32[42,1,2]{2,1,0} %multiply.31.clone.1), metadata={op_type="Sub" op_name="tower0/encode_bbox_target/sub_2"}
  %subtract.13.clone.1 = f32[42,1,2]{2,1,0} subtract(f32[42,1,2]{2,1,0} %slice.0.clone.1, f32[42,1,2]{2,1,0} %slice.1.clone.1), metadata={op_type="Sub" op_name="tower0/encode_bbox_target/sub"}
  %divide.11.clone.1 = f32[42,1,2]{2,1,0} divide(f32[42,1,2]{2,1,0} %subtract.14.clone.1, f32[42,1,2]{2,1,0} %subtract.13.clone.1), metadata={op_type="RealDiv" op_name="tower0/encode_bbox_target/truediv"}
  %subtract.12.clone.1 = f32[42,1,2]{2,1,0} subtract(f32[42,1,2]{2,1,0} %slice.2.clone.1, f32[42,1,2]{2,1,0} %slice.3.clone.1), metadata={op_type="Sub" op_name="tower0/encode_bbox_target/sub_1"}
  %divide.10.clone.1 = f32[42,1,2]{2,1,0} divide(f32[42,1,2]{2,1,0} %subtract.12.clone.1, f32[42,1,2]{2,1,0} %subtract.13.clone.1), metadata={op_type="RealDiv" op_name="tower0/encode_bbox_target/truediv_1"}
  %log.0.clone.1 = f32[42,1,2]{2,1,0} log(f32[42,1,2]{2,1,0} %divide.10.clone.1), metadata={op_type="Log" op_name="tower0/encode_bbox_target/Log"}
  %concatenate.12.clone.1 = f32[42,2,2]{2,1,0} concatenate(f32[42,1,2]{2,1,0} %divide.11.clone.1, f32[42,1,2]{2,1,0} %log.0.clone.1), dimensions={1}, metadata={op_type="ConcatV2" op_name="tower0/encode_bbox_target/concat"}
  %bitcast.85.clone.1 = f32[42,4]{1,0} bitcast(f32[42,2,2]{2,1,0} %concatenate.12.clone.1), metadata={op_type="Reshape" op_name="tower0/encode_bbox_target/Reshape_2"}
  %multiply.30.clone.1 = f32[42,4]{1,0} multiply(f32[42,4]{1,0} %broadcast.53.clone.1, f32[42,4]{1,0} %bitcast.85.clone.1), metadata={op_type="Mul" op_name="tower0/mul_2"}
  %param_1.992 = f32[42,81,4]{2,1,0} parameter(1)
  %bitcast.84.clone.1 = f32[3402,4]{1,0} bitcast(f32[42,81,4]{2,1,0} %param_1.992), metadata={op_type="Reshape" op_name="tower0/fastrcnn_losses/Gather/Reshape_2"}
  %param_0.880 = s64[42]{0} parameter(0)
  %gather.0.clone.1 = f32[42,4]{1,0} gather(f32[3402,4]{1,0} %bitcast.84.clone.1, s64[42]{0} %param_0.880), offset_dims={1}, collapsed_slice_dims={0}, start_index_map={0}, index_vector_dim=1, slice_sizes={1,4}, metadata={op_type="GatherV2" op_name="tower0/fastrcnn_losses/Gather/GatherV2"}
  %subtract.11.clone.1 = f32[42,4]{1,0} subtract(f32[42,4]{1,0} %multiply.30.clone.1, f32[42,4]{1,0} %gather.0.clone.1), metadata={op_type="Sub" op_name="tower0/fastrcnn_losses/sub"}
  %abs.0 = f32[42,4]{1,0} abs(f32[42,4]{1,0} %subtract.11.clone.1), metadata={op_type="Abs" op_name="tower0/fastrcnn_losses/Abs"}
  %constant_146 = f32[] constant(0), metadata={op_type="Sum" op_name="tower0/wd_cost_internals/Sum_53"}
  %reduce.4 = f32[] reduce(f32[42,4]{1,0} %abs.0, f32[] %constant_146), dimensions={0,1}, to_apply=%tower0_fastrcnn_losses_Sum-reduction.3656, metadata={op_type="Sum" op_name="tower0/fastrcnn_losses/Sum"}
  ROOT %tuple.136 = (f32[], f32[42,4]{1,0}) tuple(f32[] %reduce.4, f32[42,4]{1,0} %subtract.11.clone.1)
}

%fused_computation.43 (param_0.104: s64[42], param_1.119: f32[512,324], param_2.82: f32[324]) -> f32[42,81,4] {
  %param_1.119 = f32[512,324]{1,0} parameter(1)
  %param_2.82 = f32[324]{0} parameter(2)
  %broadcast.55 = f32[512,324]{1,0} broadcast(f32[324]{0} %param_2.82), dimensions={1}, metadata={op_type="BiasAdd" op_name="tower0/fastrcnn/outputs/box/BiasAdd"}
  %add.27 = f32[512,324]{1,0} add(f32[512,324]{1,0} %param_1.119, f32[512,324]{1,0} %broadcast.55), metadata={op_type="BiasAdd" op_name="tower0/fastrcnn/outputs/box/BiasAdd"}
  %bitcast.88 = f32[512,81,4]{2,1,0} bitcast(f32[512,324]{1,0} %add.27), metadata={op_type="Reshape" op_name="tower0/fastrcnn/outputs/output_box"}
  %param_0.104 = s64[42]{0} parameter(0)
  ROOT %gather.2 = f32[42,81,4]{2,1,0} gather(f32[512,81,4]{2,1,0} %bitcast.88, s64[42]{0} %param_0.104), offset_dims={1,2}, collapsed_slice_dims={0}, start_index_map={0}, index_vector_dim=1, slice_sizes={1,81,4}, metadata={op_type="GatherV2" op_name="tower0/fg_box_logits"}
}

%tower0_fastrcnn_losses_label_metrics_num_zero-reduction.3745 (x.3746: s64[], y.3747: s64[]) -> s64[] {
  %x.3746 = s64[] parameter(0)
  %y.3747 = s64[] parameter(1)
  ROOT %add.3748 = s64[] add(s64[] %x.3746, s64[] %y.3747)
}

%fused_computation.45 (param_0.109: s64[42]) -> s64[] {
  %param_0.109 = s64[42]{0} parameter(0)
  %constant_149 = s64[] constant(0), metadata={op_type="Sum" op_name="tower0/rpn_losses/level2/count_nonzero_1/Sum"}
  %broadcast.56 = s64[42]{0} broadcast(s64[] %constant_149), dimensions={}, metadata={op_type="Equal" op_name="tower0/fastrcnn_losses/label_metrics/Equal_1"}
  %compare.6 = pred[42]{0} compare(s64[42]{0} %param_0.109, s64[42]{0} %broadcast.56), direction=EQ, metadata={op_type="Equal" op_name="tower0/fastrcnn_losses/label_metrics/Equal_1"}
  %convert.7 = s64[42]{0} convert(pred[42]{0} %compare.6), metadata={op_type="Cast" op_name="tower0/fastrcnn_losses/label_metrics/Cast_1"}
  ROOT %reduce.5 = s64[] reduce(s64[42]{0} %convert.7, s64[] %constant_149), dimensions={0}, to_apply=%tower0_fastrcnn_losses_label_metrics_num_zero-reduction.3745, metadata={op_type="Sum" op_name="tower0/fastrcnn_losses/label_metrics/num_zero"}
}

%max_S64.3733 (lhs.3734: s64[], rhs.3735: s64[]) -> s64[] {
  %lhs.3734 = s64[] parameter(0)
  %rhs.3735 = s64[] parameter(1)
  ROOT %maximum.3736 = s64[] maximum(s64[] %lhs.3734, s64[] %rhs.3735)
}

%fused_computation.46 (param_0.113: f32[42,81], param_1.132: f32[42]) -> s64[42] {
  %param_0.113 = f32[42,81]{1,0} parameter(0)
  %param_1.132 = f32[42]{0} parameter(1)
  %broadcast.58 = f32[42,81]{1,0} broadcast(f32[42]{0} %param_1.132), dimensions={0}, metadata={op_type="ArgMax" op_name="tower0/fastrcnn_losses/label_metrics/ArgMax"}
  %compare.7 = pred[42,81]{1,0} compare(f32[42,81]{1,0} %param_0.113, f32[42,81]{1,0} %broadcast.58), direction=EQ, metadata={op_type="ArgMax" op_name="tower0/fastrcnn_losses/label_metrics/ArgMax"}
  %convert.8 = s64[42,81]{1,0} convert(pred[42,81]{1,0} %compare.7), metadata={op_type="ArgMax" op_name="tower0/fastrcnn_losses/label_metrics/ArgMax"}
  %constant_151 = s64[] constant(63), metadata={op_type="ArgMax" op_name="tower0/fastrcnn_losses/label_metrics/label_prediction"}
  %broadcast.57 = s64[42,81]{1,0} broadcast(s64[] %constant_151), dimensions={}, metadata={op_type="ArgMax" op_name="tower0/fastrcnn_losses/label_metrics/ArgMax"}
  %shift-left.0 = s64[42,81]{1,0} shift-left(s64[42,81]{1,0} %convert.8, s64[42,81]{1,0} %broadcast.57), metadata={op_type="ArgMax" op_name="tower0/fastrcnn_losses/label_metrics/ArgMax"}
  %shift-right-arithmetic.0 = s64[42,81]{1,0} shift-right-arithmetic(s64[42,81]{1,0} %shift-left.0, s64[42,81]{1,0} %broadcast.57), metadata={op_type="ArgMax" op_name="tower0/fastrcnn_losses/label_metrics/ArgMax"}
  %iota.3 = s64[42,81]{1,0} iota(), iota_dimension=1, metadata={op_type="ArgMax" op_name="tower0/fastrcnn_losses/label_metrics/ArgMax"}
  %and.1 = s64[42,81]{1,0} and(s64[42,81]{1,0} %shift-right-arithmetic.0, s64[42,81]{1,0} %iota.3), metadata={op_type="ArgMax" op_name="tower0/fastrcnn_losses/label_metrics/ArgMax"}
  %constant_150 = s64[] constant(-9223372036854775808), metadata={op_type="ArgMax" op_name="tower0/fastrcnn_losses/label_metrics/label_prediction"}
  ROOT %reduce.6 = s64[42]{0} reduce(s64[42,81]{1,0} %and.1, s64[] %constant_150), dimensions={1}, to_apply=%max_S64.3733, metadata={op_type="ArgMax" op_name="tower0/fastrcnn_losses/label_metrics/ArgMax"}
}

%fused_computation.47 (param_0.114: f32[1024,81], param_1.134: f32[1024,81]) -> f32[1024,81] {
  %param_0.114 = f32[1024,81]{1,0} parameter(0)
  %param_1.134 = f32[1024,81]{1,0} parameter(1)
  %constant_152 = f32[] constant(0.0001), metadata={op_type="Const" op_name="tower0/gradients/tower0/wd_cost_internals/Square_30_grad/Mul"}
  %broadcast.59 = f32[1024,81]{1,0} broadcast(f32[] %constant_152), dimensions={}, metadata={op_type="Const" op_name="tower0/gradients/tower0/wd_cost_internals/Square_55_grad/Mul"}
  %multiply.36 = f32[1024,81]{1,0} multiply(f32[1024,81]{1,0} %param_1.134, f32[1024,81]{1,0} %broadcast.59), metadata={op_type="Mul" op_name="tower0/gradients/tower0/wd_cost_internals/Square_55_grad/Mul_1"}
  ROOT %add.28 = f32[1024,81]{1,0} add(f32[1024,81]{1,0} %param_0.114, f32[1024,81]{1,0} %multiply.36), metadata={op_type="AddN" op_name="tower0/gradients/AddN"}
}

%tower0_fastrcnn_losses_label_metrics_Mean-reduction.3762 (x.3763: f32[], y.3764: f32[]) -> f32[] {
  %x.3763 = f32[] parameter(0)
  %y.3764 = f32[] parameter(1)
  ROOT %add.3765 = f32[] add(f32[] %x.3763, f32[] %y.3764)
}

%fused_computation.50 (param_0.740: s64[42,1], param_1.775: s64[512], param_2.478: s64[512]) -> f32[] {
  %param_1.775 = s64[512]{0} parameter(1)
  %param_2.478 = s64[512]{0} parameter(2)
  %compare.85 = pred[512]{0} compare(s64[512]{0} %param_1.775, s64[512]{0} %param_2.478), direction=EQ, metadata={op_type="Equal" op_name="tower0/fastrcnn_losses/label_metrics/Equal"}
  %convert.9 = f32[512]{0} convert(pred[512]{0} %compare.85), metadata={op_type="Cast" op_name="tower0/fastrcnn_losses/label_metrics/Cast"}
  %param_0.740 = s64[42,1]{1,0} parameter(0)
  %bitcast.148 = s64[42]{0} bitcast(s64[42,1]{1,0} %param_0.740), metadata={op_type="StridedSlice" op_name="tower0/fastrcnn_losses/strided_slice"}
  %gather.3 = f32[42]{0} gather(f32[512]{0} %convert.9, s64[42]{0} %bitcast.148), offset_dims={}, collapsed_slice_dims={0}, start_index_map={0}, index_vector_dim=1, slice_sizes={1}, metadata={op_type="GatherV2" op_name="tower0/fastrcnn_losses/label_metrics/GatherV2_1"}
  %constant_155 = f32[] constant(0), metadata={op_type="Sum" op_name="tower0/wd_cost_internals/Sum_53"}
  ROOT %reduce.7 = f32[] reduce(f32[42]{0} %gather.3, f32[] %constant_155), dimensions={0}, to_apply=%tower0_fastrcnn_losses_label_metrics_Mean-reduction.3762, metadata={op_type="Mean" op_name="tower0/fastrcnn_losses/label_metrics/Mean"}
}

%tower0_fastrcnn_losses_label_metrics_accuracy-reduction.2627 (x.2628: f32[], y.2629: f32[]) -> f32[] {
  %x.2628 = f32[] parameter(0)
  %y.2629 = f32[] parameter(1)
  ROOT %add.2630 = f32[] add(f32[] %x.2628, f32[] %y.2629)
}

%fused_computation.52 (param_0.741: s64[512], param_1.776: s64[512]) -> f32[] {
  %param_0.741 = s64[512]{0} parameter(0)
  %param_1.776 = s64[512]{0} parameter(1)
  %compare.86 = pred[512]{0} compare(s64[512]{0} %param_0.741, s64[512]{0} %param_1.776), direction=EQ, metadata={op_type="Equal" op_name="tower0/fastrcnn_losses/label_metrics/Equal"}
  %convert.10 = f32[512]{0} convert(pred[512]{0} %compare.86), metadata={op_type="Cast" op_name="tower0/fastrcnn_losses/label_metrics/Cast"}
  %constant_157 = f32[] constant(0), metadata={op_type="Sum" op_name="tower0/wd_cost_internals/Sum_53"}
  ROOT %reduce.8 = f32[] reduce(f32[512]{0} %convert.10, f32[] %constant_157), dimensions={0}, to_apply=%tower0_fastrcnn_losses_label_metrics_accuracy-reduction.2627, metadata={op_type="Mean" op_name="tower0/fastrcnn_losses/label_metrics/accuracy"}
}

%max_S64.1528 (lhs.1529: s64[], rhs.1530: s64[]) -> s64[] {
  %lhs.1529 = s64[] parameter(0)
  %rhs.1530 = s64[] parameter(1)
  ROOT %maximum.1531 = s64[] maximum(s64[] %lhs.1529, s64[] %rhs.1530)
}

%fused_computation.53 (param_0.135: f32[512,81], param_1.777: f32[512]) -> s64[512] {
  %param_0.135 = f32[512,81]{1,0} parameter(0)
  %param_1.777 = f32[512]{0} parameter(1)
  %broadcast.116 = f32[512,81]{1,0} broadcast(f32[512]{0} %param_1.777), dimensions={0}, metadata={op_type="SparseSoftmaxCrossEntropyWithLogits" op_name="tower0/fastrcnn_losses/SparseSoftmaxCrossEntropyWithLogits/SparseSoftmaxCrossEntropyWithLogits"}
  %compare.8 = pred[512,81]{1,0} compare(f32[512,81]{1,0} %param_0.135, f32[512,81]{1,0} %broadcast.116), direction=EQ, metadata={op_type="ArgMax" op_name="tower0/fastrcnn_losses/label_metrics/label_prediction"}
  %convert.11 = s64[512,81]{1,0} convert(pred[512,81]{1,0} %compare.8), metadata={op_type="ArgMax" op_name="tower0/fastrcnn_losses/label_metrics/label_prediction"}
  %constant_159 = s64[] constant(63), metadata={op_type="ArgMax" op_name="tower0/fastrcnn_losses/label_metrics/label_prediction"}
  %broadcast.62 = s64[512,81]{1,0} broadcast(s64[] %constant_159), dimensions={}, metadata={op_type="ArgMax" op_name="tower0/fastrcnn_losses/label_metrics/label_prediction"}
  %shift-left.1 = s64[512,81]{1,0} shift-left(s64[512,81]{1,0} %convert.11, s64[512,81]{1,0} %broadcast.62), metadata={op_type="ArgMax" op_name="tower0/fastrcnn_losses/label_metrics/label_prediction"}
  %shift-right-arithmetic.1 = s64[512,81]{1,0} shift-right-arithmetic(s64[512,81]{1,0} %shift-left.1, s64[512,81]{1,0} %broadcast.62), metadata={op_type="ArgMax" op_name="tower0/fastrcnn_losses/label_metrics/label_prediction"}
  %iota.4 = s64[512,81]{1,0} iota(), iota_dimension=1, metadata={op_type="ArgMax" op_name="tower0/fastrcnn_losses/label_metrics/label_prediction"}
  %and.2 = s64[512,81]{1,0} and(s64[512,81]{1,0} %shift-right-arithmetic.1, s64[512,81]{1,0} %iota.4), metadata={op_type="ArgMax" op_name="tower0/fastrcnn_losses/label_metrics/label_prediction"}
  %constant_158 = s64[] constant(-9223372036854775808), metadata={op_type="ArgMax" op_name="tower0/fastrcnn_losses/label_metrics/label_prediction"}
  ROOT %reduce.9 = s64[512]{0} reduce(s64[512,81]{1,0} %and.2, s64[] %constant_158), dimensions={1}, to_apply=%max_S64.1528, metadata={op_type="ArgMax" op_name="tower0/fastrcnn_losses/label_metrics/label_prediction"}
}

%tower0_fastrcnn_losses_label_loss-reduction.2663 (x.2664: f32[], y.2665: f32[]) -> f32[] {
  %x.2664 = f32[] parameter(0)
  %y.2665 = f32[] parameter(1)
  ROOT %add.2666 = f32[] add(f32[] %x.2664, f32[] %y.2665)
}

%fused_computation.55 (param_0.742: f32[512], param_1.948: f32[512,81], param_2.620: f32[512], param_3.437: s64[512]) -> f32[] {
  %param_3.437 = s64[512]{0} parameter(3)
  %broadcast.226 = s64[512,81]{1,0} broadcast(s64[512]{0} %param_3.437), dimensions={0}, metadata={op_type="SparseSoftmaxCrossEntropyWithLogits" op_name="tower0/fastrcnn_losses/SparseSoftmaxCrossEntropyWithLogits/SparseSoftmaxCrossEntropyWithLogits"}
  %iota.10 = s64[512,81]{1,0} iota(), iota_dimension=1, metadata={op_type="SparseSoftmaxCrossEntropyWithLogits" op_name="tower0/fastrcnn_losses/SparseSoftmaxCrossEntropyWithLogits/SparseSoftmaxCrossEntropyWithLogits"}
  %compare.161 = pred[512,81]{1,0} compare(s64[512,81]{1,0} %broadcast.226, s64[512,81]{1,0} %iota.10), direction=EQ, metadata={op_type="SparseSoftmaxCrossEntropyWithLogits" op_name="tower0/fastrcnn_losses/SparseSoftmaxCrossEntropyWithLogits/SparseSoftmaxCrossEntropyWithLogits"}
  %constant_498 = f32[] constant(1), metadata={op_type="SparseSoftmaxCrossEntropyWithLogits" op_name="tower0/fastrcnn_losses/SparseSoftmaxCrossEntropyWithLogits/SparseSoftmaxCrossEntropyWithLogits"}
  %broadcast.225 = f32[512,81]{1,0} broadcast(f32[] %constant_498), dimensions={}, metadata={op_type="SparseSoftmaxCrossEntropyWithLogits" op_name="tower0/fastrcnn_losses/SparseSoftmaxCrossEntropyWithLogits/SparseSoftmaxCrossEntropyWithLogits"}
  %constant_160 = f32[] constant(0), metadata={op_type="Sum" op_name="tower0/wd_cost_internals/Sum_53"}
  %broadcast.224 = f32[512,81]{1,0} broadcast(f32[] %constant_160), dimensions={}, metadata={op_type="SparseSoftmaxCrossEntropyWithLogits" op_name="tower0/fastrcnn_losses/SparseSoftmaxCrossEntropyWithLogits/SparseSoftmaxCrossEntropyWithLogits"}
  %select.72 = f32[512,81]{1,0} select(pred[512,81]{1,0} %compare.161, f32[512,81]{1,0} %broadcast.225, f32[512,81]{1,0} %broadcast.224), metadata={op_type="SparseSoftmaxCrossEntropyWithLogits" op_name="tower0/fastrcnn_losses/SparseSoftmaxCrossEntropyWithLogits/SparseSoftmaxCrossEntropyWithLogits"}
  %constant_496 = s64[] constant(0), metadata={op_type="Sum" op_name="tower0/rpn_losses/level2/count_nonzero_1/Sum"}
  %broadcast.223 = s64[512]{0} broadcast(s64[] %constant_496), dimensions={}, metadata={op_type="SparseSoftmaxCrossEntropyWithLogits" op_name="tower0/fastrcnn_losses/SparseSoftmaxCrossEntropyWithLogits/SparseSoftmaxCrossEntropyWithLogits"}
  %compare.160 = pred[512]{0} compare(s64[512]{0} %broadcast.223, s64[512]{0} %param_3.437), direction=LE, metadata={op_type="SparseSoftmaxCrossEntropyWithLogits" op_name="tower0/fastrcnn_losses/SparseSoftmaxCrossEntropyWithLogits/SparseSoftmaxCrossEntropyWithLogits"}
  %constant_495 = s64[] constant(81), metadata={op_type="SparseSoftmaxCrossEntropyWithLogits" op_name="tower0/fastrcnn_losses/SparseSoftmaxCrossEntropyWithLogits/SparseSoftmaxCrossEntropyWithLogits"}
  %broadcast.222 = s64[512]{0} broadcast(s64[] %constant_495), dimensions={}, metadata={op_type="SparseSoftmaxCrossEntropyWithLogits" op_name="tower0/fastrcnn_losses/SparseSoftmaxCrossEntropyWithLogits/SparseSoftmaxCrossEntropyWithLogits"}
  %compare.159 = pred[512]{0} compare(s64[512]{0} %param_3.437, s64[512]{0} %broadcast.222), direction=LT, metadata={op_type="SparseSoftmaxCrossEntropyWithLogits" op_name="tower0/fastrcnn_losses/SparseSoftmaxCrossEntropyWithLogits/SparseSoftmaxCrossEntropyWithLogits"}
  %and.22 = pred[512]{0} and(pred[512]{0} %compare.160, pred[512]{0} %compare.159), metadata={op_type="SparseSoftmaxCrossEntropyWithLogits" op_name="tower0/fastrcnn_losses/SparseSoftmaxCrossEntropyWithLogits/SparseSoftmaxCrossEntropyWithLogits"}
  %broadcast.221 = f32[512]{0} broadcast(f32[] %constant_160), dimensions={}, metadata={op_type="SparseSoftmaxCrossEntropyWithLogits" op_name="tower0/fastrcnn_losses/SparseSoftmaxCrossEntropyWithLogits/SparseSoftmaxCrossEntropyWithLogits"}
  %constant_494 = f32[] constant(nan), metadata={op_type="SparseSoftmaxCrossEntropyWithLogits" op_name="tower0/fastrcnn_losses/SparseSoftmaxCrossEntropyWithLogits/SparseSoftmaxCrossEntropyWithLogits"}
  %broadcast.220 = f32[512]{0} broadcast(f32[] %constant_494), dimensions={}, metadata={op_type="SparseSoftmaxCrossEntropyWithLogits" op_name="tower0/fastrcnn_losses/SparseSoftmaxCrossEntropyWithLogits/SparseSoftmaxCrossEntropyWithLogits"}
  %select.71 = f32[512]{0} select(pred[512]{0} %and.22, f32[512]{0} %broadcast.221, f32[512]{0} %broadcast.220), metadata={op_type="SparseSoftmaxCrossEntropyWithLogits" op_name="tower0/fastrcnn_losses/SparseSoftmaxCrossEntropyWithLogits/SparseSoftmaxCrossEntropyWithLogits"}
  %broadcast.219 = f32[512,81]{1,0} broadcast(f32[512]{0} %select.71), dimensions={0}, metadata={op_type="SparseSoftmaxCrossEntropyWithLogits" op_name="tower0/fastrcnn_losses/SparseSoftmaxCrossEntropyWithLogits/SparseSoftmaxCrossEntropyWithLogits"}
  %add.137 = f32[512,81]{1,0} add(f32[512,81]{1,0} %select.72, f32[512,81]{1,0} %broadcast.219), metadata={op_type="SparseSoftmaxCrossEntropyWithLogits" op_name="tower0/fastrcnn_losses/SparseSoftmaxCrossEntropyWithLogits/SparseSoftmaxCrossEntropyWithLogits"}
  %negate.4 = f32[512,81]{1,0} negate(f32[512,81]{1,0} %add.137), metadata={op_type="SparseSoftmaxCrossEntropyWithLogits" op_name="tower0/fastrcnn_losses/SparseSoftmaxCrossEntropyWithLogits/SparseSoftmaxCrossEntropyWithLogits"}
  %param_1.948 = f32[512,81]{1,0} parameter(1)
  %param_2.620 = f32[512]{0} parameter(2)
  %broadcast.117 = f32[512,81]{1,0} broadcast(f32[512]{0} %param_2.620), dimensions={0}, metadata={op_type="SparseSoftmaxCrossEntropyWithLogits" op_name="tower0/fastrcnn_losses/SparseSoftmaxCrossEntropyWithLogits/SparseSoftmaxCrossEntropyWithLogits"}
  %subtract.100 = f32[512,81]{1,0} subtract(f32[512,81]{1,0} %param_1.948, f32[512,81]{1,0} %broadcast.117), metadata={op_type="SparseSoftmaxCrossEntropyWithLogits" op_name="tower0/fastrcnn_losses/SparseSoftmaxCrossEntropyWithLogits/SparseSoftmaxCrossEntropyWithLogits"}
  %param_0.742 = f32[512]{0} parameter(0)
  %broadcast.63 = f32[512,81]{1,0} broadcast(f32[512]{0} %param_0.742), dimensions={0}, metadata={op_type="SparseSoftmaxCrossEntropyWithLogits" op_name="tower0/fastrcnn_losses/SparseSoftmaxCrossEntropyWithLogits/SparseSoftmaxCrossEntropyWithLogits"}
  %subtract.20 = f32[512,81]{1,0} subtract(f32[512,81]{1,0} %subtract.100, f32[512,81]{1,0} %broadcast.63), metadata={op_type="SparseSoftmaxCrossEntropyWithLogits" op_name="tower0/fastrcnn_losses/SparseSoftmaxCrossEntropyWithLogits/SparseSoftmaxCrossEntropyWithLogits"}
  %multiply.43 = f32[512,81]{1,0} multiply(f32[512,81]{1,0} %negate.4, f32[512,81]{1,0} %subtract.20), metadata={op_type="SparseSoftmaxCrossEntropyWithLogits" op_name="tower0/fastrcnn_losses/SparseSoftmaxCrossEntropyWithLogits/SparseSoftmaxCrossEntropyWithLogits"}
  ROOT %reduce.10 = f32[] reduce(f32[512,81]{1,0} %multiply.43, f32[] %constant_160), dimensions={0,1}, to_apply=%tower0_fastrcnn_losses_label_loss-reduction.2663, metadata={op_type="Mean" op_name="tower0/fastrcnn_losses/label_loss"}
}

%fused_computation.57 (param_0.745: f32[512,1024], param_1.781: f32[1024]) -> f32[512,1024] {
  %constant_367 = f32[] constant(0), metadata={op_type="Sum" op_name="tower0/wd_cost_internals/Sum_53"}
  %broadcast.119 = f32[512,1024]{1,0} broadcast(f32[] %constant_367), dimensions={}, metadata={op_type="Relu" op_name="tower0/fastrcnn/fc7/Relu"}
  %param_0.745 = f32[512,1024]{1,0} parameter(0)
  %param_1.781 = f32[1024]{0} parameter(1)
  %broadcast.65 = f32[512,1024]{1,0} broadcast(f32[1024]{0} %param_1.781), dimensions={1}, metadata={op_type="BiasAdd" op_name="tower0/fastrcnn/fc7/BiasAdd"}
  %add.30 = f32[512,1024]{1,0} add(f32[512,1024]{1,0} %param_0.745, f32[512,1024]{1,0} %broadcast.65), metadata={op_type="BiasAdd" op_name="tower0/fastrcnn/fc7/BiasAdd"}
  ROOT %maximum.0 = f32[512,1024]{1,0} maximum(f32[512,1024]{1,0} %broadcast.119, f32[512,1024]{1,0} %add.30), metadata={op_type="Relu" op_name="tower0/fastrcnn/fc7/Relu"}
}

%fused_computation.58 (param_0.746: f32[512,1024], param_1.782: f32[1024]) -> f32[512,1024] {
  %constant_368 = f32[] constant(0), metadata={op_type="Sum" op_name="tower0/wd_cost_internals/Sum_53"}
  %broadcast.120 = f32[512,1024]{1,0} broadcast(f32[] %constant_368), dimensions={}, metadata={op_type="Relu" op_name="tower0/fastrcnn/fc7/Relu"}
  %param_0.746 = f32[512,1024]{1,0} parameter(0)
  %param_1.782 = f32[1024]{0} parameter(1)
  %broadcast.66 = f32[512,1024]{1,0} broadcast(f32[1024]{0} %param_1.782), dimensions={1}, metadata={op_type="BiasAdd" op_name="tower0/fastrcnn/fc6/BiasAdd"}
  %add.31 = f32[512,1024]{1,0} add(f32[512,1024]{1,0} %param_0.746, f32[512,1024]{1,0} %broadcast.66), metadata={op_type="BiasAdd" op_name="tower0/fastrcnn/fc6/BiasAdd"}
  ROOT %maximum.1 = f32[512,1024]{1,0} maximum(f32[512,1024]{1,0} %broadcast.120, f32[512,1024]{1,0} %add.31), metadata={op_type="Relu" op_name="tower0/fastrcnn/fc6/Relu"}
}

%fused_computation.59 (param_0.146: s64[512], param_1.170: f32[440,256,7,7], param_2.116: f32[51,256,7,7], param_3.53: f32[20,256,7,7], param_4.21: f32[1,256,7,7]) -> f32[512,12544] {
  %param_1.170 = f32[440,256,7,7]{3,2,1,0} parameter(1)
  %param_2.116 = f32[51,256,7,7]{3,2,1,0} parameter(2)
  %param_3.53 = f32[20,256,7,7]{3,2,1,0} parameter(3)
  %param_4.21 = f32[1,256,7,7]{3,2,1,0} parameter(4)
  %concatenate.13 = f32[512,256,7,7]{3,2,1,0} concatenate(f32[440,256,7,7]{3,2,1,0} %param_1.170, f32[51,256,7,7]{3,2,1,0} %param_2.116, f32[20,256,7,7]{3,2,1,0} %param_3.53, f32[1,256,7,7]{3,2,1,0} %param_4.21), dimensions={0}, metadata={op_type="ConcatV2" op_name="tower0/multilevel_roi_align/concat"}
  %param_0.146 = s64[512]{0} parameter(0)
  %gather.4 = f32[512,256,7,7]{3,2,1,0} gather(f32[512,256,7,7]{3,2,1,0} %concatenate.13, s64[512]{0} %param_0.146), offset_dims={1,2,3}, collapsed_slice_dims={0}, start_index_map={0}, index_vector_dim=1, slice_sizes={1,256,7,7}, metadata={op_type="GatherV2" op_name="tower0/multilevel_roi_align/output"}
  ROOT %bitcast.89 = f32[512,12544]{1,0} bitcast(f32[512,256,7,7]{3,2,1,0} %gather.4), metadata={op_type="Reshape" op_name="tower0/fastrcnn/fc6/Reshape"}
}

%tower0_maskrcnn_loss_fg_pixel_ratio-reduction.3295 (x.3296: f32[], y.3297: f32[]) -> f32[] {
  %x.3296 = f32[] parameter(0)
  %y.3297 = f32[] parameter(1)
  ROOT %add.3298 = f32[] add(f32[] %x.3296, f32[] %y.3297)
}

%tower0_maskrcnn_loss_pos_accuracy-reduction.3338 (x.3339: f32[], y.3340: f32[]) -> f32[] {
  %x.3339 = f32[] parameter(0)
  %y.3340 = f32[] parameter(1)
  ROOT %add.3341 = f32[] add(f32[] %x.3339, f32[] %y.3340)
}

%tower0_maskrcnn_loss_maskrcnn_loss-reduction.3622 (x.3623: f32[], y.3624: f32[]) -> f32[] {
  %x.3623 = f32[] parameter(0)
  %y.3624 = f32[] parameter(1)
  ROOT %add.3625 = f32[] add(f32[] %x.3623, f32[] %y.3624)
}

%tower0_maskrcnn_loss_accuracy-reduction.3315 (x.3316: f32[], y.3317: f32[]) -> f32[] {
  %x.3316 = f32[] parameter(0)
  %y.3317 = f32[] parameter(1)
  ROOT %add.3318 = f32[] add(f32[] %x.3316, f32[] %y.3317)
}

%fused_computation.62 (param_0.748: f32[], param_1.785: f32[42,28,28,1], param_2.730: f32[42,28,28], param_3.577: f32[42,28,28], param_4.518: f32[42,28,28]) -> (f32[], f32[], f32[], f32[]) {
  %param_1.785 = f32[42,28,28,1]{3,2,1,0} parameter(1)
  %bitcast.149 = f32[42,28,28]{2,1,0} bitcast(f32[42,28,28,1]{3,2,1,0} %param_1.785), metadata={op_type="Squeeze" op_name="tower0/sampled_fg_mask_targets"}
  %param_0.748 = f32[] parameter(0)
  %broadcast.121 = f32[42,28,28]{2,1,0} broadcast(f32[] %param_0.748), dimensions={}, metadata={op_type="Greater" op_name="tower0/maskrcnn_loss/Greater_1"}
  %compare.87 = pred[42,28,28]{2,1,0} compare(f32[42,28,28]{2,1,0} %bitcast.149, f32[42,28,28]{2,1,0} %broadcast.121), direction=GT, metadata={op_type="Greater" op_name="tower0/maskrcnn_loss/Greater_1"}
  %convert.12 = f32[42,28,28]{2,1,0} convert(pred[42,28,28]{2,1,0} %compare.87), metadata={op_type="Cast" op_name="tower0/maskrcnn_loss/Cast_2"}
  %constant_167 = f32[] constant(0), metadata={op_type="Sum" op_name="tower0/wd_cost_internals/Sum_53"}
  %reduce.11 = f32[] reduce(f32[42,28,28]{2,1,0} %convert.12, f32[] %constant_167), dimensions={0,1,2}, to_apply=%tower0_maskrcnn_loss_fg_pixel_ratio-reduction.3295, metadata={op_type="Mean" op_name="tower0/maskrcnn_loss/fg_pixel_ratio"}
  %param_4.518 = f32[42,28,28]{2,1,0} parameter(4)
  %compare.167 = pred[42,28,28]{2,1,0} compare(f32[42,28,28]{2,1,0} %param_4.518, f32[42,28,28]{2,1,0} %broadcast.121), direction=GT, metadata={op_type="Greater" op_name="tower0/maskrcnn_loss/Greater"}
  %compare.165 = pred[42,28,28]{2,1,0} compare(pred[42,28,28]{2,1,0} %compare.167, pred[42,28,28]{2,1,0} %compare.87), direction=EQ, metadata={op_type="Equal" op_name="tower0/maskrcnn_loss/Equal_1"}
  %constant_124_clone_1 = pred[] constant(true), metadata={op_type="Equal" op_name="tower0/maskrcnn_loss/Equal_2"}
  %broadcast.31.clone.1 = pred[42,28,28]{2,1,0} broadcast(pred[] %constant_124_clone_1), dimensions={}, metadata={op_type="Equal" op_name="tower0/maskrcnn_loss/Equal_2"}
  %compare.0.clone.1 = pred[42,28,28]{2,1,0} compare(pred[42,28,28]{2,1,0} %broadcast.31.clone.1, pred[42,28,28]{2,1,0} %compare.87), direction=EQ, metadata={op_type="Equal" op_name="tower0/maskrcnn_loss/Equal_2"}
  %and.0.clone.1 = pred[42,28,28]{2,1,0} and(pred[42,28,28]{2,1,0} %compare.165, pred[42,28,28]{2,1,0} %compare.0.clone.1), metadata={op_type="LogicalAnd" op_name="tower0/maskrcnn_loss/LogicalAnd"}
  %convert.1.clone.1 = f32[42,28,28]{2,1,0} convert(pred[42,28,28]{2,1,0} %and.0.clone.1), metadata={op_type="Cast" op_name="tower0/maskrcnn_loss/Cast_1"}
  %reduce.2.clone.1 = f32[] reduce(f32[42,28,28]{2,1,0} %convert.1.clone.1, f32[] %constant_167), dimensions={0,1,2}, to_apply=%tower0_maskrcnn_loss_pos_accuracy-reduction.3338, metadata={op_type="Mean" op_name="tower0/maskrcnn_loss/pos_accuracy"}
  %param_3.577 = f32[42,28,28]{2,1,0} parameter(3)
  %log-plus-one.0.clone.1 = f32[42,28,28]{2,1,0} log-plus-one(f32[42,28,28]{2,1,0} %param_3.577), metadata={op_type="Log1p" op_name="tower0/maskrcnn_loss/logistic_loss/Log1p"}
  %param_2.730 = f32[42,28,28]{2,1,0} parameter(2)
  %broadcast.111.clone.1 = f32[42,28,28]{2,1,0} broadcast(f32[] %constant_167), dimensions={}, metadata={op_type="ZerosLike" op_name="tower0/maskrcnn_loss/logistic_loss/zeros_like"}
  %compare.82.clone.1 = pred[42,28,28]{2,1,0} compare(f32[42,28,28]{2,1,0} %param_2.730, f32[42,28,28]{2,1,0} %broadcast.111.clone.1), direction=GE, metadata={op_type="GreaterEqual" op_name="tower0/maskrcnn_loss/logistic_loss/GreaterEqual"}
  %select.0.clone.1 = f32[42,28,28]{2,1,0} select(pred[42,28,28]{2,1,0} %compare.82.clone.1, f32[42,28,28]{2,1,0} %param_2.730, f32[42,28,28]{2,1,0} %broadcast.111.clone.1), metadata={op_type="Select" op_name="tower0/maskrcnn_loss/logistic_loss/Select"}
  %multiply.17.clone.1 = f32[42,28,28]{2,1,0} multiply(f32[42,28,28]{2,1,0} %param_2.730, f32[42,28,28]{2,1,0} %bitcast.149), metadata={op_type="Mul" op_name="tower0/maskrcnn_loss/logistic_loss/mul"}
  %subtract.4.clone.1 = f32[42,28,28]{2,1,0} subtract(f32[42,28,28]{2,1,0} %select.0.clone.1, f32[42,28,28]{2,1,0} %multiply.17.clone.1), metadata={op_type="Sub" op_name="tower0/maskrcnn_loss/logistic_loss/sub"}
  %add.18.clone.1 = f32[42,28,28]{2,1,0} add(f32[42,28,28]{2,1,0} %log-plus-one.0.clone.1, f32[42,28,28]{2,1,0} %subtract.4.clone.1), metadata={op_type="Add" op_name="tower0/maskrcnn_loss/logistic_loss"}
  %reduce.1.clone.1 = f32[] reduce(f32[42,28,28]{2,1,0} %add.18.clone.1, f32[] %constant_167), dimensions={0,1,2}, to_apply=%tower0_maskrcnn_loss_maskrcnn_loss-reduction.3622, metadata={op_type="Mean" op_name="tower0/maskrcnn_loss/maskrcnn_loss"}
  %convert.2.clone.1 = f32[42,28,28]{2,1,0} convert(pred[42,28,28]{2,1,0} %compare.165), metadata={op_type="Cast" op_name="tower0/maskrcnn_loss/Cast"}
  %reduce.3.clone.1 = f32[] reduce(f32[42,28,28]{2,1,0} %convert.2.clone.1, f32[] %constant_167), dimensions={0,1,2}, to_apply=%tower0_maskrcnn_loss_accuracy-reduction.3315, metadata={op_type="Mean" op_name="tower0/maskrcnn_loss/accuracy"}
  ROOT %tuple.146 = (f32[], f32[], f32[], f32[]) tuple(f32[] %reduce.11, f32[] %reduce.2.clone.1, f32[] %reduce.1.clone.1, f32[] %reduce.3.clone.1)
}

%tower0_rpn_losses_level2_label_metrics_num_pos_prediction_2-reduction.2488 (x.2489: s32[], y.2490: s32[]) -> s32[] {
  %x.2489 = s32[] parameter(0)
  %y.2490 = s32[] parameter(1)
  ROOT %add.2491 = s32[] add(s32[] %x.2489, s32[] %y.2490)
}

%fused_computation.69 (param_0.168: pred[140]) -> s32[] {
  %param_0.168 = pred[140]{0} parameter(0)
  %convert.16 = s32[140]{0} convert(pred[140]{0} %param_0.168), metadata={op_type="Cast" op_name="tower0/rpn_losses/level2/label_metrics/Cast_6"}
  %constant_173 = s32[] constant(0), metadata={op_type="Equal" op_name="tower0/rpn_losses/level2/Equal_2"}
  ROOT %reduce.13 = s32[] reduce(s32[140]{0} %convert.16, s32[] %constant_173), dimensions={0}, to_apply=%tower0_rpn_losses_level2_label_metrics_num_pos_prediction_2-reduction.2488, metadata={op_type="Sum" op_name="tower0/rpn_losses/level2/label_metrics/num_pos_prediction_2"}
}

%tower0_rpn_losses_level6_Sum-reduction.2733 (x.2734: f32[], y.2735: f32[]) -> f32[] {
  %x.2734 = f32[] parameter(0)
  %y.2735 = f32[] parameter(1)
  ROOT %add.2736 = f32[] add(f32[] %x.2734, f32[] %y.2735)
}

%fused_computation.70 (param_0.170: f32[], param_1.195: f32[], param_2.488: s64[], param_3.309: s64[], param_4.451: f32[], param_5.278: s32[], param_6.144: f32[], param_7.106: f32[], param_8.52: s64[], param_9.37: f32[], param_10.44: s64[], param_11.40: f32[], param_12.34: s32[], param_13.33: f32[], param_14.22: s32[], param_15.48: f32[], param_16.34: f32[], param_17.38: f32[], param_18.19: f32[], param_19.13: s64[], param_20.16: f32[], param_21.19: f32[2], param_22.17: s32[2], param_23.18: f32[2], param_24.20: s64[], param_25.25: f32[], param_26.27: f32[], param_27.28: s64[], param_28.25: f32[], param_29.20: s32[], param_30.26: s64[], param_31.28: f32[], param_32.34: s32[], param_33.30: s64[], param_34.39: f32[], param_35.34: f32[], param_36.26: f32[], param_37.29: f32[], param_38.26: s32[], param_39.32: s64[], param_40.26: f32[]) -> (f32[], f32[], f32[], f32[], f32[], f32[], f32[], f32[], f32[], f32[], f32[], f32[], f32[], f32[], f32[], f32[], f32[], f32[], f32[], f32[]) {
  %param_1.195 = f32[] parameter(1)
  %constant_372 = s32[] constant(0), metadata={op_type="Equal" op_name="tower0/rpn_losses/level2/Equal_2"}
  %param_3.309 = s64[] parameter(3)
  %convert.174 = s32[] convert(s64[] %param_3.309), metadata={op_type="Cast" op_name="tower0/rpn_losses/level2/count_nonzero_1/Cast_1"}
  %compare.89 = pred[] compare(s32[] %constant_372, s32[] %convert.174), direction=EQ, metadata={op_type="Equal" op_name="tower0/rpn_losses/level2/Equal_2"}
  %constant_174 = f32[] constant(0.5), metadata={op_type="Sigmoid" op_name="tower0/rpn_losses/level3/label_metrics/Sigmoid"}
  %param_2.488 = s64[] parameter(2)
  %convert.173 = s32[] convert(s64[] %param_2.488), metadata={op_type="Cast" op_name="tower0/rpn_losses/level2/label_metrics/count_nonzero_2/Cast_1"}
  %convert.18 = f64[] convert(s32[] %convert.173), metadata={op_type="Cast" op_name="tower0/rpn_losses/level2/label_metrics/truediv_4/Cast"}
  %convert.19 = f64[] convert(s32[] %convert.174), metadata={op_type="Cast" op_name="tower0/rpn_losses/level2/label_metrics/truediv/Cast_1"}
  %divide.14 = f64[] divide(f64[] %convert.18, f64[] %convert.19), metadata={op_type="RealDiv" op_name="tower0/rpn_losses/level2/label_metrics/truediv_4"}
  %convert.17 = f32[] convert(f64[] %divide.14), metadata={op_type="Cast" op_name="tower0/rpn_losses/level2/label_metrics/Cast_7"}
  %select.8 = f32[] select(pred[] %compare.89, f32[] %constant_174, f32[] %convert.17), metadata={op_type="Select" op_name="tower0/rpn_losses/level2/label_metrics/recall_th0.1"}
  %subtract.26 = f32[] subtract(f32[] %param_1.195, f32[] %select.8), metadata={op_type="Sub" op_name="EMA/rpn_losses/level2/label_metrics/recall_th0.1_EMA_apply/sub"}
  %param_0.170 = f32[] parameter(0)
  %multiply.54 = f32[] multiply(f32[] %subtract.26, f32[] %param_0.170), metadata={op_type="Mul" op_name="EMA/rpn_losses/level2/label_metrics/recall_th0.1_EMA_apply/mul"}
  %param_4.451 = f32[] parameter(4)
  %param_5.278 = s32[] parameter(5)
  %compare.12.clone.1 = pred[] compare(s32[] %constant_372, s32[] %param_5.278), direction=EQ, metadata={op_type="Equal" op_name="tower0/rpn_losses/level2/label_metrics/Equal_8"}
  %convert.14.clone.1 = f64[] convert(s32[] %param_5.278), metadata={op_type="Cast" op_name="tower0/rpn_losses/level2/label_metrics/truediv_5/Cast_1"}
  %divide.13.clone.1 = f64[] divide(f64[] %convert.18, f64[] %convert.14.clone.1), metadata={op_type="RealDiv" op_name="tower0/rpn_losses/level2/label_metrics/truediv_5"}
  %convert.13.clone.1 = f32[] convert(f64[] %divide.13.clone.1), metadata={op_type="Cast" op_name="tower0/rpn_losses/level2/label_metrics/Cast_8"}
  %select.7.clone.1 = f32[] select(pred[] %compare.12.clone.1, f32[] %constant_174, f32[] %convert.13.clone.1), metadata={op_type="Select" op_name="tower0/rpn_losses/level2/label_metrics/precision_th0.1"}
  %subtract.25.clone.1 = f32[] subtract(f32[] %param_4.451, f32[] %select.7.clone.1), metadata={op_type="Sub" op_name="EMA/rpn_losses/level2/label_metrics/precision_th0.1_EMA_apply/sub"}
  %multiply.53.clone.1 = f32[] multiply(f32[] %subtract.25.clone.1, f32[] %param_0.170), metadata={op_type="Mul" op_name="EMA/rpn_losses/level2/label_metrics/precision_th0.1_EMA_apply/mul"}
  %param_6.144 = f32[] parameter(6)
  %convert.67.clone.1 = f32[] convert(s32[] %convert.174), metadata={op_type="Cast" op_name="Cast_1"}
  %subtract.47.clone.1 = f32[] subtract(f32[] %param_6.144, f32[] %convert.67.clone.1), metadata={op_type="Sub" op_name="EMA/rpn_losses/level2/num_pos_anchor_EMA_apply/sub"}
  %multiply.82.clone.1 = f32[] multiply(f32[] %subtract.47.clone.1, f32[] %param_0.170), metadata={op_type="Mul" op_name="EMA/rpn_losses/level2/num_pos_anchor_EMA_apply/mul"}
  %param_7.106 = f32[] parameter(7)
  %param_8.52 = s64[] parameter(8)
  %convert.179.clone.1 = s32[] convert(s64[] %param_8.52), metadata={op_type="Cast" op_name="tower0/rpn_losses/level2/label_metrics/count_nonzero/Cast_1"}
  %convert.37.clone.1 = f64[] convert(s32[] %convert.179.clone.1), metadata={op_type="Cast" op_name="tower0/rpn_losses/level2/label_metrics/truediv/Cast"}
  %divide.18.clone.1 = f64[] divide(f64[] %convert.37.clone.1, f64[] %convert.19), metadata={op_type="RealDiv" op_name="tower0/rpn_losses/level2/label_metrics/truediv"}
  %convert.35.clone.1 = f32[] convert(f64[] %divide.18.clone.1), metadata={op_type="Cast" op_name="tower0/rpn_losses/level2/label_metrics/Cast_1"}
  %select.12.clone.1 = f32[] select(pred[] %compare.89, f32[] %constant_174, f32[] %convert.35.clone.1), metadata={op_type="Select" op_name="tower0/rpn_losses/level2/label_metrics/recall_th0.5"}
  %subtract.30.clone.1 = f32[] subtract(f32[] %param_7.106, f32[] %select.12.clone.1), metadata={op_type="Sub" op_name="EMA/rpn_losses/level2/label_metrics/recall_th0.5_EMA_apply/sub"}
  %multiply.58.clone.1 = f32[] multiply(f32[] %subtract.30.clone.1, f32[] %param_0.170), metadata={op_type="Mul" op_name="EMA/rpn_losses/level2/label_metrics/recall_th0.5_EMA_apply/mul"}
  %param_9.37 = f32[] parameter(9)
  %param_10.44 = s64[] parameter(10)
  %convert.176.clone.1 = s32[] convert(s64[] %param_10.44), metadata={op_type="Cast" op_name="tower0/rpn_losses/level2/label_metrics/count_nonzero_1/Cast_1"}
  %convert.27.clone.1 = f64[] convert(s32[] %convert.176.clone.1), metadata={op_type="Cast" op_name="tower0/rpn_losses/level2/label_metrics/truediv_2/Cast"}
  %divide.16.clone.1 = f64[] divide(f64[] %convert.27.clone.1, f64[] %convert.19), metadata={op_type="RealDiv" op_name="tower0/rpn_losses/level2/label_metrics/truediv_2"}
  %convert.26.clone.1 = f32[] convert(f64[] %divide.16.clone.1), metadata={op_type="Cast" op_name="tower0/rpn_losses/level2/label_metrics/Cast_4"}
  %select.10.clone.1 = f32[] select(pred[] %compare.89, f32[] %constant_174, f32[] %convert.26.clone.1), metadata={op_type="Select" op_name="tower0/rpn_losses/level2/label_metrics/recall_th0.2"}
  %subtract.28.clone.1 = f32[] subtract(f32[] %param_9.37, f32[] %select.10.clone.1), metadata={op_type="Sub" op_name="EMA/rpn_losses/level2/label_metrics/recall_th0.2_EMA_apply/sub"}
  %multiply.56.clone.1 = f32[] multiply(f32[] %subtract.28.clone.1, f32[] %param_0.170), metadata={op_type="Mul" op_name="EMA/rpn_losses/level2/label_metrics/recall_th0.2_EMA_apply/mul"}
  %param_11.40 = f32[] parameter(11)
  %param_12.34 = s32[] parameter(12)
  %compare.20.clone.1 = pred[] compare(s32[] %constant_372, s32[] %param_12.34), direction=EQ, metadata={op_type="Equal" op_name="tower0/rpn_losses/level2/label_metrics/Equal_2"}
  %convert.32.clone.1 = f64[] convert(s32[] %param_12.34), metadata={op_type="Cast" op_name="tower0/rpn_losses/level2/label_metrics/truediv_1/Cast_1"}
  %divide.17.clone.1 = f64[] divide(f64[] %convert.37.clone.1, f64[] %convert.32.clone.1), metadata={op_type="RealDiv" op_name="tower0/rpn_losses/level2/label_metrics/truediv_1"}
  %convert.31.clone.1 = f32[] convert(f64[] %divide.17.clone.1), metadata={op_type="Cast" op_name="tower0/rpn_losses/level2/label_metrics/Cast_2"}
  %select.11.clone.1 = f32[] select(pred[] %compare.20.clone.1, f32[] %constant_174, f32[] %convert.31.clone.1), metadata={op_type="Select" op_name="tower0/rpn_losses/level2/label_metrics/precision_th0.5"}
  %subtract.29.clone.1 = f32[] subtract(f32[] %param_11.40, f32[] %select.11.clone.1), metadata={op_type="Sub" op_name="EMA/rpn_losses/level2/label_metrics/precision_th0.5_EMA_apply/sub"}
  %multiply.57.clone.1 = f32[] multiply(f32[] %subtract.29.clone.1, f32[] %param_0.170), metadata={op_type="Mul" op_name="EMA/rpn_losses/level2/label_metrics/precision_th0.5_EMA_apply/mul"}
  %param_13.33 = f32[] parameter(13)
  %param_14.22 = s32[] parameter(14)
  %compare.16.clone.1 = pred[] compare(s32[] %constant_372, s32[] %param_14.22), direction=EQ, metadata={op_type="Equal" op_name="tower0/rpn_losses/level2/label_metrics/Equal_5"}
  %convert.23.clone.1 = f64[] convert(s32[] %param_14.22), metadata={op_type="Cast" op_name="tower0/rpn_losses/level2/label_metrics/truediv_3/Cast_1"}
  %divide.15.clone.1 = f64[] divide(f64[] %convert.27.clone.1, f64[] %convert.23.clone.1), metadata={op_type="RealDiv" op_name="tower0/rpn_losses/level2/label_metrics/truediv_3"}
  %convert.22.clone.1 = f32[] convert(f64[] %divide.15.clone.1), metadata={op_type="Cast" op_name="tower0/rpn_losses/level2/label_metrics/Cast_5"}
  %select.9.clone.1 = f32[] select(pred[] %compare.16.clone.1, f32[] %constant_174, f32[] %convert.22.clone.1), metadata={op_type="Select" op_name="tower0/rpn_losses/level2/label_metrics/precision_th0.2"}
  %subtract.27.clone.1 = f32[] subtract(f32[] %param_13.33, f32[] %select.9.clone.1), metadata={op_type="Sub" op_name="EMA/rpn_losses/level2/label_metrics/precision_th0.2_EMA_apply/sub"}
  %multiply.55.clone.1 = f32[] multiply(f32[] %subtract.27.clone.1, f32[] %param_0.170), metadata={op_type="Mul" op_name="EMA/rpn_losses/level2/label_metrics/precision_th0.2_EMA_apply/mul"}
  %param_20.16 = f32[] parameter(20)
  %param_19.13 = s64[] parameter(19)
  %convert.240.clone.1 = s32[] convert(s64[] %param_19.13), metadata={op_type="Cast" op_name="tower0/rpn_losses/level5/count_nonzero/Cast_1"}
  %convert.166.clone.1 = f32[] convert(s32[] %convert.240.clone.1), metadata={op_type="Cast" op_name="Cast_6"}
  %subtract.98.clone.1 = f32[] subtract(f32[] %param_20.16, f32[] %convert.166.clone.1), metadata={op_type="Sub" op_name="EMA/rpn_losses/level5/num_valid_anchor_EMA_apply/sub"}
  %multiply.143.clone.1 = f32[] multiply(f32[] %subtract.98.clone.1, f32[] %param_0.170), metadata={op_type="Mul" op_name="EMA/rpn_losses/level5/num_valid_anchor_EMA_apply/mul"}
  %compare.138.clone.1.clone.1 = pred[] compare(s32[] %constant_372, s32[] %convert.240.clone.1), direction=EQ, metadata={op_type="Equal" op_name="tower0/rpn_losses/level5/Equal_1"}
  %param_17.38 = f32[] parameter(17)
  %constant_273_clone_1_clone_1 = f32[] constant(0.00390625), metadata={op_type="Mul" op_name="tower0/rpn_losses/level2/mul"}
  %param_18.19 = f32[] parameter(18)
  %multiply.134.clone.1.clone.1 = f32[] multiply(f32[] %constant_273_clone_1_clone_1, f32[] %param_18.19), metadata={op_type="Mul" op_name="tower0/rpn_losses/level5/mul"}
  %select.53.clone.1.clone.1 = f32[] select(pred[] %compare.138.clone.1.clone.1, f32[] %param_17.38, f32[] %multiply.134.clone.1.clone.1), metadata={op_type="Select" op_name="tower0/rpn_losses/level5/label_loss"}
  %param_15.48 = f32[] parameter(15)
  %param_16.34 = f32[] parameter(16)
  %constant_136_clone_1_clone_1 = f32[] constant(3.03693e-05), metadata={op_type="RealDiv" op_name="tower0/gradients/tower0/maskrcnn_loss/maskrcnn_loss_grad/truediv"}
  %multiply.21.clone.1.clone.1 = f32[] multiply(f32[] %param_16.34, f32[] %constant_136_clone_1_clone_1), metadata={op_type="Mean" op_name="tower0/maskrcnn_loss/accuracy"}
  %subtract.9.clone.1.clone.1 = f32[] subtract(f32[] %param_15.48, f32[] %multiply.21.clone.1.clone.1), metadata={op_type="Sub" op_name="EMA/maskrcnn_loss/accuracy_EMA_apply/sub"}
  %multiply.20.clone.1.clone.1 = f32[] multiply(f32[] %subtract.9.clone.1.clone.1, f32[] %param_0.170), metadata={op_type="Mul" op_name="EMA/maskrcnn_loss/accuracy_EMA_apply/mul"}
  %param_25.25 = f32[] parameter(25)
  %param_24.20 = s64[] parameter(24)
  %convert.238.clone.1 = s32[] convert(s64[] %param_24.20), metadata={op_type="Cast" op_name="tower0/rpn_losses/level6/count_nonzero/Cast_1"}
  %convert.164.clone.1 = f32[] convert(s32[] %convert.238.clone.1), metadata={op_type="Cast" op_name="Cast_8"}
  %subtract.96.clone.1 = f32[] subtract(f32[] %param_25.25, f32[] %convert.164.clone.1), metadata={op_type="Sub" op_name="EMA/rpn_losses/level6/num_valid_anchor_EMA_apply/sub"}
  %multiply.141.clone.1 = f32[] multiply(f32[] %subtract.96.clone.1, f32[] %param_0.170), metadata={op_type="Mul" op_name="EMA/rpn_losses/level6/num_valid_anchor_EMA_apply/mul"}
  %compare.135.clone.1.clone.1 = pred[] compare(s32[] %constant_372, s32[] %convert.238.clone.1), direction=EQ, metadata={op_type="Equal" op_name="tower0/rpn_losses/level6/Equal_1"}
  %param_23.18 = f32[2]{0} parameter(23)
  %log-plus-one.4.clone.1.clone.1 = f32[2]{0} log-plus-one(f32[2]{0} %param_23.18), metadata={op_type="Log1p" op_name="tower0/rpn_losses/level6/logistic_loss/Log1p"}
  %param_21.19 = f32[2]{0} parameter(21)
  %constant_272_clone_1_clone_1 = f32[] constant(0), metadata={op_type="Sum" op_name="tower0/wd_cost_internals/Sum_53"}
  %broadcast.175.clone.1.clone.1 = f32[2]{0} broadcast(f32[] %constant_272_clone_1_clone_1), dimensions={}, metadata={op_type="ZerosLike" op_name="tower0/rpn_losses/level6/logistic_loss/zeros_like"}
  %compare.134.clone.1.clone.1 = pred[2]{0} compare(f32[2]{0} %param_21.19, f32[2]{0} %broadcast.175.clone.1.clone.1), direction=GE, metadata={op_type="GreaterEqual" op_name="tower0/rpn_losses/level6/logistic_loss/GreaterEqual"}
  %select.51.clone.1.clone.1 = f32[2]{0} select(pred[2]{0} %compare.134.clone.1.clone.1, f32[2]{0} %param_21.19, f32[2]{0} %broadcast.175.clone.1.clone.1), metadata={op_type="Select" op_name="tower0/rpn_losses/level6/logistic_loss/Select"}
  %param_22.17 = s32[2]{0} parameter(22)
  %convert.229.clone.1.clone.1 = f32[2]{0} convert(s32[2]{0} %param_22.17), metadata={op_type="Cast" op_name="tower0/rpn_losses/level6/Cast"}
  %multiply.132.clone.1.clone.1 = f32[2]{0} multiply(f32[2]{0} %convert.229.clone.1.clone.1, f32[2]{0} %param_21.19), metadata={op_type="Mul" op_name="tower0/rpn_losses/level6/logistic_loss/mul"}
  %subtract.84.clone.1.clone.1 = f32[2]{0} subtract(f32[2]{0} %select.51.clone.1.clone.1, f32[2]{0} %multiply.132.clone.1.clone.1), metadata={op_type="Sub" op_name="tower0/rpn_losses/level6/logistic_loss/sub"}
  %add.58.clone.1.clone.1 = f32[2]{0} add(f32[2]{0} %log-plus-one.4.clone.1.clone.1, f32[2]{0} %subtract.84.clone.1.clone.1), metadata={op_type="Add" op_name="tower0/rpn_losses/level6/logistic_loss"}
  %reduce.54.clone.1.clone.1 = f32[] reduce(f32[2]{0} %add.58.clone.1.clone.1, f32[] %constant_272_clone_1_clone_1), dimensions={0}, to_apply=%tower0_rpn_losses_level6_Sum-reduction.2733, metadata={op_type="Sum" op_name="tower0/rpn_losses/level6/Sum"}
  %multiply.131.clone.1.clone.1 = f32[] multiply(f32[] %constant_273_clone_1_clone_1, f32[] %reduce.54.clone.1.clone.1), metadata={op_type="Mul" op_name="tower0/rpn_losses/level6/mul"}
  %select.50.clone.1.clone.1 = f32[] select(pred[] %compare.135.clone.1.clone.1, f32[] %param_17.38, f32[] %multiply.131.clone.1.clone.1), metadata={op_type="Select" op_name="tower0/rpn_losses/level6/label_loss"}
  %param_40.26 = f32[] parameter(40)
  %param_27.28 = s64[] parameter(27)
  %convert.222.clone.1 = s32[] convert(s64[] %param_27.28), metadata={op_type="Cast" op_name="tower0/rpn_losses/level5/count_nonzero_1/Cast_1"}
  %compare.129.clone.1 = pred[] compare(s32[] %constant_372, s32[] %convert.222.clone.1), direction=EQ, metadata={op_type="Equal" op_name="tower0/rpn_losses/level5/Equal_2"}
  %param_39.32 = s64[] parameter(39)
  %convert.221.clone.1 = s32[] convert(s64[] %param_39.32), metadata={op_type="Cast" op_name="tower0/rpn_losses/level5/label_metrics/count_nonzero_2/Cast_1"}
  %convert.137.clone.1 = f64[] convert(s32[] %convert.221.clone.1), metadata={op_type="Cast" op_name="tower0/rpn_losses/level5/label_metrics/truediv_4/Cast"}
  %convert.138.clone.1 = f64[] convert(s32[] %convert.222.clone.1), metadata={op_type="Cast" op_name="tower0/rpn_losses/level5/label_metrics/truediv/Cast_1"}
  %divide.44.clone.1 = f64[] divide(f64[] %convert.137.clone.1, f64[] %convert.138.clone.1), metadata={op_type="RealDiv" op_name="tower0/rpn_losses/level5/label_metrics/truediv_4"}
  %convert.136.clone.1 = f32[] convert(f64[] %divide.44.clone.1), metadata={op_type="Cast" op_name="tower0/rpn_losses/level5/label_metrics/Cast_7"}
  %select.45.clone.1 = f32[] select(pred[] %compare.129.clone.1, f32[] %constant_174, f32[] %convert.136.clone.1), metadata={op_type="Select" op_name="tower0/rpn_losses/level5/label_metrics/recall_th0.1"}
  %subtract.78.clone.1 = f32[] subtract(f32[] %param_40.26, f32[] %select.45.clone.1), metadata={op_type="Sub" op_name="EMA/rpn_losses/level5/label_metrics/recall_th0.1_EMA_apply/sub"}
  %multiply.123.clone.1 = f32[] multiply(f32[] %subtract.78.clone.1, f32[] %param_0.170), metadata={op_type="Mul" op_name="EMA/rpn_losses/level5/label_metrics/recall_th0.1_EMA_apply/mul"}
  %param_37.29 = f32[] parameter(37)
  %param_38.26 = s32[] parameter(38)
  %compare.60.clone.1.clone.1 = pred[] compare(s32[] %constant_372, s32[] %param_38.26), direction=EQ, metadata={op_type="Equal" op_name="tower0/rpn_losses/level5/label_metrics/Equal_8"}
  %convert.133.clone.1.clone.1 = f64[] convert(s32[] %param_38.26), metadata={op_type="Cast" op_name="tower0/rpn_losses/level5/label_metrics/truediv_5/Cast_1"}
  %divide.43.clone.1.clone.1 = f64[] divide(f64[] %convert.137.clone.1, f64[] %convert.133.clone.1.clone.1), metadata={op_type="RealDiv" op_name="tower0/rpn_losses/level5/label_metrics/truediv_5"}
  %convert.132.clone.1.clone.1 = f32[] convert(f64[] %divide.43.clone.1.clone.1), metadata={op_type="Cast" op_name="tower0/rpn_losses/level5/label_metrics/Cast_8"}
  %select.44.clone.1.clone.1 = f32[] select(pred[] %compare.60.clone.1.clone.1, f32[] %constant_174, f32[] %convert.132.clone.1.clone.1), metadata={op_type="Select" op_name="tower0/rpn_losses/level5/label_metrics/precision_th0.1"}
  %subtract.77.clone.1.clone.1 = f32[] subtract(f32[] %param_37.29, f32[] %select.44.clone.1.clone.1), metadata={op_type="Sub" op_name="EMA/rpn_losses/level5/label_metrics/precision_th0.1_EMA_apply/sub"}
  %multiply.122.clone.1.clone.1 = f32[] multiply(f32[] %subtract.77.clone.1.clone.1, f32[] %param_0.170), metadata={op_type="Mul" op_name="EMA/rpn_losses/level5/label_metrics/precision_th0.1_EMA_apply/mul"}
  %param_36.26 = f32[] parameter(36)
  %convert.165.clone.1.clone.1 = f32[] convert(s32[] %convert.222.clone.1), metadata={op_type="Cast" op_name="Cast_7"}
  %subtract.97.clone.1.clone.1 = f32[] subtract(f32[] %param_36.26, f32[] %convert.165.clone.1.clone.1), metadata={op_type="Sub" op_name="EMA/rpn_losses/level5/num_pos_anchor_EMA_apply/sub"}
  %multiply.142.clone.1.clone.1 = f32[] multiply(f32[] %subtract.97.clone.1.clone.1, f32[] %param_0.170), metadata={op_type="Mul" op_name="EMA/rpn_losses/level5/num_pos_anchor_EMA_apply/mul"}
  %param_35.34 = f32[] parameter(35)
  %param_33.30 = s64[] parameter(33)
  %convert.227.clone.1.clone.1.clone.1 = s32[] convert(s64[] %param_33.30), metadata={op_type="Cast" op_name="tower0/rpn_losses/level5/label_metrics/count_nonzero/Cast_1"}
  %convert.156.clone.1.clone.1.clone.1 = f64[] convert(s32[] %convert.227.clone.1.clone.1.clone.1), metadata={op_type="Cast" op_name="tower0/rpn_losses/level5/label_metrics/truediv/Cast"}
  %divide.48.clone.1.clone.1.clone.1 = f64[] divide(f64[] %convert.156.clone.1.clone.1.clone.1, f64[] %convert.138.clone.1), metadata={op_type="RealDiv" op_name="tower0/rpn_losses/level5/label_metrics/truediv"}
  %convert.154.clone.1.clone.1.clone.1 = f32[] convert(f64[] %divide.48.clone.1.clone.1.clone.1), metadata={op_type="Cast" op_name="tower0/rpn_losses/level5/label_metrics/Cast_1"}
  %select.49.clone.1.clone.1.clone.1 = f32[] select(pred[] %compare.129.clone.1, f32[] %constant_174, f32[] %convert.154.clone.1.clone.1.clone.1), metadata={op_type="Select" op_name="tower0/rpn_losses/level5/label_metrics/recall_th0.5"}
  %subtract.82.clone.1.clone.1.clone.1 = f32[] subtract(f32[] %param_35.34, f32[] %select.49.clone.1.clone.1.clone.1), metadata={op_type="Sub" op_name="EMA/rpn_losses/level5/label_metrics/recall_th0.5_EMA_apply/sub"}
  %multiply.127.clone.1.clone.1.clone.1 = f32[] multiply(f32[] %subtract.82.clone.1.clone.1.clone.1, f32[] %param_0.170), metadata={op_type="Mul" op_name="EMA/rpn_losses/level5/label_metrics/recall_th0.5_EMA_apply/mul"}
  %param_34.39 = f32[] parameter(34)
  %param_30.26 = s64[] parameter(30)
  %convert.224.clone.1.clone.1 = s32[] convert(s64[] %param_30.26), metadata={op_type="Cast" op_name="tower0/rpn_losses/level5/label_metrics/count_nonzero_1/Cast_1"}
  %convert.146.clone.1.clone.1 = f64[] convert(s32[] %convert.224.clone.1.clone.1), metadata={op_type="Cast" op_name="tower0/rpn_losses/level5/label_metrics/truediv_2/Cast"}
  %divide.46.clone.1.clone.1 = f64[] divide(f64[] %convert.146.clone.1.clone.1, f64[] %convert.138.clone.1), metadata={op_type="RealDiv" op_name="tower0/rpn_losses/level5/label_metrics/truediv_2"}
  %convert.145.clone.1.clone.1 = f32[] convert(f64[] %divide.46.clone.1.clone.1), metadata={op_type="Cast" op_name="tower0/rpn_losses/level5/label_metrics/Cast_4"}
  %select.47.clone.1.clone.1 = f32[] select(pred[] %compare.129.clone.1, f32[] %constant_174, f32[] %convert.145.clone.1.clone.1), metadata={op_type="Select" op_name="tower0/rpn_losses/level5/label_metrics/recall_th0.2"}
  %subtract.80.clone.1.clone.1 = f32[] subtract(f32[] %param_34.39, f32[] %select.47.clone.1.clone.1), metadata={op_type="Sub" op_name="EMA/rpn_losses/level5/label_metrics/recall_th0.2_EMA_apply/sub"}
  %multiply.125.clone.1.clone.1 = f32[] multiply(f32[] %subtract.80.clone.1.clone.1, f32[] %param_0.170), metadata={op_type="Mul" op_name="EMA/rpn_losses/level5/label_metrics/recall_th0.2_EMA_apply/mul"}
  %param_31.28 = f32[] parameter(31)
  %param_32.34 = s32[] parameter(32)
  %compare.68.clone.1.clone.1 = pred[] compare(s32[] %constant_372, s32[] %param_32.34), direction=EQ, metadata={op_type="Equal" op_name="tower0/rpn_losses/level5/label_metrics/Equal_2"}
  %convert.151.clone.1.clone.1 = f64[] convert(s32[] %param_32.34), metadata={op_type="Cast" op_name="tower0/rpn_losses/level5/label_metrics/truediv_1/Cast_1"}
  %divide.47.clone.1.clone.1 = f64[] divide(f64[] %convert.156.clone.1.clone.1.clone.1, f64[] %convert.151.clone.1.clone.1), metadata={op_type="RealDiv" op_name="tower0/rpn_losses/level5/label_metrics/truediv_1"}
  %convert.150.clone.1.clone.1 = f32[] convert(f64[] %divide.47.clone.1.clone.1), metadata={op_type="Cast" op_name="tower0/rpn_losses/level5/label_metrics/Cast_2"}
  %select.48.clone.1.clone.1 = f32[] select(pred[] %compare.68.clone.1.clone.1, f32[] %constant_174, f32[] %convert.150.clone.1.clone.1), metadata={op_type="Select" op_name="tower0/rpn_losses/level5/label_metrics/precision_th0.5"}
  %subtract.81.clone.1.clone.1 = f32[] subtract(f32[] %param_31.28, f32[] %select.48.clone.1.clone.1), metadata={op_type="Sub" op_name="EMA/rpn_losses/level5/label_metrics/precision_th0.5_EMA_apply/sub"}
  %multiply.126.clone.1.clone.1 = f32[] multiply(f32[] %subtract.81.clone.1.clone.1, f32[] %param_0.170), metadata={op_type="Mul" op_name="EMA/rpn_losses/level5/label_metrics/precision_th0.5_EMA_apply/mul"}
  %param_28.25 = f32[] parameter(28)
  %param_29.20 = s32[] parameter(29)
  %compare.64.clone.1.clone.1 = pred[] compare(s32[] %constant_372, s32[] %param_29.20), direction=EQ, metadata={op_type="Equal" op_name="tower0/rpn_losses/level5/label_metrics/Equal_5"}
  %convert.142.clone.1.clone.1 = f64[] convert(s32[] %param_29.20), metadata={op_type="Cast" op_name="tower0/rpn_losses/level5/label_metrics/truediv_3/Cast_1"}
  %divide.45.clone.1.clone.1 = f64[] divide(f64[] %convert.146.clone.1.clone.1, f64[] %convert.142.clone.1.clone.1), metadata={op_type="RealDiv" op_name="tower0/rpn_losses/level5/label_metrics/truediv_3"}
  %convert.141.clone.1.clone.1 = f32[] convert(f64[] %divide.45.clone.1.clone.1), metadata={op_type="Cast" op_name="tower0/rpn_losses/level5/label_metrics/Cast_5"}
  %select.46.clone.1.clone.1 = f32[] select(pred[] %compare.64.clone.1.clone.1, f32[] %constant_174, f32[] %convert.141.clone.1.clone.1), metadata={op_type="Select" op_name="tower0/rpn_losses/level5/label_metrics/precision_th0.2"}
  %subtract.79.clone.1.clone.1 = f32[] subtract(f32[] %param_28.25, f32[] %select.46.clone.1.clone.1), metadata={op_type="Sub" op_name="EMA/rpn_losses/level5/label_metrics/precision_th0.2_EMA_apply/sub"}
  %multiply.124.clone.1.clone.1 = f32[] multiply(f32[] %subtract.79.clone.1.clone.1, f32[] %param_0.170), metadata={op_type="Mul" op_name="EMA/rpn_losses/level5/label_metrics/precision_th0.2_EMA_apply/mul"}
  %constant_236_clone_1_clone_1 = f32[] constant(0.0351562), metadata={op_type="Mul" op_name="tower0/rpn_losses/level2/mul_1"}
  %param_26.27 = f32[] parameter(26)
  %multiply.109.clone.1.clone.1 = f32[] multiply(f32[] %constant_236_clone_1_clone_1, f32[] %param_26.27), metadata={op_type="Mul" op_name="tower0/rpn_losses/level5/mul_1"}
  %select.37.clone.1.clone.1 = f32[] select(pred[] %compare.129.clone.1, f32[] %param_17.38, f32[] %multiply.109.clone.1.clone.1), metadata={op_type="Select" op_name="tower0/rpn_losses/level5/box_loss"}
  ROOT %tuple.125 = (f32[], f32[], f32[], f32[], f32[], f32[], f32[], f32[], f32[], f32[], f32[], f32[], f32[], f32[], f32[], f32[], f32[], f32[], f32[], f32[]) tuple(f32[] %multiply.54, f32[] %multiply.53.clone.1, f32[] %multiply.82.clone.1, f32[] %multiply.58.clone.1, f32[] %multiply.56.clone.1, f32[] %multiply.57.clone.1, f32[] %multiply.55.clone.1, f32[] %multiply.143.clone.1, f32[] %select.53.clone.1.clone.1, f32[] %multiply.20.clone.1.clone.1, f32[] %multiply.141.clone.1, f32[] %select.50.clone.1.clone.1, f32[] %multiply.123.clone.1, f32[] %multiply.122.clone.1.clone.1, f32[] %multiply.142.clone.1.clone.1, f32[] %multiply.127.clone.1.clone.1.clone.1, f32[] %multiply.125.clone.1.clone.1, f32[] %multiply.126.clone.1.clone.1, f32[] %multiply.124.clone.1.clone.1, f32[] %select.37.clone.1.clone.1)
}

%tower0_rpn_losses_level2_label_metrics_num_pos_prediction_1-reduction.2443 (x.2444: s32[], y.2445: s32[]) -> s32[] {
  %x.2444 = s32[] parameter(0)
  %y.2445 = s32[] parameter(1)
  ROOT %add.2446 = s32[] add(s32[] %x.2444, s32[] %y.2445)
}

%fused_computation.74 (param_0.179: pred[140]) -> s32[] {
  %param_0.179 = pred[140]{0} parameter(0)
  %convert.25 = s32[140]{0} convert(pred[140]{0} %param_0.179), metadata={op_type="Cast" op_name="tower0/rpn_losses/level2/label_metrics/Cast_3"}
  %constant_179 = s32[] constant(0), metadata={op_type="Equal" op_name="tower0/rpn_losses/level2/Equal_2"}
  ROOT %reduce.15 = s32[] reduce(s32[140]{0} %convert.25, s32[] %constant_179), dimensions={0}, to_apply=%tower0_rpn_losses_level2_label_metrics_num_pos_prediction_1-reduction.2443, metadata={op_type="Sum" op_name="tower0/rpn_losses/level2/label_metrics/num_pos_prediction_1"}
}

%tower0_rpn_losses_level2_label_metrics_count_nonzero_1_Sum-reduction.2460 (x.2461: s64[], y.2462: s64[]) -> s64[] {
  %x.2461 = s64[] parameter(0)
  %y.2462 = s64[] parameter(1)
  ROOT %add.2463 = s64[] add(s64[] %x.2461, s64[] %y.2462)
}

%tower0_rpn_losses_level2_label_metrics_count_nonzero_2_Sum-reduction.2505 (x.2506: s64[], y.2507: s64[]) -> s64[] {
  %x.2506 = s64[] parameter(0)
  %y.2507 = s64[] parameter(1)
  ROOT %add.2508 = s64[] add(s64[] %x.2506, s64[] %y.2507)
}

%tower0_rpn_losses_level2_label_metrics_count_nonzero_Sum-reduction.2415 (x.2416: s64[], y.2417: s64[]) -> s64[] {
  %x.2416 = s64[] parameter(0)
  %y.2417 = s64[] parameter(1)
  ROOT %add.2418 = s64[] add(s64[] %x.2416, s64[] %y.2417)
}

%fused_computation.76 (param_0.754: pred[140], param_1.791: s32[140], param_2.640: pred[140], param_3.458: f32[140]) -> (s64[], s64[], s64[]) {
  %constant_375 = pred[] constant(false), metadata={op_type="NotEqual" op_name="tower0/rpn_losses/level2/count_nonzero_1/NotEqual"}
  %broadcast.125 = pred[140]{0} broadcast(pred[] %constant_375), dimensions={}, metadata={op_type="NotEqual" op_name="tower0/rpn_losses/level2/label_metrics/count_nonzero/NotEqual"}
  %param_1.791 = s32[140]{0} parameter(1)
  %param_0.754 = pred[140]{0} parameter(0)
  %convert.30 = s32[140]{0} convert(pred[140]{0} %param_0.754), metadata={op_type="Cast" op_name="tower0/rpn_losses/level2/label_metrics/Cast_3"}
  %compare.18 = pred[140]{0} compare(s32[140]{0} %param_1.791, s32[140]{0} %convert.30), direction=EQ, metadata={op_type="Equal" op_name="tower0/rpn_losses/level2/label_metrics/Equal_3"}
  %and.5 = pred[140]{0} and(pred[140]{0} %compare.18, pred[140]{0} %param_0.754), metadata={op_type="LogicalAnd" op_name="tower0/rpn_losses/level2/label_metrics/LogicalAnd_1"}
  %compare.17 = pred[140]{0} compare(pred[140]{0} %broadcast.125, pred[140]{0} %and.5), direction=NE, metadata={op_type="NotEqual" op_name="tower0/rpn_losses/level2/label_metrics/count_nonzero_1/NotEqual"}
  %convert.29 = s64[140]{0} convert(pred[140]{0} %compare.17), metadata={op_type="Cast" op_name="tower0/rpn_losses/level2/label_metrics/count_nonzero_1/Cast"}
  %constant_181 = s64[] constant(0), metadata={op_type="Sum" op_name="tower0/rpn_losses/level2/count_nonzero_1/Sum"}
  %reduce.16 = s64[] reduce(s64[140]{0} %convert.29, s64[] %constant_181), dimensions={0}, to_apply=%tower0_rpn_losses_level2_label_metrics_count_nonzero_1_Sum-reduction.2460, metadata={op_type="Sum" op_name="tower0/rpn_losses/level2/label_metrics/count_nonzero_1/Sum"}
  %param_2.640 = pred[140]{0} parameter(2)
  %convert.21.clone.1 = s32[140]{0} convert(pred[140]{0} %param_2.640), metadata={op_type="Cast" op_name="tower0/rpn_losses/level2/label_metrics/Cast_6"}
  %compare.14.clone.1 = pred[140]{0} compare(s32[140]{0} %param_1.791, s32[140]{0} %convert.21.clone.1), direction=EQ, metadata={op_type="Equal" op_name="tower0/rpn_losses/level2/label_metrics/Equal_6"}
  %and.4.clone.1 = pred[140]{0} and(pred[140]{0} %compare.14.clone.1, pred[140]{0} %param_2.640), metadata={op_type="LogicalAnd" op_name="tower0/rpn_losses/level2/label_metrics/LogicalAnd_2"}
  %compare.13.clone.1 = pred[140]{0} compare(pred[140]{0} %broadcast.125, pred[140]{0} %and.4.clone.1), direction=NE, metadata={op_type="NotEqual" op_name="tower0/rpn_losses/level2/label_metrics/count_nonzero_2/NotEqual"}
  %convert.20.clone.1 = s64[140]{0} convert(pred[140]{0} %compare.13.clone.1), metadata={op_type="Cast" op_name="tower0/rpn_losses/level2/label_metrics/count_nonzero_2/Cast"}
  %reduce.14.clone.1 = s64[] reduce(s64[140]{0} %convert.20.clone.1, s64[] %constant_181), dimensions={0}, to_apply=%tower0_rpn_losses_level2_label_metrics_count_nonzero_2_Sum-reduction.2505, metadata={op_type="Sum" op_name="tower0/rpn_losses/level2/label_metrics/count_nonzero_2/Sum"}
  %param_3.458 = f32[140]{0} parameter(3)
  %constant_378_clone_1 = f32[] constant(0.5), metadata={op_type="Sigmoid" op_name="tower0/rpn_losses/level3/label_metrics/Sigmoid"}
  %broadcast.127.clone.1 = f32[140]{0} broadcast(f32[] %constant_378_clone_1), dimensions={}, metadata={op_type="Sigmoid" op_name="tower0/rpn_losses/level2/label_metrics/Sigmoid"}
  %compare.93.clone.1 = pred[140]{0} compare(f32[140]{0} %param_3.458, f32[140]{0} %broadcast.127.clone.1), direction=GT, metadata={op_type="Greater" op_name="tower0/rpn_losses/level2/label_metrics/Greater"}
  %convert.39.clone.1 = s32[140]{0} convert(pred[140]{0} %compare.93.clone.1), metadata={op_type="Cast" op_name="tower0/rpn_losses/level2/label_metrics/Cast"}
  %compare.22.clone.1 = pred[140]{0} compare(s32[140]{0} %param_1.791, s32[140]{0} %convert.39.clone.1), direction=EQ, metadata={op_type="Equal" op_name="tower0/rpn_losses/level2/label_metrics/Equal"}
  %and.6.clone.1 = pred[140]{0} and(pred[140]{0} %compare.22.clone.1, pred[140]{0} %compare.93.clone.1), metadata={op_type="LogicalAnd" op_name="tower0/rpn_losses/level2/label_metrics/LogicalAnd"}
  %compare.21.clone.1 = pred[140]{0} compare(pred[140]{0} %broadcast.125, pred[140]{0} %and.6.clone.1), direction=NE, metadata={op_type="NotEqual" op_name="tower0/rpn_losses/level2/label_metrics/count_nonzero/NotEqual"}
  %convert.38.clone.1 = s64[140]{0} convert(pred[140]{0} %compare.21.clone.1), metadata={op_type="Cast" op_name="tower0/rpn_losses/level2/label_metrics/count_nonzero/Cast"}
  %reduce.18.clone.1 = s64[] reduce(s64[140]{0} %convert.38.clone.1, s64[] %constant_181), dimensions={0}, to_apply=%tower0_rpn_losses_level2_label_metrics_count_nonzero_Sum-reduction.2415, metadata={op_type="Sum" op_name="tower0/rpn_losses/level2/label_metrics/count_nonzero/Sum"}
  ROOT %tuple.30 = (s64[], s64[], s64[]) tuple(s64[] %reduce.16, s64[] %reduce.14.clone.1, s64[] %reduce.18.clone.1)
}

%fused_computation.77 (param_0.185: f32[140]) -> (pred[140], pred[140]) {
  %param_0.185 = f32[140]{0} parameter(0)
  %constant_182 = f32[] constant(0.2), metadata={op_type="Greater" op_name="tower0/rpn_losses/level3/label_metrics/Greater_2"}
  %broadcast.77 = f32[140]{0} broadcast(f32[] %constant_182), dimensions={}, metadata={op_type="Greater" op_name="tower0/rpn_losses/level2/label_metrics/Greater_2"}
  %compare.19 = pred[140]{0} compare(f32[140]{0} %param_0.185, f32[140]{0} %broadcast.77), direction=GT, metadata={op_type="Greater" op_name="tower0/rpn_losses/level2/label_metrics/Greater_2"}
  %constant_176_clone_1 = f32[] constant(0.1), metadata={op_type="Greater" op_name="tower0/rpn_losses/level3/label_metrics/Greater_4"}
  %broadcast.76.clone.1 = f32[140]{0} broadcast(f32[] %constant_176_clone_1), dimensions={}, metadata={op_type="Greater" op_name="tower0/rpn_losses/level2/label_metrics/Greater_4"}
  %compare.15.clone.1 = pred[140]{0} compare(f32[140]{0} %param_0.185, f32[140]{0} %broadcast.76.clone.1), direction=GT, metadata={op_type="Greater" op_name="tower0/rpn_losses/level2/label_metrics/Greater_4"}
  ROOT %tuple.28 = (pred[140]{0}, pred[140]{0}) tuple(pred[140]{0} %compare.19, pred[140]{0} %compare.15.clone.1)
}

%tower0_rpn_losses_level2_label_metrics_num_pos_prediction-reduction.2398 (x.2399: s32[], y.2400: s32[]) -> s32[] {
  %x.2399 = s32[] parameter(0)
  %y.2400 = s32[] parameter(1)
  ROOT %add.2401 = s32[] add(s32[] %x.2399, s32[] %y.2400)
}

%fused_computation.79 (param_0.755: f32[140]) -> s32[] {
  %param_0.755 = f32[140]{0} parameter(0)
  %constant_376 = f32[] constant(0.5), metadata={op_type="Sigmoid" op_name="tower0/rpn_losses/level3/label_metrics/Sigmoid"}
  %broadcast.126 = f32[140]{0} broadcast(f32[] %constant_376), dimensions={}, metadata={op_type="Sigmoid" op_name="tower0/rpn_losses/level2/label_metrics/Sigmoid"}
  %compare.91 = pred[140]{0} compare(f32[140]{0} %param_0.755, f32[140]{0} %broadcast.126), direction=GT, metadata={op_type="Greater" op_name="tower0/rpn_losses/level2/label_metrics/Greater"}
  %convert.34 = s32[140]{0} convert(pred[140]{0} %compare.91), metadata={op_type="Cast" op_name="tower0/rpn_losses/level2/label_metrics/Cast"}
  %constant_185 = s32[] constant(0), metadata={op_type="Equal" op_name="tower0/rpn_losses/level2/Equal_2"}
  ROOT %reduce.17 = s32[] reduce(s32[140]{0} %convert.34, s32[] %constant_185), dimensions={0}, to_apply=%tower0_rpn_losses_level2_label_metrics_num_pos_prediction-reduction.2398, metadata={op_type="Sum" op_name="tower0/rpn_losses/level2/label_metrics/num_pos_prediction"}
}

%fused_computation.85 (param_0.202: f32[], param_1.234: f32[], param_2.170: f32[], param_3.513: f32[], param_4.474: f32[], param_5.312: f32[], param_6.173: f32[], param_7.129: f32[], param_8.103: f32[], param_9.77: f32[], param_10.77: f32[], param_11.80: f32[], param_12.74: f32[], param_13.80: f32[], param_14.79: f32[], param_15.70: f32[], param_16.51: f32[], param_17.52: f32[], param_18.33: f32[], param_19.26: f32[], param_20.24: s64[], param_21.22: f32[], param_22.20: f32[], param_23.21: f32[], param_24.23: f32[], param_25.28: f32[], param_26.30: f32[], param_27.31: f32[], param_28.28: f32[], param_29.23: f32[], param_30.29: f32[], param_31.31: f32[], param_32.37: f32[], param_33.33: f32[], param_34.42: f32[], param_35.37: f32[], param_36.29: f32[], param_37.32: f32[], param_38.29: f32[], param_39.35: f32[], param_40.29: f32[], param_41.27: f32[], param_42.23: f32[], param_43.14: f32[], param_44.14: f32[], param_45.11: f32[], param_46.11: f32[], param_47.11: f32[], param_48.11: f32[], param_49.11: f32[], param_50.11: f32[], param_51.11: f32[], param_52.11: f32[], param_53.11: f32[], param_54.11: f32[], param_55.11: f32[], param_56.11: f32[], param_57.11: f32[], param_58.11: f32[], param_59.12: f32[], param_60.12: f32[], param_61.11: f32[], param_62.10: f32[], param_63.7: f32[], param_64.5: f32[], param_65.5: f32[], param_66.5: f32[], param_67.5: f32[], param_68.5: f32[], param_69.5: f32[], param_70.5: f32[], param_71.5: f32[], param_72.5: f32[], param_73.5: f32[], param_74.5: f32[], param_75.5: f32[], param_76.5: f32[], param_77.5: f32[], param_78.5: f32[], param_79.5: f32[], param_80.5: f32[], param_81.5: f32[], param_82.5: f32[], param_83.5: f32[], param_84.5: f32[], param_85.5: f32[], param_86.5: f32[], param_87.5: f32[], param_88.5: f32[], param_89.5: f32[], param_90.5: f32[], param_91.5: f32[], param_92.5: f32[], param_93.5: f32[], param_94.5: f32[], param_95.5: f32[], param_96.5: f32[], param_97.5: f32[], param_98.5: f32[], param_99.5: f32[], param_100.5: f32[], param_101.5: f32[], param_102.5: f32[]) -> (f32[], f32[], f32[], f32[], f32[], f32[], f32[], f32[], f32[], f32[], f32[], f32[], f32[], f32[], f32[], f32[], f32[], f32[], f32[], f32[], f32[]) {
  %param_1.234 = f32[] parameter(1)
  %param_2.170 = f32[] parameter(2)
  %subtract.32 = f32[] subtract(f32[] %param_1.234, f32[] %param_2.170), metadata={op_type="Sub" op_name="EMA/rpn_losses/level2/label_loss_EMA_apply/sub"}
  %param_0.202 = f32[] parameter(0)
  %multiply.62 = f32[] multiply(f32[] %subtract.32, f32[] %param_0.202), metadata={op_type="Mul" op_name="EMA/rpn_losses/level2/label_loss_EMA_apply/mul"}
  %param_3.513 = f32[] parameter(3)
  %param_4.474 = f32[] parameter(4)
  %constant_361_clone_1 = f32[] constant(3.03693e-05), metadata={op_type="RealDiv" op_name="tower0/gradients/tower0/maskrcnn_loss/maskrcnn_loss_grad/truediv"}
  %multiply.276.clone.1 = f32[] multiply(f32[] %param_4.474, f32[] %constant_361_clone_1), metadata={op_type="Mean" op_name="tower0/maskrcnn_loss/maskrcnn_loss"}
  %subtract.3.clone.1 = f32[] subtract(f32[] %param_3.513, f32[] %multiply.276.clone.1), metadata={op_type="Sub" op_name="EMA/maskrcnn_loss/maskrcnn_loss_EMA_apply/sub"}
  %multiply.16.clone.1 = f32[] multiply(f32[] %subtract.3.clone.1, f32[] %param_0.202), metadata={op_type="Mul" op_name="EMA/maskrcnn_loss/maskrcnn_loss_EMA_apply/mul"}
  %param_5.312 = f32[] parameter(5)
  %param_6.173 = f32[] parameter(6)
  %subtract.60.clone.1 = f32[] subtract(f32[] %param_5.312, f32[] %param_6.173), metadata={op_type="Sub" op_name="EMA/rpn_losses/level4/label_loss_EMA_apply/sub"}
  %multiply.98.clone.1 = f32[] multiply(f32[] %subtract.60.clone.1, f32[] %param_0.202), metadata={op_type="Mul" op_name="EMA/rpn_losses/level4/label_loss_EMA_apply/mul"}
  %param_12.74 = f32[] parameter(12)
  %param_10.77 = f32[] parameter(10)
  %param_11.80 = f32[] parameter(11)
  %divide.55.clone.1 = f32[] divide(f32[] %param_10.77, f32[] %param_11.80), metadata={op_type="RealDiv" op_name="tower0/fastrcnn_losses/box_loss"}
  %subtract.10.clone.1 = f32[] subtract(f32[] %param_12.74, f32[] %divide.55.clone.1), metadata={op_type="Sub" op_name="EMA/fastrcnn_losses/box_loss_EMA_apply/sub"}
  %multiply.29.clone.1 = f32[] multiply(f32[] %subtract.10.clone.1, f32[] %param_0.202), metadata={op_type="Mul" op_name="EMA/fastrcnn_losses/box_loss_EMA_apply/mul"}
  %param_7.129 = f32[] parameter(7)
  %param_9.77 = f32[] parameter(9)
  %constant_360_clone_1_clone_1 = f32[] constant(0.00195312), metadata={op_type="RealDiv" op_name="tower0/gradients/tower0/fastrcnn_losses/label_loss_grad/truediv"}
  %multiply.275.clone.1.clone.1 = f32[] multiply(f32[] %param_9.77, f32[] %constant_360_clone_1_clone_1), metadata={op_type="Mean" op_name="tower0/fastrcnn_losses/label_loss"}
  %add.17.clone.1.clone.1 = f32[] add(f32[] %divide.55.clone.1, f32[] %multiply.275.clone.1.clone.1), metadata={op_type="AddN" op_name="tower0/total_cost"}
  %add.16.clone.1.clone.1 = f32[] add(f32[] %add.17.clone.1.clone.1, f32[] %multiply.276.clone.1), metadata={op_type="AddN" op_name="tower0/total_cost"}
  %param_8.103 = f32[] parameter(8)
  %add.15.clone.1.clone.1 = f32[] add(f32[] %add.16.clone.1.clone.1, f32[] %param_8.103), metadata={op_type="AddN" op_name="tower0/total_cost"}
  %param_31.31 = f32[] parameter(31)
  %add.269 = f32[] add(f32[] %param_2.170, f32[] %param_31.31), metadata={op_type="AddN" op_name="tower0/rpn_losses/label_loss"}
  %add.268 = f32[] add(f32[] %add.269, f32[] %param_6.173), metadata={op_type="AddN" op_name="tower0/rpn_losses/label_loss"}
  %param_35.37 = f32[] parameter(35)
  %add.267 = f32[] add(f32[] %add.268, f32[] %param_35.37), metadata={op_type="AddN" op_name="tower0/rpn_losses/label_loss"}
  %param_37.32 = f32[] parameter(37)
  %add.266 = f32[] add(f32[] %add.267, f32[] %param_37.32), metadata={op_type="AddN" op_name="tower0/rpn_losses/label_loss"}
  %add.14.clone.1.clone.1 = f32[] add(f32[] %add.15.clone.1.clone.1, f32[] %add.266), metadata={op_type="AddN" op_name="tower0/total_cost"}
  %param_102.5 = f32[] parameter(102)
  %constant_511 = f32[] constant(5e-05), metadata={op_type="Mul" op_name="tower0/wd_cost_internals/mul_53"}
  %multiply.405 = f32[] multiply(f32[] %param_102.5, f32[] %constant_511), metadata={op_type="Mul" op_name="tower0/wd_cost_internals/mul"}
  %param_101.5 = f32[] parameter(101)
  %multiply.404 = f32[] multiply(f32[] %param_101.5, f32[] %constant_511), metadata={op_type="Mul" op_name="tower0/wd_cost_internals/mul_1"}
  %add.261 = f32[] add(f32[] %multiply.405, f32[] %multiply.404), metadata={op_type="AddN" op_name="tower0/wd_cost"}
  %param_100.5 = f32[] parameter(100)
  %add.260 = f32[] add(f32[] %add.261, f32[] %param_100.5), metadata={op_type="AddN" op_name="tower0/wd_cost"}
  %param_99.5 = f32[] parameter(99)
  %multiply.403 = f32[] multiply(f32[] %param_99.5, f32[] %constant_511), metadata={op_type="Mul" op_name="tower0/wd_cost_internals/mul_11"}
  %add.259 = f32[] add(f32[] %add.260, f32[] %multiply.403), metadata={op_type="AddN" op_name="tower0/wd_cost"}
  %param_98.5 = f32[] parameter(98)
  %multiply.402 = f32[] multiply(f32[] %param_98.5, f32[] %constant_511), metadata={op_type="Mul" op_name="tower0/wd_cost_internals/mul_12"}
  %add.258 = f32[] add(f32[] %add.259, f32[] %multiply.402), metadata={op_type="AddN" op_name="tower0/wd_cost"}
  %param_97.5 = f32[] parameter(97)
  %multiply.401 = f32[] multiply(f32[] %param_97.5, f32[] %constant_511), metadata={op_type="Mul" op_name="tower0/wd_cost_internals/mul_13"}
  %add.257 = f32[] add(f32[] %add.258, f32[] %multiply.401), metadata={op_type="AddN" op_name="tower0/wd_cost"}
  %param_96.5 = f32[] parameter(96)
  %multiply.400 = f32[] multiply(f32[] %param_96.5, f32[] %constant_511), metadata={op_type="Mul" op_name="tower0/wd_cost_internals/mul_14"}
  %add.256 = f32[] add(f32[] %add.257, f32[] %multiply.400), metadata={op_type="AddN" op_name="tower0/wd_cost"}
  %param_95.5 = f32[] parameter(95)
  %multiply.399 = f32[] multiply(f32[] %param_95.5, f32[] %constant_511), metadata={op_type="Mul" op_name="tower0/wd_cost_internals/mul_15"}
  %add.255 = f32[] add(f32[] %add.256, f32[] %multiply.399), metadata={op_type="AddN" op_name="tower0/wd_cost"}
  %param_94.5 = f32[] parameter(94)
  %multiply.398 = f32[] multiply(f32[] %param_94.5, f32[] %constant_511), metadata={op_type="Mul" op_name="tower0/wd_cost_internals/mul_16"}
  %add.254 = f32[] add(f32[] %add.255, f32[] %multiply.398), metadata={op_type="AddN" op_name="tower0/wd_cost"}
  %param_93.5 = f32[] parameter(93)
  %multiply.397 = f32[] multiply(f32[] %param_93.5, f32[] %constant_511), metadata={op_type="Mul" op_name="tower0/wd_cost_internals/mul_17"}
  %add.253 = f32[] add(f32[] %add.254, f32[] %multiply.397), metadata={op_type="AddN" op_name="tower0/wd_cost"}
  %param_92.5 = f32[] parameter(92)
  %multiply.396 = f32[] multiply(f32[] %param_92.5, f32[] %constant_511), metadata={op_type="Mul" op_name="tower0/wd_cost_internals/mul_18"}
  %add.252 = f32[] add(f32[] %add.253, f32[] %multiply.396), metadata={op_type="AddN" op_name="tower0/wd_cost"}
  %param_91.5 = f32[] parameter(91)
  %multiply.395 = f32[] multiply(f32[] %param_91.5, f32[] %constant_511), metadata={op_type="Mul" op_name="tower0/wd_cost_internals/mul_19"}
  %add.251 = f32[] add(f32[] %add.252, f32[] %multiply.395), metadata={op_type="AddN" op_name="tower0/wd_cost"}
  %param_90.5 = f32[] parameter(90)
  %multiply.394 = f32[] multiply(f32[] %param_90.5, f32[] %constant_511), metadata={op_type="Mul" op_name="tower0/wd_cost_internals/mul_2"}
  %add.250 = f32[] add(f32[] %add.251, f32[] %multiply.394), metadata={op_type="AddN" op_name="tower0/wd_cost"}
  %param_89.5 = f32[] parameter(89)
  %multiply.393 = f32[] multiply(f32[] %param_89.5, f32[] %constant_511), metadata={op_type="Mul" op_name="tower0/wd_cost_internals/mul_20"}
  %add.249 = f32[] add(f32[] %add.250, f32[] %multiply.393), metadata={op_type="AddN" op_name="tower0/wd_cost"}
  %param_88.5 = f32[] parameter(88)
  %multiply.392 = f32[] multiply(f32[] %param_88.5, f32[] %constant_511), metadata={op_type="Mul" op_name="tower0/wd_cost_internals/mul_21"}
  %add.248 = f32[] add(f32[] %add.249, f32[] %multiply.392), metadata={op_type="AddN" op_name="tower0/wd_cost"}
  %param_87.5 = f32[] parameter(87)
  %multiply.391 = f32[] multiply(f32[] %param_87.5, f32[] %constant_511), metadata={op_type="Mul" op_name="tower0/wd_cost_internals/mul_22"}
  %add.247 = f32[] add(f32[] %add.248, f32[] %multiply.391), metadata={op_type="AddN" op_name="tower0/wd_cost"}
  %param_86.5 = f32[] parameter(86)
  %multiply.390 = f32[] multiply(f32[] %param_86.5, f32[] %constant_511), metadata={op_type="Mul" op_name="tower0/wd_cost_internals/mul_23"}
  %add.246 = f32[] add(f32[] %add.247, f32[] %multiply.390), metadata={op_type="AddN" op_name="tower0/wd_cost"}
  %param_85.5 = f32[] parameter(85)
  %multiply.389 = f32[] multiply(f32[] %param_85.5, f32[] %constant_511), metadata={op_type="Mul" op_name="tower0/wd_cost_internals/mul_24"}
  %add.245 = f32[] add(f32[] %add.246, f32[] %multiply.389), metadata={op_type="AddN" op_name="tower0/wd_cost"}
  %param_84.5 = f32[] parameter(84)
  %multiply.388 = f32[] multiply(f32[] %param_84.5, f32[] %constant_511), metadata={op_type="Mul" op_name="tower0/wd_cost_internals/mul_25"}
  %add.244 = f32[] add(f32[] %add.245, f32[] %multiply.388), metadata={op_type="AddN" op_name="tower0/wd_cost"}
  %param_83.5 = f32[] parameter(83)
  %multiply.387 = f32[] multiply(f32[] %param_83.5, f32[] %constant_511), metadata={op_type="Mul" op_name="tower0/wd_cost_internals/mul_26"}
  %add.243 = f32[] add(f32[] %add.244, f32[] %multiply.387), metadata={op_type="AddN" op_name="tower0/wd_cost"}
  %param_82.5 = f32[] parameter(82)
  %multiply.386 = f32[] multiply(f32[] %param_82.5, f32[] %constant_511), metadata={op_type="Mul" op_name="tower0/wd_cost_internals/mul_27"}
  %add.242 = f32[] add(f32[] %add.243, f32[] %multiply.386), metadata={op_type="AddN" op_name="tower0/wd_cost"}
  %param_81.5 = f32[] parameter(81)
  %multiply.385 = f32[] multiply(f32[] %param_81.5, f32[] %constant_511), metadata={op_type="Mul" op_name="tower0/wd_cost_internals/mul_28"}
  %add.241 = f32[] add(f32[] %add.242, f32[] %multiply.385), metadata={op_type="AddN" op_name="tower0/wd_cost"}
  %param_80.5 = f32[] parameter(80)
  %multiply.384 = f32[] multiply(f32[] %param_80.5, f32[] %constant_511), metadata={op_type="Mul" op_name="tower0/wd_cost_internals/mul_29"}
  %add.240 = f32[] add(f32[] %add.241, f32[] %multiply.384), metadata={op_type="AddN" op_name="tower0/wd_cost"}
  %param_79.5 = f32[] parameter(79)
  %multiply.383 = f32[] multiply(f32[] %param_79.5, f32[] %constant_511), metadata={op_type="Mul" op_name="tower0/wd_cost_internals/mul_3"}
  %add.239 = f32[] add(f32[] %add.240, f32[] %multiply.383), metadata={op_type="AddN" op_name="tower0/wd_cost"}
  %param_78.5 = f32[] parameter(78)
  %multiply.382 = f32[] multiply(f32[] %param_78.5, f32[] %constant_511), metadata={op_type="Mul" op_name="tower0/wd_cost_internals/mul_30"}
  %add.238 = f32[] add(f32[] %add.239, f32[] %multiply.382), metadata={op_type="AddN" op_name="tower0/wd_cost"}
  %param_77.5 = f32[] parameter(77)
  %multiply.381 = f32[] multiply(f32[] %param_77.5, f32[] %constant_511), metadata={op_type="Mul" op_name="tower0/wd_cost_internals/mul_31"}
  %add.237 = f32[] add(f32[] %add.238, f32[] %multiply.381), metadata={op_type="AddN" op_name="tower0/wd_cost"}
  %param_76.5 = f32[] parameter(76)
  %multiply.380 = f32[] multiply(f32[] %param_76.5, f32[] %constant_511), metadata={op_type="Mul" op_name="tower0/wd_cost_internals/mul_32"}
  %add.236 = f32[] add(f32[] %add.237, f32[] %multiply.380), metadata={op_type="AddN" op_name="tower0/wd_cost"}
  %param_75.5 = f32[] parameter(75)
  %multiply.379 = f32[] multiply(f32[] %param_75.5, f32[] %constant_511), metadata={op_type="Mul" op_name="tower0/wd_cost_internals/mul_33"}
  %add.235 = f32[] add(f32[] %add.236, f32[] %multiply.379), metadata={op_type="AddN" op_name="tower0/wd_cost"}
  %param_74.5 = f32[] parameter(74)
  %multiply.378 = f32[] multiply(f32[] %param_74.5, f32[] %constant_511), metadata={op_type="Mul" op_name="tower0/wd_cost_internals/mul_34"}
  %add.234 = f32[] add(f32[] %add.235, f32[] %multiply.378), metadata={op_type="AddN" op_name="tower0/wd_cost"}
  %param_73.5 = f32[] parameter(73)
  %multiply.377 = f32[] multiply(f32[] %param_73.5, f32[] %constant_511), metadata={op_type="Mul" op_name="tower0/wd_cost_internals/mul_35"}
  %add.233 = f32[] add(f32[] %add.234, f32[] %multiply.377), metadata={op_type="AddN" op_name="tower0/wd_cost"}
  %param_72.5 = f32[] parameter(72)
  %multiply.376 = f32[] multiply(f32[] %param_72.5, f32[] %constant_511), metadata={op_type="Mul" op_name="tower0/wd_cost_internals/mul_36"}
  %add.232 = f32[] add(f32[] %add.233, f32[] %multiply.376), metadata={op_type="AddN" op_name="tower0/wd_cost"}
  %param_71.5 = f32[] parameter(71)
  %multiply.375 = f32[] multiply(f32[] %param_71.5, f32[] %constant_511), metadata={op_type="Mul" op_name="tower0/wd_cost_internals/mul_37"}
  %add.231 = f32[] add(f32[] %add.232, f32[] %multiply.375), metadata={op_type="AddN" op_name="tower0/wd_cost"}
  %param_70.5 = f32[] parameter(70)
  %multiply.374 = f32[] multiply(f32[] %param_70.5, f32[] %constant_511), metadata={op_type="Mul" op_name="tower0/wd_cost_internals/mul_38"}
  %add.230 = f32[] add(f32[] %add.231, f32[] %multiply.374), metadata={op_type="AddN" op_name="tower0/wd_cost"}
  %param_69.5 = f32[] parameter(69)
  %multiply.373 = f32[] multiply(f32[] %param_69.5, f32[] %constant_511), metadata={op_type="Mul" op_name="tower0/wd_cost_internals/mul_39"}
  %add.229 = f32[] add(f32[] %add.230, f32[] %multiply.373), metadata={op_type="AddN" op_name="tower0/wd_cost"}
  %param_68.5 = f32[] parameter(68)
  %multiply.372 = f32[] multiply(f32[] %param_68.5, f32[] %constant_511), metadata={op_type="Mul" op_name="tower0/wd_cost_internals/mul_4"}
  %add.228 = f32[] add(f32[] %add.229, f32[] %multiply.372), metadata={op_type="AddN" op_name="tower0/wd_cost"}
  %param_67.5 = f32[] parameter(67)
  %multiply.371 = f32[] multiply(f32[] %param_67.5, f32[] %constant_511), metadata={op_type="Mul" op_name="tower0/wd_cost_internals/mul_40"}
  %add.227 = f32[] add(f32[] %add.228, f32[] %multiply.371), metadata={op_type="AddN" op_name="tower0/wd_cost"}
  %param_66.5 = f32[] parameter(66)
  %multiply.370 = f32[] multiply(f32[] %param_66.5, f32[] %constant_511), metadata={op_type="Mul" op_name="tower0/wd_cost_internals/mul_41"}
  %add.226 = f32[] add(f32[] %add.227, f32[] %multiply.370), metadata={op_type="AddN" op_name="tower0/wd_cost"}
  %param_65.5 = f32[] parameter(65)
  %multiply.369 = f32[] multiply(f32[] %param_65.5, f32[] %constant_511), metadata={op_type="Mul" op_name="tower0/wd_cost_internals/mul_42"}
  %add.225 = f32[] add(f32[] %add.226, f32[] %multiply.369), metadata={op_type="AddN" op_name="tower0/wd_cost"}
  %param_64.5 = f32[] parameter(64)
  %multiply.368 = f32[] multiply(f32[] %param_64.5, f32[] %constant_511), metadata={op_type="Mul" op_name="tower0/wd_cost_internals/mul_43"}
  %add.224 = f32[] add(f32[] %add.225, f32[] %multiply.368), metadata={op_type="AddN" op_name="tower0/wd_cost"}
  %param_63.7 = f32[] parameter(63)
  %multiply.367 = f32[] multiply(f32[] %param_63.7, f32[] %constant_511), metadata={op_type="Mul" op_name="tower0/wd_cost_internals/mul_44"}
  %add.223 = f32[] add(f32[] %add.224, f32[] %multiply.367), metadata={op_type="AddN" op_name="tower0/wd_cost"}
  %param_62.10 = f32[] parameter(62)
  %multiply.366 = f32[] multiply(f32[] %param_62.10, f32[] %constant_511), metadata={op_type="Mul" op_name="tower0/wd_cost_internals/mul_45"}
  %add.222 = f32[] add(f32[] %add.223, f32[] %multiply.366), metadata={op_type="AddN" op_name="tower0/wd_cost"}
  %param_61.11 = f32[] parameter(61)
  %multiply.365 = f32[] multiply(f32[] %param_61.11, f32[] %constant_511), metadata={op_type="Mul" op_name="tower0/wd_cost_internals/mul_46"}
  %add.221 = f32[] add(f32[] %add.222, f32[] %multiply.365), metadata={op_type="AddN" op_name="tower0/wd_cost"}
  %param_60.12 = f32[] parameter(60)
  %multiply.364 = f32[] multiply(f32[] %param_60.12, f32[] %constant_511), metadata={op_type="Mul" op_name="tower0/wd_cost_internals/mul_47"}
  %add.220 = f32[] add(f32[] %add.221, f32[] %multiply.364), metadata={op_type="AddN" op_name="tower0/wd_cost"}
  %param_59.12 = f32[] parameter(59)
  %multiply.363 = f32[] multiply(f32[] %param_59.12, f32[] %constant_511), metadata={op_type="Mul" op_name="tower0/wd_cost_internals/mul_48"}
  %add.219 = f32[] add(f32[] %add.220, f32[] %multiply.363), metadata={op_type="AddN" op_name="tower0/wd_cost"}
  %param_58.11 = f32[] parameter(58)
  %multiply.362 = f32[] multiply(f32[] %param_58.11, f32[] %constant_511), metadata={op_type="Mul" op_name="tower0/wd_cost_internals/mul_49"}
  %add.218 = f32[] add(f32[] %add.219, f32[] %multiply.362), metadata={op_type="AddN" op_name="tower0/wd_cost"}
  %param_57.11 = f32[] parameter(57)
  %multiply.361 = f32[] multiply(f32[] %param_57.11, f32[] %constant_511), metadata={op_type="Mul" op_name="tower0/wd_cost_internals/mul_5"}
  %add.217 = f32[] add(f32[] %add.218, f32[] %multiply.361), metadata={op_type="AddN" op_name="tower0/wd_cost"}
  %param_56.11 = f32[] parameter(56)
  %multiply.360 = f32[] multiply(f32[] %param_56.11, f32[] %constant_511), metadata={op_type="Mul" op_name="tower0/wd_cost_internals/mul_50"}
  %add.216 = f32[] add(f32[] %add.217, f32[] %multiply.360), metadata={op_type="AddN" op_name="tower0/wd_cost"}
  %param_55.11 = f32[] parameter(55)
  %multiply.359 = f32[] multiply(f32[] %param_55.11, f32[] %constant_511), metadata={op_type="Mul" op_name="tower0/wd_cost_internals/mul_51"}
  %add.215 = f32[] add(f32[] %add.216, f32[] %multiply.359), metadata={op_type="AddN" op_name="tower0/wd_cost"}
  %param_54.11 = f32[] parameter(54)
  %multiply.358 = f32[] multiply(f32[] %param_54.11, f32[] %constant_511), metadata={op_type="Mul" op_name="tower0/wd_cost_internals/mul_52"}
  %add.214 = f32[] add(f32[] %add.215, f32[] %multiply.358), metadata={op_type="AddN" op_name="tower0/wd_cost"}
  %param_53.11 = f32[] parameter(53)
  %multiply.357 = f32[] multiply(f32[] %param_53.11, f32[] %constant_511), metadata={op_type="Mul" op_name="tower0/wd_cost_internals/mul_53"}
  %add.213 = f32[] add(f32[] %add.214, f32[] %multiply.357), metadata={op_type="AddN" op_name="tower0/wd_cost"}
  %param_52.11 = f32[] parameter(52)
  %multiply.356 = f32[] multiply(f32[] %param_52.11, f32[] %constant_511), metadata={op_type="Mul" op_name="tower0/wd_cost_internals/mul_54"}
  %add.212 = f32[] add(f32[] %add.213, f32[] %multiply.356), metadata={op_type="AddN" op_name="tower0/wd_cost"}
  %param_51.11 = f32[] parameter(51)
  %multiply.355 = f32[] multiply(f32[] %param_51.11, f32[] %constant_511), metadata={op_type="Mul" op_name="tower0/wd_cost_internals/mul_55"}
  %add.211 = f32[] add(f32[] %add.212, f32[] %multiply.355), metadata={op_type="AddN" op_name="tower0/wd_cost"}
  %param_50.11 = f32[] parameter(50)
  %multiply.354 = f32[] multiply(f32[] %param_50.11, f32[] %constant_511), metadata={op_type="Mul" op_name="tower0/wd_cost_internals/mul_56"}
  %add.210 = f32[] add(f32[] %add.211, f32[] %multiply.354), metadata={op_type="AddN" op_name="tower0/wd_cost"}
  %param_49.11 = f32[] parameter(49)
  %multiply.353 = f32[] multiply(f32[] %param_49.11, f32[] %constant_511), metadata={op_type="Mul" op_name="tower0/wd_cost_internals/mul_57"}
  %add.209 = f32[] add(f32[] %add.210, f32[] %multiply.353), metadata={op_type="AddN" op_name="tower0/wd_cost"}
  %param_48.11 = f32[] parameter(48)
  %multiply.352 = f32[] multiply(f32[] %param_48.11, f32[] %constant_511), metadata={op_type="Mul" op_name="tower0/wd_cost_internals/mul_58"}
  %add.208 = f32[] add(f32[] %add.209, f32[] %multiply.352), metadata={op_type="AddN" op_name="tower0/wd_cost"}
  %param_47.11 = f32[] parameter(47)
  %multiply.351 = f32[] multiply(f32[] %param_47.11, f32[] %constant_511), metadata={op_type="Mul" op_name="tower0/wd_cost_internals/mul_59"}
  %add.207 = f32[] add(f32[] %add.208, f32[] %multiply.351), metadata={op_type="AddN" op_name="tower0/wd_cost"}
  %param_46.11 = f32[] parameter(46)
  %multiply.350 = f32[] multiply(f32[] %param_46.11, f32[] %constant_511), metadata={op_type="Mul" op_name="tower0/wd_cost_internals/mul_6"}
  %add.206 = f32[] add(f32[] %add.207, f32[] %multiply.350), metadata={op_type="AddN" op_name="tower0/wd_cost"}
  %param_45.11 = f32[] parameter(45)
  %multiply.349 = f32[] multiply(f32[] %param_45.11, f32[] %constant_511), metadata={op_type="Mul" op_name="tower0/wd_cost_internals/mul_60"}
  %add.205 = f32[] add(f32[] %add.206, f32[] %multiply.349), metadata={op_type="AddN" op_name="tower0/wd_cost"}
  %param_44.14 = f32[] parameter(44)
  %multiply.348 = f32[] multiply(f32[] %param_44.14, f32[] %constant_511), metadata={op_type="Mul" op_name="tower0/wd_cost_internals/mul_61"}
  %add.204 = f32[] add(f32[] %add.205, f32[] %multiply.348), metadata={op_type="AddN" op_name="tower0/wd_cost"}
  %param_43.14 = f32[] parameter(43)
  %multiply.347 = f32[] multiply(f32[] %param_43.14, f32[] %constant_511), metadata={op_type="Mul" op_name="tower0/wd_cost_internals/mul_62"}
  %add.203 = f32[] add(f32[] %add.204, f32[] %multiply.347), metadata={op_type="AddN" op_name="tower0/wd_cost"}
  %param_42.23 = f32[] parameter(42)
  %multiply.346 = f32[] multiply(f32[] %param_42.23, f32[] %constant_511), metadata={op_type="Mul" op_name="tower0/wd_cost_internals/mul_7"}
  %add.202 = f32[] add(f32[] %add.203, f32[] %multiply.346), metadata={op_type="AddN" op_name="tower0/wd_cost"}
  %param_41.27 = f32[] parameter(41)
  %multiply.345 = f32[] multiply(f32[] %param_41.27, f32[] %constant_511), metadata={op_type="Mul" op_name="tower0/wd_cost_internals/mul_8"}
  %add.201 = f32[] add(f32[] %add.202, f32[] %multiply.345), metadata={op_type="AddN" op_name="tower0/wd_cost"}
  %param_40.29 = f32[] parameter(40)
  %multiply.344 = f32[] multiply(f32[] %param_40.29, f32[] %constant_511), metadata={op_type="Mul" op_name="tower0/wd_cost_internals/mul_9"}
  %add.200 = f32[] add(f32[] %add.201, f32[] %multiply.344), metadata={op_type="AddN" op_name="tower0/wd_cost"}
  %add.13.clone.1.clone.1 = f32[] add(f32[] %add.14.clone.1.clone.1, f32[] %add.200), metadata={op_type="AddN" op_name="tower0/total_cost"}
  %subtract.2.clone.1.clone.1 = f32[] subtract(f32[] %param_7.129, f32[] %add.13.clone.1.clone.1), metadata={op_type="Sub" op_name="EMA/total_cost_EMA_apply/sub"}
  %multiply.15.clone.1.clone.1 = f32[] multiply(f32[] %subtract.2.clone.1.clone.1, f32[] %param_0.202), metadata={op_type="Mul" op_name="EMA/total_cost_EMA_apply/mul"}
  %param_13.80 = f32[] parameter(13)
  %param_14.79 = f32[] parameter(14)
  %multiply.19.clone.1 = f32[] multiply(f32[] %param_14.79, f32[] %constant_361_clone_1), metadata={op_type="Mean" op_name="tower0/maskrcnn_loss/pos_accuracy"}
  %subtract.5.clone.1 = f32[] subtract(f32[] %param_13.80, f32[] %multiply.19.clone.1), metadata={op_type="Sub" op_name="EMA/maskrcnn_loss/pos_accuracy_EMA_apply/sub"}
  %multiply.18.clone.1 = f32[] multiply(f32[] %subtract.5.clone.1, f32[] %param_0.202), metadata={op_type="Mul" op_name="EMA/maskrcnn_loss/pos_accuracy_EMA_apply/mul"}
  %param_15.70 = f32[] parameter(15)
  %subtract.99.clone.1 = f32[] subtract(f32[] %param_15.70, f32[] %add.200), metadata={op_type="Sub" op_name="EMA/wd_cost_EMA_apply/sub"}
  %multiply.144.clone.1 = f32[] multiply(f32[] %param_0.202, f32[] %subtract.99.clone.1), metadata={op_type="Mul" op_name="EMA/wd_cost_EMA_apply/mul"}
  %param_16.51 = f32[] parameter(16)
  %subtract.31.clone.1 = f32[] subtract(f32[] %param_16.51, f32[] %add.266), metadata={op_type="Sub" op_name="EMA/rpn_losses/label_loss_EMA_apply/sub"}
  %multiply.61.clone.1 = f32[] multiply(f32[] %subtract.31.clone.1, f32[] %param_0.202), metadata={op_type="Mul" op_name="EMA/rpn_losses/label_loss_EMA_apply/mul"}
  %param_17.52 = f32[] parameter(17)
  %subtract.22.clone.1 = f32[] subtract(f32[] %param_17.52, f32[] %param_8.103), metadata={op_type="Sub" op_name="EMA/rpn_losses/box_loss_EMA_apply/sub"}
  %multiply.47.clone.1 = f32[] multiply(f32[] %subtract.22.clone.1, f32[] %param_0.202), metadata={op_type="Mul" op_name="EMA/rpn_losses/box_loss_EMA_apply/mul"}
  %param_18.33 = f32[] parameter(18)
  %subtract.19.clone.1 = f32[] subtract(f32[] %param_18.33, f32[] %multiply.275.clone.1.clone.1), metadata={op_type="Sub" op_name="EMA/fastrcnn_losses/label_loss_EMA_apply/sub"}
  %multiply.42.clone.1 = f32[] multiply(f32[] %subtract.19.clone.1, f32[] %param_0.202), metadata={op_type="Mul" op_name="EMA/fastrcnn_losses/label_loss_EMA_apply/mul"}
  %param_19.26 = f32[] parameter(19)
  %param_20.24 = s64[] parameter(20)
  %convert.6.clone.1 = f64[] convert(s64[] %param_20.24), metadata={op_type="Cast" op_name="tower0/fastrcnn_losses/label_metrics/truediv/Cast"}
  %constant_148_clone_1 = f64[] constant(0.0238095)
  %multiply.35.clone.1 = f64[] multiply(f64[] %convert.6.clone.1, f64[] %constant_148_clone_1), metadata={op_type="RealDiv" op_name="tower0/fastrcnn_losses/label_metrics/truediv"}
  %convert.5.clone.1 = f32[] convert(f64[] %multiply.35.clone.1), metadata={op_type="Cast" op_name="tower0/fastrcnn_losses/label_metrics/Cast_2"}
  %subtract.15.clone.1 = f32[] subtract(f32[] %param_19.26, f32[] %convert.5.clone.1), metadata={op_type="Sub" op_name="EMA/fastrcnn_losses/label_metrics/false_negative_EMA_apply/sub"}
  %multiply.34.clone.1 = f32[] multiply(f32[] %subtract.15.clone.1, f32[] %param_0.202), metadata={op_type="Mul" op_name="EMA/fastrcnn_losses/label_metrics/false_negative_EMA_apply/mul"}
  %param_21.22 = f32[] parameter(21)
  %param_22.20 = f32[] parameter(22)
  %constant_154_clone_1 = f32[] constant(0.0238095)
  %multiply.39.clone.1 = f32[] multiply(f32[] %param_22.20, f32[] %constant_154_clone_1), metadata={op_type="Mean" op_name="tower0/fastrcnn_losses/label_metrics/Mean"}
  %subtract.17.clone.1 = f32[] subtract(f32[] %param_21.22, f32[] %multiply.39.clone.1), metadata={op_type="Sub" op_name="EMA/fastrcnn_losses/label_metrics/fg_accuracy_EMA_apply/sub"}
  %multiply.38.clone.1 = f32[] multiply(f32[] %subtract.17.clone.1, f32[] %param_0.202), metadata={op_type="Mul" op_name="EMA/fastrcnn_losses/label_metrics/fg_accuracy_EMA_apply/mul"}
  %param_23.21 = f32[] parameter(23)
  %param_24.23 = f32[] parameter(24)
  %multiply.45.clone.1 = f32[] multiply(f32[] %param_24.23, f32[] %constant_361_clone_1), metadata={op_type="Mean" op_name="tower0/maskrcnn_loss/fg_pixel_ratio"}
  %subtract.21.clone.1 = f32[] subtract(f32[] %param_23.21, f32[] %multiply.45.clone.1), metadata={op_type="Sub" op_name="EMA/maskrcnn_loss/fg_pixel_ratio_EMA_apply/sub"}
  %multiply.44.clone.1 = f32[] multiply(f32[] %subtract.21.clone.1, f32[] %param_0.202), metadata={op_type="Mul" op_name="EMA/maskrcnn_loss/fg_pixel_ratio_EMA_apply/mul"}
  %param_25.28 = f32[] parameter(25)
  %constant_168_clone_1 = f32[] constant(42), metadata={op_type="Cast" op_name="tower0/fastrcnn_losses/num_fg_label"}
  %negate.5.clone.1 = f32[] negate(f32[] %constant_168_clone_1)
  %add.33.clone.1 = f32[] add(f32[] %param_25.28, f32[] %negate.5.clone.1), metadata={op_type="Sub" op_name="EMA/fastrcnn_losses/num_fg_label_EMA_apply/sub"}
  %multiply.46.clone.1 = f32[] multiply(f32[] %add.33.clone.1, f32[] %param_0.202), metadata={op_type="Mul" op_name="EMA/fastrcnn_losses/num_fg_label_EMA_apply/mul"}
  %param_26.30 = f32[] parameter(26)
  %param_27.31 = f32[] parameter(27)
  %subtract.23.clone.1 = f32[] subtract(f32[] %param_26.30, f32[] %param_27.31), metadata={op_type="Sub" op_name="EMA/rpn_losses/level2/box_loss_EMA_apply/sub"}
  %multiply.48.clone.1 = f32[] multiply(f32[] %subtract.23.clone.1, f32[] %param_0.202), metadata={op_type="Mul" op_name="EMA/rpn_losses/level2/box_loss_EMA_apply/mul"}
  %param_28.28 = f32[] parameter(28)
  %param_29.23 = f32[] parameter(29)
  %subtract.34.clone.1 = f32[] subtract(f32[] %param_28.28, f32[] %param_29.23), metadata={op_type="Sub" op_name="EMA/rpn_losses/level3/box_loss_EMA_apply/sub"}
  %multiply.65.clone.1 = f32[] multiply(f32[] %subtract.34.clone.1, f32[] %param_0.202), metadata={op_type="Mul" op_name="EMA/rpn_losses/level3/box_loss_EMA_apply/mul"}
  %param_30.29 = f32[] parameter(30)
  %subtract.45.clone.1 = f32[] subtract(f32[] %param_30.29, f32[] %param_31.31), metadata={op_type="Sub" op_name="EMA/rpn_losses/level3/label_loss_EMA_apply/sub"}
  %multiply.79.clone.1 = f32[] multiply(f32[] %subtract.45.clone.1, f32[] %param_0.202), metadata={op_type="Mul" op_name="EMA/rpn_losses/level3/label_loss_EMA_apply/mul"}
  %param_32.37 = f32[] parameter(32)
  %param_33.33 = f32[] parameter(33)
  %subtract.49.clone.1 = f32[] subtract(f32[] %param_32.37, f32[] %param_33.33), metadata={op_type="Sub" op_name="EMA/rpn_losses/level4/box_loss_EMA_apply/sub"}
  %multiply.84.clone.1 = f32[] multiply(f32[] %subtract.49.clone.1, f32[] %param_0.202), metadata={op_type="Mul" op_name="EMA/rpn_losses/level4/box_loss_EMA_apply/mul"}
  %param_34.42 = f32[] parameter(34)
  %subtract.85.clone.1 = f32[] subtract(f32[] %param_34.42, f32[] %param_35.37), metadata={op_type="Sub" op_name="EMA/rpn_losses/level5/label_loss_EMA_apply/sub"}
  %multiply.133.clone.1 = f32[] multiply(f32[] %subtract.85.clone.1, f32[] %param_0.202), metadata={op_type="Mul" op_name="EMA/rpn_losses/level5/label_loss_EMA_apply/mul"}
  %param_36.29 = f32[] parameter(36)
  %subtract.83.clone.1 = f32[] subtract(f32[] %param_36.29, f32[] %param_37.32), metadata={op_type="Sub" op_name="EMA/rpn_losses/level6/label_loss_EMA_apply/sub"}
  %multiply.130.clone.1 = f32[] multiply(f32[] %subtract.83.clone.1, f32[] %param_0.202), metadata={op_type="Mul" op_name="EMA/rpn_losses/level6/label_loss_EMA_apply/mul"}
  %param_38.29 = f32[] parameter(38)
  %param_39.35 = f32[] parameter(39)
  %subtract.66.clone.1 = f32[] subtract(f32[] %param_38.29, f32[] %param_39.35), metadata={op_type="Sub" op_name="EMA/rpn_losses/level5/box_loss_EMA_apply/sub"}
  %multiply.108.clone.1 = f32[] multiply(f32[] %subtract.66.clone.1, f32[] %param_0.202), metadata={op_type="Mul" op_name="EMA/rpn_losses/level5/box_loss_EMA_apply/mul"}
  ROOT %tuple.121 = (f32[], f32[], f32[], f32[], f32[], f32[], f32[], f32[], f32[], f32[], f32[], f32[], f32[], f32[], f32[], f32[], f32[], f32[], f32[], f32[], f32[]) tuple(f32[] %multiply.62, f32[] %multiply.16.clone.1, f32[] %multiply.98.clone.1, f32[] %multiply.29.clone.1, f32[] %multiply.15.clone.1.clone.1, f32[] %multiply.18.clone.1, f32[] %multiply.144.clone.1, f32[] %multiply.61.clone.1, f32[] %multiply.47.clone.1, f32[] %multiply.42.clone.1, f32[] %multiply.34.clone.1, f32[] %multiply.38.clone.1, f32[] %multiply.44.clone.1, f32[] %multiply.46.clone.1, f32[] %multiply.48.clone.1, f32[] %multiply.65.clone.1, f32[] %multiply.79.clone.1, f32[] %multiply.84.clone.1, f32[] %multiply.133.clone.1, f32[] %multiply.130.clone.1, f32[] %multiply.108.clone.1)
}

%tower0_rpn_losses_level2_Sum-reduction.2677 (x.2678: f32[], y.2679: f32[]) -> f32[] {
  %x.2678 = f32[] parameter(0)
  %y.2679 = f32[] parameter(1)
  ROOT %add.2680 = f32[] add(f32[] %x.2678, f32[] %y.2679)
}

%fused_computation.87 (param_0.759: f32[140], param_1.800: f32[140], param_2.502: s32[140]) -> (f32[], f32[140]) {
  %param_1.800 = f32[140]{0} parameter(1)
  %log-plus-one.1 = f32[140]{0} log-plus-one(f32[140]{0} %param_1.800), metadata={op_type="Log1p" op_name="tower0/rpn_losses/level2/logistic_loss/Log1p"}
  %param_0.759 = f32[140]{0} parameter(0)
  %constant_189 = f32[] constant(0), metadata={op_type="Sum" op_name="tower0/wd_cost_internals/Sum_53"}
  %broadcast.130 = f32[140]{0} broadcast(f32[] %constant_189), dimensions={}, metadata={op_type="ZerosLike" op_name="tower0/rpn_losses/level2/logistic_loss/zeros_like"}
  %compare.95 = pred[140]{0} compare(f32[140]{0} %param_0.759, f32[140]{0} %broadcast.130), direction=GE, metadata={op_type="GreaterEqual" op_name="tower0/rpn_losses/level2/logistic_loss/GreaterEqual"}
  %select.14 = f32[140]{0} select(pred[140]{0} %compare.95, f32[140]{0} %param_0.759, f32[140]{0} %broadcast.130), metadata={op_type="Select" op_name="tower0/rpn_losses/level2/logistic_loss/Select"}
  %param_2.502 = s32[140]{0} parameter(2)
  %convert.182 = f32[140]{0} convert(s32[140]{0} %param_2.502), metadata={op_type="Cast" op_name="tower0/rpn_losses/level2/Cast"}
  %multiply.64 = f32[140]{0} multiply(f32[140]{0} %convert.182, f32[140]{0} %param_0.759), metadata={op_type="Mul" op_name="tower0/rpn_losses/level2/logistic_loss/mul"}
  %subtract.33 = f32[140]{0} subtract(f32[140]{0} %select.14, f32[140]{0} %multiply.64), metadata={op_type="Sub" op_name="tower0/rpn_losses/level2/logistic_loss/sub"}
  %add.44 = f32[140]{0} add(f32[140]{0} %log-plus-one.1, f32[140]{0} %subtract.33), metadata={op_type="Add" op_name="tower0/rpn_losses/level2/logistic_loss"}
  %reduce.19 = f32[] reduce(f32[140]{0} %add.44, f32[] %constant_189), dimensions={0}, to_apply=%tower0_rpn_losses_level2_Sum-reduction.2677, metadata={op_type="Sum" op_name="tower0/rpn_losses/level2/Sum"}
  ROOT %tuple.27 = (f32[], f32[140]{0}) tuple(f32[] %reduce.19, f32[140]{0} %convert.182)
}

%fused_computation.88 (param_0.208: s64[140,1], param_1.242: s32[200,200,3]) -> s32[140] {
  %param_1.242 = s32[200,200,3]{2,1,0} parameter(1)
  %bitcast.91 = s32[120000]{0} bitcast(s32[200,200,3]{2,1,0} %param_1.242), metadata={op_type="Reshape" op_name="tower0/rpn_losses/level2/boolean_mask/Reshape"}
  %param_0.208 = s64[140,1]{1,0} parameter(0)
  %bitcast.90 = s64[140]{0} bitcast(s64[140,1]{1,0} %param_0.208), metadata={op_type="Squeeze" op_name="tower0/rpn_losses/level2/boolean_mask/Squeeze"}
  ROOT %gather.5 = s32[140]{0} gather(s32[120000]{0} %bitcast.91, s64[140]{0} %bitcast.90), offset_dims={}, collapsed_slice_dims={0}, start_index_map={0}, index_vector_dim=1, slice_sizes={1}, metadata={op_type="GatherV2" op_name="tower0/rpn_losses/level2/boolean_mask/GatherV2"}
}

%fused_computation.89 (param_0.761: f32[140]) -> (f32[140], f32[140], f32[140]) {
  %param_0.761 = f32[140]{0} parameter(0)
  %constant_383 = f32[] constant(0), metadata={op_type="Sum" op_name="tower0/wd_cost_internals/Sum_53"}
  %broadcast.131 = f32[140]{0} broadcast(f32[] %constant_383), dimensions={}, metadata={op_type="ZerosLike" op_name="tower0/rpn_losses/level2/logistic_loss/zeros_like"}
  %compare.96 = pred[140]{0} compare(f32[140]{0} %param_0.761, f32[140]{0} %broadcast.131), direction=GE, metadata={op_type="GreaterEqual" op_name="tower0/rpn_losses/level2/logistic_loss/GreaterEqual"}
  %negate.8 = f32[140]{0} negate(f32[140]{0} %param_0.761), metadata={op_type="Neg" op_name="tower0/rpn_losses/level2/logistic_loss/Neg"}
  %select.15 = f32[140]{0} select(pred[140]{0} %compare.96, f32[140]{0} %negate.8, f32[140]{0} %param_0.761), metadata={op_type="Select" op_name="tower0/rpn_losses/level2/logistic_loss/Select_1"}
  %exponential.0 = f32[140]{0} exponential(f32[140]{0} %select.15), metadata={op_type="Exp" op_name="tower0/rpn_losses/level2/logistic_loss/Exp"}
  %constant_380_clone_1 = f32[] constant(0.5), metadata={op_type="Sigmoid" op_name="tower0/rpn_losses/level3/label_metrics/Sigmoid"}
  %broadcast.129.clone.1 = f32[140]{0} broadcast(f32[] %constant_380_clone_1), dimensions={}, metadata={op_type="Sigmoid" op_name="tower0/rpn_losses/level2/label_metrics/Sigmoid"}
  %multiply.60.clone.1 = f32[140]{0} multiply(f32[140]{0} %broadcast.129.clone.1, f32[140]{0} %param_0.761), metadata={op_type="Sigmoid" op_name="tower0/rpn_losses/level2/label_metrics/Sigmoid"}
  %tanh.1.clone.1 = f32[140]{0} tanh(f32[140]{0} %multiply.60.clone.1), metadata={op_type="Sigmoid" op_name="tower0/rpn_losses/level2/label_metrics/Sigmoid"}
  %multiply.59.clone.1 = f32[140]{0} multiply(f32[140]{0} %broadcast.129.clone.1, f32[140]{0} %tanh.1.clone.1), metadata={op_type="Sigmoid" op_name="tower0/rpn_losses/level2/label_metrics/Sigmoid"}
  %add.39.clone.1 = f32[140]{0} add(f32[140]{0} %broadcast.129.clone.1, f32[140]{0} %multiply.59.clone.1), metadata={op_type="Sigmoid" op_name="tower0/rpn_losses/level2/label_metrics/Sigmoid"}
  ROOT %tuple.31 = (f32[140]{0}, f32[140]{0}, f32[140]{0}) tuple(f32[140]{0} %exponential.0, f32[140]{0} %negate.8, f32[140]{0} %add.39.clone.1)
}

%tower0_rpn_losses_level3_huber_loss_Sum-reduction.3051 (x.3052: f32[], y.3053: f32[]) -> f32[] {
  %x.3052 = f32[] parameter(0)
  %y.3053 = f32[] parameter(1)
  ROOT %add.3054 = f32[] add(f32[] %x.3052, f32[] %y.3053)
}

%fused_computation.92 (param_0.765: f32[], param_1.982: f32[30000,1,2], param_2.682: f32[30000,1,2], param_3.528: f32[30000,1,2], param_4.487: f32[168,168,3,4], param_5.330: s64[11,1], param_6.192: f32[1,100,100,12]) -> (f32[], f32[11,4], f32[11,4]) {
  %param_0.765 = f32[] parameter(0)
  %broadcast.78 = f32[11,4]{1,0} broadcast(f32[] %param_0.765), dimensions={}, metadata={op_type="Mul" op_name="tower0/rpn_losses/level3/huber_loss/Mul_1"}
  %param_6.192 = f32[1,100,100,12]{3,2,1,0} parameter(6)
  %bitcast.99.clone.1 = f32[30000,4]{1,0} bitcast(f32[1,100,100,12]{3,2,1,0} %param_6.192), metadata={op_type="Reshape" op_name="tower0/rpn_losses/level3/boolean_mask_3/Reshape"}
  %param_5.330 = s64[11,1]{1,0} parameter(5)
  %bitcast.152.clone.1 = s64[11]{0} bitcast(s64[11,1]{1,0} %param_5.330), metadata={op_type="Squeeze" op_name="tower0/rpn_losses/level3/boolean_mask_3/Squeeze"}
  %gather.11.clone.1 = f32[11,4]{1,0} gather(f32[30000,4]{1,0} %bitcast.99.clone.1, s64[11]{0} %bitcast.152.clone.1), offset_dims={1}, collapsed_slice_dims={0}, start_index_map={0}, index_vector_dim=1, slice_sizes={1,4}, metadata={op_type="GatherV2" op_name="tower0/rpn_losses/level3/boolean_mask_3/GatherV2"}
  %broadcast.83.clone.1 = f32[30000,1,2]{2,1,0} broadcast(f32[] %param_0.765), dimensions={}, metadata={op_type="Mul" op_name="tower0/rpn_losses/encode_bbox_target_1/mul_1"}
  %param_4.487 = f32[168,168,3,4]{3,2,1,0} parameter(4)
  %slice.42.clone.1 = f32[100,100,3,4]{3,2,1,0} slice(f32[168,168,3,4]{3,2,1,0} %param_4.487), slice={[0:100], [0:100], [0:3], [0:4]}, metadata={op_type="Slice" op_name="tower0/FPN_slice_lvl1/narrow_to/Slice_2"}
  %bitcast.174.clone.1 = f32[30000,2,2]{2,1,0} bitcast(f32[100,100,3,4]{3,2,1,0} %slice.42.clone.1), metadata={op_type="Reshape" op_name="tower0/rpn_losses/encode_bbox_target_1/Reshape_1"}
  %slice.13.clone.1 = f32[30000,1,2]{2,1,0} slice(f32[30000,2,2]{2,1,0} %bitcast.174.clone.1), slice={[0:30000], [0:1], [0:2]}, metadata={op_type="Split" op_name="tower0/rpn_losses/encode_bbox_target_1/split_1"}
  %slice.14.clone.1 = f32[30000,1,2]{2,1,0} slice(f32[30000,2,2]{2,1,0} %bitcast.174.clone.1), slice={[0:30000], [1:2], [0:2]}, metadata={op_type="Split" op_name="tower0/rpn_losses/encode_bbox_target_1/split_1"}
  %add.50.clone.1 = f32[30000,1,2]{2,1,0} add(f32[30000,1,2]{2,1,0} %slice.13.clone.1, f32[30000,1,2]{2,1,0} %slice.14.clone.1), metadata={op_type="Add" op_name="tower0/rpn_losses/encode_bbox_target_1/add_1"}
  %multiply.89.clone.1 = f32[30000,1,2]{2,1,0} multiply(f32[30000,1,2]{2,1,0} %broadcast.83.clone.1, f32[30000,1,2]{2,1,0} %add.50.clone.1), metadata={op_type="Mul" op_name="tower0/rpn_losses/encode_bbox_target_1/mul_1"}
  %param_3.528 = f32[30000,1,2]{2,1,0} parameter(3)
  %subtract.52.clone.1 = f32[30000,1,2]{2,1,0} subtract(f32[30000,1,2]{2,1,0} %multiply.89.clone.1, f32[30000,1,2]{2,1,0} %param_3.528), metadata={op_type="Sub" op_name="tower0/rpn_losses/encode_bbox_target_1/sub_2"}
  %param_2.682 = f32[30000,1,2]{2,1,0} parameter(2)
  %divide.27.clone.1 = f32[30000,1,2]{2,1,0} divide(f32[30000,1,2]{2,1,0} %subtract.52.clone.1, f32[30000,1,2]{2,1,0} %param_2.682), metadata={op_type="RealDiv" op_name="tower0/rpn_losses/encode_bbox_target_1/truediv"}
  %param_1.982 = f32[30000,1,2]{2,1,0} parameter(1)
…
  %get-tuple-element.513 = f32[] get-tuple-element((f32[], f32[], f32[], f32[], f32[], f32[], f32[], f32[], f32[], f32[], f32[], f32[], f32[], f32[], f32[], f32[], f32[], f32[], f32[], f32[]) %fusion.70), index=13
  %get-tuple-element.468 = f32[] get-tuple-element((f32[], f32[], f32[], f32[], f32[], f32[]) %fusion.151), index=5
  %get-tuple-element.529 = f32[] get-tuple-element((f32[], f32[], f32[], f32[], f32[], f32[], f32[]) %fusion.150), index=6
  %get-tuple-element.467 = f32[] get-tuple-element((f32[], f32[], f32[], f32[], f32[], f32[]) %fusion.151), index=4
  %get-tuple-element.528 = f32[] get-tuple-element((f32[], f32[], f32[], f32[], f32[], f32[], f32[]) %fusion.150), index=5
  %get-tuple-element.466 = f32[] get-tuple-element((f32[], f32[], f32[], f32[], f32[], f32[]) %fusion.151), index=3
  %get-tuple-element.527 = f32[] get-tuple-element((f32[], f32[], f32[], f32[], f32[], f32[], f32[]) %fusion.150), index=4
  %fusion.324 = pred[] fusion(s64[] %fusion.159), kind=kLoop, calls=%fused_computation.324, metadata={op_type="Equal" op_name="tower0/rpn_losses/level3/Equal_1"}
  %fusion.323 = pred[] fusion(s64[] %fusion.158), kind=kLoop, calls=%fused_computation.323, metadata={op_type="Equal" op_name="tower0/rpn_losses/level3/Equal_2"}
  %get-tuple-element.531 = f32[22,4]{1,0} get-tuple-element((f32[], f32[22,4]{1,0}) %fusion.121), index=1
  %bitcast.1 = s64[34]{0} bitcast(s64[34,1]{1,0} %arg73.74), metadata={op_type="Squeeze" op_name="tower0/rpn_losses/level5/boolean_mask_1/Squeeze"}
  %copy.62 = s64[34]{0} copy(s64[34]{0} %bitcast.1)
  %get-tuple-element.505 = f32[] get-tuple-element((f32[], f32[], f32[], f32[], f32[], f32[], f32[], f32[], f32[], f32[], f32[], f32[], f32[], f32[], f32[], f32[], f32[], f32[], f32[], f32[], f32[]) %fusion.85), index=20
  %fusion.317 = (f32[22,4]{1,0}, f32[22,4]{1,0}) fusion(f32[22,4]{1,0} %get-tuple-element.531), kind=kLoop, calls=%fused_computation.317, metadata={op_type="Minimum" op_name="tower0/rpn_losses/level4/huber_loss/Minimum"}
  %get-tuple-element.368 = f32[22,4]{1,0} get-tuple-element((f32[22,4]{1,0}, f32[22,4]{1,0}) %fusion.317), index=1
  %bitcast.3 = s64[2]{0} bitcast(s64[2,1]{1,0} %arg77.78), metadata={op_type="Squeeze" op_name="tower0/rpn_losses/level6/boolean_mask_1/Squeeze"}
  %copy.63 = s64[2]{0} copy(s64[2]{0} %bitcast.3)
  %get-tuple-element.520 = f32[] get-tuple-element((f32[], f32[], f32[], f32[], f32[], f32[], f32[]) %fusion.150), index=0
  %get-tuple-element.485 = f32[] get-tuple-element((f32[], f32[], f32[], f32[], f32[], f32[], f32[], f32[], f32[], f32[], f32[], f32[], f32[], f32[], f32[], f32[], f32[], f32[], f32[], f32[], f32[]) %fusion.134), index=19
  %get-tuple-element.477 = f32[] get-tuple-element((f32[], f32[], f32[], f32[], f32[], f32[], f32[], f32[], f32[], f32[], f32[], f32[], f32[], f32[], f32[], f32[], f32[], f32[], f32[], f32[], f32[]) %fusion.134), index=11
  %fusion.322 = f32[33,4]{1,0} fusion(f32[33,4]{1,0} %get-tuple-element.535), kind=kLoop, calls=%fused_computation.322, metadata={op_type="Minimum" op_name="tower0/rpn_losses/level5/huber_loss/Minimum"}
  %get-tuple-element.487 = f32[] get-tuple-element((f32[], f32[], f32[], f32[], f32[], f32[], f32[], f32[], f32[], f32[], f32[], f32[], f32[], f32[], f32[], f32[], f32[], f32[], f32[], f32[], f32[]) %fusion.85), index=2
  %get-tuple-element.405 = f32[2,4]{1,0} get-tuple-element((f32[2,4]{1,0}, f32[2,4]{1,0}) %fusion.321), index=0
  %get-tuple-element.377 = f32[48]{0} get-tuple-element((f32[48]{0}, f32[48]{0}, f32[48]{0}) %fusion.110), index=1
  %fusion.320 = pred[32]{0} fusion(f32[32]{0} %fusion.196), kind=kLoop, calls=%fused_computation.320, metadata={op_type="GreaterEqual" op_name="tower0/rpn_losses/level4/logistic_loss/GreaterEqual"}
  %get-tuple-element.402 = f32[32]{0} get-tuple-element((f32[], f32[32]{0}) %fusion.144), index=1
  %get-tuple-element.422 = f32[] get-tuple-element((f32[], f32[], f32[], f32[], f32[], f32[], f32[], f32[], f32[], f32[], f32[], f32[], f32[], f32[], f32[], f32[], f32[], f32[], f32[], f32[], f32[]) %fusion.134), index=4
  %get-tuple-element.437 = f32[] get-tuple-element((f32[], f32[], f32[], f32[], f32[], f32[], f32[], f32[], f32[], f32[], f32[], f32[], f32[], f32[], f32[], f32[], f32[], f32[], f32[], f32[], f32[]) %fusion.134), index=6
  %get-tuple-element.409 = f32[] get-tuple-element((f32[], f32[], f32[], f32[], f32[], f32[], f32[], f32[], f32[], f32[], f32[], f32[], f32[], f32[], f32[], f32[], f32[], f32[], f32[], f32[], f32[]) %fusion.134), index=0
  %get-tuple-element.410 = f32[] get-tuple-element((f32[], f32[], f32[], f32[], f32[], f32[], f32[], f32[], f32[], f32[], f32[], f32[], f32[], f32[], f32[], f32[], f32[], f32[], f32[], f32[], f32[]) %fusion.134), index=1
  %get-tuple-element.414 = f32[] get-tuple-element((f32[], f32[], f32[], f32[], f32[], f32[], f32[], f32[], f32[], f32[], f32[], f32[], f32[], f32[], f32[], f32[], f32[], f32[], f32[], f32[], f32[]) %fusion.134), index=3
  %get-tuple-element.434 = f32[] get-tuple-element((f32[], f32[], f32[], f32[], f32[], f32[], f32[], f32[], f32[], f32[], f32[], f32[], f32[], f32[], f32[], f32[], f32[], f32[], f32[], f32[], f32[]) %fusion.134), index=5
  %fusion.319 = pred[] fusion(s64[] %fusion.126), kind=kLoop, calls=%fused_computation.319, metadata={op_type="Equal" op_name="tower0/rpn_losses/level2/Equal_1"}
  %fusion.318 = pred[] fusion(s64[] %fusion.125), kind=kLoop, calls=%fused_computation.318, metadata={op_type="Equal" op_name="tower0/rpn_losses/level2/Equal_2"}
  %get-tuple-element.534 = f32[11,4]{1,0} get-tuple-element((f32[], f32[11,4]{1,0}, f32[11,4]{1,0}) %fusion.92), index=2
  %bitcast.13 = s64[32]{0} bitcast(s64[32,1]{1,0} %arg94.95), metadata={op_type="Squeeze" op_name="tower0/rpn_losses/level4/boolean_mask_1/Squeeze"}
  %copy.64 = s64[32]{0} copy(s64[32]{0} %bitcast.13)
  %get-tuple-element.502 = f32[] get-tuple-element((f32[], f32[], f32[], f32[], f32[], f32[], f32[], f32[], f32[], f32[], f32[], f32[], f32[], f32[], f32[], f32[], f32[], f32[], f32[], f32[], f32[]) %fusion.85), index=17
  %get-tuple-element.382 = f32[11,4]{1,0} get-tuple-element((f32[], f32[11,4]{1,0}, f32[11,4]{1,0}) %fusion.92), index=1
  %get-tuple-element.483 = f32[] get-tuple-element((f32[], f32[], f32[], f32[], f32[], f32[], f32[], f32[], f32[], f32[], f32[], f32[], f32[], f32[], f32[], f32[], f32[], f32[], f32[], f32[], f32[]) %fusion.134), index=17
  %get-tuple-element.431 = f32[] get-tuple-element((f32[], f32[], f32[], f32[], f32[], f32[], f32[], f32[], f32[], f32[], f32[], f32[], f32[], f32[], f32[], f32[], f32[], f32[], f32[], f32[]) %fusion.70), index=2
  %get-tuple-element.367 = f32[22,4]{1,0} get-tuple-element((f32[22,4]{1,0}, f32[22,4]{1,0}) %fusion.317), index=0
  %bitcast.5 = s64[33]{0} bitcast(s64[33,1]{1,0} %arg75.76), metadata={op_type="Squeeze" op_name="tower0/rpn_losses/level5/boolean_mask_3/Squeeze"}
  %copy.65 = s64[33]{0} copy(s64[33]{0} %bitcast.5)
  %get-tuple-element.501 = f32[] get-tuple-element((f32[], f32[], f32[], f32[], f32[], f32[], f32[], f32[], f32[], f32[], f32[], f32[], f32[], f32[], f32[], f32[], f32[], f32[], f32[], f32[], f32[]) %fusion.85), index=16
  %bitcast.9 = s64[2]{0} bitcast(s64[2,1]{1,0} %arg79.80), metadata={op_type="Squeeze" op_name="tower0/rpn_losses/level6/boolean_mask_3/Squeeze"}
  %copy.66 = s64[2]{0} copy(s64[2]{0} %bitcast.9)
  %get-tuple-element.356 = f32[140]{0} get-tuple-element((f32[140]{0}, f32[140]{0}, f32[140]{0}) %fusion.89), index=1
  %fusion.316 = pred[48]{0} fusion(f32[48]{0} %fusion.147), kind=kLoop, calls=%fused_computation.316, metadata={op_type="GreaterEqual" op_name="tower0/rpn_losses/level3/logistic_loss/GreaterEqual"}
  %get-tuple-element.380 = f32[48]{0} get-tuple-element((f32[], f32[48]{0}) %fusion.113), index=1
  %get-tuple-element.478 = f32[] get-tuple-element((f32[], f32[], f32[], f32[], f32[], f32[], f32[], f32[], f32[], f32[], f32[], f32[], f32[], f32[], f32[], f32[], f32[], f32[], f32[], f32[], f32[]) %fusion.134), index=12
  %get-tuple-element.480 = f32[] get-tuple-element((f32[], f32[], f32[], f32[], f32[], f32[], f32[], f32[], f32[], f32[], f32[], f32[], f32[], f32[], f32[], f32[], f32[], f32[], f32[], f32[], f32[]) %fusion.134), index=14
  %get-tuple-element.479 = f32[] get-tuple-element((f32[], f32[], f32[], f32[], f32[], f32[], f32[], f32[], f32[], f32[], f32[], f32[], f32[], f32[], f32[], f32[], f32[], f32[], f32[], f32[], f32[]) %fusion.134), index=13
  %get-tuple-element.481 = f32[] get-tuple-element((f32[], f32[], f32[], f32[], f32[], f32[], f32[], f32[], f32[], f32[], f32[], f32[], f32[], f32[], f32[], f32[], f32[], f32[], f32[], f32[], f32[]) %fusion.134), index=15
  %get-tuple-element.475 = f32[] get-tuple-element((f32[], f32[], f32[], f32[], f32[], f32[], f32[], f32[], f32[], f32[], f32[], f32[], f32[], f32[], f32[], f32[], f32[], f32[], f32[], f32[], f32[]) %fusion.134), index=9
  %get-tuple-element.476 = f32[] get-tuple-element((f32[], f32[], f32[], f32[], f32[], f32[], f32[], f32[], f32[], f32[], f32[], f32[], f32[], f32[], f32[], f32[], f32[], f32[], f32[], f32[], f32[]) %fusion.134), index=10
  %bitcast.23 = s64[48]{0} bitcast(s64[48,1]{1,0} %arg121.122), metadata={op_type="Squeeze" op_name="tower0/rpn_losses/level3/boolean_mask_1/Squeeze"}
  %copy.67 = s64[48]{0} copy(s64[48]{0} %bitcast.23)
  %get-tuple-element.500 = f32[] get-tuple-element((f32[], f32[], f32[], f32[], f32[], f32[], f32[], f32[], f32[], f32[], f32[], f32[], f32[], f32[], f32[], f32[], f32[], f32[], f32[], f32[], f32[]) %fusion.85), index=15
  %fusion.313 = (f32[4,4]{1,0}, f32[4,4]{1,0}) fusion(f32[4,4]{1,0} %fusion.93), kind=kLoop, calls=%fused_computation.313, metadata={op_type="Minimum" op_name="tower0/rpn_losses/level2/huber_loss/Minimum"}
  %get-tuple-element.404 = f32[4,4]{1,0} get-tuple-element((f32[4,4]{1,0}, f32[4,4]{1,0}) %fusion.313), index=1
  %fusion.315 = f32[11,4]{1,0} fusion(f32[11,4]{1,0} %get-tuple-element.534), kind=kLoop, calls=%fused_computation.315, metadata={op_type="Minimum" op_name="tower0/rpn_losses/level3/huber_loss/Minimum"}
  %bitcast.19 = s64[22]{0} bitcast(s64[22,1]{1,0} %arg96.97), metadata={op_type="Squeeze" op_name="tower0/rpn_losses/level4/boolean_mask_3/Squeeze"}
  %copy.68 = s64[22]{0} copy(s64[22]{0} %bitcast.19)
  %get-tuple-element.472 = f32[] get-tuple-element((f32[], f32[], f32[], f32[], f32[], f32[], f32[], f32[], f32[], f32[], f32[], f32[], f32[], f32[], f32[], f32[], f32[], f32[], f32[], f32[], f32[]) %fusion.85), index=0
  %fusion.314 = pred[140]{0} fusion(f32[140]{0} %fusion.116), kind=kLoop, calls=%fused_computation.314, metadata={op_type="GreaterEqual" op_name="tower0/rpn_losses/level2/logistic_loss/GreaterEqual"}
  %get-tuple-element.492 = f32[] get-tuple-element((f32[], f32[], f32[], f32[], f32[], f32[], f32[], f32[], f32[], f32[], f32[], f32[], f32[], f32[], f32[], f32[], f32[], f32[], f32[], f32[], f32[]) %fusion.85), index=7
  %get-tuple-element.358 = f32[140]{0} get-tuple-element((f32[], f32[140]{0}) %fusion.87), index=1
  %get-tuple-element.432 = f32[] get-tuple-element((f32[], f32[], f32[], f32[], f32[], f32[], f32[], f32[], f32[], f32[], f32[], f32[], f32[], f32[], f32[], f32[], f32[], f32[], f32[], f32[]) %fusion.70), index=3
  %get-tuple-element.435 = f32[] get-tuple-element((f32[], f32[], f32[], f32[], f32[], f32[], f32[], f32[], f32[], f32[], f32[], f32[], f32[], f32[], f32[], f32[], f32[], f32[], f32[], f32[]) %fusion.70), index=5
  %get-tuple-element.433 = f32[] get-tuple-element((f32[], f32[], f32[], f32[], f32[], f32[], f32[], f32[], f32[], f32[], f32[], f32[], f32[], f32[], f32[], f32[], f32[], f32[], f32[], f32[]) %fusion.70), index=4
  %get-tuple-element.438 = f32[] get-tuple-element((f32[], f32[], f32[], f32[], f32[], f32[], f32[], f32[], f32[], f32[], f32[], f32[], f32[], f32[], f32[], f32[], f32[], f32[], f32[], f32[]) %fusion.70), index=6
  %get-tuple-element.428 = f32[] get-tuple-element((f32[], f32[], f32[], f32[], f32[], f32[], f32[], f32[], f32[], f32[], f32[], f32[], f32[], f32[], f32[], f32[], f32[], f32[], f32[], f32[]) %fusion.70), index=0
  %get-tuple-element.429 = f32[] get-tuple-element((f32[], f32[], f32[], f32[], f32[], f32[], f32[], f32[], f32[], f32[], f32[], f32[], f32[], f32[], f32[], f32[], f32[], f32[], f32[], f32[]) %fusion.70), index=1
  %bitcast.31 = s64[140]{0} bitcast(s64[140,1]{1,0} %arg141.142), metadata={op_type="Squeeze" op_name="tower0/rpn_losses/level2/boolean_mask_1/Squeeze"}
  %copy.69 = s64[140]{0} copy(s64[140]{0} %bitcast.31)
  %get-tuple-element.499 = f32[] get-tuple-element((f32[], f32[], f32[], f32[], f32[], f32[], f32[], f32[], f32[], f32[], f32[], f32[], f32[], f32[], f32[], f32[], f32[], f32[], f32[], f32[], f32[]) %fusion.85), index=14
  %get-tuple-element.493 = f32[] get-tuple-element((f32[], f32[], f32[], f32[], f32[], f32[], f32[], f32[], f32[], f32[], f32[], f32[], f32[], f32[], f32[], f32[], f32[], f32[], f32[], f32[], f32[]) %fusion.85), index=8
  %get-tuple-element.403 = f32[4,4]{1,0} get-tuple-element((f32[4,4]{1,0}, f32[4,4]{1,0}) %fusion.313), index=0
  %bitcast.27 = s64[11]{0} bitcast(s64[11,1]{1,0} %arg123.124), metadata={op_type="Squeeze" op_name="tower0/rpn_losses/level3/boolean_mask_3/Squeeze"}
  %copy.70 = s64[11]{0} copy(s64[11]{0} %bitcast.27)
  %bitcast.35 = s64[4]{0} bitcast(s64[4,1]{1,0} %arg143.144), metadata={op_type="Squeeze" op_name="tower0/rpn_losses/level2/boolean_mask_3/Squeeze"}
  %copy.71 = s64[4]{0} copy(s64[4]{0} %bitcast.35)
  %get-tuple-element.498 = f32[] get-tuple-element((f32[], f32[], f32[], f32[], f32[], f32[], f32[], f32[], f32[], f32[], f32[], f32[], f32[], f32[], f32[], f32[], f32[], f32[], f32[], f32[], f32[]) %fusion.85), index=13
  %get-tuple-element.497 = f32[] get-tuple-element((f32[], f32[], f32[], f32[], f32[], f32[], f32[], f32[], f32[], f32[], f32[], f32[], f32[], f32[], f32[], f32[], f32[], f32[], f32[], f32[], f32[]) %fusion.85), index=12
  %get-tuple-element.494 = f32[] get-tuple-element((f32[], f32[], f32[], f32[], f32[], f32[], f32[], f32[], f32[], f32[], f32[], f32[], f32[], f32[], f32[], f32[], f32[], f32[], f32[], f32[], f32[]) %fusion.85), index=9
  %get-tuple-element.474 = f32[] get-tuple-element((f32[], f32[], f32[], f32[], f32[], f32[], f32[], f32[], f32[], f32[], f32[], f32[], f32[], f32[], f32[], f32[], f32[], f32[], f32[], f32[], f32[]) %fusion.134), index=8
  %get-tuple-element.496 = f32[] get-tuple-element((f32[], f32[], f32[], f32[], f32[], f32[], f32[], f32[], f32[], f32[], f32[], f32[], f32[], f32[], f32[], f32[], f32[], f32[], f32[], f32[], f32[]) %fusion.85), index=11
  %get-tuple-element.537 = f32[512,81]{1,0} get-tuple-element((f32[512]{0}, f32[512,81]{1,0}) %fusion.334), index=1
  %fusion.336 = (f32[81]{0}, f32[512,81]{1,0}) fusion(s64[512]{0} %arg173.174, f32[512,81]{1,0} %get-tuple-element.537, f32[512]{0} %get-tuple-element.536), kind=kInput, calls=%fused_computation.336, metadata={op_type="BiasAddGrad" op_name="tower0/gradients/tower0/fastrcnn/outputs/class/BiasAdd_grad/BiasAddGrad"}
  %get-tuple-element.542 = f32[81]{0} get-tuple-element((f32[81]{0}, f32[512,81]{1,0}) %fusion.336), index=0
  %get-tuple-element.543 = f32[512,81]{1,0} get-tuple-element((f32[81]{0}, f32[512,81]{1,0}) %fusion.336), index=1
  %dot = f32[1024,81]{1,0} dot(f32[512,1024]{1,0} %fusion.57, f32[512,81]{1,0} %get-tuple-element.543), lhs_contracting_dims={0}, rhs_contracting_dims={0}, metadata={op_type="MatMul" op_name="tower0/gradients/tower0/fastrcnn/outputs/class/MatMul_grad/MatMul_1"}
  %fusion.47 = f32[1024,81]{1,0} fusion(f32[1024,81]{1,0} %dot, f32[1024,81]{1,0} %arg61.62), kind=kLoop, calls=%fused_computation.47, metadata={op_type="AddN" op_name="tower0/gradients/AddN"}
  %get-tuple-element.495 = f32[] get-tuple-element((f32[], f32[], f32[], f32[], f32[], f32[], f32[], f32[], f32[], f32[], f32[], f32[], f32[], f32[], f32[], f32[], f32[], f32[], f32[], f32[], f32[]) %fusion.85), index=10
  %get-tuple-element.488 = f32[] get-tuple-element((f32[], f32[], f32[], f32[], f32[], f32[], f32[], f32[], f32[], f32[], f32[], f32[], f32[], f32[], f32[], f32[], f32[], f32[], f32[], f32[], f32[]) %fusion.85), index=3
  %get-tuple-element.539 = f32[42,4]{1,0} get-tuple-element((f32[], f32[42,4]{1,0}) %fusion.40), index=1
  %fusion.37 = f32[3402,4]{1,0} fusion(s64[42]{0} %get-tuple-element.352, f32[] %fusion.39, f32[42,4]{1,0} %get-tuple-element.539), kind=kInput, calls=%fused_computation.37, metadata={op_type="UnsortedSegmentSum" op_name="tower0/gradients/tower0/fastrcnn_losses/Gather/Reshape_2_grad/Reshape/tensor"}
  %fusion.36 = f32[512,81,4]{2,1,0} fusion(f32[3402,4]{1,0} %fusion.37, s64[42,1]{1,0} %arg172.173), kind=kInput, calls=%fused_computation.36, metadata={op_type="UnsortedSegmentSum" op_name="tower0/gradients/tower0/fastrcnn/outputs/output_box_grad/Reshape/tensor"}
  %fusion.310 = f32[324]{0} fusion(f32[512,81,4]{2,1,0} %fusion.36), kind=kInput, calls=%fused_computation.310, metadata={op_type="BiasAddGrad" op_name="tower0/gradients/tower0/fastrcnn/outputs/box/BiasAdd_grad/BiasAddGrad"}
  %bitcast.51 = f32[512,324]{1,0} bitcast(f32[512,81,4]{2,1,0} %fusion.36), metadata={op_type="Reshape" op_name="tower0/gradients/tower0/fastrcnn/outputs/output_box_grad/Reshape"}
  %dot.1 = f32[1024,324]{1,0} dot(f32[512,1024]{1,0} %fusion.57, f32[512,324]{1,0} %bitcast.51), lhs_contracting_dims={0}, rhs_contracting_dims={0}, metadata={op_type="MatMul" op_name="tower0/gradients/tower0/fastrcnn/outputs/box/MatMul_grad/MatMul_1"}
  %fusion.35 = f32[1024,324]{1,0} fusion(f32[1024,324]{1,0} %dot.1, f32[1024,324]{1,0} %arg62.63), kind=kLoop, calls=%fused_computation.35, metadata={op_type="AddN" op_name="tower0/gradients/AddN_22"}
  %dot.2 = f32[512,1024]{1,0} dot(f32[512,324]{1,0} %bitcast.51, f32[1024,324]{1,0} %arg62.63), lhs_contracting_dims={1}, rhs_contracting_dims={1}, metadata={op_type="MatMul" op_name="tower0/gradients/tower0/fastrcnn/outputs/box/MatMul_grad/MatMul"}
  %dot.3 = f32[512,1024]{1,0} dot(f32[512,81]{1,0} %get-tuple-element.543, f32[1024,81]{1,0} %arg61.62), lhs_contracting_dims={1}, rhs_contracting_dims={1}, metadata={op_type="MatMul" op_name="tower0/gradients/tower0/fastrcnn/outputs/class/MatMul_grad/MatMul"}
  %fusion.337 = (f32[1024]{0}, f32[512,1024]{1,0}) fusion(f32[512,1024]{1,0} %dot.2, f32[512,1024]{1,0} %dot.3, f32[512,1024]{1,0} %fusion.57), kind=kInput, calls=%fused_computation.337, metadata={op_type="BiasAddGrad" op_name="tower0/gradients/tower0/fastrcnn/fc7/BiasAdd_grad/BiasAddGrad"}
  %get-tuple-element.544 = f32[1024]{0} get-tuple-element((f32[1024]{0}, f32[512,1024]{1,0}) %fusion.337), index=0
  %get-tuple-element.545 = f32[512,1024]{1,0} get-tuple-element((f32[1024]{0}, f32[512,1024]{1,0}) %fusion.337), index=1
  %dot.4 = f32[1024,1024]{1,0} dot(f32[512,1024]{1,0} %fusion.58, f32[512,1024]{1,0} %get-tuple-element.545), lhs_contracting_dims={0}, rhs_contracting_dims={0}, metadata={op_type="MatMul" op_name="tower0/gradients/tower0/fastrcnn/fc7/MatMul_grad/MatMul_1"}
  %fusion.33 = f32[1024,1024]{1,0} fusion(f32[1024,1024]{1,0} %dot.4, f32[1024,1024]{1,0} %arg60.61), kind=kLoop, calls=%fused_computation.33, metadata={op_type="AddN" op_name="tower0/gradients/AddN_29"}
  %dot.5 = f32[512,1024]{1,0} dot(f32[512,1024]{1,0} %get-tuple-element.545, f32[1024,1024]{1,0} %arg60.61), lhs_contracting_dims={1}, rhs_contracting_dims={1}, metadata={op_type="MatMul" op_name="tower0/gradients/tower0/fastrcnn/fc7/MatMul_grad/MatMul"}
  %fusion.338 = (f32[1024]{0}, f32[512,1024]{1,0}) fusion(f32[512,1024]{1,0} %dot.5, f32[512,1024]{1,0} %fusion.58), kind=kInput, calls=%fused_computation.338, metadata={op_type="BiasAddGrad" op_name="tower0/gradients/tower0/fastrcnn/fc6/BiasAdd_grad/BiasAddGrad"}
  %get-tuple-element.546 = f32[1024]{0} get-tuple-element((f32[1024]{0}, f32[512,1024]{1,0}) %fusion.338), index=0
  %get-tuple-element.547 = f32[512,1024]{1,0} get-tuple-element((f32[1024]{0}, f32[512,1024]{1,0}) %fusion.338), index=1
  %dot.6 = f32[12544,1024]{1,0} dot(f32[512,12544]{1,0} %fusion.59, f32[512,1024]{1,0} %get-tuple-element.547), lhs_contracting_dims={0}, rhs_contracting_dims={0}, metadata={op_type="MatMul" op_name="tower0/gradients/tower0/fastrcnn/fc6/MatMul_grad/MatMul_1"}
  %fusion.31 = f32[12544,1024]{1,0} fusion(f32[12544,1024]{1,0} %dot.6, f32[12544,1024]{1,0} %arg59.60), kind=kLoop, calls=%fused_computation.31, metadata={op_type="AddN" op_name="tower0/gradients/AddN_32"}
  %fusion.29 = u8[42,56,28,1]{3,2,1,0} fusion(f32[42,28,28]{2,1,0} %get-tuple-element.349, f32[42,28,28,1]{3,2,1,0} %arg177.178), kind=kLoop, calls=%fused_computation.29, metadata={op_type="Cast" op_name="tower0/maskrcnn_loss/mask_viz/viz"}
  %get-tuple-element.509 = f32[] get-tuple-element((f32[], f32[], f32[], f32[], f32[], f32[], f32[], f32[], f32[], f32[], f32[], f32[], f32[], f32[], f32[], f32[], f32[], f32[], f32[], f32[]) %fusion.70), index=9
  %arg190.191 = s64[440,1]{1,0} parameter(190), parameter_replication={false}, metadata={op_name="XLA_Args"}
  %fusion.309 = s64[440]{0} fusion(s64[512]{0} %arg183.184, s64[440,1]{1,0} %arg190.191), kind=kLoop, calls=%fused_computation.309, metadata={op_type="GatherV2" op_name="tower0/gradients/tower0/multilevel_roi_align/concat_grad/GatherV2_1"}
  %dot.7 = f32[512,12544]{1,0} dot(f32[512,1024]{1,0} %get-tuple-element.547, f32[12544,1024]{1,0} %arg59.60), lhs_contracting_dims={1}, rhs_contracting_dims={1}, metadata={op_type="MatMul" op_name="tower0/gradients/tower0/fastrcnn/fc6/MatMul_grad/MatMul"}
  %fusion.308 = f32[440,256,7,7]{1,3,2,0} fusion(f32[512,12544]{1,0} %dot.7, s64[440,1]{1,0} %arg190.191), kind=kLoop, calls=%fused_computation.308, metadata={op_type="GatherV2" op_name="tower0/gradients/tower0/multilevel_roi_align/concat_grad/GatherV2_2"}
  %fusion.25 = f32[440,256,7,7]{1,3,2,0} fusion(s64[440]{0} %fusion.309, f32[440,256,7,7]{1,3,2,0} %fusion.308), kind=kInput, calls=%fused_computation.25, metadata={op_type="UnsortedSegmentSum" op_name="tower0/gradients/tower0/multilevel_roi_align/roi_level2/roi_align/AvgPool_grad/AvgPoolGrad/grad"}
  %fusion.24 = f32[7,7]{1,0} fusion(), kind=kLoop, calls=%fused_computation.24, metadata={op_type="AvgPoolGrad" op_name="tower0/gradients/tower0/multilevel_roi_align/roi_level2/roi_align/AvgPool_grad/AvgPoolGrad"}
  %fusion.23 = f32[440,14,14,256]{3,2,1,0} fusion(f32[440,256,7,7]{1,3,2,0} %fusion.25, f32[7,7]{1,0} %fusion.24), kind=kLoop, calls=%fused_computation.23, metadata={op_type="Transpose" op_name="tower0/gradients/tower0/multilevel_roi_align/roi_level2/roi_align/crop_and_resize/transpose_1_grad/transpose"}
  %arg192.193 = s64[51,1]{1,0} parameter(192), parameter_replication={false}, metadata={op_name="XLA_Args"}
  %fusion.307 = f32[51,256,7,7]{1,3,2,0} fusion(s64[51,1]{1,0} %arg192.193, f32[512,12544]{1,0} %dot.7), kind=kLoop, calls=%fused_computation.307, metadata={op_type="GatherV2" op_name="tower0/gradients/tower0/multilevel_roi_align/concat_grad/GatherV2_5"}
  %fusion.306 = s64[51]{0} fusion(s64[512]{0} %arg183.184, s64[51,1]{1,0} %arg192.193), kind=kLoop, calls=%fused_computation.306, metadata={op_type="GatherV2" op_name="tower0/gradients/tower0/multilevel_roi_align/concat_grad/GatherV2_4"}
  %arg195.196 = s64[] parameter(195), parameter_replication={false}, metadata={op_name="XLA_Args"}
  %fusion.22 = f32[51,256,7,7]{1,3,2,0} fusion(f32[51,256,7,7]{1,3,2,0} %fusion.307, s64[51]{0} %fusion.306, s64[] %arg195.196), kind=kInput, calls=%fused_computation.22, metadata={op_type="UnsortedSegmentSum" op_name="tower0/gradients/tower0/multilevel_roi_align/roi_level3/roi_align/AvgPool_grad/AvgPoolGrad/grad"}
  %fusion.21 = f32[51,14,14,256]{3,2,1,0} fusion(f32[51,256,7,7]{1,3,2,0} %fusion.22, f32[7,7]{1,0} %fusion.24), kind=kLoop, calls=%fused_computation.21, metadata={op_type="Transpose" op_name="tower0/gradients/tower0/multilevel_roi_align/roi_level3/roi_align/crop_and_resize/transpose_1_grad/transpose"}
  %arg193.194 = s64[20,1]{1,0} parameter(193), parameter_replication={false}, metadata={op_name="XLA_Args"}
  %fusion.305 = f32[20,256,7,7]{1,3,2,0} fusion(s64[20,1]{1,0} %arg193.194, f32[512,12544]{1,0} %dot.7), kind=kLoop, calls=%fused_computation.305, metadata={op_type="GatherV2" op_name="tower0/gradients/tower0/multilevel_roi_align/concat_grad/GatherV2_8"}
  %fusion.304 = s64[20]{0} fusion(s64[512]{0} %arg183.184, s64[20,1]{1,0} %arg193.194), kind=kLoop, calls=%fused_computation.304, metadata={op_type="GatherV2" op_name="tower0/gradients/tower0/multilevel_roi_align/concat_grad/GatherV2_7"}
  %arg200.201 = s64[] parameter(200), parameter_replication={false}, metadata={op_name="XLA_Args"}
  %fusion.20 = f32[20,256,7,7]{1,3,2,0} fusion(f32[20,256,7,7]{1,3,2,0} %fusion.305, s64[20]{0} %fusion.304, s64[] %arg200.201), kind=kInput, calls=%fused_computation.20, metadata={op_type="UnsortedSegmentSum" op_name="tower0/gradients/tower0/multilevel_roi_align/roi_level4/roi_align/AvgPool_grad/AvgPoolGrad/grad"}
  %fusion.19 = f32[20,14,14,256]{3,2,1,0} fusion(f32[20,256,7,7]{1,3,2,0} %fusion.20, f32[7,7]{1,0} %fusion.24), kind=kLoop, calls=%fused_computation.19, metadata={op_type="Transpose" op_name="tower0/gradients/tower0/multilevel_roi_align/roi_level4/roi_align/crop_and_resize/transpose_1_grad/transpose"}
  %arg196.197 = s64[1,1]{1,0} parameter(196), parameter_replication={false}, metadata={op_name="XLA_Args"}
  %fusion.303 = f32[1,256,7,7]{1,3,2,0} fusion(s64[1,1]{1,0} %arg196.197, f32[512,12544]{1,0} %dot.7), kind=kLoop, calls=%fused_computation.303, metadata={op_type="GatherV2" op_name="tower0/gradients/tower0/multilevel_roi_align/concat_grad/GatherV2_11"}
  %fusion.302 = s64[1]{0} fusion(s64[512]{0} %arg183.184, s64[1,1]{1,0} %arg196.197), kind=kLoop, calls=%fused_computation.302, metadata={op_type="GatherV2" op_name="tower0/gradients/tower0/multilevel_roi_align/concat_grad/GatherV2_10"}
  %arg202.203 = s64[] parameter(202), parameter_replication={false}, metadata={op_name="XLA_Args"}
  %fusion.18 = f32[1,256,7,7]{1,3,2,0} fusion(f32[1,256,7,7]{1,3,2,0} %fusion.303, s64[1]{0} %fusion.302, s64[] %arg202.203), kind=kInput, calls=%fused_computation.18, metadata={op_type="UnsortedSegmentSum" op_name="tower0/gradients/tower0/multilevel_roi_align/roi_level5/roi_align/AvgPool_grad/AvgPoolGrad/grad"}
  %fusion.17 = f32[1,14,14,256]{3,2,1,0} fusion(f32[1,256,7,7]{1,3,2,0} %fusion.18, f32[7,7]{1,0} %fusion.24), kind=kLoop, calls=%fused_computation.17, metadata={op_type="Transpose" op_name="tower0/gradients/tower0/multilevel_roi_align/roi_level5/roi_align/crop_and_resize/transpose_1_grad/transpose"}
  %get-tuple-element.490 = f32[] get-tuple-element((f32[], f32[], f32[], f32[], f32[], f32[], f32[], f32[], f32[], f32[], f32[], f32[], f32[], f32[], f32[], f32[], f32[], f32[], f32[], f32[], f32[]) %fusion.85), index=5
  %get-tuple-element.473 = f32[] get-tuple-element((f32[], f32[], f32[], f32[], f32[], f32[], f32[], f32[], f32[], f32[], f32[], f32[], f32[], f32[], f32[], f32[], f32[], f32[], f32[], f32[], f32[]) %fusion.85), index=1
  %get-tuple-element.489 = f32[] get-tuple-element((f32[], f32[], f32[], f32[], f32[], f32[], f32[], f32[], f32[], f32[], f32[], f32[], f32[], f32[], f32[], f32[], f32[], f32[], f32[], f32[], f32[]) %fusion.85), index=4
  %fusion.288 = f32[3360,28,28]{2,1,0} fusion(s64[42]{0} %get-tuple-element.351, f32[42,28,28]{2,1,0} %get-tuple-element.348, f32[42,28,28]{2,1,0} %fusion.290, f32[42,28,28,1]{3,2,1,0} %arg177.178), kind=kInput, calls=%fused_computation.288, metadata={op_type="UnsortedSegmentSum" op_name="tower0/gradients/tower0/maskrcnn_loss/Gather/Reshape_2_grad/Reshape/tensor"}
  %fusion.301 = f32[80]{0} fusion(f32[3360,28,28]{2,1,0} %fusion.288), kind=kInput, calls=%fused_computation.301, metadata={op_type="BiasAddGrad" op_name="tower0/gradients/tower0/maskrcnn/conv/BiasAdd_grad/BiasAddGrad"}
  %bitcast.65 = f32[42,80,28,28]{3,2,1,0} bitcast(f32[3360,28,28]{2,1,0} %fusion.288), metadata={op_type="Reshape" op_name="tower0/gradients/tower0/maskrcnn_loss/Gather/Reshape_2_grad/Reshape"}
  %custom-call.24 = (f32[1,1,256,80]{1,0,2,3}, u8[0]{0}) custom-call(f32[42,256,28,28]{3,2,1,0} %fusion.292, f32[42,80,28,28]{3,2,1,0} %bitcast.65), window={size=1x1}, dim_labels=bf01_01io->bf01, custom_call_target="__cudnn$convBackwardFilter", metadata={op_type="Conv2DBackpropFilter" op_name="tower0/gradients/tower0/maskrcnn/conv/Conv2D_grad/Conv2DBackpropFilter"}, backend_config="{\"convResultScale\":1}"
  %get-tuple-element.328 = f32[1,1,256,80]{1,0,2,3} get-tuple-element((f32[1,1,256,80]{1,0,2,3}, u8[0]{0}) %custom-call.24), index=0
  %fusion.11 = f32[1,1,256,80]{3,2,1,0} fusion(f32[1,1,256,80]{1,0,2,3} %get-tuple-element.328, f32[1,1,256,80]{3,2,1,0} %arg58.59), kind=kLoop, calls=%fused_computation.11, metadata={op_name="XLA_Retvals"}
  %bitcast.66 = f32[1,1,256,80]{1,0,3,2} bitcast(f32[1,1,256,80]{3,2,1,0} %arg58.59), metadata={op_name="XLA_Args"}
  %custom-call.25 = (f32[42,256,28,28]{3,2,1,0}, u8[4712]{0}) custom-call(f32[42,80,28,28]{3,2,1,0} %bitcast.65, f32[1,1,256,80]{1,0,3,2} %bitcast.66), window={size=1x1}, dim_labels=bf01_01oi->bf01, custom_call_target="__cudnn$convForward", metadata={op_type="Conv2DBackpropInput" op_name="tower0/gradients/tower0/maskrcnn/conv/Conv2D_grad/Conv2DBackpropInput"}, backend_config="{\"algorithm\":\"1\",\"convResultScale\":1}"
  %get-tuple-element.329 = f32[42,256,28,28]{3,2,1,0} get-tuple-element((f32[42,256,28,28]{3,2,1,0}, u8[4712]{0}) %custom-call.25), index=0
  %fusion.339 = (f32[256]{0}, f32[42,256,28,28]{3,2,1,0}) fusion(f32[42,256,28,28]{3,2,1,0} %get-tuple-element.329, f32[42,256,28,28]{3,2,1,0} %fusion.292), kind=kInput, calls=%fused_computation.339, metadata={op_type="BiasAddGrad" op_name="tower0/gradients/tower0/maskrcnn/deconv/BiasAdd_grad/BiasAddGrad"}
  %get-tuple-element.548 = f32[256]{0} get-tuple-element((f32[256]{0}, f32[42,256,28,28]{3,2,1,0}) %fusion.339), index=0
  %get-tuple-element.549 = f32[42,256,28,28]{3,2,1,0} get-tuple-element((f32[256]{0}, f32[42,256,28,28]{3,2,1,0}) %fusion.339), index=1
  %custom-call.35 = (f32[2,2,256,256]{1,0,2,3}, u8[2724]{0}) custom-call(f32[42,256,28,28]{3,2,1,0} %get-tuple-element.549, f32[42,256,14,14]{3,2,1,0} %get-tuple-element.343), window={size=2x2 stride=2x2}, dim_labels=bf01_01io->bf01, custom_call_target="__cudnn$convBackwardFilter", metadata={op_type="Conv2DBackpropFilter" op_name="tower0/gradients/tower0/maskrcnn/deconv/conv2d_transpose_grad/Conv2DBackpropFilter"}, backend_config="{\"algorithm\":\"1\",\"convResultScale\":1}"
  %get-tuple-element.339 = f32[2,2,256,256]{1,0,2,3} get-tuple-element((f32[2,2,256,256]{1,0,2,3}, u8[2724]{0}) %custom-call.35), index=0
  %fusion.10 = f32[2,2,256,256]{3,2,1,0} fusion(f32[2,2,256,256]{1,0,2,3} %get-tuple-element.339, f32[2,2,256,256]{3,2,1,0} %arg57.58), kind=kLoop, calls=%fused_computation.10, metadata={op_name="XLA_Retvals"}
  %custom-call.26 = (f32[42,256,14,14]{3,2,1,0}, u8[1184]{0}) custom-call(f32[42,256,28,28]{3,2,1,0} %get-tuple-element.549, f32[2,2,256,256]{1,0,2,3} %copy.30), window={size=2x2 stride=2x2}, dim_labels=bf01_01io->bf01, custom_call_target="__cudnn$convForward", metadata={op_type="Conv2D" op_name="tower0/gradients/tower0/maskrcnn/deconv/conv2d_transpose_grad/Conv2D"}, backend_config="{\"algorithm\":\"1\",\"convResultScale\":1}"
  %get-tuple-element.330 = f32[42,256,14,14]{3,2,1,0} get-tuple-element((f32[42,256,14,14]{3,2,1,0}, u8[1184]{0}) %custom-call.26), index=0
  %fusion.340 = (f32[256]{0}, f32[42,256,14,14]{3,2,1,0}) fusion(f32[42,256,14,14]{3,2,1,0} %get-tuple-element.330, f32[42,256,14,14]{3,2,1,0} %get-tuple-element.343), kind=kInput, calls=%fused_computation.340, metadata={op_type="BiasAddGrad" op_name="tower0/gradients/tower0/maskrcnn/fcn3/BiasAdd_grad/BiasAddGrad"}
  %get-tuple-element.550 = f32[256]{0} get-tuple-element((f32[256]{0}, f32[42,256,14,14]{3,2,1,0}) %fusion.340), index=0
  %get-tuple-element.551 = f32[42,256,14,14]{3,2,1,0} get-tuple-element((f32[256]{0}, f32[42,256,14,14]{3,2,1,0}) %fusion.340), index=1
  %custom-call.27 = (f32[3,3,256,256]{1,0,2,3}, u8[58982400]{0}) custom-call(f32[42,256,14,14]{3,2,1,0} %get-tuple-element.342, f32[42,256,14,14]{3,2,1,0} %get-tuple-element.551), window={size=3x3 pad=1_1x1_1}, dim_labels=bf01_01io->bf01, custom_call_target="__cudnn$convBackwardFilter", metadata={op_type="Conv2DBackpropFilter" op_name="tower0/gradients/tower0/maskrcnn/fcn3/Conv2D_grad/Conv2DBackpropFilter"}, backend_config="{\"algorithm\":\"5\",\"convResultScale\":1}"
  %get-tuple-element.331 = f32[3,3,256,256]{1,0,2,3} get-tuple-element((f32[3,3,256,256]{1,0,2,3}, u8[58982400]{0}) %custom-call.27), index=0
  %fusion.9 = f32[3,3,256,256]{3,2,1,0} fusion(f32[3,3,256,256]{1,0,2,3} %get-tuple-element.331, f32[3,3,256,256]{3,2,1,0} %arg56.57), kind=kLoop, calls=%fused_computation.9, metadata={op_name="XLA_Retvals"}
  %custom-call.28 = (f32[42,256,14,14]{3,2,1,0}, u8[66060288]{0}) custom-call(f32[42,256,14,14]{3,2,1,0} %get-tuple-element.551, f32[3,3,256,256]{1,0,2,3} %copy.29), window={size=3x3 pad=1_1x1_1}, dim_labels=bf01_01io->bf01, custom_call_target="__cudnn$convBackwardInput", metadata={op_type="Conv2DBackpropInput" op_name="tower0/gradients/tower0/maskrcnn/fcn3/Conv2D_grad/Conv2DBackpropInput"}, backend_config="{\"algorithm\":\"5\",\"tensorOpsEnabled\":true,\"convResultScale\":1}"
  %get-tuple-element.332 = f32[42,256,14,14]{3,2,1,0} get-tuple-element((f32[42,256,14,14]{3,2,1,0}, u8[66060288]{0}) %custom-call.28), index=0
  %fusion.341 = (f32[256]{0}, f32[42,256,14,14]{3,2,1,0}) fusion(f32[42,256,14,14]{3,2,1,0} %get-tuple-element.332, f32[42,256,14,14]{3,2,1,0} %get-tuple-element.342), kind=kInput, calls=%fused_computation.341, metadata={op_type="BiasAddGrad" op_name="tower0/gradients/tower0/maskrcnn/fcn2/BiasAdd_grad/BiasAddGrad"}
  %get-tuple-element.552 = f32[256]{0} get-tuple-element((f32[256]{0}, f32[42,256,14,14]{3,2,1,0}) %fusion.341), index=0
  %get-tuple-element.553 = f32[42,256,14,14]{3,2,1,0} get-tuple-element((f32[256]{0}, f32[42,256,14,14]{3,2,1,0}) %fusion.341), index=1
  %custom-call.29 = (f32[3,3,256,256]{1,0,2,3}, u8[58982400]{0}) custom-call(f32[42,256,14,14]{3,2,1,0} %get-tuple-element.341, f32[42,256,14,14]{3,2,1,0} %get-tuple-element.553), window={size=3x3 pad=1_1x1_1}, dim_labels=bf01_01io->bf01, custom_call_target="__cudnn$convBackwardFilter", metadata={op_type="Conv2DBackpropFilter" op_name="tower0/gradients/tower0/maskrcnn/fcn2/Conv2D_grad/Conv2DBackpropFilter"}, backend_config="{\"algorithm\":\"5\",\"convResultScale\":1}"
  %get-tuple-element.333 = f32[3,3,256,256]{1,0,2,3} get-tuple-element((f32[3,3,256,256]{1,0,2,3}, u8[58982400]{0}) %custom-call.29), index=0
  %fusion.8 = f32[3,3,256,256]{3,2,1,0} fusion(f32[3,3,256,256]{1,0,2,3} %get-tuple-element.333, f32[3,3,256,256]{3,2,1,0} %arg55.56), kind=kLoop, calls=%fused_computation.8, metadata={op_name="XLA_Retvals"}
  %custom-call.30 = (f32[42,256,14,14]{3,2,1,0}, u8[66060288]{0}) custom-call(f32[42,256,14,14]{3,2,1,0} %get-tuple-element.553, f32[3,3,256,256]{1,0,2,3} %copy.28), window={size=3x3 pad=1_1x1_1}, dim_labels=bf01_01io->bf01, custom_call_target="__cudnn$convBackwardInput", metadata={op_type="Conv2DBackpropInput" op_name="tower0/gradients/tower0/maskrcnn/fcn2/Conv2D_grad/Conv2DBackpropInput"}, backend_config="{\"algorithm\":\"5\",\"tensorOpsEnabled\":true,\"convResultScale\":1}"
  %get-tuple-element.334 = f32[42,256,14,14]{3,2,1,0} get-tuple-element((f32[42,256,14,14]{3,2,1,0}, u8[66060288]{0}) %custom-call.30), index=0
  %fusion.342 = (f32[256]{0}, f32[42,256,14,14]{3,2,1,0}) fusion(f32[42,256,14,14]{3,2,1,0} %get-tuple-element.334, f32[42,256,14,14]{3,2,1,0} %get-tuple-element.341), kind=kInput, calls=%fused_computation.342, metadata={op_type="BiasAddGrad" op_name="tower0/gradients/tower0/maskrcnn/fcn1/BiasAdd_grad/BiasAddGrad"}
  %get-tuple-element.554 = f32[256]{0} get-tuple-element((f32[256]{0}, f32[42,256,14,14]{3,2,1,0}) %fusion.342), index=0
  %get-tuple-element.555 = f32[42,256,14,14]{3,2,1,0} get-tuple-element((f32[256]{0}, f32[42,256,14,14]{3,2,1,0}) %fusion.342), index=1
  %custom-call.31 = (f32[3,3,256,256]{1,0,2,3}, u8[58982400]{0}) custom-call(f32[42,256,14,14]{3,2,1,0} %get-tuple-element.340, f32[42,256,14,14]{3,2,1,0} %get-tuple-element.555), window={size=3x3 pad=1_1x1_1}, dim_labels=bf01_01io->bf01, custom_call_target="__cudnn$convBackwardFilter", metadata={op_type="Conv2DBackpropFilter" op_name="tower0/gradients/tower0/maskrcnn/fcn1/Conv2D_grad/Conv2DBackpropFilter"}, backend_config="{\"algorithm\":\"5\",\"convResultScale\":1}"
  %get-tuple-element.335 = f32[3,3,256,256]{1,0,2,3} get-tuple-element((f32[3,3,256,256]{1,0,2,3}, u8[58982400]{0}) %custom-call.31), index=0
  %fusion.7 = f32[3,3,256,256]{3,2,1,0} fusion(f32[3,3,256,256]{1,0,2,3} %get-tuple-element.335, f32[3,3,256,256]{3,2,1,0} %arg54.55), kind=kLoop, calls=%fused_computation.7, metadata={op_name="XLA_Retvals"}
  %custom-call.32 = (f32[42,256,14,14]{3,2,1,0}, u8[66060288]{0}) custom-call(f32[42,256,14,14]{3,2,1,0} %get-tuple-element.555, f32[3,3,256,256]{1,0,2,3} %copy.27), window={size=3x3 pad=1_1x1_1}, dim_labels=bf01_01io->bf01, custom_call_target="__cudnn$convBackwardInput", metadata={op_type="Conv2DBackpropInput" op_name="tower0/gradients/tower0/maskrcnn/fcn1/Conv2D_grad/Conv2DBackpropInput"}, backend_config="{\"algorithm\":\"5\",\"tensorOpsEnabled\":true,\"convResultScale\":1}"
  %get-tuple-element.336 = f32[42,256,14,14]{3,2,1,0} get-tuple-element((f32[42,256,14,14]{3,2,1,0}, u8[66060288]{0}) %custom-call.32), index=0
  %fusion.343 = (f32[256]{0}, f32[42,256,14,14]{3,2,1,0}) fusion(f32[42,256,14,14]{3,2,1,0} %get-tuple-element.336, f32[42,256,14,14]{3,2,1,0} %get-tuple-element.340), kind=kInput, calls=%fused_computation.343, metadata={op_type="BiasAddGrad" op_name="tower0/gradients/tower0/maskrcnn/fcn0/BiasAdd_grad/BiasAddGrad"}
  %get-tuple-element.556 = f32[256]{0} get-tuple-element((f32[256]{0}, f32[42,256,14,14]{3,2,1,0}) %fusion.343), index=0
  %get-tuple-element.557 = f32[42,256,14,14]{3,2,1,0} get-tuple-element((f32[256]{0}, f32[42,256,14,14]{3,2,1,0}) %fusion.343), index=1
  %custom-call.33 = (f32[3,3,256,256]{1,0,2,3}, u8[58982400]{0}) custom-call(f32[42,256,14,14]{3,2,1,0} %fusion.293, f32[42,256,14,14]{3,2,1,0} %get-tuple-element.557), window={size=3x3 pad=1_1x1_1}, dim_labels=bf01_01io->bf01, custom_call_target="__cudnn$convBackwardFilter", metadata={op_type="Conv2DBackpropFilter" op_name="tower0/gradients/tower0/maskrcnn/fcn0/Conv2D_grad/Conv2DBackpropFilter"}, backend_config="{\"algorithm\":\"5\",\"convResultScale\":1}"
  %get-tuple-element.337 = f32[3,3,256,256]{1,0,2,3} get-tuple-element((f32[3,3,256,256]{1,0,2,3}, u8[58982400]{0}) %custom-call.33), index=0
  %fusion.6 = f32[3,3,256,256]{3,2,1,0} fusion(f32[3,3,256,256]{1,0,2,3} %get-tuple-element.337, f32[3,3,256,256]{3,2,1,0} %arg53.54), kind=kLoop, calls=%fused_computation.6, metadata={op_name="XLA_Retvals"}
  %arg199.200 = s64[16,1]{1,0} parameter(199), parameter_replication={false}, metadata={op_name="XLA_Args"}
  %arg203.204 = s64[16,1]{1,0} parameter(203), parameter_replication={false}, metadata={op_name="XLA_Args"}
  %fusion.300 = (s64[16]{0}, s64[16]{0}) fusion(s64[42]{0} %arg188.189, s64[16,1]{1,0} %arg199.200, s64[16,1]{1,0} %arg203.204), kind=kLoop, calls=%fused_computation.300, metadata={op_type="GatherV2" op_name="tower0/gradients/tower0/multilevel_roi_align_mask/concat_grad/GatherV2_1"}
  %get-tuple-element.369 = s64[16]{0} get-tuple-element((s64[16]{0}, s64[16]{0}) %fusion.300), index=0
  %custom-call.34 = (f32[42,256,14,14]{3,2,1,0}, u8[66060288]{0}) custom-call(f32[42,256,14,14]{3,2,1,0} %get-tuple-element.557, f32[3,3,256,256]{1,0,2,3} %copy.26), window={size=3x3 pad=1_1x1_1}, dim_labels=bf01_01io->bf01, custom_call_target="__cudnn$convBackwardInput", metadata={op_type="Conv2DBackpropInput" op_name="tower0/gradients/tower0/maskrcnn/fcn0/Conv2D_grad/Conv2DBackpropInput"}, backend_config="{\"algorithm\":\"5\",\"tensorOpsEnabled\":true,\"convResultScale\":1}"
  %get-tuple-element.338 = f32[42,256,14,14]{3,2,1,0} get-tuple-element((f32[42,256,14,14]{3,2,1,0}, u8[66060288]{0}) %custom-call.34), index=0
  %fusion.299 = (f32[16,256,14,14]{1,3,2,0}, f32[16,256,14,14]{1,3,2,0}) fusion(f32[42,256,14,14]{3,2,1,0} %get-tuple-element.338, s64[16,1]{1,0} %arg199.200, s64[16,1]{1,0} %arg203.204), kind=kLoop, calls=%fused_computation.299, metadata={op_type="GatherV2" op_name="tower0/gradients/tower0/multilevel_roi_align_mask/concat_grad/GatherV2_2"}
  %get-tuple-element.344 = f32[16,256,14,14]{1,3,2,0} get-tuple-element((f32[16,256,14,14]{1,3,2,0}, f32[16,256,14,14]{1,3,2,0}) %fusion.299), index=0
  %fusion.298 = f32[16,256,14,14]{1,3,2,0} fusion(s64[16]{0} %get-tuple-element.369, f32[16,256,14,14]{1,3,2,0} %get-tuple-element.344), kind=kInput, calls=%fused_computation.298, metadata={op_type="UnsortedSegmentSum" op_name="tower0/gradients/tower0/multilevel_roi_align_mask/roi_level2/roi_align/AvgPool_grad/AvgPoolGrad/grad"}
  %fusion.5 = f32[14,14]{1,0} fusion(), kind=kLoop, calls=%fused_computation.5, metadata={op_type="AvgPoolGrad" op_name="tower0/gradients/tower0/multilevel_roi_align_mask/roi_level2/roi_align/AvgPool_grad/AvgPoolGrad"}
  %get-tuple-element.345 = f32[16,256,14,14]{1,3,2,0} get-tuple-element((f32[16,256,14,14]{1,3,2,0}, f32[16,256,14,14]{1,3,2,0}) %fusion.299), index=1
  %get-tuple-element.370 = s64[16]{0} get-tuple-element((s64[16]{0}, s64[16]{0}) %fusion.300), index=1
  %arg207.208 = s64[] parameter(207), parameter_replication={false}, metadata={op_name="XLA_Args"}
  %fusion.1 = f32[16,256,14,14]{1,3,2,0} fusion(f32[16,256,14,14]{1,3,2,0} %get-tuple-element.345, s64[16]{0} %get-tuple-element.370, s64[] %arg207.208), kind=kInput, calls=%fused_computation.1, metadata={op_type="UnsortedSegmentSum" op_name="tower0/gradients/tower0/multilevel_roi_align_mask/roi_level4/roi_align/AvgPool_grad/AvgPoolGrad/grad"}
  %fusion.4 = (f32[16,28,28,256]{3,2,1,0}, f32[16,28,28,256]{3,2,1,0}) fusion(f32[16,256,14,14]{1,3,2,0} %fusion.298, f32[14,14]{1,0} %fusion.5, f32[16,256,14,14]{1,3,2,0} %fusion.1), kind=kLoop, calls=%fused_computation.4, metadata={op_type="Transpose" op_name="tower0/gradients/tower0/multilevel_roi_align_mask/roi_level2/roi_align/crop_and_resize/transpose_1_grad/transpose"}
  %get-tuple-element.353 = f32[16,28,28,256]{3,2,1,0} get-tuple-element((f32[16,28,28,256]{3,2,1,0}, f32[16,28,28,256]{3,2,1,0}) %fusion.4), index=0
  %arg201.202 = s64[10,1]{1,0} parameter(201), parameter_replication={false}, metadata={op_name="XLA_Args"}
  %fusion.297 = f32[10,256,14,14]{1,3,2,0} fusion(f32[42,256,14,14]{3,2,1,0} %get-tuple-element.338, s64[10,1]{1,0} %arg201.202), kind=kLoop, calls=%fused_computation.297, metadata={op_type="GatherV2" op_name="tower0/gradients/tower0/multilevel_roi_align_mask/concat_grad/GatherV2_5"}
  %fusion.296 = s64[10]{0} fusion(s64[42]{0} %arg188.189, s64[10,1]{1,0} %arg201.202), kind=kLoop, calls=%fused_computation.296, metadata={op_type="GatherV2" op_name="tower0/gradients/tower0/multilevel_roi_align_mask/concat_grad/GatherV2_4"}
  %arg206.207 = s64[] parameter(206), parameter_replication={false}, metadata={op_name="XLA_Args"}
  %fusion.3 = f32[10,256,14,14]{1,3,2,0} fusion(f32[10,256,14,14]{1,3,2,0} %fusion.297, s64[10]{0} %fusion.296, s64[] %arg206.207), kind=kInput, calls=%fused_computation.3, metadata={op_type="UnsortedSegmentSum" op_name="tower0/gradients/tower0/multilevel_roi_align_mask/roi_level3/roi_align/AvgPool_grad/AvgPoolGrad/grad"}
  %fusion.2 = f32[10,28,28,256]{3,2,1,0} fusion(f32[10,256,14,14]{1,3,2,0} %fusion.3, f32[14,14]{1,0} %fusion.5), kind=kLoop, calls=%fused_computation.2, metadata={op_type="Transpose" op_name="tower0/gradients/tower0/multilevel_roi_align_mask/roi_level3/roi_align/crop_and_resize/transpose_1_grad/transpose"}
  %get-tuple-element.354 = f32[16,28,28,256]{3,2,1,0} get-tuple-element((f32[16,28,28,256]{3,2,1,0}, f32[16,28,28,256]{3,2,1,0}) %fusion.4), index=1
  ROOT %tuple.147 = (f32[], pred[], pred[], pred[], pred[], f32[], f32[], f32[], f32[], f32[34]{0}, f32[2]{0}, f32[34]{0}, f32[2]{0}, pred[], pred[], f32[33,4]{1,0}, f32[2,4]{1,0}, f32[33,4]{1,0}, f32[], f32[], f32[2,4]{1,0}, f32[32]{0}, f32[34]{0}, f32[], f32[32]{0}, f32[2]{0}, f32[], pred[34]{0}, pred[2]{0}, f32[34]{0}, f32[2]{0}, f32[], f32[], f32[], f32[], f32[], f32[], f32[], f32[], f32[], f32[], f32[], f32[], pred[], pred[], f32[22,4]{1,0}, s64[34]{0}, f32[], f32[22,4]{1,0}, s64[2]{0}, f32[], f32[], f32[], f32[33,4]{1,0}, f32[48]{0}, f32[32]{0}, f32[], f32[2,4]{1,0}, f32[48]{0}, pred[32]{0}, f32[32]{0}, f32[], f32[], f32[], f32[], f32[], f32[], pred[], pred[], f32[11,4]{1,0}, s64[32]{0}, f32[], f32[11,4]{1,0}, f32[], f32[], f32[22,4]{1,0}, s64[33]{0}, f32[140]{0}, f32[48]{0}, f32[], s64[2]{0}, f32[140]{0}, pred[48]{0}, f32[48]{0}, f32[], f32[], f32[], f32[], f32[], f32[], f32[4,4]{1,0}, s64[48]{0}, f32[], f32[4,4]{1,0}, f32[11,4]{1,0}, s64[22]{0}, f32[140]{0}, f32[], pred[140]{0}, f32[], f32[140]{0}, f32[], f32[], f32[], f32[], f32[], f32[], s64[140]{0}, f32[], f32[], f32[4,4]{1,0}, s64[11]{0}, s64[4]{0}, f32[], f32[], f32[], f32[], f32[], f32[81]{0}, f32[1024,81]{1,0}, f32[], f32[], f32[324]{0}, f32[1024,324]{1,0}, f32[1024]{0}, f32[1024,1024]{1,0}, f32[1024]{0}, f32[12544,1024]{1,0}, u8[42,56,28,1]{3,2,1,0}, f32[], f32[440,14,14,256]{3,2,1,0}, f32[51,14,14,256]{3,2,1,0}, f32[20,14,14,256]{3,2,1,0}, f32[1,14,14,256]{3,2,1,0}, f32[], f32[], f32[], f32[80]{0}, f32[1,1,256,80]{3,2,1,0}, f32[256]{0}, f32[2,2,256,256]{3,2,1,0}, f32[256]{0}, f32[3,3,256,256]{3,2,1,0}, f32[256]{0}, f32[3,3,256,256]{3,2,1,0}, f32[256]{0}, f32[3,3,256,256]{3,2,1,0}, f32[256]{0}, f32[3,3,256,256]{3,2,1,0}, f32[16,28,28,256]{3,2,1,0}, f32[10,28,28,256]{3,2,1,0}, f32[16,28,28,256]{3,2,1,0}) tuple(f32[] %get-tuple-element.491, pred[] %fusion.332, pred[] %fusion.331, pred[] %fusion.330, pred[] %fusion.329, f32[] %get-tuple-element.507, f32[] %get-tuple-element.514, f32[] %get-tuple-element.510, f32[] %get-tuple-element.465, f32[34]{0} %fusion.208, f32[2]{0} %fusion.207, f32[34]{0} %get-tuple-element.386, f32[2]{0} %get-tuple-element.471, pred[] %fusion.328, pred[] %fusion.327, f32[33,4]{1,0} %get-tuple-element.535, f32[2,4]{1,0} %fusion.199, f32[33,4]{1,0} %get-tuple-element.366, f32[] %get-tuple-element.525, f32[] %get-tuple-element.413, f32[2,4]{1,0} %get-tuple-element.406, f32[32]{0} %fusion.196, f32[34]{0} %get-tuple-element.385, f32[] %get-tuple-element.503, f32[32]{0} %get-tuple-element.399, f32[2]{0} %get-tuple-element.447, f32[] %get-tuple-element.504, pred[34]{0} %fusion.326, pred[2]{0} %fusion.325, f32[34]{0} %get-tuple-element.384, f32[2]{0} %convert.2248, f32[] %get-tuple-element.515, f32[] %get-tuple-element.517, f32[] %get-tuple-element.516, f32[] %get-tuple-element.518, f32[] %get-tuple-element.512, f32[] %get-tuple-element.513, f32[] %get-tuple-element.468, f32[] %get-tuple-element.529, f32[] %get-tuple-element.467, f32[] %get-tuple-element.528, f32[] %get-tuple-element.466, f32[] %get-tuple-element.527, pred[] %fusion.324, pred[] %fusion.323, f32[22,4]{1,0} %get-tuple-element.531, s64[34]{0} %copy.62, f32[] %get-tuple-element.505, f32[22,4]{1,0} %get-tuple-element.368, s64[2]{0} %copy.63, f32[] %get-tuple-element.520, f32[] %get-tuple-element.485, f32[] %get-tuple-element.477, f32[33,4]{1,0} %fusion.322, f32[48]{0} %fusion.147, f32[32]{0} %get-tuple-element.400, f32[] %get-tuple-element.487, f32[2,4]{1,0} %get-tuple-element.405, f32[48]{0} %get-tuple-element.377, pred[32]{0} %fusion.320, f32[32]{0} %get-tuple-element.402, f32[] %get-tuple-element.422, f32[] %get-tuple-element.437, f32[] %get-tuple-element.409, f32[] %get-tuple-element.410, f32[] %get-tuple-element.414, f32[] %get-tuple-element.434, pred[] %fusion.319, pred[] %fusion.318, f32[11,4]{1,0} %get-tuple-element.534, s64[32]{0} %copy.64, f32[] %get-tuple-element.502, f32[11,4]{1,0} %get-tuple-element.382, f32[] %get-tuple-element.483, f32[] %get-tuple-element.431, f32[22,4]{1,0} %get-tuple-element.367, s64[33]{0} %copy.65, f32[140]{0} %fusion.116, f32[48]{0} %get-tuple-element.378, f32[] %get-tuple-element.501, s64[2]{0} %copy.66, f32[140]{0} %get-tuple-element.356, pred[48]{0} %fusion.316, f32[48]{0} %get-tuple-element.380, f32[] %get-tuple-element.478, f32[] %get-tuple-element.480, f32[] %get-tuple-element.479, f32[] %get-tuple-element.481, f32[] %get-tuple-element.475, f32[] %get-tuple-element.476, f32[4,4]{1,0} %fusion.93, s64[48]{0} %copy.67, f32[] %get-tuple-element.500, f32[4,4]{1,0} %get-tuple-element.404, f32[11,4]{1,0} %fusion.315, s64[22]{0} %copy.68, f32[140]{0} %get-tuple-element.355, f32[] %get-tuple-element.472, pred[140]{0} %fusion.314, f32[] %get-tuple-element.492, f32[140]{0} %get-tuple-element.358, f32[] %get-tuple-element.432, f32[] %get-tuple-element.435, f32[] %get-tuple-element.433, f32[] %get-tuple-element.438, f32[] %get-tuple-element.428, f32[] %get-tuple-element.429, s64[140]{0} %copy.69, f32[] %get-tuple-element.499, f32[] %get-tuple-element.493, f32[4,4]{1,0} %get-tuple-element.403, s64[11]{0} %copy.70, s64[4]{0} %copy.71, f32[] %get-tuple-element.498, f32[] %get-tuple-element.497, f32[] %get-tuple-element.494, f32[] %get-tuple-element.474, f32[] %get-tuple-element.496, f32[81]{0} %get-tuple-element.542, f32[1024,81]{1,0} %fusion.47, f32[] %get-tuple-element.495, f32[] %get-tuple-element.488, f32[324]{0} %fusion.310, f32[1024,324]{1,0} %fusion.35, f32[1024]{0} %get-tuple-element.544, f32[1024,1024]{1,0} %fusion.33, f32[1024]{0} %get-tuple-element.546, f32[12544,1024]{1,0} %fusion.31, u8[42,56,28,1]{3,2,1,0} %fusion.29, f32[] %get-tuple-element.509, f32[440,14,14,256]{3,2,1,0} %fusion.23, f32[51,14,14,256]{3,2,1,0} %fusion.21, f32[20,14,14,256]{3,2,1,0} %fusion.19, f32[1,14,14,256]{3,2,1,0} %fusion.17, f32[] %get-tuple-element.490, f32[] %get-tuple-element.473, f32[] %get-tuple-element.489, f32[80]{0} %fusion.301, f32[1,1,256,80]{3,2,1,0} %fusion.11, f32[256]{0} %get-tuple-element.548, f32[2,2,256,256]{3,2,1,0} %fusion.10, f32[256]{0} %get-tuple-element.550, f32[3,3,256,256]{3,2,1,0} %fusion.9, f32[256]{0} %get-tuple-element.552, f32[3,3,256,256]{3,2,1,0} %fusion.8, f32[256]{0} %get-tuple-element.554, f32[3,3,256,256]{3,2,1,0} %fusion.7, f32[256]{0} %get-tuple-element.556, f32[3,3,256,256]{3,2,1,0} %fusion.6, f32[16,28,28,256]{3,2,1,0} %get-tuple-element.353, f32[10,28,28,256]{3,2,1,0} %fusion.2, f32[16,28,28,256]{3,2,1,0} %get-tuple-element.354)
}

