HloModule cluster_4__XlaCompiledKernel_true__XlaNumConstantArgs_723__XlaNumResourceArgs_0_.4154

%add_float_.1249 (x.1250: f32[], y.1251: f32[]) -> f32[] {
  %x.1250 = f32[] parameter(0)
  %y.1251 = f32[] parameter(1)
  ROOT %add.1252 = f32[] add(f32[] %x.1250, f32[] %y.1251)
}

%ge_F32.1525 (lhs.1526: f32[], rhs.1527: f32[]) -> pred[] {
  %lhs.1526 = f32[] parameter(0)
  %rhs.1527 = f32[] parameter(1)
  ROOT %compare.1528 = pred[] compare(f32[] %lhs.1526, f32[] %rhs.1527), direction=GE
}

%add_F32.1529 (lhs.1530: f32[], rhs.1531: f32[]) -> f32[] {
  %lhs.1530 = f32[] parameter(0)
  %rhs.1531 = f32[] parameter(1)
  ROOT %add.1532 = f32[] add(f32[] %lhs.1530, f32[] %rhs.1531)
}

%fused_computation (param_0.2: f32[1,128,1,1], param_1.2: f32[1,128,1,1], param_2.3: f32[128], param_3.3: f32[128]) -> f32[128] {
  %param_3.3 = f32[128]{0} parameter(3)
  %bitcast.227 = f32[1,128,1,1]{3,2,1,0} bitcast(f32[128]{0} %param_3.3), metadata={op_type="Reshape" op_name="tower0/gradients/tower0/group1/block0/conv1/bn/batchnorm/mul_1_grad/Reshape_1"}
  %param_2.3 = f32[128]{0} parameter(2)
  %negate.48 = f32[128]{0} negate(f32[128]{0} %param_2.3), metadata={op_type="Neg" op_name="tower0/gradients/tower0/group1/block0/conv1/bn/batchnorm/sub_grad/Neg"}
  %bitcast.226 = f32[1,128,1,1]{3,2,1,0} bitcast(f32[128]{0} %negate.48), metadata={op_type="Neg" op_name="tower0/gradients/tower0/group1/block0/conv1/bn/batchnorm/sub_grad/Neg"}
  %param_1.2 = f32[1,128,1,1]{3,2,1,0} parameter(1)
  %multiply.8 = f32[1,128,1,1]{3,2,1,0} multiply(f32[1,128,1,1]{3,2,1,0} %bitcast.226, f32[1,128,1,1]{3,2,1,0} %param_1.2), metadata={op_type="Mul" op_name="tower0/gradients/tower0/group1/block0/conv1/bn/batchnorm/mul_2_grad/Mul_1"}
  %add.7 = f32[1,128,1,1]{3,2,1,0} add(f32[1,128,1,1]{3,2,1,0} %bitcast.227, f32[1,128,1,1]{3,2,1,0} %multiply.8), metadata={op_type="AddN" op_name="tower0/gradients/AddN_205"}
  %param_0.2 = f32[1,128,1,1]{3,2,1,0} parameter(0)
  %multiply.7 = f32[1,128,1,1]{3,2,1,0} multiply(f32[1,128,1,1]{3,2,1,0} %add.7, f32[1,128,1,1]{3,2,1,0} %param_0.2), metadata={op_type="Mul" op_name="tower0/gradients/tower0/group1/block0/conv1/bn/batchnorm/mul_grad/Mul_1"}
  ROOT %bitcast.225 = f32[128]{0} bitcast(f32[1,128,1,1]{3,2,1,0} %multiply.7), metadata={op_type="Reshape" op_name="tower0/gradients/tower0/group1/block0/conv1/bn/Reshape_grad/Reshape"}
}

%tower0_gradients_tower0_group1_block0_conv1_bn_batchnorm_mul_1_grad_Sum_1-reduction.3011 (x.3012: f32[], y.3013: f32[]) -> f32[] {
  %x.3012 = f32[] parameter(0)
  %y.3013 = f32[] parameter(1)
  ROOT %add.3014 = f32[] add(f32[] %x.3012, f32[] %y.3013)
}

%tower0_gradients_tower0_group1_block0_conv1_bn_batchnorm_add_1_grad_Sum_1-reduction.3021 (x.3022: f32[], y.3023: f32[]) -> f32[] {
  %x.3022 = f32[] parameter(0)
  %y.3023 = f32[] parameter(1)
  ROOT %add.3024 = f32[] add(f32[] %x.3022, f32[] %y.3023)
}

%fused_computation.1 (param_0.648: f32[1,128,200,304], param_1.875: f32[1,128,201,305], param_2.761: f32[1,128,200,304]) -> (f32[128], f32[128], f32[1,128,200,304]) {
  %param_2.761 = f32[1,128,200,304]{3,2,1,0} parameter(2)
  %constant_239 = f32[] constant(0), metadata={op_type="ZerosLike" op_name="tower0/gradients/tower0/rpn_losses/level2/logistic_loss/Select_grad/zeros_like"}
  %broadcast.82.clone.1 = f32[1,128,200,304]{3,2,1,0} broadcast(f32[] %constant_239), dimensions={}, metadata={op_type="ReluGrad" op_name="tower0/gradients/tower0/group1/block0/conv1/Relu_grad/ReluGrad"}
  %compare.0.clone.1 = pred[1,128,200,304]{3,2,1,0} compare(f32[1,128,200,304]{3,2,1,0} %param_2.761, f32[1,128,200,304]{3,2,1,0} %broadcast.82.clone.1), direction=GT, metadata={op_type="ReluGrad" op_name="tower0/gradients/tower0/group1/block0/conv1/Relu_grad/ReluGrad"}
  %param_1.875 = f32[1,128,201,305]{3,2,1,0} parameter(1)
  %slice.0.clone.1 = f32[1,128,200,304]{3,2,1,0} slice(f32[1,128,201,305]{3,2,1,0} %param_1.875), slice={[0:1], [0:128], [1:201], [1:305]}, metadata={op_type="Slice" op_name="tower0/gradients/tower0/group1/block0/Pad_grad/Slice_1"}
  %select.0.clone.1 = f32[1,128,200,304]{3,2,1,0} select(pred[1,128,200,304]{3,2,1,0} %compare.0.clone.1, f32[1,128,200,304]{3,2,1,0} %slice.0.clone.1, f32[1,128,200,304]{3,2,1,0} %broadcast.82.clone.1), metadata={op_type="ReluGrad" op_name="tower0/gradients/tower0/group1/block0/conv1/Relu_grad/ReluGrad"}
  %param_0.648 = f32[1,128,200,304]{3,2,1,0} parameter(0)
  %multiply.9 = f32[1,128,200,304]{3,2,1,0} multiply(f32[1,128,200,304]{3,2,1,0} %select.0.clone.1, f32[1,128,200,304]{3,2,1,0} %param_0.648), metadata={op_type="Mul" op_name="tower0/gradients/tower0/group1/block0/conv1/bn/batchnorm/mul_1_grad/Mul_1"}
  %reduce.13 = f32[128]{0} reduce(f32[1,128,200,304]{3,2,1,0} %multiply.9, f32[] %constant_239), dimensions={0,2,3}, to_apply=%tower0_gradients_tower0_group1_block0_conv1_bn_batchnorm_mul_1_grad_Sum_1-reduction.3011, metadata={op_type="Sum" op_name="tower0/gradients/tower0/group1/block0/conv1/bn/batchnorm/mul_1_grad/Sum_1"}
  %reduce.70 = f32[128]{0} reduce(f32[1,128,200,304]{3,2,1,0} %select.0.clone.1, f32[] %constant_239), dimensions={0,2,3}, to_apply=%tower0_gradients_tower0_group1_block0_conv1_bn_batchnorm_add_1_grad_Sum_1-reduction.3021, metadata={op_type="Sum" op_name="tower0/gradients/tower0/group1/block0/conv1/bn/batchnorm/add_1_grad/Sum_1"}
  ROOT %tuple.237 = (f32[128]{0}, f32[128]{0}, f32[1,128,200,304]{3,2,1,0}) tuple(f32[128]{0} %reduce.13, f32[128]{0} %reduce.70, f32[1,128,200,304]{3,2,1,0} %select.0.clone.1)
}

%fused_computation.2 (param_0.7: f32[1,1,256,128], param_1.9: f32[1,1,256,128]) -> f32[1,1,256,128] {
  %param_0.7 = f32[1,1,256,128]{1,0,2,3} parameter(0)
  %param_1.9 = f32[1,1,256,128]{3,2,1,0} parameter(1)
  %copy.365 = f32[1,1,256,128]{1,0,2,3} copy(f32[1,1,256,128]{3,2,1,0} %param_1.9), metadata={op_name="XLA_Args"}
  %constant_240 = f32[] constant(0.0001), metadata={op_type="Const" op_name="tower0/gradients/tower0/wd_cost_internals/Square_10_grad/Mul"}
  %broadcast.67 = f32[1,1,256,128]{1,0,2,3} broadcast(f32[] %constant_240), dimensions={}, metadata={op_type="Const" op_name="tower0/gradients/tower0/wd_cost_internals/Square_grad/Mul"}
  %multiply.10 = f32[1,1,256,128]{1,0,2,3} multiply(f32[1,1,256,128]{1,0,2,3} %copy.365, f32[1,1,256,128]{1,0,2,3} %broadcast.67), metadata={op_type="Mul" op_name="tower0/gradients/tower0/wd_cost_internals/Square_grad/Mul_1"}
  %add.8 = f32[1,1,256,128]{1,0,2,3} add(f32[1,1,256,128]{1,0,2,3} %param_0.7, f32[1,1,256,128]{1,0,2,3} %multiply.10), metadata={op_type="AddN" op_name="tower0/gradients/AddN_204"}
  ROOT %copy.364 = f32[1,1,256,128]{3,2,1,0} copy(f32[1,1,256,128]{1,0,2,3} %add.8), metadata={op_name="XLA_Retvals"}
}

%fused_computation.3 (param_0.10: f32[1,128,1,1], param_1.12: f32[1,128,1,1], param_2.11: f32[128], param_3.7: f32[128]) -> f32[128] {
  %param_3.7 = f32[128]{0} parameter(3)
  %bitcast.230 = f32[1,128,1,1]{3,2,1,0} bitcast(f32[128]{0} %param_3.7), metadata={op_type="Reshape" op_name="tower0/gradients/tower0/group1/block0/conv2/bn/batchnorm/mul_1_grad/Reshape_1"}
  %param_2.11 = f32[128]{0} parameter(2)
  %negate.49 = f32[128]{0} negate(f32[128]{0} %param_2.11), metadata={op_type="Neg" op_name="tower0/gradients/tower0/group1/block0/conv2/bn/batchnorm/sub_grad/Neg"}
  %bitcast.229 = f32[1,128,1,1]{3,2,1,0} bitcast(f32[128]{0} %negate.49), metadata={op_type="Neg" op_name="tower0/gradients/tower0/group1/block0/conv2/bn/batchnorm/sub_grad/Neg"}
  %param_1.12 = f32[1,128,1,1]{3,2,1,0} parameter(1)
  %multiply.12 = f32[1,128,1,1]{3,2,1,0} multiply(f32[1,128,1,1]{3,2,1,0} %bitcast.229, f32[1,128,1,1]{3,2,1,0} %param_1.12), metadata={op_type="Mul" op_name="tower0/gradients/tower0/group1/block0/conv2/bn/batchnorm/mul_2_grad/Mul_1"}
  %add.9 = f32[1,128,1,1]{3,2,1,0} add(f32[1,128,1,1]{3,2,1,0} %bitcast.230, f32[1,128,1,1]{3,2,1,0} %multiply.12), metadata={op_type="AddN" op_name="tower0/gradients/AddN_203"}
  %param_0.10 = f32[1,128,1,1]{3,2,1,0} parameter(0)
  %multiply.11 = f32[1,128,1,1]{3,2,1,0} multiply(f32[1,128,1,1]{3,2,1,0} %add.9, f32[1,128,1,1]{3,2,1,0} %param_0.10), metadata={op_type="Mul" op_name="tower0/gradients/tower0/group1/block0/conv2/bn/batchnorm/mul_grad/Mul_1"}
  ROOT %bitcast.228 = f32[128]{0} bitcast(f32[1,128,1,1]{3,2,1,0} %multiply.11), metadata={op_type="Reshape" op_name="tower0/gradients/tower0/group1/block0/conv2/bn/Reshape_grad/Reshape"}
}

%tower0_gradients_tower0_group1_block0_conv2_bn_batchnorm_mul_1_grad_Sum_1-reduction.3038 (x.3039: f32[], y.3040: f32[]) -> f32[] {
  %x.3039 = f32[] parameter(0)
  %y.3040 = f32[] parameter(1)
  ROOT %add.3041 = f32[] add(f32[] %x.3039, f32[] %y.3040)
}

%tower0_gradients_tower0_group1_block0_conv2_bn_batchnorm_add_1_grad_Sum_1-reduction.3048 (x.3049: f32[], y.3050: f32[]) -> f32[] {
  %x.3049 = f32[] parameter(0)
  %y.3050 = f32[] parameter(1)
  ROOT %add.3051 = f32[] add(f32[] %x.3049, f32[] %y.3050)
}

%fused_computation.4 (param_0.647: f32[1,128,100,152], param_1.876: f32[1,128,100,152], param_2.762: f32[1,128,100,152]) -> (f32[128], f32[128], f32[1,128,100,152]) {
  %param_2.762 = f32[1,128,100,152]{3,2,1,0} parameter(2)
  %constant_241 = f32[] constant(0), metadata={op_type="ZerosLike" op_name="tower0/gradients/tower0/rpn_losses/level2/logistic_loss/Select_grad/zeros_like"}
  %broadcast.195.clone.1 = f32[1,128,100,152]{3,2,1,0} broadcast(f32[] %constant_241), dimensions={}, metadata={op_type="ReluGrad" op_name="tower0/gradients/tower0/group1/block3/conv2/Relu_grad/ReluGrad"}
  %compare.1.clone.1 = pred[1,128,100,152]{3,2,1,0} compare(f32[1,128,100,152]{3,2,1,0} %param_2.762, f32[1,128,100,152]{3,2,1,0} %broadcast.195.clone.1), direction=GT, metadata={op_type="ReluGrad" op_name="tower0/gradients/tower0/group1/block0/conv2/Relu_grad/ReluGrad"}
  %param_1.876 = f32[1,128,100,152]{3,2,1,0} parameter(1)
  %select.1.clone.1 = f32[1,128,100,152]{3,2,1,0} select(pred[1,128,100,152]{3,2,1,0} %compare.1.clone.1, f32[1,128,100,152]{3,2,1,0} %param_1.876, f32[1,128,100,152]{3,2,1,0} %broadcast.195.clone.1), metadata={op_type="ReluGrad" op_name="tower0/gradients/tower0/group1/block0/conv2/Relu_grad/ReluGrad"}
  %param_0.647 = f32[1,128,100,152]{3,2,1,0} parameter(0)
  %multiply.13 = f32[1,128,100,152]{3,2,1,0} multiply(f32[1,128,100,152]{3,2,1,0} %select.1.clone.1, f32[1,128,100,152]{3,2,1,0} %param_0.647), metadata={op_type="Mul" op_name="tower0/gradients/tower0/group1/block0/conv2/bn/batchnorm/mul_1_grad/Mul_1"}
  %reduce.14 = f32[128]{0} reduce(f32[1,128,100,152]{3,2,1,0} %multiply.13, f32[] %constant_241), dimensions={0,2,3}, to_apply=%tower0_gradients_tower0_group1_block0_conv2_bn_batchnorm_mul_1_grad_Sum_1-reduction.3038, metadata={op_type="Sum" op_name="tower0/gradients/tower0/group1/block0/conv2/bn/batchnorm/mul_1_grad/Sum_1"}
  %reduce.82 = f32[128]{0} reduce(f32[1,128,100,152]{3,2,1,0} %select.1.clone.1, f32[] %constant_241), dimensions={0,2,3}, to_apply=%tower0_gradients_tower0_group1_block0_conv2_bn_batchnorm_add_1_grad_Sum_1-reduction.3048, metadata={op_type="Sum" op_name="tower0/gradients/tower0/group1/block0/conv2/bn/batchnorm/add_1_grad/Sum_1"}
  ROOT %tuple.236 = (f32[128]{0}, f32[128]{0}, f32[1,128,100,152]{3,2,1,0}) tuple(f32[128]{0} %reduce.14, f32[128]{0} %reduce.82, f32[1,128,100,152]{3,2,1,0} %select.1.clone.1)
}

%fused_computation.5 (param_0.15: f32[3,3,128,128], param_1.691: f32[3,3,128,128]) -> f32[3,3,128,128] {
  %param_0.15 = f32[3,3,128,128]{1,0,2,3} parameter(0)
  %param_1.691 = f32[3,3,128,128]{3,2,1,0} parameter(1)
  %copy.453 = f32[3,3,128,128]{1,0,2,3} copy(f32[3,3,128,128]{3,2,1,0} %param_1.691), metadata={op_name="XLA_Args"}
  %constant_312 = f32[] constant(0.0001), metadata={op_type="Const" op_name="tower0/gradients/tower0/wd_cost_internals/Square_10_grad/Mul"}
  %broadcast.162 = f32[3,3,128,128]{1,0,2,3} broadcast(f32[] %constant_312), dimensions={}, metadata={op_type="Const" op_name="tower0/gradients/tower0/wd_cost_internals/Square_11_grad/Mul"}
  %multiply.14 = f32[3,3,128,128]{1,0,2,3} multiply(f32[3,3,128,128]{1,0,2,3} %copy.453, f32[3,3,128,128]{1,0,2,3} %broadcast.162), metadata={op_type="Mul" op_name="tower0/gradients/tower0/wd_cost_internals/Square_1_grad/Mul_1"}
  %add.10 = f32[3,3,128,128]{1,0,2,3} add(f32[3,3,128,128]{1,0,2,3} %param_0.15, f32[3,3,128,128]{1,0,2,3} %multiply.14), metadata={op_type="AddN" op_name="tower0/gradients/AddN_202"}
  ROOT %copy.366 = f32[3,3,128,128]{3,2,1,0} copy(f32[3,3,128,128]{1,0,2,3} %add.10), metadata={op_name="XLA_Retvals"}
}

%fused_computation.8 (param_0.24: f32[1,512,1,1], param_1.797: f32[1,512,1,1], param_2.580: f32[512], param_3.302: f32[512], param_4.90: f32[1,512,1,1], param_5.79: f32[1,512,1,1], param_6.74: f32[512]) -> (f32[512], f32[512]) {
  %param_2.580 = f32[512]{0} parameter(2)
  %bitcast.234 = f32[1,512,1,1]{3,2,1,0} bitcast(f32[512]{0} %param_2.580), metadata={op_type="Reshape" op_name="tower0/gradients/tower0/group1/block0/convshortcut/bn/batchnorm/mul_1_grad/Reshape_1"}
  %param_3.302 = f32[512]{0} parameter(3)
  %negate.108 = f32[512]{0} negate(f32[512]{0} %param_3.302), metadata={op_type="Neg" op_name="tower0/gradients/tower0/group1/block0/convshortcut/bn/batchnorm/sub_grad/Neg"}
  %bitcast.419 = f32[1,512,1,1]{3,2,1,0} bitcast(f32[512]{0} %negate.108), metadata={op_type="Neg" op_name="tower0/gradients/tower0/group1/block0/convshortcut/bn/batchnorm/sub_grad/Neg"}
  %param_1.797 = f32[1,512,1,1]{3,2,1,0} parameter(1)
  %multiply.19 = f32[1,512,1,1]{3,2,1,0} multiply(f32[1,512,1,1]{3,2,1,0} %bitcast.419, f32[1,512,1,1]{3,2,1,0} %param_1.797), metadata={op_type="Mul" op_name="tower0/gradients/tower0/group1/block0/convshortcut/bn/batchnorm/mul_2_grad/Mul_1"}
  %add.12 = f32[1,512,1,1]{3,2,1,0} add(f32[1,512,1,1]{3,2,1,0} %bitcast.234, f32[1,512,1,1]{3,2,1,0} %multiply.19), metadata={op_type="AddN" op_name="tower0/gradients/AddN_201"}
  %param_0.24 = f32[1,512,1,1]{3,2,1,0} parameter(0)
  %multiply.18 = f32[1,512,1,1]{3,2,1,0} multiply(f32[1,512,1,1]{3,2,1,0} %add.12, f32[1,512,1,1]{3,2,1,0} %param_0.24), metadata={op_type="Mul" op_name="tower0/gradients/tower0/group1/block0/convshortcut/bn/batchnorm/mul_grad/Mul_1"}
  %bitcast.233 = f32[512]{0} bitcast(f32[1,512,1,1]{3,2,1,0} %multiply.18), metadata={op_type="Reshape" op_name="tower0/gradients/tower0/group1/block0/convshortcut/bn/Reshape_grad/Reshape"}
  %param_6.74 = f32[512]{0} parameter(6)
  %bitcast.232.clone.1 = f32[1,512,1,1]{3,2,1,0} bitcast(f32[512]{0} %param_6.74), metadata={op_type="Reshape" op_name="tower0/gradients/tower0/group1/block0/conv3/bn/batchnorm/mul_1_grad/Reshape_1"}
  %param_5.79 = f32[1,512,1,1]{3,2,1,0} parameter(5)
  %multiply.16.clone.1 = f32[1,512,1,1]{3,2,1,0} multiply(f32[1,512,1,1]{3,2,1,0} %bitcast.419, f32[1,512,1,1]{3,2,1,0} %param_5.79), metadata={op_type="Mul" op_name="tower0/gradients/tower0/group1/block0/conv3/bn/batchnorm/mul_2_grad/Mul_1"}
  %add.11.clone.1 = f32[1,512,1,1]{3,2,1,0} add(f32[1,512,1,1]{3,2,1,0} %bitcast.232.clone.1, f32[1,512,1,1]{3,2,1,0} %multiply.16.clone.1), metadata={op_type="AddN" op_name="tower0/gradients/AddN_199"}
  %param_4.90 = f32[1,512,1,1]{3,2,1,0} parameter(4)
  %multiply.15.clone.1 = f32[1,512,1,1]{3,2,1,0} multiply(f32[1,512,1,1]{3,2,1,0} %add.11.clone.1, f32[1,512,1,1]{3,2,1,0} %param_4.90), metadata={op_type="Mul" op_name="tower0/gradients/tower0/group1/block0/conv3/bn/batchnorm/mul_grad/Mul_1"}
  %bitcast.231.clone.1 = f32[512]{0} bitcast(f32[1,512,1,1]{3,2,1,0} %multiply.15.clone.1), metadata={op_type="Reshape" op_name="tower0/gradients/tower0/group1/block0/conv3/bn/Reshape_grad/Reshape"}
  ROOT %tuple.186 = (f32[512]{0}, f32[512]{0}) tuple(f32[512]{0} %bitcast.233, f32[512]{0} %bitcast.231.clone.1)
}

%tower0_gradients_tower0_group1_block0_convshortcut_bn_batchnorm_mul_1_grad_Sum_1-reduction.3118 (x.3119: f32[], y.3120: f32[]) -> f32[] {
  %x.3119 = f32[] parameter(0)
  %y.3120 = f32[] parameter(1)
  ROOT %add.3121 = f32[] add(f32[] %x.3119, f32[] %y.3120)
}

%tower0_gradients_tower0_group1_block0_convshortcut_bn_batchnorm_add_1_grad_Sum_1-reduction.3128 (x.3129: f32[], y.3130: f32[]) -> f32[] {
  %x.3129 = f32[] parameter(0)
  %y.3130 = f32[] parameter(1)
  ROOT %add.3131 = f32[] add(f32[] %x.3129, f32[] %y.3130)
}

%tower0_gradients_tower0_group1_block0_conv3_bn_batchnorm_mul_1_grad_Sum_1-reduction.3065 (x.3066: f32[], y.3067: f32[]) -> f32[] {
  %x.3066 = f32[] parameter(0)
  %y.3067 = f32[] parameter(1)
  ROOT %add.3068 = f32[] add(f32[] %x.3066, f32[] %y.3067)
}

%fused_computation.10 (param_0.646: f32[1,512,100,152], param_1.877: f32[1,512,100,152], param_2.763: f32[1,512,100,152], param_3.490: f32[1,512,100,152], param_4.241: f32[1,512,100,152]) -> (f32[512], f32[512], f32[512], f32[1,512,100,152]) {
  %param_4.241 = f32[1,512,100,152]{3,2,1,0} parameter(4)
  %constant_243 = f32[] constant(0), metadata={op_type="ZerosLike" op_name="tower0/gradients/tower0/rpn_losses/level2/logistic_loss/Select_grad/zeros_like"}
  %broadcast.196.clone.1 = f32[1,512,100,152]{3,2,1,0} broadcast(f32[] %constant_243), dimensions={}, metadata={op_type="ReluGrad" op_name="tower0/gradients/tower0/group1/block3/output_grad/ReluGrad"}
  %compare.2.clone.1 = pred[1,512,100,152]{3,2,1,0} compare(f32[1,512,100,152]{3,2,1,0} %param_4.241, f32[1,512,100,152]{3,2,1,0} %broadcast.196.clone.1), direction=GT, metadata={op_type="ReluGrad" op_name="tower0/gradients/tower0/group1/block0/output_grad/ReluGrad"}
  %param_2.763 = f32[1,512,100,152]{3,2,1,0} parameter(2)
  %param_3.490 = f32[1,512,100,152]{3,2,1,0} parameter(3)
  %add.126.clone.1 = f32[1,512,100,152]{3,2,1,0} add(f32[1,512,100,152]{3,2,1,0} %param_2.763, f32[1,512,100,152]{3,2,1,0} %param_3.490), metadata={op_type="AddN" op_name="tower0/gradients/AddN_195"}
  %select.2.clone.1 = f32[1,512,100,152]{3,2,1,0} select(pred[1,512,100,152]{3,2,1,0} %compare.2.clone.1, f32[1,512,100,152]{3,2,1,0} %add.126.clone.1, f32[1,512,100,152]{3,2,1,0} %broadcast.196.clone.1), metadata={op_type="ReluGrad" op_name="tower0/gradients/tower0/group1/block0/output_grad/ReluGrad"}
  %param_0.646 = f32[1,512,100,152]{3,2,1,0} parameter(0)
  %multiply.20 = f32[1,512,100,152]{3,2,1,0} multiply(f32[1,512,100,152]{3,2,1,0} %select.2.clone.1, f32[1,512,100,152]{3,2,1,0} %param_0.646), metadata={op_type="Mul" op_name="tower0/gradients/tower0/group1/block0/convshortcut/bn/batchnorm/mul_1_grad/Mul_1"}
  %reduce.16 = f32[512]{0} reduce(f32[1,512,100,152]{3,2,1,0} %multiply.20, f32[] %constant_243), dimensions={0,2,3}, to_apply=%tower0_gradients_tower0_group1_block0_convshortcut_bn_batchnorm_mul_1_grad_Sum_1-reduction.3118, metadata={op_type="Sum" op_name="tower0/gradients/tower0/group1/block0/convshortcut/bn/batchnorm/mul_1_grad/Sum_1"}
  %reduce.69 = f32[512]{0} reduce(f32[1,512,100,152]{3,2,1,0} %select.2.clone.1, f32[] %constant_243), dimensions={0,2,3}, to_apply=%tower0_gradients_tower0_group1_block0_convshortcut_bn_batchnorm_add_1_grad_Sum_1-reduction.3128, metadata={op_type="Sum" op_name="tower0/gradients/tower0/group1/block0/convshortcut/bn/batchnorm/add_1_grad/Sum_1"}
  %param_1.877 = f32[1,512,100,152]{3,2,1,0} parameter(1)
  %multiply.17.clone.1 = f32[1,512,100,152]{3,2,1,0} multiply(f32[1,512,100,152]{3,2,1,0} %select.2.clone.1, f32[1,512,100,152]{3,2,1,0} %param_1.877), metadata={op_type="Mul" op_name="tower0/gradients/tower0/group1/block0/conv3/bn/batchnorm/mul_1_grad/Mul_1"}
  %reduce.15.clone.1 = f32[512]{0} reduce(f32[1,512,100,152]{3,2,1,0} %multiply.17.clone.1, f32[] %constant_243), dimensions={0,2,3}, to_apply=%tower0_gradients_tower0_group1_block0_conv3_bn_batchnorm_mul_1_grad_Sum_1-reduction.3065, metadata={op_type="Sum" op_name="tower0/gradients/tower0/group1/block0/conv3/bn/batchnorm/mul_1_grad/Sum_1"}
  ROOT %tuple.235 = (f32[512]{0}, f32[512]{0}, f32[512]{0}, f32[1,512,100,152]{3,2,1,0}) tuple(f32[512]{0} %reduce.16, f32[512]{0} %reduce.69, f32[512]{0} %reduce.15.clone.1, f32[1,512,100,152]{3,2,1,0} %select.2.clone.1)
}

%fused_computation.11 (param_0.31: f32[1,1,128,512], param_1.692: f32[1,1,128,512]) -> f32[1,1,128,512] {
  %param_0.31 = f32[1,1,128,512]{1,0,2,3} parameter(0)
  %param_1.692 = f32[1,1,128,512]{3,2,1,0} parameter(1)
  %copy.368 = f32[1,1,128,512]{1,0,2,3} copy(f32[1,1,128,512]{3,2,1,0} %param_1.692), metadata={op_name="XLA_Args"}
  %constant_313 = f32[] constant(0.0001), metadata={op_type="Const" op_name="tower0/gradients/tower0/wd_cost_internals/Square_10_grad/Mul"}
  %broadcast.163 = f32[1,1,128,512]{1,0,2,3} broadcast(f32[] %constant_313), dimensions={}, metadata={op_type="Const" op_name="tower0/gradients/tower0/wd_cost_internals/Square_2_grad/Mul"}
  %multiply.21 = f32[1,1,128,512]{1,0,2,3} multiply(f32[1,1,128,512]{1,0,2,3} %copy.368, f32[1,1,128,512]{1,0,2,3} %broadcast.163), metadata={op_type="Mul" op_name="tower0/gradients/tower0/wd_cost_internals/Square_2_grad/Mul_1"}
  %add.13 = f32[1,1,128,512]{1,0,2,3} add(f32[1,1,128,512]{1,0,2,3} %param_0.31, f32[1,1,128,512]{1,0,2,3} %multiply.21), metadata={op_type="AddN" op_name="tower0/gradients/AddN_198"}
  ROOT %copy.367 = f32[1,1,128,512]{3,2,1,0} copy(f32[1,1,128,512]{1,0,2,3} %add.13), metadata={op_name="XLA_Retvals"}
}

%fused_computation.12 (param_0.33: f32[1,1,256,512], param_1.36: f32[1,1,256,512]) -> f32[1,1,256,512] {
  %param_0.33 = f32[1,1,256,512]{1,0,2,3} parameter(0)
  %param_1.36 = f32[1,1,256,512]{3,2,1,0} parameter(1)
  %copy.370 = f32[1,1,256,512]{1,0,2,3} copy(f32[1,1,256,512]{3,2,1,0} %param_1.36), metadata={op_name="XLA_Args"}
  %constant_244 = f32[] constant(0.0001), metadata={op_type="Const" op_name="tower0/gradients/tower0/wd_cost_internals/Square_10_grad/Mul"}
  %broadcast.68 = f32[1,1,256,512]{1,0,2,3} broadcast(f32[] %constant_244), dimensions={}, metadata={op_type="Const" op_name="tower0/gradients/tower0/wd_cost_internals/Square_3_grad/Mul"}
  %multiply.22 = f32[1,1,256,512]{1,0,2,3} multiply(f32[1,1,256,512]{1,0,2,3} %copy.370, f32[1,1,256,512]{1,0,2,3} %broadcast.68), metadata={op_type="Mul" op_name="tower0/gradients/tower0/wd_cost_internals/Square_3_grad/Mul_1"}
  %add.14 = f32[1,1,256,512]{1,0,2,3} add(f32[1,1,256,512]{1,0,2,3} %param_0.33, f32[1,1,256,512]{1,0,2,3} %multiply.22), metadata={op_type="AddN" op_name="tower0/gradients/AddN_200"}
  ROOT %copy.369 = f32[1,1,256,512]{3,2,1,0} copy(f32[1,1,256,512]{1,0,2,3} %add.14), metadata={op_name="XLA_Retvals"}
}

%fused_computation.13 (param_0.36: f32[1,128,1,1], param_1.39: f32[1,128,1,1], param_2.30: f32[128], param_3.15: f32[128]) -> f32[128] {
  %param_3.15 = f32[128]{0} parameter(3)
  %bitcast.238 = f32[1,128,1,1]{3,2,1,0} bitcast(f32[128]{0} %param_3.15), metadata={op_type="Reshape" op_name="tower0/gradients/tower0/group1/block1/conv1/bn/batchnorm/mul_1_grad/Reshape_1"}
  %param_2.30 = f32[128]{0} parameter(2)
  %negate.51 = f32[128]{0} negate(f32[128]{0} %param_2.30), metadata={op_type="Neg" op_name="tower0/gradients/tower0/group1/block1/conv1/bn/batchnorm/sub_grad/Neg"}
  %bitcast.237 = f32[1,128,1,1]{3,2,1,0} bitcast(f32[128]{0} %negate.51), metadata={op_type="Neg" op_name="tower0/gradients/tower0/group1/block1/conv1/bn/batchnorm/sub_grad/Neg"}
  %param_1.39 = f32[1,128,1,1]{3,2,1,0} parameter(1)
  %multiply.24 = f32[1,128,1,1]{3,2,1,0} multiply(f32[1,128,1,1]{3,2,1,0} %bitcast.237, f32[1,128,1,1]{3,2,1,0} %param_1.39), metadata={op_type="Mul" op_name="tower0/gradients/tower0/group1/block1/conv1/bn/batchnorm/mul_2_grad/Mul_1"}
  %add.15 = f32[1,128,1,1]{3,2,1,0} add(f32[1,128,1,1]{3,2,1,0} %bitcast.238, f32[1,128,1,1]{3,2,1,0} %multiply.24), metadata={op_type="AddN" op_name="tower0/gradients/AddN_197"}
  %param_0.36 = f32[1,128,1,1]{3,2,1,0} parameter(0)
  %multiply.23 = f32[1,128,1,1]{3,2,1,0} multiply(f32[1,128,1,1]{3,2,1,0} %add.15, f32[1,128,1,1]{3,2,1,0} %param_0.36), metadata={op_type="Mul" op_name="tower0/gradients/tower0/group1/block1/conv1/bn/batchnorm/mul_grad/Mul_1"}
  ROOT %bitcast.236 = f32[128]{0} bitcast(f32[1,128,1,1]{3,2,1,0} %multiply.23), metadata={op_type="Reshape" op_name="tower0/gradients/tower0/group1/block1/conv1/bn/Reshape_grad/Reshape"}
}

%tower0_gradients_tower0_group1_block1_conv1_bn_batchnorm_mul_1_grad_Sum_1-reduction.3145 (x.3146: f32[], y.3147: f32[]) -> f32[] {
  %x.3146 = f32[] parameter(0)
  %y.3147 = f32[] parameter(1)
  ROOT %add.3148 = f32[] add(f32[] %x.3146, f32[] %y.3147)
}

%tower0_gradients_tower0_group1_block1_conv1_bn_batchnorm_add_1_grad_Sum_1-reduction.3155 (x.3156: f32[], y.3157: f32[]) -> f32[] {
  %x.3156 = f32[] parameter(0)
  %y.3157 = f32[] parameter(1)
  ROOT %add.3158 = f32[] add(f32[] %x.3156, f32[] %y.3157)
}

%fused_computation.14 (param_0.645: f32[1,128,100,152], param_1.878: f32[1,128,100,152], param_2.764: f32[1,128,100,152]) -> (f32[128], f32[128], f32[1,128,100,152]) {
  %param_2.764 = f32[1,128,100,152]{3,2,1,0} parameter(2)
  %constant_245 = f32[] constant(0), metadata={op_type="ZerosLike" op_name="tower0/gradients/tower0/rpn_losses/level2/logistic_loss/Select_grad/zeros_like"}
  %broadcast.197.clone.1 = f32[1,128,100,152]{3,2,1,0} broadcast(f32[] %constant_245), dimensions={}, metadata={op_type="ReluGrad" op_name="tower0/gradients/tower0/group1/block3/conv2/Relu_grad/ReluGrad"}
  %compare.3.clone.1 = pred[1,128,100,152]{3,2,1,0} compare(f32[1,128,100,152]{3,2,1,0} %param_2.764, f32[1,128,100,152]{3,2,1,0} %broadcast.197.clone.1), direction=GT, metadata={op_type="ReluGrad" op_name="tower0/gradients/tower0/group1/block1/conv1/Relu_grad/ReluGrad"}
  %param_1.878 = f32[1,128,100,152]{3,2,1,0} parameter(1)
  %select.3.clone.1 = f32[1,128,100,152]{3,2,1,0} select(pred[1,128,100,152]{3,2,1,0} %compare.3.clone.1, f32[1,128,100,152]{3,2,1,0} %param_1.878, f32[1,128,100,152]{3,2,1,0} %broadcast.197.clone.1), metadata={op_type="ReluGrad" op_name="tower0/gradients/tower0/group1/block1/conv1/Relu_grad/ReluGrad"}
  %param_0.645 = f32[1,128,100,152]{3,2,1,0} parameter(0)
  %multiply.25 = f32[1,128,100,152]{3,2,1,0} multiply(f32[1,128,100,152]{3,2,1,0} %select.3.clone.1, f32[1,128,100,152]{3,2,1,0} %param_0.645), metadata={op_type="Mul" op_name="tower0/gradients/tower0/group1/block1/conv1/bn/batchnorm/mul_1_grad/Mul_1"}
  %reduce.17 = f32[128]{0} reduce(f32[1,128,100,152]{3,2,1,0} %multiply.25, f32[] %constant_245), dimensions={0,2,3}, to_apply=%tower0_gradients_tower0_group1_block1_conv1_bn_batchnorm_mul_1_grad_Sum_1-reduction.3145, metadata={op_type="Sum" op_name="tower0/gradients/tower0/group1/block1/conv1/bn/batchnorm/mul_1_grad/Sum_1"}
  %reduce.83 = f32[128]{0} reduce(f32[1,128,100,152]{3,2,1,0} %select.3.clone.1, f32[] %constant_245), dimensions={0,2,3}, to_apply=%tower0_gradients_tower0_group1_block1_conv1_bn_batchnorm_add_1_grad_Sum_1-reduction.3155, metadata={op_type="Sum" op_name="tower0/gradients/tower0/group1/block1/conv1/bn/batchnorm/add_1_grad/Sum_1"}
  ROOT %tuple.234 = (f32[128]{0}, f32[128]{0}, f32[1,128,100,152]{3,2,1,0}) tuple(f32[128]{0} %reduce.17, f32[128]{0} %reduce.83, f32[1,128,100,152]{3,2,1,0} %select.3.clone.1)
}

%fused_computation.15 (param_0.41: f32[1,1,512,128], param_1.693: f32[1,1,512,128]) -> f32[1,1,512,128] {
  %param_0.41 = f32[1,1,512,128]{1,0,2,3} parameter(0)
  %param_1.693 = f32[1,1,512,128]{3,2,1,0} parameter(1)
  %copy.372 = f32[1,1,512,128]{1,0,2,3} copy(f32[1,1,512,128]{3,2,1,0} %param_1.693), metadata={op_name="XLA_Args"}
  %constant_314 = f32[] constant(0.0001), metadata={op_type="Const" op_name="tower0/gradients/tower0/wd_cost_internals/Square_10_grad/Mul"}
  %broadcast.164 = f32[1,1,512,128]{1,0,2,3} broadcast(f32[] %constant_314), dimensions={}, metadata={op_type="Const" op_name="tower0/gradients/tower0/wd_cost_internals/Square_10_grad/Mul"}
  %multiply.26 = f32[1,1,512,128]{1,0,2,3} multiply(f32[1,1,512,128]{1,0,2,3} %copy.372, f32[1,1,512,128]{1,0,2,3} %broadcast.164), metadata={op_type="Mul" op_name="tower0/gradients/tower0/wd_cost_internals/Square_4_grad/Mul_1"}
  %add.16 = f32[1,1,512,128]{1,0,2,3} add(f32[1,1,512,128]{1,0,2,3} %param_0.41, f32[1,1,512,128]{1,0,2,3} %multiply.26), metadata={op_type="AddN" op_name="tower0/gradients/AddN_196"}
  ROOT %copy.371 = f32[1,1,512,128]{3,2,1,0} copy(f32[1,1,512,128]{1,0,2,3} %add.16), metadata={op_name="XLA_Retvals"}
}

%fused_computation.16 (param_0.44: f32[1,128,1,1], param_1.48: f32[1,128,1,1], param_2.37: f32[128], param_3.19: f32[128]) -> f32[128] {
  %param_3.19 = f32[128]{0} parameter(3)
  %bitcast.241 = f32[1,128,1,1]{3,2,1,0} bitcast(f32[128]{0} %param_3.19), metadata={op_type="Reshape" op_name="tower0/gradients/tower0/group1/block1/conv2/bn/batchnorm/mul_1_grad/Reshape_1"}
  %param_2.37 = f32[128]{0} parameter(2)
  %negate.52 = f32[128]{0} negate(f32[128]{0} %param_2.37), metadata={op_type="Neg" op_name="tower0/gradients/tower0/group1/block1/conv2/bn/batchnorm/sub_grad/Neg"}
  %bitcast.240 = f32[1,128,1,1]{3,2,1,0} bitcast(f32[128]{0} %negate.52), metadata={op_type="Neg" op_name="tower0/gradients/tower0/group1/block1/conv2/bn/batchnorm/sub_grad/Neg"}
  %param_1.48 = f32[1,128,1,1]{3,2,1,0} parameter(1)
  %multiply.28 = f32[1,128,1,1]{3,2,1,0} multiply(f32[1,128,1,1]{3,2,1,0} %bitcast.240, f32[1,128,1,1]{3,2,1,0} %param_1.48), metadata={op_type="Mul" op_name="tower0/gradients/tower0/group1/block1/conv2/bn/batchnorm/mul_2_grad/Mul_1"}
  %add.17 = f32[1,128,1,1]{3,2,1,0} add(f32[1,128,1,1]{3,2,1,0} %bitcast.241, f32[1,128,1,1]{3,2,1,0} %multiply.28), metadata={op_type="AddN" op_name="tower0/gradients/AddN_194"}
  %param_0.44 = f32[1,128,1,1]{3,2,1,0} parameter(0)
  %multiply.27 = f32[1,128,1,1]{3,2,1,0} multiply(f32[1,128,1,1]{3,2,1,0} %add.17, f32[1,128,1,1]{3,2,1,0} %param_0.44), metadata={op_type="Mul" op_name="tower0/gradients/tower0/group1/block1/conv2/bn/batchnorm/mul_grad/Mul_1"}
  ROOT %bitcast.239 = f32[128]{0} bitcast(f32[1,128,1,1]{3,2,1,0} %multiply.27), metadata={op_type="Reshape" op_name="tower0/gradients/tower0/group1/block1/conv2/bn/Reshape_grad/Reshape"}
}

%tower0_gradients_tower0_group1_block1_conv2_bn_batchnorm_mul_1_grad_Sum_1-reduction.3172 (x.3173: f32[], y.3174: f32[]) -> f32[] {
  %x.3173 = f32[] parameter(0)
  %y.3174 = f32[] parameter(1)
  ROOT %add.3175 = f32[] add(f32[] %x.3173, f32[] %y.3174)
}

%tower0_gradients_tower0_group1_block1_conv2_bn_batchnorm_add_1_grad_Sum_1-reduction.3182 (x.3183: f32[], y.3184: f32[]) -> f32[] {
  %x.3183 = f32[] parameter(0)
  %y.3184 = f32[] parameter(1)
  ROOT %add.3185 = f32[] add(f32[] %x.3183, f32[] %y.3184)
}

%fused_computation.17 (param_0.644: f32[1,128,100,152], param_1.879: f32[1,128,100,152], param_2.765: f32[1,128,100,152]) -> (f32[128], f32[128], f32[1,128,100,152]) {
  %param_2.765 = f32[1,128,100,152]{3,2,1,0} parameter(2)
  %constant_246 = f32[] constant(0), metadata={op_type="ZerosLike" op_name="tower0/gradients/tower0/rpn_losses/level2/logistic_loss/Select_grad/zeros_like"}
  %broadcast.198.clone.1 = f32[1,128,100,152]{3,2,1,0} broadcast(f32[] %constant_246), dimensions={}, metadata={op_type="ReluGrad" op_name="tower0/gradients/tower0/group1/block3/conv2/Relu_grad/ReluGrad"}
  %compare.4.clone.1 = pred[1,128,100,152]{3,2,1,0} compare(f32[1,128,100,152]{3,2,1,0} %param_2.765, f32[1,128,100,152]{3,2,1,0} %broadcast.198.clone.1), direction=GT, metadata={op_type="ReluGrad" op_name="tower0/gradients/tower0/group1/block1/conv2/Relu_grad/ReluGrad"}
  %param_1.879 = f32[1,128,100,152]{3,2,1,0} parameter(1)
  %select.4.clone.1 = f32[1,128,100,152]{3,2,1,0} select(pred[1,128,100,152]{3,2,1,0} %compare.4.clone.1, f32[1,128,100,152]{3,2,1,0} %param_1.879, f32[1,128,100,152]{3,2,1,0} %broadcast.198.clone.1), metadata={op_type="ReluGrad" op_name="tower0/gradients/tower0/group1/block1/conv2/Relu_grad/ReluGrad"}
  %param_0.644 = f32[1,128,100,152]{3,2,1,0} parameter(0)
  %multiply.29 = f32[1,128,100,152]{3,2,1,0} multiply(f32[1,128,100,152]{3,2,1,0} %select.4.clone.1, f32[1,128,100,152]{3,2,1,0} %param_0.644), metadata={op_type="Mul" op_name="tower0/gradients/tower0/group1/block1/conv2/bn/batchnorm/mul_1_grad/Mul_1"}
  %reduce.18 = f32[128]{0} reduce(f32[1,128,100,152]{3,2,1,0} %multiply.29, f32[] %constant_246), dimensions={0,2,3}, to_apply=%tower0_gradients_tower0_group1_block1_conv2_bn_batchnorm_mul_1_grad_Sum_1-reduction.3172, metadata={op_type="Sum" op_name="tower0/gradients/tower0/group1/block1/conv2/bn/batchnorm/mul_1_grad/Sum_1"}
  %reduce.84 = f32[128]{0} reduce(f32[1,128,100,152]{3,2,1,0} %select.4.clone.1, f32[] %constant_246), dimensions={0,2,3}, to_apply=%tower0_gradients_tower0_group1_block1_conv2_bn_batchnorm_add_1_grad_Sum_1-reduction.3182, metadata={op_type="Sum" op_name="tower0/gradients/tower0/group1/block1/conv2/bn/batchnorm/add_1_grad/Sum_1"}
  ROOT %tuple.233 = (f32[128]{0}, f32[128]{0}, f32[1,128,100,152]{3,2,1,0}) tuple(f32[128]{0} %reduce.18, f32[128]{0} %reduce.84, f32[1,128,100,152]{3,2,1,0} %select.4.clone.1)
}

%fused_computation.18 (param_0.49: f32[3,3,128,128], param_1.694: f32[3,3,128,128]) -> f32[3,3,128,128] {
  %param_0.49 = f32[3,3,128,128]{1,0,2,3} parameter(0)
  %param_1.694 = f32[3,3,128,128]{3,2,1,0} parameter(1)
  %copy.454 = f32[3,3,128,128]{1,0,2,3} copy(f32[3,3,128,128]{3,2,1,0} %param_1.694), metadata={op_name="XLA_Args"}
  %constant_315 = f32[] constant(0.0001), metadata={op_type="Const" op_name="tower0/gradients/tower0/wd_cost_internals/Square_10_grad/Mul"}
  %broadcast.165 = f32[3,3,128,128]{1,0,2,3} broadcast(f32[] %constant_315), dimensions={}, metadata={op_type="Const" op_name="tower0/gradients/tower0/wd_cost_internals/Square_11_grad/Mul"}
  %multiply.30 = f32[3,3,128,128]{1,0,2,3} multiply(f32[3,3,128,128]{1,0,2,3} %copy.454, f32[3,3,128,128]{1,0,2,3} %broadcast.165), metadata={op_type="Mul" op_name="tower0/gradients/tower0/wd_cost_internals/Square_5_grad/Mul_1"}
  %add.18 = f32[3,3,128,128]{1,0,2,3} add(f32[3,3,128,128]{1,0,2,3} %param_0.49, f32[3,3,128,128]{1,0,2,3} %multiply.30), metadata={op_type="AddN" op_name="tower0/gradients/AddN_193"}
  ROOT %copy.373 = f32[3,3,128,128]{3,2,1,0} copy(f32[3,3,128,128]{1,0,2,3} %add.18), metadata={op_name="XLA_Retvals"}
}

%fused_computation.19 (param_0.52: f32[1,512,1,1], param_1.56: f32[1,512,1,1], param_2.43: f32[512], param_3.23: f32[512]) -> f32[512] {
  %param_3.23 = f32[512]{0} parameter(3)
  %bitcast.244 = f32[1,512,1,1]{3,2,1,0} bitcast(f32[512]{0} %param_3.23), metadata={op_type="Reshape" op_name="tower0/gradients/tower0/group1/block1/conv3/bn/batchnorm/mul_1_grad/Reshape_1"}
  %param_2.43 = f32[512]{0} parameter(2)
  %negate.53 = f32[512]{0} negate(f32[512]{0} %param_2.43), metadata={op_type="Neg" op_name="tower0/gradients/tower0/group1/block1/conv3/bn/batchnorm/sub_grad/Neg"}
  %bitcast.243 = f32[1,512,1,1]{3,2,1,0} bitcast(f32[512]{0} %negate.53), metadata={op_type="Neg" op_name="tower0/gradients/tower0/group1/block1/conv3/bn/batchnorm/sub_grad/Neg"}
  %param_1.56 = f32[1,512,1,1]{3,2,1,0} parameter(1)
  %multiply.32 = f32[1,512,1,1]{3,2,1,0} multiply(f32[1,512,1,1]{3,2,1,0} %bitcast.243, f32[1,512,1,1]{3,2,1,0} %param_1.56), metadata={op_type="Mul" op_name="tower0/gradients/tower0/group1/block1/conv3/bn/batchnorm/mul_2_grad/Mul_1"}
  %add.19 = f32[1,512,1,1]{3,2,1,0} add(f32[1,512,1,1]{3,2,1,0} %bitcast.244, f32[1,512,1,1]{3,2,1,0} %multiply.32), metadata={op_type="AddN" op_name="tower0/gradients/AddN_192"}
  %param_0.52 = f32[1,512,1,1]{3,2,1,0} parameter(0)
  %multiply.31 = f32[1,512,1,1]{3,2,1,0} multiply(f32[1,512,1,1]{3,2,1,0} %add.19, f32[1,512,1,1]{3,2,1,0} %param_0.52), metadata={op_type="Mul" op_name="tower0/gradients/tower0/group1/block1/conv3/bn/batchnorm/mul_grad/Mul_1"}
  ROOT %bitcast.242 = f32[512]{0} bitcast(f32[1,512,1,1]{3,2,1,0} %multiply.31), metadata={op_type="Reshape" op_name="tower0/gradients/tower0/group1/block1/conv3/bn/Reshape_grad/Reshape"}
}

%tower0_gradients_tower0_group1_block1_conv3_bn_batchnorm_mul_1_grad_Sum_1-reduction.3199 (x.3200: f32[], y.3201: f32[]) -> f32[] {
  %x.3200 = f32[] parameter(0)
  %y.3201 = f32[] parameter(1)
  ROOT %add.3202 = f32[] add(f32[] %x.3200, f32[] %y.3201)
}

%tower0_gradients_tower0_group1_block1_conv3_bn_batchnorm_add_1_grad_Sum_1-reduction.3209 (x.3210: f32[], y.3211: f32[]) -> f32[] {
  %x.3210 = f32[] parameter(0)
  %y.3211 = f32[] parameter(1)
  ROOT %add.3212 = f32[] add(f32[] %x.3210, f32[] %y.3211)
}

%fused_computation.20 (param_0.643: f32[1,512,100,152], param_1.880: f32[1,512,100,152], param_2.766: f32[1,512,100,152], param_3.491: f32[1,512,100,152]) -> (f32[512], f32[512], f32[1,512,100,152]) {
  %param_3.491 = f32[1,512,100,152]{3,2,1,0} parameter(3)
  %constant_247 = f32[] constant(0), metadata={op_type="ZerosLike" op_name="tower0/gradients/tower0/rpn_losses/level2/logistic_loss/Select_grad/zeros_like"}
  %broadcast.199.clone.1 = f32[1,512,100,152]{3,2,1,0} broadcast(f32[] %constant_247), dimensions={}, metadata={op_type="ReluGrad" op_name="tower0/gradients/tower0/group1/block3/output_grad/ReluGrad"}
  %compare.5.clone.1 = pred[1,512,100,152]{3,2,1,0} compare(f32[1,512,100,152]{3,2,1,0} %param_3.491, f32[1,512,100,152]{3,2,1,0} %broadcast.199.clone.1), direction=GT, metadata={op_type="ReluGrad" op_name="tower0/gradients/tower0/group1/block1/output_grad/ReluGrad"}
  %param_1.880 = f32[1,512,100,152]{3,2,1,0} parameter(1)
  %param_2.766 = f32[1,512,100,152]{3,2,1,0} parameter(2)
  %add.127.clone.1 = f32[1,512,100,152]{3,2,1,0} add(f32[1,512,100,152]{3,2,1,0} %param_1.880, f32[1,512,100,152]{3,2,1,0} %param_2.766), metadata={op_type="AddN" op_name="tower0/gradients/AddN_188"}
  %select.5.clone.1 = f32[1,512,100,152]{3,2,1,0} select(pred[1,512,100,152]{3,2,1,0} %compare.5.clone.1, f32[1,512,100,152]{3,2,1,0} %add.127.clone.1, f32[1,512,100,152]{3,2,1,0} %broadcast.199.clone.1), metadata={op_type="ReluGrad" op_name="tower0/gradients/tower0/group1/block1/output_grad/ReluGrad"}
  %param_0.643 = f32[1,512,100,152]{3,2,1,0} parameter(0)
  %multiply.33 = f32[1,512,100,152]{3,2,1,0} multiply(f32[1,512,100,152]{3,2,1,0} %select.5.clone.1, f32[1,512,100,152]{3,2,1,0} %param_0.643), metadata={op_type="Mul" op_name="tower0/gradients/tower0/group1/block1/conv3/bn/batchnorm/mul_1_grad/Mul_1"}
  %reduce.19 = f32[512]{0} reduce(f32[1,512,100,152]{3,2,1,0} %multiply.33, f32[] %constant_247), dimensions={0,2,3}, to_apply=%tower0_gradients_tower0_group1_block1_conv3_bn_batchnorm_mul_1_grad_Sum_1-reduction.3199, metadata={op_type="Sum" op_name="tower0/gradients/tower0/group1/block1/conv3/bn/batchnorm/mul_1_grad/Sum_1"}
  %reduce.68 = f32[512]{0} reduce(f32[1,512,100,152]{3,2,1,0} %select.5.clone.1, f32[] %constant_247), dimensions={0,2,3}, to_apply=%tower0_gradients_tower0_group1_block1_conv3_bn_batchnorm_add_1_grad_Sum_1-reduction.3209, metadata={op_type="Sum" op_name="tower0/gradients/tower0/group1/block1/conv3/bn/batchnorm/add_1_grad/Sum_1"}
  ROOT %tuple.232 = (f32[512]{0}, f32[512]{0}, f32[1,512,100,152]{3,2,1,0}) tuple(f32[512]{0} %reduce.19, f32[512]{0} %reduce.68, f32[1,512,100,152]{3,2,1,0} %select.5.clone.1)
}

%fused_computation.21 (param_0.57: f32[1,1,128,512], param_1.695: f32[1,1,128,512]) -> f32[1,1,128,512] {
  %param_0.57 = f32[1,1,128,512]{1,0,2,3} parameter(0)
  %param_1.695 = f32[1,1,128,512]{3,2,1,0} parameter(1)
  %copy.375 = f32[1,1,128,512]{1,0,2,3} copy(f32[1,1,128,512]{3,2,1,0} %param_1.695), metadata={op_name="XLA_Args"}
  %constant_316 = f32[] constant(0.0001), metadata={op_type="Const" op_name="tower0/gradients/tower0/wd_cost_internals/Square_10_grad/Mul"}
  %broadcast.166 = f32[1,1,128,512]{1,0,2,3} broadcast(f32[] %constant_316), dimensions={}, metadata={op_type="Const" op_name="tower0/gradients/tower0/wd_cost_internals/Square_2_grad/Mul"}
  %multiply.34 = f32[1,1,128,512]{1,0,2,3} multiply(f32[1,1,128,512]{1,0,2,3} %copy.375, f32[1,1,128,512]{1,0,2,3} %broadcast.166), metadata={op_type="Mul" op_name="tower0/gradients/tower0/wd_cost_internals/Square_6_grad/Mul_1"}
  %add.20 = f32[1,1,128,512]{1,0,2,3} add(f32[1,1,128,512]{1,0,2,3} %param_0.57, f32[1,1,128,512]{1,0,2,3} %multiply.34), metadata={op_type="AddN" op_name="tower0/gradients/AddN_191"}
  ROOT %copy.374 = f32[1,1,128,512]{3,2,1,0} copy(f32[1,1,128,512]{1,0,2,3} %add.20), metadata={op_name="XLA_Retvals"}
}

%fused_computation.22 (param_0.60: f32[1,128,1,1], param_1.65: f32[1,128,1,1], param_2.50: f32[128], param_3.27: f32[128]) -> f32[128] {
  %param_3.27 = f32[128]{0} parameter(3)
  %bitcast.247 = f32[1,128,1,1]{3,2,1,0} bitcast(f32[128]{0} %param_3.27), metadata={op_type="Reshape" op_name="tower0/gradients/tower0/group1/block2/conv1/bn/batchnorm/mul_1_grad/Reshape_1"}
  %param_2.50 = f32[128]{0} parameter(2)
  %negate.54 = f32[128]{0} negate(f32[128]{0} %param_2.50), metadata={op_type="Neg" op_name="tower0/gradients/tower0/group1/block2/conv1/bn/batchnorm/sub_grad/Neg"}
  %bitcast.246 = f32[1,128,1,1]{3,2,1,0} bitcast(f32[128]{0} %negate.54), metadata={op_type="Neg" op_name="tower0/gradients/tower0/group1/block2/conv1/bn/batchnorm/sub_grad/Neg"}
  %param_1.65 = f32[1,128,1,1]{3,2,1,0} parameter(1)
  %multiply.36 = f32[1,128,1,1]{3,2,1,0} multiply(f32[1,128,1,1]{3,2,1,0} %bitcast.246, f32[1,128,1,1]{3,2,1,0} %param_1.65), metadata={op_type="Mul" op_name="tower0/gradients/tower0/group1/block2/conv1/bn/batchnorm/mul_2_grad/Mul_1"}
  %add.21 = f32[1,128,1,1]{3,2,1,0} add(f32[1,128,1,1]{3,2,1,0} %bitcast.247, f32[1,128,1,1]{3,2,1,0} %multiply.36), metadata={op_type="AddN" op_name="tower0/gradients/AddN_190"}
  %param_0.60 = f32[1,128,1,1]{3,2,1,0} parameter(0)
  %multiply.35 = f32[1,128,1,1]{3,2,1,0} multiply(f32[1,128,1,1]{3,2,1,0} %add.21, f32[1,128,1,1]{3,2,1,0} %param_0.60), metadata={op_type="Mul" op_name="tower0/gradients/tower0/group1/block2/conv1/bn/batchnorm/mul_grad/Mul_1"}
  ROOT %bitcast.245 = f32[128]{0} bitcast(f32[1,128,1,1]{3,2,1,0} %multiply.35), metadata={op_type="Reshape" op_name="tower0/gradients/tower0/group1/block2/conv1/bn/Reshape_grad/Reshape"}
}

%tower0_gradients_tower0_group1_block2_conv1_bn_batchnorm_mul_1_grad_Sum_1-reduction.3226 (x.3227: f32[], y.3228: f32[]) -> f32[] {
  %x.3227 = f32[] parameter(0)
  %y.3228 = f32[] parameter(1)
  ROOT %add.3229 = f32[] add(f32[] %x.3227, f32[] %y.3228)
}

%tower0_gradients_tower0_group1_block2_conv1_bn_batchnorm_add_1_grad_Sum_1-reduction.3236 (x.3237: f32[], y.3238: f32[]) -> f32[] {
  %x.3237 = f32[] parameter(0)
  %y.3238 = f32[] parameter(1)
  ROOT %add.3239 = f32[] add(f32[] %x.3237, f32[] %y.3238)
}

%fused_computation.23 (param_0.642: f32[1,128,100,152], param_1.881: f32[1,128,100,152], param_2.767: f32[1,128,100,152]) -> (f32[128], f32[128], f32[1,128,100,152]) {
  %param_2.767 = f32[1,128,100,152]{3,2,1,0} parameter(2)
  %constant_248 = f32[] constant(0), metadata={op_type="ZerosLike" op_name="tower0/gradients/tower0/rpn_losses/level2/logistic_loss/Select_grad/zeros_like"}
  %broadcast.200.clone.1 = f32[1,128,100,152]{3,2,1,0} broadcast(f32[] %constant_248), dimensions={}, metadata={op_type="ReluGrad" op_name="tower0/gradients/tower0/group1/block3/conv2/Relu_grad/ReluGrad"}
  %compare.6.clone.1 = pred[1,128,100,152]{3,2,1,0} compare(f32[1,128,100,152]{3,2,1,0} %param_2.767, f32[1,128,100,152]{3,2,1,0} %broadcast.200.clone.1), direction=GT, metadata={op_type="ReluGrad" op_name="tower0/gradients/tower0/group1/block2/conv1/Relu_grad/ReluGrad"}
  %param_1.881 = f32[1,128,100,152]{3,2,1,0} parameter(1)
  %select.6.clone.1 = f32[1,128,100,152]{3,2,1,0} select(pred[1,128,100,152]{3,2,1,0} %compare.6.clone.1, f32[1,128,100,152]{3,2,1,0} %param_1.881, f32[1,128,100,152]{3,2,1,0} %broadcast.200.clone.1), metadata={op_type="ReluGrad" op_name="tower0/gradients/tower0/group1/block2/conv1/Relu_grad/ReluGrad"}
  %param_0.642 = f32[1,128,100,152]{3,2,1,0} parameter(0)
  %multiply.37 = f32[1,128,100,152]{3,2,1,0} multiply(f32[1,128,100,152]{3,2,1,0} %select.6.clone.1, f32[1,128,100,152]{3,2,1,0} %param_0.642), metadata={op_type="Mul" op_name="tower0/gradients/tower0/group1/block2/conv1/bn/batchnorm/mul_1_grad/Mul_1"}
  %reduce.20 = f32[128]{0} reduce(f32[1,128,100,152]{3,2,1,0} %multiply.37, f32[] %constant_248), dimensions={0,2,3}, to_apply=%tower0_gradients_tower0_group1_block2_conv1_bn_batchnorm_mul_1_grad_Sum_1-reduction.3226, metadata={op_type="Sum" op_name="tower0/gradients/tower0/group1/block2/conv1/bn/batchnorm/mul_1_grad/Sum_1"}
  %reduce.86 = f32[128]{0} reduce(f32[1,128,100,152]{3,2,1,0} %select.6.clone.1, f32[] %constant_248), dimensions={0,2,3}, to_apply=%tower0_gradients_tower0_group1_block2_conv1_bn_batchnorm_add_1_grad_Sum_1-reduction.3236, metadata={op_type="Sum" op_name="tower0/gradients/tower0/group1/block2/conv1/bn/batchnorm/add_1_grad/Sum_1"}
  ROOT %tuple.231 = (f32[128]{0}, f32[128]{0}, f32[1,128,100,152]{3,2,1,0}) tuple(f32[128]{0} %reduce.20, f32[128]{0} %reduce.86, f32[1,128,100,152]{3,2,1,0} %select.6.clone.1)
}

%fused_computation.24 (param_0.65: f32[1,1,512,128], param_1.696: f32[1,1,512,128]) -> f32[1,1,512,128] {
  %param_0.65 = f32[1,1,512,128]{1,0,2,3} parameter(0)
  %param_1.696 = f32[1,1,512,128]{3,2,1,0} parameter(1)
  %copy.377 = f32[1,1,512,128]{1,0,2,3} copy(f32[1,1,512,128]{3,2,1,0} %param_1.696), metadata={op_name="XLA_Args"}
  %constant_317 = f32[] constant(0.0001), metadata={op_type="Const" op_name="tower0/gradients/tower0/wd_cost_internals/Square_10_grad/Mul"}
  %broadcast.167 = f32[1,1,512,128]{1,0,2,3} broadcast(f32[] %constant_317), dimensions={}, metadata={op_type="Const" op_name="tower0/gradients/tower0/wd_cost_internals/Square_10_grad/Mul"}
  %multiply.38 = f32[1,1,512,128]{1,0,2,3} multiply(f32[1,1,512,128]{1,0,2,3} %copy.377, f32[1,1,512,128]{1,0,2,3} %broadcast.167), metadata={op_type="Mul" op_name="tower0/gradients/tower0/wd_cost_internals/Square_7_grad/Mul_1"}
  %add.22 = f32[1,1,512,128]{1,0,2,3} add(f32[1,1,512,128]{1,0,2,3} %param_0.65, f32[1,1,512,128]{1,0,2,3} %multiply.38), metadata={op_type="AddN" op_name="tower0/gradients/AddN_189"}
  ROOT %copy.376 = f32[1,1,512,128]{3,2,1,0} copy(f32[1,1,512,128]{1,0,2,3} %add.22), metadata={op_name="XLA_Retvals"}
}

%fused_computation.25 (param_0.68: f32[1,128,1,1], param_1.74: f32[1,128,1,1], param_2.57: f32[128], param_3.31: f32[128]) -> f32[128] {
  %param_3.31 = f32[128]{0} parameter(3)
  %bitcast.250 = f32[1,128,1,1]{3,2,1,0} bitcast(f32[128]{0} %param_3.31), metadata={op_type="Reshape" op_name="tower0/gradients/tower0/group1/block2/conv2/bn/batchnorm/mul_1_grad/Reshape_1"}
  %param_2.57 = f32[128]{0} parameter(2)
  %negate.55 = f32[128]{0} negate(f32[128]{0} %param_2.57), metadata={op_type="Neg" op_name="tower0/gradients/tower0/group1/block2/conv2/bn/batchnorm/sub_grad/Neg"}
  %bitcast.249 = f32[1,128,1,1]{3,2,1,0} bitcast(f32[128]{0} %negate.55), metadata={op_type="Neg" op_name="tower0/gradients/tower0/group1/block2/conv2/bn/batchnorm/sub_grad/Neg"}
  %param_1.74 = f32[1,128,1,1]{3,2,1,0} parameter(1)
  %multiply.40 = f32[1,128,1,1]{3,2,1,0} multiply(f32[1,128,1,1]{3,2,1,0} %bitcast.249, f32[1,128,1,1]{3,2,1,0} %param_1.74), metadata={op_type="Mul" op_name="tower0/gradients/tower0/group1/block2/conv2/bn/batchnorm/mul_2_grad/Mul_1"}
  %add.23 = f32[1,128,1,1]{3,2,1,0} add(f32[1,128,1,1]{3,2,1,0} %bitcast.250, f32[1,128,1,1]{3,2,1,0} %multiply.40), metadata={op_type="AddN" op_name="tower0/gradients/AddN_187"}
  %param_0.68 = f32[1,128,1,1]{3,2,1,0} parameter(0)
  %multiply.39 = f32[1,128,1,1]{3,2,1,0} multiply(f32[1,128,1,1]{3,2,1,0} %add.23, f32[1,128,1,1]{3,2,1,0} %param_0.68), metadata={op_type="Mul" op_name="tower0/gradients/tower0/group1/block2/conv2/bn/batchnorm/mul_grad/Mul_1"}
  ROOT %bitcast.248 = f32[128]{0} bitcast(f32[1,128,1,1]{3,2,1,0} %multiply.39), metadata={op_type="Reshape" op_name="tower0/gradients/tower0/group1/block2/conv2/bn/Reshape_grad/Reshape"}
}

%tower0_gradients_tower0_group1_block2_conv2_bn_batchnorm_mul_1_grad_Sum_1-reduction.3253 (x.3254: f32[], y.3255: f32[]) -> f32[] {
  %x.3254 = f32[] parameter(0)
  %y.3255 = f32[] parameter(1)
  ROOT %add.3256 = f32[] add(f32[] %x.3254, f32[] %y.3255)
}

%tower0_gradients_tower0_group1_block2_conv2_bn_batchnorm_add_1_grad_Sum_1-reduction.3263 (x.3264: f32[], y.3265: f32[]) -> f32[] {
  %x.3264 = f32[] parameter(0)
  %y.3265 = f32[] parameter(1)
  ROOT %add.3266 = f32[] add(f32[] %x.3264, f32[] %y.3265)
}

%fused_computation.26 (param_0.641: f32[1,128,100,152], param_1.882: f32[1,128,100,152], param_2.768: f32[1,128,100,152]) -> (f32[128], f32[128], f32[1,128,100,152]) {
  %param_2.768 = f32[1,128,100,152]{3,2,1,0} parameter(2)
  %constant_249 = f32[] constant(0), metadata={op_type="ZerosLike" op_name="tower0/gradients/tower0/rpn_losses/level2/logistic_loss/Select_grad/zeros_like"}
  %broadcast.201.clone.1 = f32[1,128,100,152]{3,2,1,0} broadcast(f32[] %constant_249), dimensions={}, metadata={op_type="ReluGrad" op_name="tower0/gradients/tower0/group1/block3/conv2/Relu_grad/ReluGrad"}
  %compare.7.clone.1 = pred[1,128,100,152]{3,2,1,0} compare(f32[1,128,100,152]{3,2,1,0} %param_2.768, f32[1,128,100,152]{3,2,1,0} %broadcast.201.clone.1), direction=GT, metadata={op_type="ReluGrad" op_name="tower0/gradients/tower0/group1/block2/conv2/Relu_grad/ReluGrad"}
  %param_1.882 = f32[1,128,100,152]{3,2,1,0} parameter(1)
  %select.7.clone.1 = f32[1,128,100,152]{3,2,1,0} select(pred[1,128,100,152]{3,2,1,0} %compare.7.clone.1, f32[1,128,100,152]{3,2,1,0} %param_1.882, f32[1,128,100,152]{3,2,1,0} %broadcast.201.clone.1), metadata={op_type="ReluGrad" op_name="tower0/gradients/tower0/group1/block2/conv2/Relu_grad/ReluGrad"}
  %param_0.641 = f32[1,128,100,152]{3,2,1,0} parameter(0)
  %multiply.41 = f32[1,128,100,152]{3,2,1,0} multiply(f32[1,128,100,152]{3,2,1,0} %select.7.clone.1, f32[1,128,100,152]{3,2,1,0} %param_0.641), metadata={op_type="Mul" op_name="tower0/gradients/tower0/group1/block2/conv2/bn/batchnorm/mul_1_grad/Mul_1"}
  %reduce.21 = f32[128]{0} reduce(f32[1,128,100,152]{3,2,1,0} %multiply.41, f32[] %constant_249), dimensions={0,2,3}, to_apply=%tower0_gradients_tower0_group1_block2_conv2_bn_batchnorm_mul_1_grad_Sum_1-reduction.3253, metadata={op_type="Sum" op_name="tower0/gradients/tower0/group1/block2/conv2/bn/batchnorm/mul_1_grad/Sum_1"}
  %reduce.85 = f32[128]{0} reduce(f32[1,128,100,152]{3,2,1,0} %select.7.clone.1, f32[] %constant_249), dimensions={0,2,3}, to_apply=%tower0_gradients_tower0_group1_block2_conv2_bn_batchnorm_add_1_grad_Sum_1-reduction.3263, metadata={op_type="Sum" op_name="tower0/gradients/tower0/group1/block2/conv2/bn/batchnorm/add_1_grad/Sum_1"}
  ROOT %tuple.230 = (f32[128]{0}, f32[128]{0}, f32[1,128,100,152]{3,2,1,0}) tuple(f32[128]{0} %reduce.21, f32[128]{0} %reduce.85, f32[1,128,100,152]{3,2,1,0} %select.7.clone.1)
}

%fused_computation.27 (param_0.73: f32[3,3,128,128], param_1.697: f32[3,3,128,128]) -> f32[3,3,128,128] {
  %param_0.73 = f32[3,3,128,128]{1,0,2,3} parameter(0)
  %param_1.697 = f32[3,3,128,128]{3,2,1,0} parameter(1)
  %copy.455 = f32[3,3,128,128]{1,0,2,3} copy(f32[3,3,128,128]{3,2,1,0} %param_1.697), metadata={op_name="XLA_Args"}
  %constant_318 = f32[] constant(0.0001), metadata={op_type="Const" op_name="tower0/gradients/tower0/wd_cost_internals/Square_10_grad/Mul"}
  %broadcast.168 = f32[3,3,128,128]{1,0,2,3} broadcast(f32[] %constant_318), dimensions={}, metadata={op_type="Const" op_name="tower0/gradients/tower0/wd_cost_internals/Square_11_grad/Mul"}
  %multiply.42 = f32[3,3,128,128]{1,0,2,3} multiply(f32[3,3,128,128]{1,0,2,3} %copy.455, f32[3,3,128,128]{1,0,2,3} %broadcast.168), metadata={op_type="Mul" op_name="tower0/gradients/tower0/wd_cost_internals/Square_8_grad/Mul_1"}
  %add.24 = f32[3,3,128,128]{1,0,2,3} add(f32[3,3,128,128]{1,0,2,3} %param_0.73, f32[3,3,128,128]{1,0,2,3} %multiply.42), metadata={op_type="AddN" op_name="tower0/gradients/AddN_186"}
  ROOT %copy.378 = f32[3,3,128,128]{3,2,1,0} copy(f32[3,3,128,128]{1,0,2,3} %add.24), metadata={op_name="XLA_Retvals"}
}

%fused_computation.28 (param_0.76: f32[1,512,1,1], param_1.82: f32[1,512,1,1], param_2.63: f32[512], param_3.35: f32[512]) -> f32[512] {
  %param_3.35 = f32[512]{0} parameter(3)
  %bitcast.253 = f32[1,512,1,1]{3,2,1,0} bitcast(f32[512]{0} %param_3.35), metadata={op_type="Reshape" op_name="tower0/gradients/tower0/group1/block2/conv3/bn/batchnorm/mul_1_grad/Reshape_1"}
  %param_2.63 = f32[512]{0} parameter(2)
  %negate.56 = f32[512]{0} negate(f32[512]{0} %param_2.63), metadata={op_type="Neg" op_name="tower0/gradients/tower0/group1/block2/conv3/bn/batchnorm/sub_grad/Neg"}
  %bitcast.252 = f32[1,512,1,1]{3,2,1,0} bitcast(f32[512]{0} %negate.56), metadata={op_type="Neg" op_name="tower0/gradients/tower0/group1/block2/conv3/bn/batchnorm/sub_grad/Neg"}
  %param_1.82 = f32[1,512,1,1]{3,2,1,0} parameter(1)
  %multiply.44 = f32[1,512,1,1]{3,2,1,0} multiply(f32[1,512,1,1]{3,2,1,0} %bitcast.252, f32[1,512,1,1]{3,2,1,0} %param_1.82), metadata={op_type="Mul" op_name="tower0/gradients/tower0/group1/block2/conv3/bn/batchnorm/mul_2_grad/Mul_1"}
  %add.25 = f32[1,512,1,1]{3,2,1,0} add(f32[1,512,1,1]{3,2,1,0} %bitcast.253, f32[1,512,1,1]{3,2,1,0} %multiply.44), metadata={op_type="AddN" op_name="tower0/gradients/AddN_185"}
  %param_0.76 = f32[1,512,1,1]{3,2,1,0} parameter(0)
  %multiply.43 = f32[1,512,1,1]{3,2,1,0} multiply(f32[1,512,1,1]{3,2,1,0} %add.25, f32[1,512,1,1]{3,2,1,0} %param_0.76), metadata={op_type="Mul" op_name="tower0/gradients/tower0/group1/block2/conv3/bn/batchnorm/mul_grad/Mul_1"}
  ROOT %bitcast.251 = f32[512]{0} bitcast(f32[1,512,1,1]{3,2,1,0} %multiply.43), metadata={op_type="Reshape" op_name="tower0/gradients/tower0/group1/block2/conv3/bn/Reshape_grad/Reshape"}
}

%tower0_gradients_tower0_group1_block2_conv3_bn_batchnorm_mul_1_grad_Sum_1-reduction.3280 (x.3281: f32[], y.3282: f32[]) -> f32[] {
  %x.3281 = f32[] parameter(0)
  %y.3282 = f32[] parameter(1)
  ROOT %add.3283 = f32[] add(f32[] %x.3281, f32[] %y.3282)
}

%tower0_gradients_tower0_group1_block2_conv3_bn_batchnorm_add_1_grad_Sum_1-reduction.3290 (x.3291: f32[], y.3292: f32[]) -> f32[] {
  %x.3291 = f32[] parameter(0)
  %y.3292 = f32[] parameter(1)
  ROOT %add.3293 = f32[] add(f32[] %x.3291, f32[] %y.3292)
}

%fused_computation.29 (param_0.640: f32[1,512,100,152], param_1.883: f32[1,512,100,152], param_2.769: f32[1,512,100,152], param_3.492: f32[1,512,100,152]) -> (f32[512], f32[512], f32[1,512,100,152]) {
  %param_3.492 = f32[1,512,100,152]{3,2,1,0} parameter(3)
  %constant_250 = f32[] constant(0), metadata={op_type="ZerosLike" op_name="tower0/gradients/tower0/rpn_losses/level2/logistic_loss/Select_grad/zeros_like"}
  %broadcast.202.clone.1 = f32[1,512,100,152]{3,2,1,0} broadcast(f32[] %constant_250), dimensions={}, metadata={op_type="ReluGrad" op_name="tower0/gradients/tower0/group1/block3/output_grad/ReluGrad"}
  %compare.8.clone.1 = pred[1,512,100,152]{3,2,1,0} compare(f32[1,512,100,152]{3,2,1,0} %param_3.492, f32[1,512,100,152]{3,2,1,0} %broadcast.202.clone.1), direction=GT, metadata={op_type="ReluGrad" op_name="tower0/gradients/tower0/group1/block2/output_grad/ReluGrad"}
  %param_1.883 = f32[1,512,100,152]{3,2,1,0} parameter(1)
  %param_2.769 = f32[1,512,100,152]{3,2,1,0} parameter(2)
  %add.128.clone.1 = f32[1,512,100,152]{3,2,1,0} add(f32[1,512,100,152]{3,2,1,0} %param_1.883, f32[1,512,100,152]{3,2,1,0} %param_2.769), metadata={op_type="AddN" op_name="tower0/gradients/AddN_181"}
  %select.8.clone.1 = f32[1,512,100,152]{3,2,1,0} select(pred[1,512,100,152]{3,2,1,0} %compare.8.clone.1, f32[1,512,100,152]{3,2,1,0} %add.128.clone.1, f32[1,512,100,152]{3,2,1,0} %broadcast.202.clone.1), metadata={op_type="ReluGrad" op_name="tower0/gradients/tower0/group1/block2/output_grad/ReluGrad"}
  %param_0.640 = f32[1,512,100,152]{3,2,1,0} parameter(0)
  %multiply.45 = f32[1,512,100,152]{3,2,1,0} multiply(f32[1,512,100,152]{3,2,1,0} %select.8.clone.1, f32[1,512,100,152]{3,2,1,0} %param_0.640), metadata={op_type="Mul" op_name="tower0/gradients/tower0/group1/block2/conv3/bn/batchnorm/mul_1_grad/Mul_1"}
  %reduce.22 = f32[512]{0} reduce(f32[1,512,100,152]{3,2,1,0} %multiply.45, f32[] %constant_250), dimensions={0,2,3}, to_apply=%tower0_gradients_tower0_group1_block2_conv3_bn_batchnorm_mul_1_grad_Sum_1-reduction.3280, metadata={op_type="Sum" op_name="tower0/gradients/tower0/group1/block2/conv3/bn/batchnorm/mul_1_grad/Sum_1"}
  %reduce.72 = f32[512]{0} reduce(f32[1,512,100,152]{3,2,1,0} %select.8.clone.1, f32[] %constant_250), dimensions={0,2,3}, to_apply=%tower0_gradients_tower0_group1_block2_conv3_bn_batchnorm_add_1_grad_Sum_1-reduction.3290, metadata={op_type="Sum" op_name="tower0/gradients/tower0/group1/block2/conv3/bn/batchnorm/add_1_grad/Sum_1"}
  ROOT %tuple.229 = (f32[512]{0}, f32[512]{0}, f32[1,512,100,152]{3,2,1,0}) tuple(f32[512]{0} %reduce.22, f32[512]{0} %reduce.72, f32[1,512,100,152]{3,2,1,0} %select.8.clone.1)
}

%fused_computation.30 (param_0.81: f32[1,1,128,512], param_1.698: f32[1,1,128,512]) -> f32[1,1,128,512] {
  %param_0.81 = f32[1,1,128,512]{1,0,2,3} parameter(0)
  %param_1.698 = f32[1,1,128,512]{3,2,1,0} parameter(1)
  %copy.380 = f32[1,1,128,512]{1,0,2,3} copy(f32[1,1,128,512]{3,2,1,0} %param_1.698), metadata={op_name="XLA_Args"}
  %constant_319 = f32[] constant(0.0001), metadata={op_type="Const" op_name="tower0/gradients/tower0/wd_cost_internals/Square_10_grad/Mul"}
  %broadcast.169 = f32[1,1,128,512]{1,0,2,3} broadcast(f32[] %constant_319), dimensions={}, metadata={op_type="Const" op_name="tower0/gradients/tower0/wd_cost_internals/Square_2_grad/Mul"}
  %multiply.46 = f32[1,1,128,512]{1,0,2,3} multiply(f32[1,1,128,512]{1,0,2,3} %copy.380, f32[1,1,128,512]{1,0,2,3} %broadcast.169), metadata={op_type="Mul" op_name="tower0/gradients/tower0/wd_cost_internals/Square_9_grad/Mul_1"}
  %add.26 = f32[1,1,128,512]{1,0,2,3} add(f32[1,1,128,512]{1,0,2,3} %param_0.81, f32[1,1,128,512]{1,0,2,3} %multiply.46), metadata={op_type="AddN" op_name="tower0/gradients/AddN_184"}
  ROOT %copy.379 = f32[1,1,128,512]{3,2,1,0} copy(f32[1,1,128,512]{1,0,2,3} %add.26), metadata={op_name="XLA_Retvals"}
}

%fused_computation.31 (param_0.84: f32[1,128,1,1], param_1.91: f32[1,128,1,1], param_2.70: f32[128], param_3.39: f32[128]) -> f32[128] {
  %param_3.39 = f32[128]{0} parameter(3)
  %bitcast.256 = f32[1,128,1,1]{3,2,1,0} bitcast(f32[128]{0} %param_3.39), metadata={op_type="Reshape" op_name="tower0/gradients/tower0/group1/block3/conv1/bn/batchnorm/mul_1_grad/Reshape_1"}
  %param_2.70 = f32[128]{0} parameter(2)
  %negate.57 = f32[128]{0} negate(f32[128]{0} %param_2.70), metadata={op_type="Neg" op_name="tower0/gradients/tower0/group1/block3/conv1/bn/batchnorm/sub_grad/Neg"}
  %bitcast.255 = f32[1,128,1,1]{3,2,1,0} bitcast(f32[128]{0} %negate.57), metadata={op_type="Neg" op_name="tower0/gradients/tower0/group1/block3/conv1/bn/batchnorm/sub_grad/Neg"}
  %param_1.91 = f32[1,128,1,1]{3,2,1,0} parameter(1)
  %multiply.48 = f32[1,128,1,1]{3,2,1,0} multiply(f32[1,128,1,1]{3,2,1,0} %bitcast.255, f32[1,128,1,1]{3,2,1,0} %param_1.91), metadata={op_type="Mul" op_name="tower0/gradients/tower0/group1/block3/conv1/bn/batchnorm/mul_2_grad/Mul_1"}
  %add.27 = f32[1,128,1,1]{3,2,1,0} add(f32[1,128,1,1]{3,2,1,0} %bitcast.256, f32[1,128,1,1]{3,2,1,0} %multiply.48), metadata={op_type="AddN" op_name="tower0/gradients/AddN_183"}
  %param_0.84 = f32[1,128,1,1]{3,2,1,0} parameter(0)
  %multiply.47 = f32[1,128,1,1]{3,2,1,0} multiply(f32[1,128,1,1]{3,2,1,0} %add.27, f32[1,128,1,1]{3,2,1,0} %param_0.84), metadata={op_type="Mul" op_name="tower0/gradients/tower0/group1/block3/conv1/bn/batchnorm/mul_grad/Mul_1"}
  ROOT %bitcast.254 = f32[128]{0} bitcast(f32[1,128,1,1]{3,2,1,0} %multiply.47), metadata={op_type="Reshape" op_name="tower0/gradients/tower0/group1/block3/conv1/bn/Reshape_grad/Reshape"}
}

%tower0_gradients_tower0_group1_block3_conv1_bn_batchnorm_mul_1_grad_Sum_1-reduction.3307 (x.3308: f32[], y.3309: f32[]) -> f32[] {
  %x.3308 = f32[] parameter(0)
  %y.3309 = f32[] parameter(1)
  ROOT %add.3310 = f32[] add(f32[] %x.3308, f32[] %y.3309)
}

%tower0_gradients_tower0_group1_block3_conv1_bn_batchnorm_add_1_grad_Sum_1-reduction.3317 (x.3318: f32[], y.3319: f32[]) -> f32[] {
  %x.3318 = f32[] parameter(0)
  %y.3319 = f32[] parameter(1)
  ROOT %add.3320 = f32[] add(f32[] %x.3318, f32[] %y.3319)
}

%fused_computation.32 (param_0.639: f32[1,128,100,152], param_1.884: f32[1,128,100,152], param_2.770: f32[1,128,100,152]) -> (f32[128], f32[128], f32[1,128,100,152]) {
  %param_2.770 = f32[1,128,100,152]{3,2,1,0} parameter(2)
  %constant_251 = f32[] constant(0), metadata={op_type="ZerosLike" op_name="tower0/gradients/tower0/rpn_losses/level2/logistic_loss/Select_grad/zeros_like"}
  %broadcast.203.clone.1 = f32[1,128,100,152]{3,2,1,0} broadcast(f32[] %constant_251), dimensions={}, metadata={op_type="ReluGrad" op_name="tower0/gradients/tower0/group1/block3/conv2/Relu_grad/ReluGrad"}
  %compare.9.clone.1 = pred[1,128,100,152]{3,2,1,0} compare(f32[1,128,100,152]{3,2,1,0} %param_2.770, f32[1,128,100,152]{3,2,1,0} %broadcast.203.clone.1), direction=GT, metadata={op_type="ReluGrad" op_name="tower0/gradients/tower0/group1/block3/conv1/Relu_grad/ReluGrad"}
  %param_1.884 = f32[1,128,100,152]{3,2,1,0} parameter(1)
  %select.9.clone.1 = f32[1,128,100,152]{3,2,1,0} select(pred[1,128,100,152]{3,2,1,0} %compare.9.clone.1, f32[1,128,100,152]{3,2,1,0} %param_1.884, f32[1,128,100,152]{3,2,1,0} %broadcast.203.clone.1), metadata={op_type="ReluGrad" op_name="tower0/gradients/tower0/group1/block3/conv1/Relu_grad/ReluGrad"}
  %param_0.639 = f32[1,128,100,152]{3,2,1,0} parameter(0)
  %multiply.49 = f32[1,128,100,152]{3,2,1,0} multiply(f32[1,128,100,152]{3,2,1,0} %select.9.clone.1, f32[1,128,100,152]{3,2,1,0} %param_0.639), metadata={op_type="Mul" op_name="tower0/gradients/tower0/group1/block3/conv1/bn/batchnorm/mul_1_grad/Mul_1"}
  %reduce.23 = f32[128]{0} reduce(f32[1,128,100,152]{3,2,1,0} %multiply.49, f32[] %constant_251), dimensions={0,2,3}, to_apply=%tower0_gradients_tower0_group1_block3_conv1_bn_batchnorm_mul_1_grad_Sum_1-reduction.3307, metadata={op_type="Sum" op_name="tower0/gradients/tower0/group1/block3/conv1/bn/batchnorm/mul_1_grad/Sum_1"}
  %reduce.87 = f32[128]{0} reduce(f32[1,128,100,152]{3,2,1,0} %select.9.clone.1, f32[] %constant_251), dimensions={0,2,3}, to_apply=%tower0_gradients_tower0_group1_block3_conv1_bn_batchnorm_add_1_grad_Sum_1-reduction.3317, metadata={op_type="Sum" op_name="tower0/gradients/tower0/group1/block3/conv1/bn/batchnorm/add_1_grad/Sum_1"}
  ROOT %tuple.228 = (f32[128]{0}, f32[128]{0}, f32[1,128,100,152]{3,2,1,0}) tuple(f32[128]{0} %reduce.23, f32[128]{0} %reduce.87, f32[1,128,100,152]{3,2,1,0} %select.9.clone.1)
}

%fused_computation.33 (param_0.89: f32[1,1,512,128], param_1.699: f32[1,1,512,128]) -> f32[1,1,512,128] {
  %param_0.89 = f32[1,1,512,128]{1,0,2,3} parameter(0)
  %param_1.699 = f32[1,1,512,128]{3,2,1,0} parameter(1)
  %copy.382 = f32[1,1,512,128]{1,0,2,3} copy(f32[1,1,512,128]{3,2,1,0} %param_1.699), metadata={op_name="XLA_Args"}
  %constant_320 = f32[] constant(0.0001), metadata={op_type="Const" op_name="tower0/gradients/tower0/wd_cost_internals/Square_10_grad/Mul"}
  %broadcast.170 = f32[1,1,512,128]{1,0,2,3} broadcast(f32[] %constant_320), dimensions={}, metadata={op_type="Const" op_name="tower0/gradients/tower0/wd_cost_internals/Square_10_grad/Mul"}
  %multiply.50 = f32[1,1,512,128]{1,0,2,3} multiply(f32[1,1,512,128]{1,0,2,3} %copy.382, f32[1,1,512,128]{1,0,2,3} %broadcast.170), metadata={op_type="Mul" op_name="tower0/gradients/tower0/wd_cost_internals/Square_10_grad/Mul_1"}
  %add.28 = f32[1,1,512,128]{1,0,2,3} add(f32[1,1,512,128]{1,0,2,3} %param_0.89, f32[1,1,512,128]{1,0,2,3} %multiply.50), metadata={op_type="AddN" op_name="tower0/gradients/AddN_182"}
  ROOT %copy.381 = f32[1,1,512,128]{3,2,1,0} copy(f32[1,1,512,128]{1,0,2,3} %add.28), metadata={op_name="XLA_Retvals"}
}

%fused_computation.34 (param_0.92: f32[1,128,1,1], param_1.100: f32[1,128,1,1], param_2.77: f32[128], param_3.43: f32[128]) -> f32[128] {
  %param_3.43 = f32[128]{0} parameter(3)
  %bitcast.259 = f32[1,128,1,1]{3,2,1,0} bitcast(f32[128]{0} %param_3.43), metadata={op_type="Reshape" op_name="tower0/gradients/tower0/group1/block3/conv2/bn/batchnorm/mul_1_grad/Reshape_1"}
  %param_2.77 = f32[128]{0} parameter(2)
  %negate.58 = f32[128]{0} negate(f32[128]{0} %param_2.77), metadata={op_type="Neg" op_name="tower0/gradients/tower0/group1/block3/conv2/bn/batchnorm/sub_grad/Neg"}
  %bitcast.258 = f32[1,128,1,1]{3,2,1,0} bitcast(f32[128]{0} %negate.58), metadata={op_type="Neg" op_name="tower0/gradients/tower0/group1/block3/conv2/bn/batchnorm/sub_grad/Neg"}
  %param_1.100 = f32[1,128,1,1]{3,2,1,0} parameter(1)
  %multiply.52 = f32[1,128,1,1]{3,2,1,0} multiply(f32[1,128,1,1]{3,2,1,0} %bitcast.258, f32[1,128,1,1]{3,2,1,0} %param_1.100), metadata={op_type="Mul" op_name="tower0/gradients/tower0/group1/block3/conv2/bn/batchnorm/mul_2_grad/Mul_1"}
  %add.29 = f32[1,128,1,1]{3,2,1,0} add(f32[1,128,1,1]{3,2,1,0} %bitcast.259, f32[1,128,1,1]{3,2,1,0} %multiply.52), metadata={op_type="AddN" op_name="tower0/gradients/AddN_180"}
  %param_0.92 = f32[1,128,1,1]{3,2,1,0} parameter(0)
  %multiply.51 = f32[1,128,1,1]{3,2,1,0} multiply(f32[1,128,1,1]{3,2,1,0} %add.29, f32[1,128,1,1]{3,2,1,0} %param_0.92), metadata={op_type="Mul" op_name="tower0/gradients/tower0/group1/block3/conv2/bn/batchnorm/mul_grad/Mul_1"}
  ROOT %bitcast.257 = f32[128]{0} bitcast(f32[1,128,1,1]{3,2,1,0} %multiply.51), metadata={op_type="Reshape" op_name="tower0/gradients/tower0/group1/block3/conv2/bn/Reshape_grad/Reshape"}
}

%tower0_gradients_tower0_group1_block3_conv2_bn_batchnorm_mul_1_grad_Sum_1-reduction.3334 (x.3335: f32[], y.3336: f32[]) -> f32[] {
  %x.3335 = f32[] parameter(0)
  %y.3336 = f32[] parameter(1)
  ROOT %add.3337 = f32[] add(f32[] %x.3335, f32[] %y.3336)
}

%tower0_gradients_tower0_group1_block3_conv2_bn_batchnorm_add_1_grad_Sum_1-reduction.3344 (x.3345: f32[], y.3346: f32[]) -> f32[] {
  %x.3345 = f32[] parameter(0)
  %y.3346 = f32[] parameter(1)
  ROOT %add.3347 = f32[] add(f32[] %x.3345, f32[] %y.3346)
}

%fused_computation.35 (param_0.638: f32[1,128,100,152], param_1.885: f32[1,128,100,152], param_2.771: f32[1,128,100,152]) -> (f32[128], f32[128], f32[1,128,100,152]) {
  %param_2.771 = f32[1,128,100,152]{3,2,1,0} parameter(2)
  %constant_252 = f32[] constant(0), metadata={op_type="ZerosLike" op_name="tower0/gradients/tower0/rpn_losses/level2/logistic_loss/Select_grad/zeros_like"}
  %broadcast.204.clone.1 = f32[1,128,100,152]{3,2,1,0} broadcast(f32[] %constant_252), dimensions={}, metadata={op_type="ReluGrad" op_name="tower0/gradients/tower0/group1/block3/conv2/Relu_grad/ReluGrad"}
  %compare.10.clone.1 = pred[1,128,100,152]{3,2,1,0} compare(f32[1,128,100,152]{3,2,1,0} %param_2.771, f32[1,128,100,152]{3,2,1,0} %broadcast.204.clone.1), direction=GT, metadata={op_type="ReluGrad" op_name="tower0/gradients/tower0/group1/block3/conv2/Relu_grad/ReluGrad"}
  %param_1.885 = f32[1,128,100,152]{3,2,1,0} parameter(1)
  %select.10.clone.1 = f32[1,128,100,152]{3,2,1,0} select(pred[1,128,100,152]{3,2,1,0} %compare.10.clone.1, f32[1,128,100,152]{3,2,1,0} %param_1.885, f32[1,128,100,152]{3,2,1,0} %broadcast.204.clone.1), metadata={op_type="ReluGrad" op_name="tower0/gradients/tower0/group1/block3/conv2/Relu_grad/ReluGrad"}
  %param_0.638 = f32[1,128,100,152]{3,2,1,0} parameter(0)
  %multiply.53 = f32[1,128,100,152]{3,2,1,0} multiply(f32[1,128,100,152]{3,2,1,0} %select.10.clone.1, f32[1,128,100,152]{3,2,1,0} %param_0.638), metadata={op_type="Mul" op_name="tower0/gradients/tower0/group1/block3/conv2/bn/batchnorm/mul_1_grad/Mul_1"}
  %reduce.24 = f32[128]{0} reduce(f32[1,128,100,152]{3,2,1,0} %multiply.53, f32[] %constant_252), dimensions={0,2,3}, to_apply=%tower0_gradients_tower0_group1_block3_conv2_bn_batchnorm_mul_1_grad_Sum_1-reduction.3334, metadata={op_type="Sum" op_name="tower0/gradients/tower0/group1/block3/conv2/bn/batchnorm/mul_1_grad/Sum_1"}
  %reduce.88 = f32[128]{0} reduce(f32[1,128,100,152]{3,2,1,0} %select.10.clone.1, f32[] %constant_252), dimensions={0,2,3}, to_apply=%tower0_gradients_tower0_group1_block3_conv2_bn_batchnorm_add_1_grad_Sum_1-reduction.3344, metadata={op_type="Sum" op_name="tower0/gradients/tower0/group1/block3/conv2/bn/batchnorm/add_1_grad/Sum_1"}
  ROOT %tuple.227 = (f32[128]{0}, f32[128]{0}, f32[1,128,100,152]{3,2,1,0}) tuple(f32[128]{0} %reduce.24, f32[128]{0} %reduce.88, f32[1,128,100,152]{3,2,1,0} %select.10.clone.1)
}

%fused_computation.36 (param_0.97: f32[3,3,128,128], param_1.700: f32[3,3,128,128]) -> f32[3,3,128,128] {
  %param_0.97 = f32[3,3,128,128]{1,0,2,3} parameter(0)
  %param_1.700 = f32[3,3,128,128]{3,2,1,0} parameter(1)
  %copy.456 = f32[3,3,128,128]{1,0,2,3} copy(f32[3,3,128,128]{3,2,1,0} %param_1.700), metadata={op_name="XLA_Args"}
  %constant_321 = f32[] constant(0.0001), metadata={op_type="Const" op_name="tower0/gradients/tower0/wd_cost_internals/Square_10_grad/Mul"}
  %broadcast.171 = f32[3,3,128,128]{1,0,2,3} broadcast(f32[] %constant_321), dimensions={}, metadata={op_type="Const" op_name="tower0/gradients/tower0/wd_cost_internals/Square_11_grad/Mul"}
  %multiply.54 = f32[3,3,128,128]{1,0,2,3} multiply(f32[3,3,128,128]{1,0,2,3} %copy.456, f32[3,3,128,128]{1,0,2,3} %broadcast.171), metadata={op_type="Mul" op_name="tower0/gradients/tower0/wd_cost_internals/Square_11_grad/Mul_1"}
  %add.30 = f32[3,3,128,128]{1,0,2,3} add(f32[3,3,128,128]{1,0,2,3} %param_0.97, f32[3,3,128,128]{1,0,2,3} %multiply.54), metadata={op_type="AddN" op_name="tower0/gradients/AddN_179"}
  ROOT %copy.383 = f32[3,3,128,128]{3,2,1,0} copy(f32[3,3,128,128]{1,0,2,3} %add.30), metadata={op_name="XLA_Retvals"}
}

%fused_computation.37 (param_0.100: f32[1,512,1,1], param_1.108: f32[1,512,1,1], param_2.83: f32[512], param_3.47: f32[512]) -> f32[512] {
  %param_3.47 = f32[512]{0} parameter(3)
  %bitcast.262 = f32[1,512,1,1]{3,2,1,0} bitcast(f32[512]{0} %param_3.47), metadata={op_type="Reshape" op_name="tower0/gradients/tower0/group1/block3/conv3/bn/batchnorm/mul_1_grad/Reshape_1"}
  %param_2.83 = f32[512]{0} parameter(2)
  %negate.59 = f32[512]{0} negate(f32[512]{0} %param_2.83), metadata={op_type="Neg" op_name="tower0/gradients/tower0/group1/block3/conv3/bn/batchnorm/sub_grad/Neg"}
  %bitcast.261 = f32[1,512,1,1]{3,2,1,0} bitcast(f32[512]{0} %negate.59), metadata={op_type="Neg" op_name="tower0/gradients/tower0/group1/block3/conv3/bn/batchnorm/sub_grad/Neg"}
  %param_1.108 = f32[1,512,1,1]{3,2,1,0} parameter(1)
  %multiply.56 = f32[1,512,1,1]{3,2,1,0} multiply(f32[1,512,1,1]{3,2,1,0} %bitcast.261, f32[1,512,1,1]{3,2,1,0} %param_1.108), metadata={op_type="Mul" op_name="tower0/gradients/tower0/group1/block3/conv3/bn/batchnorm/mul_2_grad/Mul_1"}
  %add.31 = f32[1,512,1,1]{3,2,1,0} add(f32[1,512,1,1]{3,2,1,0} %bitcast.262, f32[1,512,1,1]{3,2,1,0} %multiply.56), metadata={op_type="AddN" op_name="tower0/gradients/AddN_178"}
  %param_0.100 = f32[1,512,1,1]{3,2,1,0} parameter(0)
  %multiply.55 = f32[1,512,1,1]{3,2,1,0} multiply(f32[1,512,1,1]{3,2,1,0} %add.31, f32[1,512,1,1]{3,2,1,0} %param_0.100), metadata={op_type="Mul" op_name="tower0/gradients/tower0/group1/block3/conv3/bn/batchnorm/mul_grad/Mul_1"}
  ROOT %bitcast.260 = f32[512]{0} bitcast(f32[1,512,1,1]{3,2,1,0} %multiply.55), metadata={op_type="Reshape" op_name="tower0/gradients/tower0/group1/block3/conv3/bn/Reshape_grad/Reshape"}
}

%tower0_gradients_tower0_group1_block3_conv3_bn_batchnorm_mul_1_grad_Sum_1-reduction.3361 (x.3362: f32[], y.3363: f32[]) -> f32[] {
  %x.3362 = f32[] parameter(0)
  %y.3363 = f32[] parameter(1)
  ROOT %add.3364 = f32[] add(f32[] %x.3362, f32[] %y.3363)
}

%tower0_gradients_tower0_group1_block3_conv3_bn_batchnorm_add_1_grad_Sum_1-reduction.3371 (x.3372: f32[], y.3373: f32[]) -> f32[] {
  %x.3372 = f32[] parameter(0)
  %y.3373 = f32[] parameter(1)
  ROOT %add.3374 = f32[] add(f32[] %x.3372, f32[] %y.3373)
}

%fused_computation.38 (param_0.637: f32[1,512,100,152], param_1.886: f32[1,512,100,152], param_2.772: f32[1,512,100,152], param_3.493: f32[1,512,100,152], param_4.242: f32[1,512,100,152]) -> (f32[512], f32[512], f32[1,512,100,152]) {
  %param_4.242 = f32[1,512,100,152]{3,2,1,0} parameter(4)
  %constant_253 = f32[] constant(0), metadata={op_type="ZerosLike" op_name="tower0/gradients/tower0/rpn_losses/level2/logistic_loss/Select_grad/zeros_like"}
  %broadcast.205.clone.1 = f32[1,512,100,152]{3,2,1,0} broadcast(f32[] %constant_253), dimensions={}, metadata={op_type="ReluGrad" op_name="tower0/gradients/tower0/group1/block3/output_grad/ReluGrad"}
  %compare.11.clone.1 = pred[1,512,100,152]{3,2,1,0} compare(f32[1,512,100,152]{3,2,1,0} %param_4.242, f32[1,512,100,152]{3,2,1,0} %broadcast.205.clone.1), direction=GT, metadata={op_type="ReluGrad" op_name="tower0/gradients/tower0/group1/block3/output_grad/ReluGrad"}
  %param_2.772 = f32[1,512,100,152]{3,2,1,0} parameter(2)
  %param_3.493 = f32[1,512,100,152]{3,2,1,0} parameter(3)
  %add.130.clone.1 = f32[1,512,100,152]{3,2,1,0} add(f32[1,512,100,152]{3,2,1,0} %param_2.772, f32[1,512,100,152]{3,2,1,0} %param_3.493), metadata={op_type="AddN" op_name="tower0/gradients/AddN_174"}
  %param_1.886 = f32[1,512,100,152]{3,2,1,0} parameter(1)
  %add.129.clone.1 = f32[1,512,100,152]{3,2,1,0} add(f32[1,512,100,152]{3,2,1,0} %add.130.clone.1, f32[1,512,100,152]{3,2,1,0} %param_1.886), metadata={op_type="AddN" op_name="tower0/gradients/AddN_174"}
  %select.11.clone.1 = f32[1,512,100,152]{3,2,1,0} select(pred[1,512,100,152]{3,2,1,0} %compare.11.clone.1, f32[1,512,100,152]{3,2,1,0} %add.129.clone.1, f32[1,512,100,152]{3,2,1,0} %broadcast.205.clone.1), metadata={op_type="ReluGrad" op_name="tower0/gradients/tower0/group1/block3/output_grad/ReluGrad"}
  %param_0.637 = f32[1,512,100,152]{3,2,1,0} parameter(0)
  %multiply.57 = f32[1,512,100,152]{3,2,1,0} multiply(f32[1,512,100,152]{3,2,1,0} %select.11.clone.1, f32[1,512,100,152]{3,2,1,0} %param_0.637), metadata={op_type="Mul" op_name="tower0/gradients/tower0/group1/block3/conv3/bn/batchnorm/mul_1_grad/Mul_1"}
  %reduce.25 = f32[512]{0} reduce(f32[1,512,100,152]{3,2,1,0} %multiply.57, f32[] %constant_253), dimensions={0,2,3}, to_apply=%tower0_gradients_tower0_group1_block3_conv3_bn_batchnorm_mul_1_grad_Sum_1-reduction.3361, metadata={op_type="Sum" op_name="tower0/gradients/tower0/group1/block3/conv3/bn/batchnorm/mul_1_grad/Sum_1"}
  %reduce.71 = f32[512]{0} reduce(f32[1,512,100,152]{3,2,1,0} %select.11.clone.1, f32[] %constant_253), dimensions={0,2,3}, to_apply=%tower0_gradients_tower0_group1_block3_conv3_bn_batchnorm_add_1_grad_Sum_1-reduction.3371, metadata={op_type="Sum" op_name="tower0/gradients/tower0/group1/block3/conv3/bn/batchnorm/add_1_grad/Sum_1"}
  ROOT %tuple.226 = (f32[512]{0}, f32[512]{0}, f32[1,512,100,152]{3,2,1,0}) tuple(f32[512]{0} %reduce.25, f32[512]{0} %reduce.71, f32[1,512,100,152]{3,2,1,0} %select.11.clone.1)
}

%fused_computation.39 (param_0.105: f32[1,1,128,512], param_1.701: f32[1,1,128,512]) -> f32[1,1,128,512] {
  %param_0.105 = f32[1,1,128,512]{1,0,2,3} parameter(0)
  %param_1.701 = f32[1,1,128,512]{3,2,1,0} parameter(1)
  %copy.385 = f32[1,1,128,512]{1,0,2,3} copy(f32[1,1,128,512]{3,2,1,0} %param_1.701), metadata={op_name="XLA_Args"}
  %constant_322 = f32[] constant(0.0001), metadata={op_type="Const" op_name="tower0/gradients/tower0/wd_cost_internals/Square_10_grad/Mul"}
  %broadcast.172 = f32[1,1,128,512]{1,0,2,3} broadcast(f32[] %constant_322), dimensions={}, metadata={op_type="Const" op_name="tower0/gradients/tower0/wd_cost_internals/Square_2_grad/Mul"}
  %multiply.58 = f32[1,1,128,512]{1,0,2,3} multiply(f32[1,1,128,512]{1,0,2,3} %copy.385, f32[1,1,128,512]{1,0,2,3} %broadcast.172), metadata={op_type="Mul" op_name="tower0/gradients/tower0/wd_cost_internals/Square_12_grad/Mul_1"}
  %add.32 = f32[1,1,128,512]{1,0,2,3} add(f32[1,1,128,512]{1,0,2,3} %param_0.105, f32[1,1,128,512]{1,0,2,3} %multiply.58), metadata={op_type="AddN" op_name="tower0/gradients/AddN_177"}
  ROOT %copy.384 = f32[1,1,128,512]{3,2,1,0} copy(f32[1,1,128,512]{1,0,2,3} %add.32), metadata={op_name="XLA_Retvals"}
}

%fused_computation.40 (param_0.108: f32[1,256,1,1], param_1.117: f32[1,256,1,1], param_2.90: f32[256], param_3.51: f32[256]) -> f32[256] {
  %param_3.51 = f32[256]{0} parameter(3)
  %bitcast.265 = f32[1,256,1,1]{3,2,1,0} bitcast(f32[256]{0} %param_3.51), metadata={op_type="Reshape" op_name="tower0/gradients/tower0/group2/block0/conv1/bn/batchnorm/mul_1_grad/Reshape_1"}
  %param_2.90 = f32[256]{0} parameter(2)
  %negate.60 = f32[256]{0} negate(f32[256]{0} %param_2.90), metadata={op_type="Neg" op_name="tower0/gradients/tower0/group2/block0/conv1/bn/batchnorm/sub_grad/Neg"}
  %bitcast.264 = f32[1,256,1,1]{3,2,1,0} bitcast(f32[256]{0} %negate.60), metadata={op_type="Neg" op_name="tower0/gradients/tower0/group2/block0/conv1/bn/batchnorm/sub_grad/Neg"}
  %param_1.117 = f32[1,256,1,1]{3,2,1,0} parameter(1)
  %multiply.60 = f32[1,256,1,1]{3,2,1,0} multiply(f32[1,256,1,1]{3,2,1,0} %bitcast.264, f32[1,256,1,1]{3,2,1,0} %param_1.117), metadata={op_type="Mul" op_name="tower0/gradients/tower0/group2/block0/conv1/bn/batchnorm/mul_2_grad/Mul_1"}
  %add.33 = f32[1,256,1,1]{3,2,1,0} add(f32[1,256,1,1]{3,2,1,0} %bitcast.265, f32[1,256,1,1]{3,2,1,0} %multiply.60), metadata={op_type="AddN" op_name="tower0/gradients/AddN_176"}
  %param_0.108 = f32[1,256,1,1]{3,2,1,0} parameter(0)
  %multiply.59 = f32[1,256,1,1]{3,2,1,0} multiply(f32[1,256,1,1]{3,2,1,0} %add.33, f32[1,256,1,1]{3,2,1,0} %param_0.108), metadata={op_type="Mul" op_name="tower0/gradients/tower0/group2/block0/conv1/bn/batchnorm/mul_grad/Mul_1"}
  ROOT %bitcast.263 = f32[256]{0} bitcast(f32[1,256,1,1]{3,2,1,0} %multiply.59), metadata={op_type="Reshape" op_name="tower0/gradients/tower0/group2/block0/conv1/bn/Reshape_grad/Reshape"}
}

%tower0_gradients_tower0_group2_block0_conv1_bn_batchnorm_mul_1_grad_Sum_1-reduction.2525 (x.2526: f32[], y.2527: f32[]) -> f32[] {
  %x.2526 = f32[] parameter(0)
  %y.2527 = f32[] parameter(1)
  ROOT %add.2528 = f32[] add(f32[] %x.2526, f32[] %y.2527)
}

%tower0_gradients_tower0_group2_block0_conv1_bn_batchnorm_add_1_grad_Sum_1-reduction.2535 (x.2536: f32[], y.2537: f32[]) -> f32[] {
  %x.2536 = f32[] parameter(0)
  %y.2537 = f32[] parameter(1)
  ROOT %add.2538 = f32[] add(f32[] %x.2536, f32[] %y.2537)
}

%fused_computation.41 (param_0.636: f32[1,256,100,152], param_1.887: f32[1,256,101,153], param_2.773: f32[1,256,100,152]) -> (f32[256], f32[256], f32[1,256,100,152]) {
  %param_2.773 = f32[1,256,100,152]{3,2,1,0} parameter(2)
  %constant_254 = f32[] constant(0), metadata={op_type="ZerosLike" op_name="tower0/gradients/tower0/rpn_losses/level2/logistic_loss/Select_grad/zeros_like"}
  %broadcast.206.clone.1 = f32[1,256,100,152]{3,2,1,0} broadcast(f32[] %constant_254), dimensions={}, metadata={op_type="ReluGrad" op_name="tower0/gradients/tower0/rpn_1/conv0/Relu_grad/ReluGrad"}
  %compare.12.clone.1 = pred[1,256,100,152]{3,2,1,0} compare(f32[1,256,100,152]{3,2,1,0} %param_2.773, f32[1,256,100,152]{3,2,1,0} %broadcast.206.clone.1), direction=GT, metadata={op_type="ReluGrad" op_name="tower0/gradients/tower0/group2/block0/conv1/Relu_grad/ReluGrad"}
  %param_1.887 = f32[1,256,101,153]{3,2,1,0} parameter(1)
  %slice.1.clone.1 = f32[1,256,100,152]{3,2,1,0} slice(f32[1,256,101,153]{3,2,1,0} %param_1.887), slice={[0:1], [0:256], [1:101], [1:153]}, metadata={op_type="Slice" op_name="tower0/gradients/tower0/group2/block0/Pad_grad/Slice_1"}
  %select.12.clone.1 = f32[1,256,100,152]{3,2,1,0} select(pred[1,256,100,152]{3,2,1,0} %compare.12.clone.1, f32[1,256,100,152]{3,2,1,0} %slice.1.clone.1, f32[1,256,100,152]{3,2,1,0} %broadcast.206.clone.1), metadata={op_type="ReluGrad" op_name="tower0/gradients/tower0/group2/block0/conv1/Relu_grad/ReluGrad"}
  %param_0.636 = f32[1,256,100,152]{3,2,1,0} parameter(0)
  %multiply.61 = f32[1,256,100,152]{3,2,1,0} multiply(f32[1,256,100,152]{3,2,1,0} %select.12.clone.1, f32[1,256,100,152]{3,2,1,0} %param_0.636), metadata={op_type="Mul" op_name="tower0/gradients/tower0/group2/block0/conv1/bn/batchnorm/mul_1_grad/Mul_1"}
  %reduce.26 = f32[256]{0} reduce(f32[1,256,100,152]{3,2,1,0} %multiply.61, f32[] %constant_254), dimensions={0,2,3}, to_apply=%tower0_gradients_tower0_group2_block0_conv1_bn_batchnorm_mul_1_grad_Sum_1-reduction.2525, metadata={op_type="Sum" op_name="tower0/gradients/tower0/group2/block0/conv1/bn/batchnorm/mul_1_grad/Sum_1"}
  %reduce.77 = f32[256]{0} reduce(f32[1,256,100,152]{3,2,1,0} %select.12.clone.1, f32[] %constant_254), dimensions={0,2,3}, to_apply=%tower0_gradients_tower0_group2_block0_conv1_bn_batchnorm_add_1_grad_Sum_1-reduction.2535, metadata={op_type="Sum" op_name="tower0/gradients/tower0/group2/block0/conv1/bn/batchnorm/add_1_grad/Sum_1"}
  ROOT %tuple.225 = (f32[256]{0}, f32[256]{0}, f32[1,256,100,152]{3,2,1,0}) tuple(f32[256]{0} %reduce.26, f32[256]{0} %reduce.77, f32[1,256,100,152]{3,2,1,0} %select.12.clone.1)
}

%fused_computation.42 (param_0.113: f32[1,1,512,256], param_1.702: f32[1,1,512,256]) -> f32[1,1,512,256] {
  %param_0.113 = f32[1,1,512,256]{1,0,2,3} parameter(0)
  %param_1.702 = f32[1,1,512,256]{3,2,1,0} parameter(1)
  %copy.387 = f32[1,1,512,256]{1,0,2,3} copy(f32[1,1,512,256]{3,2,1,0} %param_1.702), metadata={op_name="XLA_Args"}
  %constant_323 = f32[] constant(0.0001), metadata={op_type="Const" op_name="tower0/gradients/tower0/wd_cost_internals/Square_10_grad/Mul"}
  %broadcast.173 = f32[1,1,512,256]{1,0,2,3} broadcast(f32[] %constant_323), dimensions={}, metadata={op_type="Const" op_name="tower0/gradients/tower0/wd_cost_internals/Square_13_grad/Mul"}
  %multiply.62 = f32[1,1,512,256]{1,0,2,3} multiply(f32[1,1,512,256]{1,0,2,3} %copy.387, f32[1,1,512,256]{1,0,2,3} %broadcast.173), metadata={op_type="Mul" op_name="tower0/gradients/tower0/wd_cost_internals/Square_13_grad/Mul_1"}
  %add.34 = f32[1,1,512,256]{1,0,2,3} add(f32[1,1,512,256]{1,0,2,3} %param_0.113, f32[1,1,512,256]{1,0,2,3} %multiply.62), metadata={op_type="AddN" op_name="tower0/gradients/AddN_175"}
  ROOT %copy.386 = f32[1,1,512,256]{3,2,1,0} copy(f32[1,1,512,256]{1,0,2,3} %add.34), metadata={op_name="XLA_Retvals"}
}

%fused_computation.43 (param_0.116: f32[1,256,1,1], param_1.126: f32[1,256,1,1], param_2.97: f32[256], param_3.55: f32[256]) -> f32[256] {
  %param_3.55 = f32[256]{0} parameter(3)
  %bitcast.268 = f32[1,256,1,1]{3,2,1,0} bitcast(f32[256]{0} %param_3.55), metadata={op_type="Reshape" op_name="tower0/gradients/tower0/group2/block0/conv2/bn/batchnorm/mul_1_grad/Reshape_1"}
  %param_2.97 = f32[256]{0} parameter(2)
  %negate.61 = f32[256]{0} negate(f32[256]{0} %param_2.97), metadata={op_type="Neg" op_name="tower0/gradients/tower0/group2/block0/conv2/bn/batchnorm/sub_grad/Neg"}
  %bitcast.267 = f32[1,256,1,1]{3,2,1,0} bitcast(f32[256]{0} %negate.61), metadata={op_type="Neg" op_name="tower0/gradients/tower0/group2/block0/conv2/bn/batchnorm/sub_grad/Neg"}
  %param_1.126 = f32[1,256,1,1]{3,2,1,0} parameter(1)
  %multiply.64 = f32[1,256,1,1]{3,2,1,0} multiply(f32[1,256,1,1]{3,2,1,0} %bitcast.267, f32[1,256,1,1]{3,2,1,0} %param_1.126), metadata={op_type="Mul" op_name="tower0/gradients/tower0/group2/block0/conv2/bn/batchnorm/mul_2_grad/Mul_1"}
  %add.35 = f32[1,256,1,1]{3,2,1,0} add(f32[1,256,1,1]{3,2,1,0} %bitcast.268, f32[1,256,1,1]{3,2,1,0} %multiply.64), metadata={op_type="AddN" op_name="tower0/gradients/AddN_173"}
  %param_0.116 = f32[1,256,1,1]{3,2,1,0} parameter(0)
  %multiply.63 = f32[1,256,1,1]{3,2,1,0} multiply(f32[1,256,1,1]{3,2,1,0} %add.35, f32[1,256,1,1]{3,2,1,0} %param_0.116), metadata={op_type="Mul" op_name="tower0/gradients/tower0/group2/block0/conv2/bn/batchnorm/mul_grad/Mul_1"}
  ROOT %bitcast.266 = f32[256]{0} bitcast(f32[1,256,1,1]{3,2,1,0} %multiply.63), metadata={op_type="Reshape" op_name="tower0/gradients/tower0/group2/block0/conv2/bn/Reshape_grad/Reshape"}
}

%tower0_gradients_tower0_group2_block0_conv2_bn_batchnorm_mul_1_grad_Sum_1-reduction.2552 (x.2553: f32[], y.2554: f32[]) -> f32[] {
  %x.2553 = f32[] parameter(0)
  %y.2554 = f32[] parameter(1)
  ROOT %add.2555 = f32[] add(f32[] %x.2553, f32[] %y.2554)
}

%tower0_gradients_tower0_group2_block0_conv2_bn_batchnorm_add_1_grad_Sum_1-reduction.2562 (x.2563: f32[], y.2564: f32[]) -> f32[] {
  %x.2563 = f32[] parameter(0)
  %y.2564 = f32[] parameter(1)
  ROOT %add.2565 = f32[] add(f32[] %x.2563, f32[] %y.2564)
}

%fused_computation.44 (param_0.635: f32[1,256,50,76], param_1.888: f32[1,256,50,76], param_2.774: f32[1,256,50,76]) -> (f32[256], f32[256], f32[1,256,50,76]) {
  %param_2.774 = f32[1,256,50,76]{3,2,1,0} parameter(2)
  %constant_255 = f32[] constant(0), metadata={op_type="ZerosLike" op_name="tower0/gradients/tower0/rpn_losses/level2/logistic_loss/Select_grad/zeros_like"}
  %broadcast.207.clone.1 = f32[1,256,50,76]{3,2,1,0} broadcast(f32[] %constant_255), dimensions={}, metadata={op_type="ReluGrad" op_name="tower0/gradients/tower0/rpn_2/conv0/Relu_grad/ReluGrad"}
  %compare.13.clone.1 = pred[1,256,50,76]{3,2,1,0} compare(f32[1,256,50,76]{3,2,1,0} %param_2.774, f32[1,256,50,76]{3,2,1,0} %broadcast.207.clone.1), direction=GT, metadata={op_type="ReluGrad" op_name="tower0/gradients/tower0/group2/block0/conv2/Relu_grad/ReluGrad"}
  %param_1.888 = f32[1,256,50,76]{3,2,1,0} parameter(1)
  %select.13.clone.1 = f32[1,256,50,76]{3,2,1,0} select(pred[1,256,50,76]{3,2,1,0} %compare.13.clone.1, f32[1,256,50,76]{3,2,1,0} %param_1.888, f32[1,256,50,76]{3,2,1,0} %broadcast.207.clone.1), metadata={op_type="ReluGrad" op_name="tower0/gradients/tower0/group2/block0/conv2/Relu_grad/ReluGrad"}
  %param_0.635 = f32[1,256,50,76]{3,2,1,0} parameter(0)
  %multiply.65 = f32[1,256,50,76]{3,2,1,0} multiply(f32[1,256,50,76]{3,2,1,0} %select.13.clone.1, f32[1,256,50,76]{3,2,1,0} %param_0.635), metadata={op_type="Mul" op_name="tower0/gradients/tower0/group2/block0/conv2/bn/batchnorm/mul_1_grad/Mul_1"}
  %reduce.27 = f32[256]{0} reduce(f32[1,256,50,76]{3,2,1,0} %multiply.65, f32[] %constant_255), dimensions={0,2,3}, to_apply=%tower0_gradients_tower0_group2_block0_conv2_bn_batchnorm_mul_1_grad_Sum_1-reduction.2552, metadata={op_type="Sum" op_name="tower0/gradients/tower0/group2/block0/conv2/bn/batchnorm/mul_1_grad/Sum_1"}
  %reduce.95 = f32[256]{0} reduce(f32[1,256,50,76]{3,2,1,0} %select.13.clone.1, f32[] %constant_255), dimensions={0,2,3}, to_apply=%tower0_gradients_tower0_group2_block0_conv2_bn_batchnorm_add_1_grad_Sum_1-reduction.2562, metadata={op_type="Sum" op_name="tower0/gradients/tower0/group2/block0/conv2/bn/batchnorm/add_1_grad/Sum_1"}
  ROOT %tuple.224 = (f32[256]{0}, f32[256]{0}, f32[1,256,50,76]{3,2,1,0}) tuple(f32[256]{0} %reduce.27, f32[256]{0} %reduce.95, f32[1,256,50,76]{3,2,1,0} %select.13.clone.1)
}

%fused_computation.48 (param_0.130: f32[1,1024,1,1], param_1.795: f32[1,1024,1,1], param_2.578: f32[1024], param_3.298: f32[1024], param_4.87: f32[1,1024,1,1], param_5.76: f32[1,1024,1,1], param_6.70: f32[1024]) -> (f32[1024], f32[1024]) {
  %param_2.578 = f32[1024]{0} parameter(2)
  %bitcast.272 = f32[1,1024,1,1]{3,2,1,0} bitcast(f32[1024]{0} %param_2.578), metadata={op_type="Reshape" op_name="tower0/gradients/tower0/group2/block0/convshortcut/bn/batchnorm/mul_1_grad/Reshape_1"}
  %param_3.298 = f32[1024]{0} parameter(3)
  %negate.104 = f32[1024]{0} negate(f32[1024]{0} %param_3.298), metadata={op_type="Neg" op_name="tower0/gradients/tower0/group2/block0/convshortcut/bn/batchnorm/sub_grad/Neg"}
  %bitcast.415 = f32[1,1024,1,1]{3,2,1,0} bitcast(f32[1024]{0} %negate.104), metadata={op_type="Neg" op_name="tower0/gradients/tower0/group2/block0/convshortcut/bn/batchnorm/sub_grad/Neg"}
  %param_1.795 = f32[1,1024,1,1]{3,2,1,0} parameter(1)
  %multiply.71 = f32[1,1024,1,1]{3,2,1,0} multiply(f32[1,1024,1,1]{3,2,1,0} %bitcast.415, f32[1,1024,1,1]{3,2,1,0} %param_1.795), metadata={op_type="Mul" op_name="tower0/gradients/tower0/group2/block0/convshortcut/bn/batchnorm/mul_2_grad/Mul_1"}
  %add.38 = f32[1,1024,1,1]{3,2,1,0} add(f32[1,1024,1,1]{3,2,1,0} %bitcast.272, f32[1,1024,1,1]{3,2,1,0} %multiply.71), metadata={op_type="AddN" op_name="tower0/gradients/AddN_171"}
  %param_0.130 = f32[1,1024,1,1]{3,2,1,0} parameter(0)
  %multiply.70 = f32[1,1024,1,1]{3,2,1,0} multiply(f32[1,1024,1,1]{3,2,1,0} %add.38, f32[1,1024,1,1]{3,2,1,0} %param_0.130), metadata={op_type="Mul" op_name="tower0/gradients/tower0/group2/block0/convshortcut/bn/batchnorm/mul_grad/Mul_1"}
  %bitcast.271 = f32[1024]{0} bitcast(f32[1,1024,1,1]{3,2,1,0} %multiply.70), metadata={op_type="Reshape" op_name="tower0/gradients/tower0/group2/block0/convshortcut/bn/Reshape_grad/Reshape"}
  %param_6.70 = f32[1024]{0} parameter(6)
  %bitcast.270.clone.1 = f32[1,1024,1,1]{3,2,1,0} bitcast(f32[1024]{0} %param_6.70), metadata={op_type="Reshape" op_name="tower0/gradients/tower0/group2/block0/conv3/bn/batchnorm/mul_1_grad/Reshape_1"}
  %param_5.76 = f32[1,1024,1,1]{3,2,1,0} parameter(5)
  %multiply.68.clone.1 = f32[1,1024,1,1]{3,2,1,0} multiply(f32[1,1024,1,1]{3,2,1,0} %bitcast.415, f32[1,1024,1,1]{3,2,1,0} %param_5.76), metadata={op_type="Mul" op_name="tower0/gradients/tower0/group2/block0/conv3/bn/batchnorm/mul_2_grad/Mul_1"}
  %add.37.clone.1 = f32[1,1024,1,1]{3,2,1,0} add(f32[1,1024,1,1]{3,2,1,0} %bitcast.270.clone.1, f32[1,1024,1,1]{3,2,1,0} %multiply.68.clone.1), metadata={op_type="AddN" op_name="tower0/gradients/AddN_169"}
  %param_4.87 = f32[1,1024,1,1]{3,2,1,0} parameter(4)
  %multiply.67.clone.1 = f32[1,1024,1,1]{3,2,1,0} multiply(f32[1,1024,1,1]{3,2,1,0} %add.37.clone.1, f32[1,1024,1,1]{3,2,1,0} %param_4.87), metadata={op_type="Mul" op_name="tower0/gradients/tower0/group2/block0/conv3/bn/batchnorm/mul_grad/Mul_1"}
  %bitcast.269.clone.1 = f32[1024]{0} bitcast(f32[1,1024,1,1]{3,2,1,0} %multiply.67.clone.1), metadata={op_type="Reshape" op_name="tower0/gradients/tower0/group2/block0/conv3/bn/Reshape_grad/Reshape"}
  ROOT %tuple.185 = (f32[1024]{0}, f32[1024]{0}) tuple(f32[1024]{0} %bitcast.271, f32[1024]{0} %bitcast.269.clone.1)
}

%tower0_gradients_tower0_group2_block0_convshortcut_bn_batchnorm_mul_1_grad_Sum_1-reduction.3388 (x.3389: f32[], y.3390: f32[]) -> f32[] {
  %x.3389 = f32[] parameter(0)
  %y.3390 = f32[] parameter(1)
  ROOT %add.3391 = f32[] add(f32[] %x.3389, f32[] %y.3390)
}

%tower0_gradients_tower0_group2_block0_convshortcut_bn_batchnorm_add_1_grad_Sum_1-reduction.3398 (x.3399: f32[], y.3400: f32[]) -> f32[] {
  %x.3399 = f32[] parameter(0)
  %y.3400 = f32[] parameter(1)
  ROOT %add.3401 = f32[] add(f32[] %x.3399, f32[] %y.3400)
}

%tower0_gradients_tower0_group2_block0_conv3_bn_batchnorm_mul_1_grad_Sum_1-reduction.2579 (x.2580: f32[], y.2581: f32[]) -> f32[] {
  %x.2580 = f32[] parameter(0)
  %y.2581 = f32[] parameter(1)
  ROOT %add.2582 = f32[] add(f32[] %x.2580, f32[] %y.2581)
}

%fused_computation.50 (param_0.634: f32[1,1024,50,76], param_1.889: f32[1,1024,50,76], param_2.775: f32[1,1024,50,76], param_3.494: f32[1,1024,50,76], param_4.243: f32[1,1024,50,76]) -> (f32[1024], f32[1024], f32[1024], f32[1,1024,50,76]) {
  %param_4.243 = f32[1,1024,50,76]{3,2,1,0} parameter(4)
  %constant_257 = f32[] constant(0), metadata={op_type="ZerosLike" op_name="tower0/gradients/tower0/rpn_losses/level2/logistic_loss/Select_grad/zeros_like"}
  %broadcast.208.clone.1 = f32[1,1024,50,76]{3,2,1,0} broadcast(f32[] %constant_257), dimensions={}, metadata={op_type="ReluGrad" op_name="tower0/gradients/tower0/group2/block5/output_grad/ReluGrad"}
  %compare.14.clone.1 = pred[1,1024,50,76]{3,2,1,0} compare(f32[1,1024,50,76]{3,2,1,0} %param_4.243, f32[1,1024,50,76]{3,2,1,0} %broadcast.208.clone.1), direction=GT, metadata={op_type="ReluGrad" op_name="tower0/gradients/tower0/group2/block0/output_grad/ReluGrad"}
  %param_2.775 = f32[1,1024,50,76]{3,2,1,0} parameter(2)
  %param_3.494 = f32[1,1024,50,76]{3,2,1,0} parameter(3)
  %add.131.clone.1 = f32[1,1024,50,76]{3,2,1,0} add(f32[1,1024,50,76]{3,2,1,0} %param_2.775, f32[1,1024,50,76]{3,2,1,0} %param_3.494), metadata={op_type="AddN" op_name="tower0/gradients/AddN_165"}
  %select.14.clone.1 = f32[1,1024,50,76]{3,2,1,0} select(pred[1,1024,50,76]{3,2,1,0} %compare.14.clone.1, f32[1,1024,50,76]{3,2,1,0} %add.131.clone.1, f32[1,1024,50,76]{3,2,1,0} %broadcast.208.clone.1), metadata={op_type="ReluGrad" op_name="tower0/gradients/tower0/group2/block0/output_grad/ReluGrad"}
  %param_0.634 = f32[1,1024,50,76]{3,2,1,0} parameter(0)
  %multiply.72 = f32[1,1024,50,76]{3,2,1,0} multiply(f32[1,1024,50,76]{3,2,1,0} %select.14.clone.1, f32[1,1024,50,76]{3,2,1,0} %param_0.634), metadata={op_type="Mul" op_name="tower0/gradients/tower0/group2/block0/convshortcut/bn/batchnorm/mul_1_grad/Mul_1"}
  %reduce.29 = f32[1024]{0} reduce(f32[1,1024,50,76]{3,2,1,0} %multiply.72, f32[] %constant_257), dimensions={0,2,3}, to_apply=%tower0_gradients_tower0_group2_block0_convshortcut_bn_batchnorm_mul_1_grad_Sum_1-reduction.3388, metadata={op_type="Sum" op_name="tower0/gradients/tower0/group2/block0/convshortcut/bn/batchnorm/mul_1_grad/Sum_1"}
  %reduce.79 = f32[1024]{0} reduce(f32[1,1024,50,76]{3,2,1,0} %select.14.clone.1, f32[] %constant_257), dimensions={0,2,3}, to_apply=%tower0_gradients_tower0_group2_block0_convshortcut_bn_batchnorm_add_1_grad_Sum_1-reduction.3398, metadata={op_type="Sum" op_name="tower0/gradients/tower0/group2/block0/convshortcut/bn/batchnorm/add_1_grad/Sum_1"}
  %param_1.889 = f32[1,1024,50,76]{3,2,1,0} parameter(1)
  %multiply.69.clone.1 = f32[1,1024,50,76]{3,2,1,0} multiply(f32[1,1024,50,76]{3,2,1,0} %select.14.clone.1, f32[1,1024,50,76]{3,2,1,0} %param_1.889), metadata={op_type="Mul" op_name="tower0/gradients/tower0/group2/block0/conv3/bn/batchnorm/mul_1_grad/Mul_1"}
  %reduce.28.clone.1 = f32[1024]{0} reduce(f32[1,1024,50,76]{3,2,1,0} %multiply.69.clone.1, f32[] %constant_257), dimensions={0,2,3}, to_apply=%tower0_gradients_tower0_group2_block0_conv3_bn_batchnorm_mul_1_grad_Sum_1-reduction.2579, metadata={op_type="Sum" op_name="tower0/gradients/tower0/group2/block0/conv3/bn/batchnorm/mul_1_grad/Sum_1"}
  ROOT %tuple.223 = (f32[1024]{0}, f32[1024]{0}, f32[1024]{0}, f32[1,1024,50,76]{3,2,1,0}) tuple(f32[1024]{0} %reduce.29, f32[1024]{0} %reduce.79, f32[1024]{0} %reduce.28.clone.1, f32[1,1024,50,76]{3,2,1,0} %select.14.clone.1)
}

%fused_computation.51 (param_0.137: f32[1,1,256,1024], param_1.704: f32[1,1,256,1024]) -> f32[1,1,256,1024] {
  %param_0.137 = f32[1,1,256,1024]{1,0,2,3} parameter(0)
  %param_1.704 = f32[1,1,256,1024]{3,2,1,0} parameter(1)
  %copy.390 = f32[1,1,256,1024]{1,0,2,3} copy(f32[1,1,256,1024]{3,2,1,0} %param_1.704), metadata={op_name="XLA_Args"}
  %constant_324 = f32[] constant(0.0001), metadata={op_type="Const" op_name="tower0/gradients/tower0/wd_cost_internals/Square_10_grad/Mul"}
  %broadcast.174 = f32[1,1,256,1024]{1,0,2,3} broadcast(f32[] %constant_324), dimensions={}, metadata={op_type="Const" op_name="tower0/gradients/tower0/wd_cost_internals/Square_31_grad/Mul"}
  %multiply.73 = f32[1,1,256,1024]{1,0,2,3} multiply(f32[1,1,256,1024]{1,0,2,3} %copy.390, f32[1,1,256,1024]{1,0,2,3} %broadcast.174), metadata={op_type="Mul" op_name="tower0/gradients/tower0/wd_cost_internals/Square_15_grad/Mul_1"}
  %add.39 = f32[1,1,256,1024]{1,0,2,3} add(f32[1,1,256,1024]{1,0,2,3} %param_0.137, f32[1,1,256,1024]{1,0,2,3} %multiply.73), metadata={op_type="AddN" op_name="tower0/gradients/AddN_168"}
  ROOT %copy.389 = f32[1,1,256,1024]{3,2,1,0} copy(f32[1,1,256,1024]{1,0,2,3} %add.39), metadata={op_name="XLA_Retvals"}
}

%fused_computation.52 (param_0.139: f32[1,1,512,1024], param_1.705: f32[1,1,512,1024]) -> f32[1,1,512,1024] {
  %param_0.139 = f32[1,1,512,1024]{1,0,2,3} parameter(0)
  %param_1.705 = f32[1,1,512,1024]{3,2,1,0} parameter(1)
  %copy.459 = f32[1,1,512,1024]{1,0,2,3} copy(f32[1,1,512,1024]{3,2,1,0} %param_1.705), metadata={op_name="XLA_Args"}
  %constant_258 = f32[] constant(0.0001), metadata={op_type="Const" op_name="tower0/gradients/tower0/wd_cost_internals/Square_10_grad/Mul"}
  %broadcast.69 = f32[1,1,512,1024]{1,0,2,3} broadcast(f32[] %constant_258), dimensions={}, metadata={op_type="Const" op_name="tower0/gradients/tower0/wd_cost_internals/Square_16_grad/Mul"}
  %multiply.74 = f32[1,1,512,1024]{1,0,2,3} multiply(f32[1,1,512,1024]{1,0,2,3} %copy.459, f32[1,1,512,1024]{1,0,2,3} %broadcast.69), metadata={op_type="Mul" op_name="tower0/gradients/tower0/wd_cost_internals/Square_16_grad/Mul_1"}
  %add.40 = f32[1,1,512,1024]{1,0,2,3} add(f32[1,1,512,1024]{1,0,2,3} %param_0.139, f32[1,1,512,1024]{1,0,2,3} %multiply.74), metadata={op_type="AddN" op_name="tower0/gradients/AddN_170"}
  ROOT %copy.391 = f32[1,1,512,1024]{3,2,1,0} copy(f32[1,1,512,1024]{1,0,2,3} %add.40), metadata={op_name="XLA_Retvals"}
}

%fused_computation.53 (param_0.142: f32[1,256,1,1], param_1.151: f32[1,256,1,1], param_2.115: f32[256], param_3.63: f32[256]) -> f32[256] {
  %param_3.63 = f32[256]{0} parameter(3)
  %bitcast.276 = f32[1,256,1,1]{3,2,1,0} bitcast(f32[256]{0} %param_3.63), metadata={op_type="Reshape" op_name="tower0/gradients/tower0/group2/block1/conv1/bn/batchnorm/mul_1_grad/Reshape_1"}
  %param_2.115 = f32[256]{0} parameter(2)
  %negate.63 = f32[256]{0} negate(f32[256]{0} %param_2.115), metadata={op_type="Neg" op_name="tower0/gradients/tower0/group2/block1/conv1/bn/batchnorm/sub_grad/Neg"}
  %bitcast.275 = f32[1,256,1,1]{3,2,1,0} bitcast(f32[256]{0} %negate.63), metadata={op_type="Neg" op_name="tower0/gradients/tower0/group2/block1/conv1/bn/batchnorm/sub_grad/Neg"}
  %param_1.151 = f32[1,256,1,1]{3,2,1,0} parameter(1)
  %multiply.76 = f32[1,256,1,1]{3,2,1,0} multiply(f32[1,256,1,1]{3,2,1,0} %bitcast.275, f32[1,256,1,1]{3,2,1,0} %param_1.151), metadata={op_type="Mul" op_name="tower0/gradients/tower0/group2/block1/conv1/bn/batchnorm/mul_2_grad/Mul_1"}
  %add.41 = f32[1,256,1,1]{3,2,1,0} add(f32[1,256,1,1]{3,2,1,0} %bitcast.276, f32[1,256,1,1]{3,2,1,0} %multiply.76), metadata={op_type="AddN" op_name="tower0/gradients/AddN_167"}
  %param_0.142 = f32[1,256,1,1]{3,2,1,0} parameter(0)
  %multiply.75 = f32[1,256,1,1]{3,2,1,0} multiply(f32[1,256,1,1]{3,2,1,0} %add.41, f32[1,256,1,1]{3,2,1,0} %param_0.142), metadata={op_type="Mul" op_name="tower0/gradients/tower0/group2/block1/conv1/bn/batchnorm/mul_grad/Mul_1"}
  ROOT %bitcast.274 = f32[256]{0} bitcast(f32[1,256,1,1]{3,2,1,0} %multiply.75), metadata={op_type="Reshape" op_name="tower0/gradients/tower0/group2/block1/conv1/bn/Reshape_grad/Reshape"}
}

%tower0_gradients_tower0_group2_block1_conv1_bn_batchnorm_mul_1_grad_Sum_1-reduction.3415 (x.3416: f32[], y.3417: f32[]) -> f32[] {
  %x.3416 = f32[] parameter(0)
  %y.3417 = f32[] parameter(1)
  ROOT %add.3418 = f32[] add(f32[] %x.3416, f32[] %y.3417)
}

%tower0_gradients_tower0_group2_block1_conv1_bn_batchnorm_add_1_grad_Sum_1-reduction.3425 (x.3426: f32[], y.3427: f32[]) -> f32[] {
  %x.3426 = f32[] parameter(0)
  %y.3427 = f32[] parameter(1)
  ROOT %add.3428 = f32[] add(f32[] %x.3426, f32[] %y.3427)
}

%fused_computation.54 (param_0.633: f32[1,256,50,76], param_1.890: f32[1,256,50,76], param_2.776: f32[1,256,50,76]) -> (f32[256], f32[256], f32[1,256,50,76]) {
  %param_2.776 = f32[1,256,50,76]{3,2,1,0} parameter(2)
  %constant_259 = f32[] constant(0), metadata={op_type="ZerosLike" op_name="tower0/gradients/tower0/rpn_losses/level2/logistic_loss/Select_grad/zeros_like"}
  %broadcast.209.clone.1 = f32[1,256,50,76]{3,2,1,0} broadcast(f32[] %constant_259), dimensions={}, metadata={op_type="ReluGrad" op_name="tower0/gradients/tower0/rpn_2/conv0/Relu_grad/ReluGrad"}
  %compare.15.clone.1 = pred[1,256,50,76]{3,2,1,0} compare(f32[1,256,50,76]{3,2,1,0} %param_2.776, f32[1,256,50,76]{3,2,1,0} %broadcast.209.clone.1), direction=GT, metadata={op_type="ReluGrad" op_name="tower0/gradients/tower0/group2/block1/conv1/Relu_grad/ReluGrad"}
  %param_1.890 = f32[1,256,50,76]{3,2,1,0} parameter(1)
  %select.15.clone.1 = f32[1,256,50,76]{3,2,1,0} select(pred[1,256,50,76]{3,2,1,0} %compare.15.clone.1, f32[1,256,50,76]{3,2,1,0} %param_1.890, f32[1,256,50,76]{3,2,1,0} %broadcast.209.clone.1), metadata={op_type="ReluGrad" op_name="tower0/gradients/tower0/group2/block1/conv1/Relu_grad/ReluGrad"}
  %param_0.633 = f32[1,256,50,76]{3,2,1,0} parameter(0)
  %multiply.77 = f32[1,256,50,76]{3,2,1,0} multiply(f32[1,256,50,76]{3,2,1,0} %select.15.clone.1, f32[1,256,50,76]{3,2,1,0} %param_0.633), metadata={op_type="Mul" op_name="tower0/gradients/tower0/group2/block1/conv1/bn/batchnorm/mul_1_grad/Mul_1"}
  %reduce.30 = f32[256]{0} reduce(f32[1,256,50,76]{3,2,1,0} %multiply.77, f32[] %constant_259), dimensions={0,2,3}, to_apply=%tower0_gradients_tower0_group2_block1_conv1_bn_batchnorm_mul_1_grad_Sum_1-reduction.3415, metadata={op_type="Sum" op_name="tower0/gradients/tower0/group2/block1/conv1/bn/batchnorm/mul_1_grad/Sum_1"}
  %reduce.99 = f32[256]{0} reduce(f32[1,256,50,76]{3,2,1,0} %select.15.clone.1, f32[] %constant_259), dimensions={0,2,3}, to_apply=%tower0_gradients_tower0_group2_block1_conv1_bn_batchnorm_add_1_grad_Sum_1-reduction.3425, metadata={op_type="Sum" op_name="tower0/gradients/tower0/group2/block1/conv1/bn/batchnorm/add_1_grad/Sum_1"}
  ROOT %tuple.222 = (f32[256]{0}, f32[256]{0}, f32[1,256,50,76]{3,2,1,0}) tuple(f32[256]{0} %reduce.30, f32[256]{0} %reduce.99, f32[1,256,50,76]{3,2,1,0} %select.15.clone.1)
}

%fused_computation.55 (param_0.147: f32[1,1,1024,256], param_1.706: f32[1,1,1024,256]) -> f32[1,1,1024,256] {
  %param_0.147 = f32[1,1,1024,256]{1,0,2,3} parameter(0)
  %param_1.706 = f32[1,1,1024,256]{3,2,1,0} parameter(1)
  %copy.393 = f32[1,1,1024,256]{1,0,2,3} copy(f32[1,1,1024,256]{3,2,1,0} %param_1.706), metadata={op_name="XLA_Args"}
  %constant_325 = f32[] constant(0.0001), metadata={op_type="Const" op_name="tower0/gradients/tower0/wd_cost_internals/Square_10_grad/Mul"}
  %broadcast.175 = f32[1,1,1024,256]{1,0,2,3} broadcast(f32[] %constant_325), dimensions={}, metadata={op_type="Const" op_name="tower0/gradients/tower0/wd_cost_internals/Square_29_grad/Mul"}
  %multiply.78 = f32[1,1,1024,256]{1,0,2,3} multiply(f32[1,1,1024,256]{1,0,2,3} %copy.393, f32[1,1,1024,256]{1,0,2,3} %broadcast.175), metadata={op_type="Mul" op_name="tower0/gradients/tower0/wd_cost_internals/Square_17_grad/Mul_1"}
  %add.42 = f32[1,1,1024,256]{1,0,2,3} add(f32[1,1,1024,256]{1,0,2,3} %param_0.147, f32[1,1,1024,256]{1,0,2,3} %multiply.78), metadata={op_type="AddN" op_name="tower0/gradients/AddN_166"}
  ROOT %copy.392 = f32[1,1,1024,256]{3,2,1,0} copy(f32[1,1,1024,256]{1,0,2,3} %add.42), metadata={op_name="XLA_Retvals"}
}

%fused_computation.56 (param_0.150: f32[1,256,1,1], param_1.160: f32[1,256,1,1], param_2.122: f32[256], param_3.67: f32[256]) -> f32[256] {
  %param_3.67 = f32[256]{0} parameter(3)
  %bitcast.279 = f32[1,256,1,1]{3,2,1,0} bitcast(f32[256]{0} %param_3.67), metadata={op_type="Reshape" op_name="tower0/gradients/tower0/group2/block1/conv2/bn/batchnorm/mul_1_grad/Reshape_1"}
  %param_2.122 = f32[256]{0} parameter(2)
  %negate.64 = f32[256]{0} negate(f32[256]{0} %param_2.122), metadata={op_type="Neg" op_name="tower0/gradients/tower0/group2/block1/conv2/bn/batchnorm/sub_grad/Neg"}
  %bitcast.278 = f32[1,256,1,1]{3,2,1,0} bitcast(f32[256]{0} %negate.64), metadata={op_type="Neg" op_name="tower0/gradients/tower0/group2/block1/conv2/bn/batchnorm/sub_grad/Neg"}
  %param_1.160 = f32[1,256,1,1]{3,2,1,0} parameter(1)
  %multiply.80 = f32[1,256,1,1]{3,2,1,0} multiply(f32[1,256,1,1]{3,2,1,0} %bitcast.278, f32[1,256,1,1]{3,2,1,0} %param_1.160), metadata={op_type="Mul" op_name="tower0/gradients/tower0/group2/block1/conv2/bn/batchnorm/mul_2_grad/Mul_1"}
  %add.43 = f32[1,256,1,1]{3,2,1,0} add(f32[1,256,1,1]{3,2,1,0} %bitcast.279, f32[1,256,1,1]{3,2,1,0} %multiply.80), metadata={op_type="AddN" op_name="tower0/gradients/AddN_164"}
  %param_0.150 = f32[1,256,1,1]{3,2,1,0} parameter(0)
  %multiply.79 = f32[1,256,1,1]{3,2,1,0} multiply(f32[1,256,1,1]{3,2,1,0} %add.43, f32[1,256,1,1]{3,2,1,0} %param_0.150), metadata={op_type="Mul" op_name="tower0/gradients/tower0/group2/block1/conv2/bn/batchnorm/mul_grad/Mul_1"}
  ROOT %bitcast.277 = f32[256]{0} bitcast(f32[1,256,1,1]{3,2,1,0} %multiply.79), metadata={op_type="Reshape" op_name="tower0/gradients/tower0/group2/block1/conv2/bn/Reshape_grad/Reshape"}
}

%tower0_gradients_tower0_group2_block1_conv2_bn_batchnorm_mul_1_grad_Sum_1-reduction.3442 (x.3443: f32[], y.3444: f32[]) -> f32[] {
  %x.3443 = f32[] parameter(0)
  %y.3444 = f32[] parameter(1)
  ROOT %add.3445 = f32[] add(f32[] %x.3443, f32[] %y.3444)
}

%tower0_gradients_tower0_group2_block1_conv2_bn_batchnorm_add_1_grad_Sum_1-reduction.3452 (x.3453: f32[], y.3454: f32[]) -> f32[] {
  %x.3453 = f32[] parameter(0)
  %y.3454 = f32[] parameter(1)
  ROOT %add.3455 = f32[] add(f32[] %x.3453, f32[] %y.3454)
}

%fused_computation.57 (param_0.632: f32[1,256,50,76], param_1.891: f32[1,256,50,76], param_2.777: f32[1,256,50,76]) -> (f32[256], f32[256], f32[1,256,50,76]) {
  %param_2.777 = f32[1,256,50,76]{3,2,1,0} parameter(2)
  %constant_260 = f32[] constant(0), metadata={op_type="ZerosLike" op_name="tower0/gradients/tower0/rpn_losses/level2/logistic_loss/Select_grad/zeros_like"}
  %broadcast.210.clone.1 = f32[1,256,50,76]{3,2,1,0} broadcast(f32[] %constant_260), dimensions={}, metadata={op_type="ReluGrad" op_name="tower0/gradients/tower0/rpn_2/conv0/Relu_grad/ReluGrad"}
  %compare.16.clone.1 = pred[1,256,50,76]{3,2,1,0} compare(f32[1,256,50,76]{3,2,1,0} %param_2.777, f32[1,256,50,76]{3,2,1,0} %broadcast.210.clone.1), direction=GT, metadata={op_type="ReluGrad" op_name="tower0/gradients/tower0/group2/block1/conv2/Relu_grad/ReluGrad"}
  %param_1.891 = f32[1,256,50,76]{3,2,1,0} parameter(1)
  %select.16.clone.1 = f32[1,256,50,76]{3,2,1,0} select(pred[1,256,50,76]{3,2,1,0} %compare.16.clone.1, f32[1,256,50,76]{3,2,1,0} %param_1.891, f32[1,256,50,76]{3,2,1,0} %broadcast.210.clone.1), metadata={op_type="ReluGrad" op_name="tower0/gradients/tower0/group2/block1/conv2/Relu_grad/ReluGrad"}
  %param_0.632 = f32[1,256,50,76]{3,2,1,0} parameter(0)
  %multiply.81 = f32[1,256,50,76]{3,2,1,0} multiply(f32[1,256,50,76]{3,2,1,0} %select.16.clone.1, f32[1,256,50,76]{3,2,1,0} %param_0.632), metadata={op_type="Mul" op_name="tower0/gradients/tower0/group2/block1/conv2/bn/batchnorm/mul_1_grad/Mul_1"}
  %reduce.31 = f32[256]{0} reduce(f32[1,256,50,76]{3,2,1,0} %multiply.81, f32[] %constant_260), dimensions={0,2,3}, to_apply=%tower0_gradients_tower0_group2_block1_conv2_bn_batchnorm_mul_1_grad_Sum_1-reduction.3442, metadata={op_type="Sum" op_name="tower0/gradients/tower0/group2/block1/conv2/bn/batchnorm/mul_1_grad/Sum_1"}
  %reduce.98 = f32[256]{0} reduce(f32[1,256,50,76]{3,2,1,0} %select.16.clone.1, f32[] %constant_260), dimensions={0,2,3}, to_apply=%tower0_gradients_tower0_group2_block1_conv2_bn_batchnorm_add_1_grad_Sum_1-reduction.3452, metadata={op_type="Sum" op_name="tower0/gradients/tower0/group2/block1/conv2/bn/batchnorm/add_1_grad/Sum_1"}
  ROOT %tuple.221 = (f32[256]{0}, f32[256]{0}, f32[1,256,50,76]{3,2,1,0}) tuple(f32[256]{0} %reduce.31, f32[256]{0} %reduce.98, f32[1,256,50,76]{3,2,1,0} %select.16.clone.1)
}

%fused_computation.59 (param_0.158: f32[1,1024,1,1], param_1.168: f32[1,1024,1,1], param_2.128: f32[1024], param_3.71: f32[1024]) -> f32[1024] {
  %param_3.71 = f32[1024]{0} parameter(3)
  %bitcast.282 = f32[1,1024,1,1]{3,2,1,0} bitcast(f32[1024]{0} %param_3.71), metadata={op_type="Reshape" op_name="tower0/gradients/tower0/group2/block1/conv3/bn/batchnorm/mul_1_grad/Reshape_1"}
  %param_2.128 = f32[1024]{0} parameter(2)
  %negate.65 = f32[1024]{0} negate(f32[1024]{0} %param_2.128), metadata={op_type="Neg" op_name="tower0/gradients/tower0/group2/block1/conv3/bn/batchnorm/sub_grad/Neg"}
  %bitcast.281 = f32[1,1024,1,1]{3,2,1,0} bitcast(f32[1024]{0} %negate.65), metadata={op_type="Neg" op_name="tower0/gradients/tower0/group2/block1/conv3/bn/batchnorm/sub_grad/Neg"}
  %param_1.168 = f32[1,1024,1,1]{3,2,1,0} parameter(1)
  %multiply.84 = f32[1,1024,1,1]{3,2,1,0} multiply(f32[1,1024,1,1]{3,2,1,0} %bitcast.281, f32[1,1024,1,1]{3,2,1,0} %param_1.168), metadata={op_type="Mul" op_name="tower0/gradients/tower0/group2/block1/conv3/bn/batchnorm/mul_2_grad/Mul_1"}
  %add.45 = f32[1,1024,1,1]{3,2,1,0} add(f32[1,1024,1,1]{3,2,1,0} %bitcast.282, f32[1,1024,1,1]{3,2,1,0} %multiply.84), metadata={op_type="AddN" op_name="tower0/gradients/AddN_162"}
  %param_0.158 = f32[1,1024,1,1]{3,2,1,0} parameter(0)
  %multiply.83 = f32[1,1024,1,1]{3,2,1,0} multiply(f32[1,1024,1,1]{3,2,1,0} %add.45, f32[1,1024,1,1]{3,2,1,0} %param_0.158), metadata={op_type="Mul" op_name="tower0/gradients/tower0/group2/block1/conv3/bn/batchnorm/mul_grad/Mul_1"}
  ROOT %bitcast.280 = f32[1024]{0} bitcast(f32[1,1024,1,1]{3,2,1,0} %multiply.83), metadata={op_type="Reshape" op_name="tower0/gradients/tower0/group2/block1/conv3/bn/Reshape_grad/Reshape"}
}

%tower0_gradients_tower0_group2_block1_conv3_bn_batchnorm_mul_1_grad_Sum_1-reduction.3469 (x.3470: f32[], y.3471: f32[]) -> f32[] {
  %x.3470 = f32[] parameter(0)
  %y.3471 = f32[] parameter(1)
  ROOT %add.3472 = f32[] add(f32[] %x.3470, f32[] %y.3471)
}

%tower0_gradients_tower0_group2_block1_conv3_bn_batchnorm_add_1_grad_Sum_1-reduction.3479 (x.3480: f32[], y.3481: f32[]) -> f32[] {
  %x.3480 = f32[] parameter(0)
  %y.3481 = f32[] parameter(1)
  ROOT %add.3482 = f32[] add(f32[] %x.3480, f32[] %y.3481)
}

%fused_computation.60 (param_0.631: f32[1,1024,50,76], param_1.892: f32[1,1024,50,76], param_2.778: f32[1,1024,50,76], param_3.495: f32[1,1024,50,76]) -> (f32[1024], f32[1024], f32[1,1024,50,76]) {
  %param_3.495 = f32[1,1024,50,76]{3,2,1,0} parameter(3)
  %constant_261 = f32[] constant(0), metadata={op_type="ZerosLike" op_name="tower0/gradients/tower0/rpn_losses/level2/logistic_loss/Select_grad/zeros_like"}
  %broadcast.211.clone.1 = f32[1,1024,50,76]{3,2,1,0} broadcast(f32[] %constant_261), dimensions={}, metadata={op_type="ReluGrad" op_name="tower0/gradients/tower0/group2/block5/output_grad/ReluGrad"}
  %compare.17.clone.1 = pred[1,1024,50,76]{3,2,1,0} compare(f32[1,1024,50,76]{3,2,1,0} %param_3.495, f32[1,1024,50,76]{3,2,1,0} %broadcast.211.clone.1), direction=GT, metadata={op_type="ReluGrad" op_name="tower0/gradients/tower0/group2/block1/output_grad/ReluGrad"}
  %param_1.892 = f32[1,1024,50,76]{3,2,1,0} parameter(1)
  %param_2.778 = f32[1,1024,50,76]{3,2,1,0} parameter(2)
  %add.132.clone.1 = f32[1,1024,50,76]{3,2,1,0} add(f32[1,1024,50,76]{3,2,1,0} %param_1.892, f32[1,1024,50,76]{3,2,1,0} %param_2.778), metadata={op_type="AddN" op_name="tower0/gradients/AddN_158"}
  %select.17.clone.1 = f32[1,1024,50,76]{3,2,1,0} select(pred[1,1024,50,76]{3,2,1,0} %compare.17.clone.1, f32[1,1024,50,76]{3,2,1,0} %add.132.clone.1, f32[1,1024,50,76]{3,2,1,0} %broadcast.211.clone.1), metadata={op_type="ReluGrad" op_name="tower0/gradients/tower0/group2/block1/output_grad/ReluGrad"}
  %param_0.631 = f32[1,1024,50,76]{3,2,1,0} parameter(0)
  %multiply.85 = f32[1,1024,50,76]{3,2,1,0} multiply(f32[1,1024,50,76]{3,2,1,0} %select.17.clone.1, f32[1,1024,50,76]{3,2,1,0} %param_0.631), metadata={op_type="Mul" op_name="tower0/gradients/tower0/group2/block1/conv3/bn/batchnorm/mul_1_grad/Mul_1"}
  %reduce.32 = f32[1024]{0} reduce(f32[1,1024,50,76]{3,2,1,0} %multiply.85, f32[] %constant_261), dimensions={0,2,3}, to_apply=%tower0_gradients_tower0_group2_block1_conv3_bn_batchnorm_mul_1_grad_Sum_1-reduction.3469, metadata={op_type="Sum" op_name="tower0/gradients/tower0/group2/block1/conv3/bn/batchnorm/mul_1_grad/Sum_1"}
  %reduce.78 = f32[1024]{0} reduce(f32[1,1024,50,76]{3,2,1,0} %select.17.clone.1, f32[] %constant_261), dimensions={0,2,3}, to_apply=%tower0_gradients_tower0_group2_block1_conv3_bn_batchnorm_add_1_grad_Sum_1-reduction.3479, metadata={op_type="Sum" op_name="tower0/gradients/tower0/group2/block1/conv3/bn/batchnorm/add_1_grad/Sum_1"}
  ROOT %tuple.220 = (f32[1024]{0}, f32[1024]{0}, f32[1,1024,50,76]{3,2,1,0}) tuple(f32[1024]{0} %reduce.32, f32[1024]{0} %reduce.78, f32[1,1024,50,76]{3,2,1,0} %select.17.clone.1)
}

%fused_computation.61 (param_0.163: f32[1,1,256,1024], param_1.708: f32[1,1,256,1024]) -> f32[1,1,256,1024] {
  %param_0.163 = f32[1,1,256,1024]{1,0,2,3} parameter(0)
  %param_1.708 = f32[1,1,256,1024]{3,2,1,0} parameter(1)
  %copy.396 = f32[1,1,256,1024]{1,0,2,3} copy(f32[1,1,256,1024]{3,2,1,0} %param_1.708), metadata={op_name="XLA_Args"}
  %constant_326 = f32[] constant(0.0001), metadata={op_type="Const" op_name="tower0/gradients/tower0/wd_cost_internals/Square_10_grad/Mul"}
  %broadcast.176 = f32[1,1,256,1024]{1,0,2,3} broadcast(f32[] %constant_326), dimensions={}, metadata={op_type="Const" op_name="tower0/gradients/tower0/wd_cost_internals/Square_31_grad/Mul"}
  %multiply.86 = f32[1,1,256,1024]{1,0,2,3} multiply(f32[1,1,256,1024]{1,0,2,3} %copy.396, f32[1,1,256,1024]{1,0,2,3} %broadcast.176), metadata={op_type="Mul" op_name="tower0/gradients/tower0/wd_cost_internals/Square_19_grad/Mul_1"}
  %add.46 = f32[1,1,256,1024]{1,0,2,3} add(f32[1,1,256,1024]{1,0,2,3} %param_0.163, f32[1,1,256,1024]{1,0,2,3} %multiply.86), metadata={op_type="AddN" op_name="tower0/gradients/AddN_161"}
  ROOT %copy.395 = f32[1,1,256,1024]{3,2,1,0} copy(f32[1,1,256,1024]{1,0,2,3} %add.46), metadata={op_name="XLA_Retvals"}
}

%fused_computation.62 (param_0.166: f32[1,256,1,1], param_1.177: f32[1,256,1,1], param_2.135: f32[256], param_3.75: f32[256]) -> f32[256] {
  %param_3.75 = f32[256]{0} parameter(3)
  %bitcast.285 = f32[1,256,1,1]{3,2,1,0} bitcast(f32[256]{0} %param_3.75), metadata={op_type="Reshape" op_name="tower0/gradients/tower0/group2/block2/conv1/bn/batchnorm/mul_1_grad/Reshape_1"}
  %param_2.135 = f32[256]{0} parameter(2)
  %negate.66 = f32[256]{0} negate(f32[256]{0} %param_2.135), metadata={op_type="Neg" op_name="tower0/gradients/tower0/group2/block2/conv1/bn/batchnorm/sub_grad/Neg"}
  %bitcast.284 = f32[1,256,1,1]{3,2,1,0} bitcast(f32[256]{0} %negate.66), metadata={op_type="Neg" op_name="tower0/gradients/tower0/group2/block2/conv1/bn/batchnorm/sub_grad/Neg"}
  %param_1.177 = f32[1,256,1,1]{3,2,1,0} parameter(1)
  %multiply.88 = f32[1,256,1,1]{3,2,1,0} multiply(f32[1,256,1,1]{3,2,1,0} %bitcast.284, f32[1,256,1,1]{3,2,1,0} %param_1.177), metadata={op_type="Mul" op_name="tower0/gradients/tower0/group2/block2/conv1/bn/batchnorm/mul_2_grad/Mul_1"}
  %add.47 = f32[1,256,1,1]{3,2,1,0} add(f32[1,256,1,1]{3,2,1,0} %bitcast.285, f32[1,256,1,1]{3,2,1,0} %multiply.88), metadata={op_type="AddN" op_name="tower0/gradients/AddN_160"}
  %param_0.166 = f32[1,256,1,1]{3,2,1,0} parameter(0)
  %multiply.87 = f32[1,256,1,1]{3,2,1,0} multiply(f32[1,256,1,1]{3,2,1,0} %add.47, f32[1,256,1,1]{3,2,1,0} %param_0.166), metadata={op_type="Mul" op_name="tower0/gradients/tower0/group2/block2/conv1/bn/batchnorm/mul_grad/Mul_1"}
  ROOT %bitcast.283 = f32[256]{0} bitcast(f32[1,256,1,1]{3,2,1,0} %multiply.87), metadata={op_type="Reshape" op_name="tower0/gradients/tower0/group2/block2/conv1/bn/Reshape_grad/Reshape"}
}

%tower0_gradients_tower0_group2_block2_conv1_bn_batchnorm_mul_1_grad_Sum_1-reduction.3496 (x.3497: f32[], y.3498: f32[]) -> f32[] {
  %x.3497 = f32[] parameter(0)
  %y.3498 = f32[] parameter(1)
  ROOT %add.3499 = f32[] add(f32[] %x.3497, f32[] %y.3498)
}

%tower0_gradients_tower0_group2_block2_conv1_bn_batchnorm_add_1_grad_Sum_1-reduction.3506 (x.3507: f32[], y.3508: f32[]) -> f32[] {
  %x.3507 = f32[] parameter(0)
  %y.3508 = f32[] parameter(1)
  ROOT %add.3509 = f32[] add(f32[] %x.3507, f32[] %y.3508)
}

%fused_computation.63 (param_0.630: f32[1,256,50,76], param_1.893: f32[1,256,50,76], param_2.779: f32[1,256,50,76]) -> (f32[256], f32[256], f32[1,256,50,76]) {
  %param_2.779 = f32[1,256,50,76]{3,2,1,0} parameter(2)
  %constant_262 = f32[] constant(0), metadata={op_type="ZerosLike" op_name="tower0/gradients/tower0/rpn_losses/level2/logistic_loss/Select_grad/zeros_like"}
  %broadcast.212.clone.1 = f32[1,256,50,76]{3,2,1,0} broadcast(f32[] %constant_262), dimensions={}, metadata={op_type="ReluGrad" op_name="tower0/gradients/tower0/rpn_2/conv0/Relu_grad/ReluGrad"}
  %compare.18.clone.1 = pred[1,256,50,76]{3,2,1,0} compare(f32[1,256,50,76]{3,2,1,0} %param_2.779, f32[1,256,50,76]{3,2,1,0} %broadcast.212.clone.1), direction=GT, metadata={op_type="ReluGrad" op_name="tower0/gradients/tower0/group2/block2/conv1/Relu_grad/ReluGrad"}
  %param_1.893 = f32[1,256,50,76]{3,2,1,0} parameter(1)
  %select.18.clone.1 = f32[1,256,50,76]{3,2,1,0} select(pred[1,256,50,76]{3,2,1,0} %compare.18.clone.1, f32[1,256,50,76]{3,2,1,0} %param_1.893, f32[1,256,50,76]{3,2,1,0} %broadcast.212.clone.1), metadata={op_type="ReluGrad" op_name="tower0/gradients/tower0/group2/block2/conv1/Relu_grad/ReluGrad"}
  %param_0.630 = f32[1,256,50,76]{3,2,1,0} parameter(0)
  %multiply.89 = f32[1,256,50,76]{3,2,1,0} multiply(f32[1,256,50,76]{3,2,1,0} %select.18.clone.1, f32[1,256,50,76]{3,2,1,0} %param_0.630), metadata={op_type="Mul" op_name="tower0/gradients/tower0/group2/block2/conv1/bn/batchnorm/mul_1_grad/Mul_1"}
  %reduce.33 = f32[256]{0} reduce(f32[1,256,50,76]{3,2,1,0} %multiply.89, f32[] %constant_262), dimensions={0,2,3}, to_apply=%tower0_gradients_tower0_group2_block2_conv1_bn_batchnorm_mul_1_grad_Sum_1-reduction.3496, metadata={op_type="Sum" op_name="tower0/gradients/tower0/group2/block2/conv1/bn/batchnorm/mul_1_grad/Sum_1"}
  %reduce.92 = f32[256]{0} reduce(f32[1,256,50,76]{3,2,1,0} %select.18.clone.1, f32[] %constant_262), dimensions={0,2,3}, to_apply=%tower0_gradients_tower0_group2_block2_conv1_bn_batchnorm_add_1_grad_Sum_1-reduction.3506, metadata={op_type="Sum" op_name="tower0/gradients/tower0/group2/block2/conv1/bn/batchnorm/add_1_grad/Sum_1"}
  ROOT %tuple.219 = (f32[256]{0}, f32[256]{0}, f32[1,256,50,76]{3,2,1,0}) tuple(f32[256]{0} %reduce.33, f32[256]{0} %reduce.92, f32[1,256,50,76]{3,2,1,0} %select.18.clone.1)
}

%fused_computation.64 (param_0.171: f32[1,1,1024,256], param_1.709: f32[1,1,1024,256]) -> f32[1,1,1024,256] {
  %param_0.171 = f32[1,1,1024,256]{1,0,2,3} parameter(0)
  %param_1.709 = f32[1,1,1024,256]{3,2,1,0} parameter(1)
  %copy.398 = f32[1,1,1024,256]{1,0,2,3} copy(f32[1,1,1024,256]{3,2,1,0} %param_1.709), metadata={op_name="XLA_Args"}
  %constant_327 = f32[] constant(0.0001), metadata={op_type="Const" op_name="tower0/gradients/tower0/wd_cost_internals/Square_10_grad/Mul"}
  %broadcast.177 = f32[1,1,1024,256]{1,0,2,3} broadcast(f32[] %constant_327), dimensions={}, metadata={op_type="Const" op_name="tower0/gradients/tower0/wd_cost_internals/Square_29_grad/Mul"}
  %multiply.90 = f32[1,1,1024,256]{1,0,2,3} multiply(f32[1,1,1024,256]{1,0,2,3} %copy.398, f32[1,1,1024,256]{1,0,2,3} %broadcast.177), metadata={op_type="Mul" op_name="tower0/gradients/tower0/wd_cost_internals/Square_20_grad/Mul_1"}
  %add.48 = f32[1,1,1024,256]{1,0,2,3} add(f32[1,1,1024,256]{1,0,2,3} %param_0.171, f32[1,1,1024,256]{1,0,2,3} %multiply.90), metadata={op_type="AddN" op_name="tower0/gradients/AddN_159"}
  ROOT %copy.397 = f32[1,1,1024,256]{3,2,1,0} copy(f32[1,1,1024,256]{1,0,2,3} %add.48), metadata={op_name="XLA_Retvals"}
}

%fused_computation.65 (param_0.174: f32[1,256,1,1], param_1.186: f32[1,256,1,1], param_2.142: f32[256], param_3.79: f32[256]) -> f32[256] {
  %param_3.79 = f32[256]{0} parameter(3)
  %bitcast.288 = f32[1,256,1,1]{3,2,1,0} bitcast(f32[256]{0} %param_3.79), metadata={op_type="Reshape" op_name="tower0/gradients/tower0/group2/block2/conv2/bn/batchnorm/mul_1_grad/Reshape_1"}
  %param_2.142 = f32[256]{0} parameter(2)
  %negate.67 = f32[256]{0} negate(f32[256]{0} %param_2.142), metadata={op_type="Neg" op_name="tower0/gradients/tower0/group2/block2/conv2/bn/batchnorm/sub_grad/Neg"}
  %bitcast.287 = f32[1,256,1,1]{3,2,1,0} bitcast(f32[256]{0} %negate.67), metadata={op_type="Neg" op_name="tower0/gradients/tower0/group2/block2/conv2/bn/batchnorm/sub_grad/Neg"}
  %param_1.186 = f32[1,256,1,1]{3,2,1,0} parameter(1)
  %multiply.92 = f32[1,256,1,1]{3,2,1,0} multiply(f32[1,256,1,1]{3,2,1,0} %bitcast.287, f32[1,256,1,1]{3,2,1,0} %param_1.186), metadata={op_type="Mul" op_name="tower0/gradients/tower0/group2/block2/conv2/bn/batchnorm/mul_2_grad/Mul_1"}
  %add.49 = f32[1,256,1,1]{3,2,1,0} add(f32[1,256,1,1]{3,2,1,0} %bitcast.288, f32[1,256,1,1]{3,2,1,0} %multiply.92), metadata={op_type="AddN" op_name="tower0/gradients/AddN_157"}
  %param_0.174 = f32[1,256,1,1]{3,2,1,0} parameter(0)
  %multiply.91 = f32[1,256,1,1]{3,2,1,0} multiply(f32[1,256,1,1]{3,2,1,0} %add.49, f32[1,256,1,1]{3,2,1,0} %param_0.174), metadata={op_type="Mul" op_name="tower0/gradients/tower0/group2/block2/conv2/bn/batchnorm/mul_grad/Mul_1"}
  ROOT %bitcast.286 = f32[256]{0} bitcast(f32[1,256,1,1]{3,2,1,0} %multiply.91), metadata={op_type="Reshape" op_name="tower0/gradients/tower0/group2/block2/conv2/bn/Reshape_grad/Reshape"}
}

%tower0_gradients_tower0_group2_block2_conv2_bn_batchnorm_mul_1_grad_Sum_1-reduction.3523 (x.3524: f32[], y.3525: f32[]) -> f32[] {
  %x.3524 = f32[] parameter(0)
  %y.3525 = f32[] parameter(1)
  ROOT %add.3526 = f32[] add(f32[] %x.3524, f32[] %y.3525)
}

%tower0_gradients_tower0_group2_block2_conv2_bn_batchnorm_add_1_grad_Sum_1-reduction.3533 (x.3534: f32[], y.3535: f32[]) -> f32[] {
  %x.3534 = f32[] parameter(0)
  %y.3535 = f32[] parameter(1)
  ROOT %add.3536 = f32[] add(f32[] %x.3534, f32[] %y.3535)
}

%fused_computation.66 (param_0.629: f32[1,256,50,76], param_1.894: f32[1,256,50,76], param_2.780: f32[1,256,50,76]) -> (f32[256], f32[256], f32[1,256,50,76]) {
  %param_2.780 = f32[1,256,50,76]{3,2,1,0} parameter(2)
  %constant_263 = f32[] constant(0), metadata={op_type="ZerosLike" op_name="tower0/gradients/tower0/rpn_losses/level2/logistic_loss/Select_grad/zeros_like"}
  %broadcast.213.clone.1 = f32[1,256,50,76]{3,2,1,0} broadcast(f32[] %constant_263), dimensions={}, metadata={op_type="ReluGrad" op_name="tower0/gradients/tower0/rpn_2/conv0/Relu_grad/ReluGrad"}
  %compare.19.clone.1 = pred[1,256,50,76]{3,2,1,0} compare(f32[1,256,50,76]{3,2,1,0} %param_2.780, f32[1,256,50,76]{3,2,1,0} %broadcast.213.clone.1), direction=GT, metadata={op_type="ReluGrad" op_name="tower0/gradients/tower0/group2/block2/conv2/Relu_grad/ReluGrad"}
  %param_1.894 = f32[1,256,50,76]{3,2,1,0} parameter(1)
  %select.19.clone.1 = f32[1,256,50,76]{3,2,1,0} select(pred[1,256,50,76]{3,2,1,0} %compare.19.clone.1, f32[1,256,50,76]{3,2,1,0} %param_1.894, f32[1,256,50,76]{3,2,1,0} %broadcast.213.clone.1), metadata={op_type="ReluGrad" op_name="tower0/gradients/tower0/group2/block2/conv2/Relu_grad/ReluGrad"}
  %param_0.629 = f32[1,256,50,76]{3,2,1,0} parameter(0)
  %multiply.93 = f32[1,256,50,76]{3,2,1,0} multiply(f32[1,256,50,76]{3,2,1,0} %select.19.clone.1, f32[1,256,50,76]{3,2,1,0} %param_0.629), metadata={op_type="Mul" op_name="tower0/gradients/tower0/group2/block2/conv2/bn/batchnorm/mul_1_grad/Mul_1"}
  %reduce.34 = f32[256]{0} reduce(f32[1,256,50,76]{3,2,1,0} %multiply.93, f32[] %constant_263), dimensions={0,2,3}, to_apply=%tower0_gradients_tower0_group2_block2_conv2_bn_batchnorm_mul_1_grad_Sum_1-reduction.3523, metadata={op_type="Sum" op_name="tower0/gradients/tower0/group2/block2/conv2/bn/batchnorm/mul_1_grad/Sum_1"}
  %reduce.91 = f32[256]{0} reduce(f32[1,256,50,76]{3,2,1,0} %select.19.clone.1, f32[] %constant_263), dimensions={0,2,3}, to_apply=%tower0_gradients_tower0_group2_block2_conv2_bn_batchnorm_add_1_grad_Sum_1-reduction.3533, metadata={op_type="Sum" op_name="tower0/gradients/tower0/group2/block2/conv2/bn/batchnorm/add_1_grad/Sum_1"}
  ROOT %tuple.218 = (f32[256]{0}, f32[256]{0}, f32[1,256,50,76]{3,2,1,0}) tuple(f32[256]{0} %reduce.34, f32[256]{0} %reduce.91, f32[1,256,50,76]{3,2,1,0} %select.19.clone.1)
}

%fused_computation.68 (param_0.182: f32[1,1024,1,1], param_1.194: f32[1,1024,1,1], param_2.148: f32[1024], param_3.83: f32[1024]) -> f32[1024] {
  %param_3.83 = f32[1024]{0} parameter(3)
  %bitcast.291 = f32[1,1024,1,1]{3,2,1,0} bitcast(f32[1024]{0} %param_3.83), metadata={op_type="Reshape" op_name="tower0/gradients/tower0/group2/block2/conv3/bn/batchnorm/mul_1_grad/Reshape_1"}
  %param_2.148 = f32[1024]{0} parameter(2)
  %negate.68 = f32[1024]{0} negate(f32[1024]{0} %param_2.148), metadata={op_type="Neg" op_name="tower0/gradients/tower0/group2/block2/conv3/bn/batchnorm/sub_grad/Neg"}
  %bitcast.290 = f32[1,1024,1,1]{3,2,1,0} bitcast(f32[1024]{0} %negate.68), metadata={op_type="Neg" op_name="tower0/gradients/tower0/group2/block2/conv3/bn/batchnorm/sub_grad/Neg"}
  %param_1.194 = f32[1,1024,1,1]{3,2,1,0} parameter(1)
  %multiply.96 = f32[1,1024,1,1]{3,2,1,0} multiply(f32[1,1024,1,1]{3,2,1,0} %bitcast.290, f32[1,1024,1,1]{3,2,1,0} %param_1.194), metadata={op_type="Mul" op_name="tower0/gradients/tower0/group2/block2/conv3/bn/batchnorm/mul_2_grad/Mul_1"}
  %add.51 = f32[1,1024,1,1]{3,2,1,0} add(f32[1,1024,1,1]{3,2,1,0} %bitcast.291, f32[1,1024,1,1]{3,2,1,0} %multiply.96), metadata={op_type="AddN" op_name="tower0/gradients/AddN_155"}
  %param_0.182 = f32[1,1024,1,1]{3,2,1,0} parameter(0)
  %multiply.95 = f32[1,1024,1,1]{3,2,1,0} multiply(f32[1,1024,1,1]{3,2,1,0} %add.51, f32[1,1024,1,1]{3,2,1,0} %param_0.182), metadata={op_type="Mul" op_name="tower0/gradients/tower0/group2/block2/conv3/bn/batchnorm/mul_grad/Mul_1"}
  ROOT %bitcast.289 = f32[1024]{0} bitcast(f32[1,1024,1,1]{3,2,1,0} %multiply.95), metadata={op_type="Reshape" op_name="tower0/gradients/tower0/group2/block2/conv3/bn/Reshape_grad/Reshape"}
}

%tower0_gradients_tower0_group2_block2_conv3_bn_batchnorm_mul_1_grad_Sum_1-reduction.3550 (x.3551: f32[], y.3552: f32[]) -> f32[] {
  %x.3551 = f32[] parameter(0)
  %y.3552 = f32[] parameter(1)
  ROOT %add.3553 = f32[] add(f32[] %x.3551, f32[] %y.3552)
}

%tower0_gradients_tower0_group2_block2_conv3_bn_batchnorm_add_1_grad_Sum_1-reduction.3560 (x.3561: f32[], y.3562: f32[]) -> f32[] {
  %x.3561 = f32[] parameter(0)
  %y.3562 = f32[] parameter(1)
  ROOT %add.3563 = f32[] add(f32[] %x.3561, f32[] %y.3562)
}

%fused_computation.69 (param_0.628: f32[1,1024,50,76], param_1.895: f32[1,1024,50,76], param_2.781: f32[1,1024,50,76], param_3.496: f32[1,1024,50,76]) -> (f32[1024], f32[1024], f32[1,1024,50,76]) {
  %param_3.496 = f32[1,1024,50,76]{3,2,1,0} parameter(3)
  %constant_264 = f32[] constant(0), metadata={op_type="ZerosLike" op_name="tower0/gradients/tower0/rpn_losses/level2/logistic_loss/Select_grad/zeros_like"}
  %broadcast.214.clone.1 = f32[1,1024,50,76]{3,2,1,0} broadcast(f32[] %constant_264), dimensions={}, metadata={op_type="ReluGrad" op_name="tower0/gradients/tower0/group2/block5/output_grad/ReluGrad"}
  %compare.20.clone.1 = pred[1,1024,50,76]{3,2,1,0} compare(f32[1,1024,50,76]{3,2,1,0} %param_3.496, f32[1,1024,50,76]{3,2,1,0} %broadcast.214.clone.1), direction=GT, metadata={op_type="ReluGrad" op_name="tower0/gradients/tower0/group2/block2/output_grad/ReluGrad"}
  %param_1.895 = f32[1,1024,50,76]{3,2,1,0} parameter(1)
  %param_2.781 = f32[1,1024,50,76]{3,2,1,0} parameter(2)
  %add.133.clone.1 = f32[1,1024,50,76]{3,2,1,0} add(f32[1,1024,50,76]{3,2,1,0} %param_1.895, f32[1,1024,50,76]{3,2,1,0} %param_2.781), metadata={op_type="AddN" op_name="tower0/gradients/AddN_151"}
  %select.20.clone.1 = f32[1,1024,50,76]{3,2,1,0} select(pred[1,1024,50,76]{3,2,1,0} %compare.20.clone.1, f32[1,1024,50,76]{3,2,1,0} %add.133.clone.1, f32[1,1024,50,76]{3,2,1,0} %broadcast.214.clone.1), metadata={op_type="ReluGrad" op_name="tower0/gradients/tower0/group2/block2/output_grad/ReluGrad"}
  %param_0.628 = f32[1,1024,50,76]{3,2,1,0} parameter(0)
  %multiply.97 = f32[1,1024,50,76]{3,2,1,0} multiply(f32[1,1024,50,76]{3,2,1,0} %select.20.clone.1, f32[1,1024,50,76]{3,2,1,0} %param_0.628), metadata={op_type="Mul" op_name="tower0/gradients/tower0/group2/block2/conv3/bn/batchnorm/mul_1_grad/Mul_1"}
  %reduce.35 = f32[1024]{0} reduce(f32[1,1024,50,76]{3,2,1,0} %multiply.97, f32[] %constant_264), dimensions={0,2,3}, to_apply=%tower0_gradients_tower0_group2_block2_conv3_bn_batchnorm_mul_1_grad_Sum_1-reduction.3550, metadata={op_type="Sum" op_name="tower0/gradients/tower0/group2/block2/conv3/bn/batchnorm/mul_1_grad/Sum_1"}
  %reduce.73 = f32[1024]{0} reduce(f32[1,1024,50,76]{3,2,1,0} %select.20.clone.1, f32[] %constant_264), dimensions={0,2,3}, to_apply=%tower0_gradients_tower0_group2_block2_conv3_bn_batchnorm_add_1_grad_Sum_1-reduction.3560, metadata={op_type="Sum" op_name="tower0/gradients/tower0/group2/block2/conv3/bn/batchnorm/add_1_grad/Sum_1"}
  ROOT %tuple.217 = (f32[1024]{0}, f32[1024]{0}, f32[1,1024,50,76]{3,2,1,0}) tuple(f32[1024]{0} %reduce.35, f32[1024]{0} %reduce.73, f32[1,1024,50,76]{3,2,1,0} %select.20.clone.1)
}

%fused_computation.70 (param_0.187: f32[1,1,256,1024], param_1.711: f32[1,1,256,1024]) -> f32[1,1,256,1024] {
  %param_0.187 = f32[1,1,256,1024]{1,0,2,3} parameter(0)
  %param_1.711 = f32[1,1,256,1024]{3,2,1,0} parameter(1)
  %copy.401 = f32[1,1,256,1024]{1,0,2,3} copy(f32[1,1,256,1024]{3,2,1,0} %param_1.711), metadata={op_name="XLA_Args"}
  %constant_328 = f32[] constant(0.0001), metadata={op_type="Const" op_name="tower0/gradients/tower0/wd_cost_internals/Square_10_grad/Mul"}
  %broadcast.178 = f32[1,1,256,1024]{1,0,2,3} broadcast(f32[] %constant_328), dimensions={}, metadata={op_type="Const" op_name="tower0/gradients/tower0/wd_cost_internals/Square_31_grad/Mul"}
  %multiply.98 = f32[1,1,256,1024]{1,0,2,3} multiply(f32[1,1,256,1024]{1,0,2,3} %copy.401, f32[1,1,256,1024]{1,0,2,3} %broadcast.178), metadata={op_type="Mul" op_name="tower0/gradients/tower0/wd_cost_internals/Square_22_grad/Mul_1"}
  %add.52 = f32[1,1,256,1024]{1,0,2,3} add(f32[1,1,256,1024]{1,0,2,3} %param_0.187, f32[1,1,256,1024]{1,0,2,3} %multiply.98), metadata={op_type="AddN" op_name="tower0/gradients/AddN_154"}
  ROOT %copy.400 = f32[1,1,256,1024]{3,2,1,0} copy(f32[1,1,256,1024]{1,0,2,3} %add.52), metadata={op_name="XLA_Retvals"}
}

%fused_computation.71 (param_0.190: f32[1,256,1,1], param_1.203: f32[1,256,1,1], param_2.155: f32[256], param_3.87: f32[256]) -> f32[256] {
  %param_3.87 = f32[256]{0} parameter(3)
  %bitcast.294 = f32[1,256,1,1]{3,2,1,0} bitcast(f32[256]{0} %param_3.87), metadata={op_type="Reshape" op_name="tower0/gradients/tower0/group2/block3/conv1/bn/batchnorm/mul_1_grad/Reshape_1"}
  %param_2.155 = f32[256]{0} parameter(2)
  %negate.69 = f32[256]{0} negate(f32[256]{0} %param_2.155), metadata={op_type="Neg" op_name="tower0/gradients/tower0/group2/block3/conv1/bn/batchnorm/sub_grad/Neg"}
  %bitcast.293 = f32[1,256,1,1]{3,2,1,0} bitcast(f32[256]{0} %negate.69), metadata={op_type="Neg" op_name="tower0/gradients/tower0/group2/block3/conv1/bn/batchnorm/sub_grad/Neg"}
  %param_1.203 = f32[1,256,1,1]{3,2,1,0} parameter(1)
  %multiply.100 = f32[1,256,1,1]{3,2,1,0} multiply(f32[1,256,1,1]{3,2,1,0} %bitcast.293, f32[1,256,1,1]{3,2,1,0} %param_1.203), metadata={op_type="Mul" op_name="tower0/gradients/tower0/group2/block3/conv1/bn/batchnorm/mul_2_grad/Mul_1"}
  %add.53 = f32[1,256,1,1]{3,2,1,0} add(f32[1,256,1,1]{3,2,1,0} %bitcast.294, f32[1,256,1,1]{3,2,1,0} %multiply.100), metadata={op_type="AddN" op_name="tower0/gradients/AddN_153"}
  %param_0.190 = f32[1,256,1,1]{3,2,1,0} parameter(0)
  %multiply.99 = f32[1,256,1,1]{3,2,1,0} multiply(f32[1,256,1,1]{3,2,1,0} %add.53, f32[1,256,1,1]{3,2,1,0} %param_0.190), metadata={op_type="Mul" op_name="tower0/gradients/tower0/group2/block3/conv1/bn/batchnorm/mul_grad/Mul_1"}
  ROOT %bitcast.292 = f32[256]{0} bitcast(f32[1,256,1,1]{3,2,1,0} %multiply.99), metadata={op_type="Reshape" op_name="tower0/gradients/tower0/group2/block3/conv1/bn/Reshape_grad/Reshape"}
}

%tower0_gradients_tower0_group2_block3_conv1_bn_batchnorm_mul_1_grad_Sum_1-reduction.3577 (x.3578: f32[], y.3579: f32[]) -> f32[] {
  %x.3578 = f32[] parameter(0)
  %y.3579 = f32[] parameter(1)
  ROOT %add.3580 = f32[] add(f32[] %x.3578, f32[] %y.3579)
}

%tower0_gradients_tower0_group2_block3_conv1_bn_batchnorm_add_1_grad_Sum_1-reduction.3587 (x.3588: f32[], y.3589: f32[]) -> f32[] {
  %x.3588 = f32[] parameter(0)
  %y.3589 = f32[] parameter(1)
  ROOT %add.3590 = f32[] add(f32[] %x.3588, f32[] %y.3589)
}

%fused_computation.72 (param_0.627: f32[1,256,50,76], param_1.896: f32[1,256,50,76], param_2.782: f32[1,256,50,76]) -> (f32[256], f32[256], f32[1,256,50,76]) {
  %param_2.782 = f32[1,256,50,76]{3,2,1,0} parameter(2)
  %constant_265 = f32[] constant(0), metadata={op_type="ZerosLike" op_name="tower0/gradients/tower0/rpn_losses/level2/logistic_loss/Select_grad/zeros_like"}
  %broadcast.215.clone.1 = f32[1,256,50,76]{3,2,1,0} broadcast(f32[] %constant_265), dimensions={}, metadata={op_type="ReluGrad" op_name="tower0/gradients/tower0/rpn_2/conv0/Relu_grad/ReluGrad"}
  %compare.21.clone.1 = pred[1,256,50,76]{3,2,1,0} compare(f32[1,256,50,76]{3,2,1,0} %param_2.782, f32[1,256,50,76]{3,2,1,0} %broadcast.215.clone.1), direction=GT, metadata={op_type="ReluGrad" op_name="tower0/gradients/tower0/group2/block3/conv1/Relu_grad/ReluGrad"}
  %param_1.896 = f32[1,256,50,76]{3,2,1,0} parameter(1)
  %select.21.clone.1 = f32[1,256,50,76]{3,2,1,0} select(pred[1,256,50,76]{3,2,1,0} %compare.21.clone.1, f32[1,256,50,76]{3,2,1,0} %param_1.896, f32[1,256,50,76]{3,2,1,0} %broadcast.215.clone.1), metadata={op_type="ReluGrad" op_name="tower0/gradients/tower0/group2/block3/conv1/Relu_grad/ReluGrad"}
  %param_0.627 = f32[1,256,50,76]{3,2,1,0} parameter(0)
  %multiply.101 = f32[1,256,50,76]{3,2,1,0} multiply(f32[1,256,50,76]{3,2,1,0} %select.21.clone.1, f32[1,256,50,76]{3,2,1,0} %param_0.627), metadata={op_type="Mul" op_name="tower0/gradients/tower0/group2/block3/conv1/bn/batchnorm/mul_1_grad/Mul_1"}
  %reduce.36 = f32[256]{0} reduce(f32[1,256,50,76]{3,2,1,0} %multiply.101, f32[] %constant_265), dimensions={0,2,3}, to_apply=%tower0_gradients_tower0_group2_block3_conv1_bn_batchnorm_mul_1_grad_Sum_1-reduction.3577, metadata={op_type="Sum" op_name="tower0/gradients/tower0/group2/block3/conv1/bn/batchnorm/mul_1_grad/Sum_1"}
  %reduce.93 = f32[256]{0} reduce(f32[1,256,50,76]{3,2,1,0} %select.21.clone.1, f32[] %constant_265), dimensions={0,2,3}, to_apply=%tower0_gradients_tower0_group2_block3_conv1_bn_batchnorm_add_1_grad_Sum_1-reduction.3587, metadata={op_type="Sum" op_name="tower0/gradients/tower0/group2/block3/conv1/bn/batchnorm/add_1_grad/Sum_1"}
  ROOT %tuple.216 = (f32[256]{0}, f32[256]{0}, f32[1,256,50,76]{3,2,1,0}) tuple(f32[256]{0} %reduce.36, f32[256]{0} %reduce.93, f32[1,256,50,76]{3,2,1,0} %select.21.clone.1)
}

%fused_computation.73 (param_0.195: f32[1,1,1024,256], param_1.712: f32[1,1,1024,256]) -> f32[1,1,1024,256] {
  %param_0.195 = f32[1,1,1024,256]{1,0,2,3} parameter(0)
  %param_1.712 = f32[1,1,1024,256]{3,2,1,0} parameter(1)
  %copy.403 = f32[1,1,1024,256]{1,0,2,3} copy(f32[1,1,1024,256]{3,2,1,0} %param_1.712), metadata={op_name="XLA_Args"}
  %constant_329 = f32[] constant(0.0001), metadata={op_type="Const" op_name="tower0/gradients/tower0/wd_cost_internals/Square_10_grad/Mul"}
  %broadcast.179 = f32[1,1,1024,256]{1,0,2,3} broadcast(f32[] %constant_329), dimensions={}, metadata={op_type="Const" op_name="tower0/gradients/tower0/wd_cost_internals/Square_29_grad/Mul"}
  %multiply.102 = f32[1,1,1024,256]{1,0,2,3} multiply(f32[1,1,1024,256]{1,0,2,3} %copy.403, f32[1,1,1024,256]{1,0,2,3} %broadcast.179), metadata={op_type="Mul" op_name="tower0/gradients/tower0/wd_cost_internals/Square_23_grad/Mul_1"}
  %add.54 = f32[1,1,1024,256]{1,0,2,3} add(f32[1,1,1024,256]{1,0,2,3} %param_0.195, f32[1,1,1024,256]{1,0,2,3} %multiply.102), metadata={op_type="AddN" op_name="tower0/gradients/AddN_152"}
  ROOT %copy.402 = f32[1,1,1024,256]{3,2,1,0} copy(f32[1,1,1024,256]{1,0,2,3} %add.54), metadata={op_name="XLA_Retvals"}
}

%fused_computation.74 (param_0.198: f32[1,256,1,1], param_1.212: f32[1,256,1,1], param_2.162: f32[256], param_3.91: f32[256]) -> f32[256] {
  %param_3.91 = f32[256]{0} parameter(3)
  %bitcast.297 = f32[1,256,1,1]{3,2,1,0} bitcast(f32[256]{0} %param_3.91), metadata={op_type="Reshape" op_name="tower0/gradients/tower0/group2/block3/conv2/bn/batchnorm/mul_1_grad/Reshape_1"}
  %param_2.162 = f32[256]{0} parameter(2)
  %negate.70 = f32[256]{0} negate(f32[256]{0} %param_2.162), metadata={op_type="Neg" op_name="tower0/gradients/tower0/group2/block3/conv2/bn/batchnorm/sub_grad/Neg"}
  %bitcast.296 = f32[1,256,1,1]{3,2,1,0} bitcast(f32[256]{0} %negate.70), metadata={op_type="Neg" op_name="tower0/gradients/tower0/group2/block3/conv2/bn/batchnorm/sub_grad/Neg"}
  %param_1.212 = f32[1,256,1,1]{3,2,1,0} parameter(1)
  %multiply.104 = f32[1,256,1,1]{3,2,1,0} multiply(f32[1,256,1,1]{3,2,1,0} %bitcast.296, f32[1,256,1,1]{3,2,1,0} %param_1.212), metadata={op_type="Mul" op_name="tower0/gradients/tower0/group2/block3/conv2/bn/batchnorm/mul_2_grad/Mul_1"}
  %add.55 = f32[1,256,1,1]{3,2,1,0} add(f32[1,256,1,1]{3,2,1,0} %bitcast.297, f32[1,256,1,1]{3,2,1,0} %multiply.104), metadata={op_type="AddN" op_name="tower0/gradients/AddN_150"}
  %param_0.198 = f32[1,256,1,1]{3,2,1,0} parameter(0)
  %multiply.103 = f32[1,256,1,1]{3,2,1,0} multiply(f32[1,256,1,1]{3,2,1,0} %add.55, f32[1,256,1,1]{3,2,1,0} %param_0.198), metadata={op_type="Mul" op_name="tower0/gradients/tower0/group2/block3/conv2/bn/batchnorm/mul_grad/Mul_1"}
  ROOT %bitcast.295 = f32[256]{0} bitcast(f32[1,256,1,1]{3,2,1,0} %multiply.103), metadata={op_type="Reshape" op_name="tower0/gradients/tower0/group2/block3/conv2/bn/Reshape_grad/Reshape"}
}

%tower0_gradients_tower0_group2_block3_conv2_bn_batchnorm_mul_1_grad_Sum_1-reduction.3604 (x.3605: f32[], y.3606: f32[]) -> f32[] {
  %x.3605 = f32[] parameter(0)
  %y.3606 = f32[] parameter(1)
  ROOT %add.3607 = f32[] add(f32[] %x.3605, f32[] %y.3606)
}

%tower0_gradients_tower0_group2_block3_conv2_bn_batchnorm_add_1_grad_Sum_1-reduction.3614 (x.3615: f32[], y.3616: f32[]) -> f32[] {
  %x.3615 = f32[] parameter(0)
  %y.3616 = f32[] parameter(1)
  ROOT %add.3617 = f32[] add(f32[] %x.3615, f32[] %y.3616)
}

%fused_computation.75 (param_0.626: f32[1,256,50,76], param_1.897: f32[1,256,50,76], param_2.783: f32[1,256,50,76]) -> (f32[256], f32[256], f32[1,256,50,76]) {
  %param_2.783 = f32[1,256,50,76]{3,2,1,0} parameter(2)
  %constant_266 = f32[] constant(0), metadata={op_type="ZerosLike" op_name="tower0/gradients/tower0/rpn_losses/level2/logistic_loss/Select_grad/zeros_like"}
  %broadcast.216.clone.1 = f32[1,256,50,76]{3,2,1,0} broadcast(f32[] %constant_266), dimensions={}, metadata={op_type="ReluGrad" op_name="tower0/gradients/tower0/rpn_2/conv0/Relu_grad/ReluGrad"}
  %compare.22.clone.1 = pred[1,256,50,76]{3,2,1,0} compare(f32[1,256,50,76]{3,2,1,0} %param_2.783, f32[1,256,50,76]{3,2,1,0} %broadcast.216.clone.1), direction=GT, metadata={op_type="ReluGrad" op_name="tower0/gradients/tower0/group2/block3/conv2/Relu_grad/ReluGrad"}
  %param_1.897 = f32[1,256,50,76]{3,2,1,0} parameter(1)
  %select.22.clone.1 = f32[1,256,50,76]{3,2,1,0} select(pred[1,256,50,76]{3,2,1,0} %compare.22.clone.1, f32[1,256,50,76]{3,2,1,0} %param_1.897, f32[1,256,50,76]{3,2,1,0} %broadcast.216.clone.1), metadata={op_type="ReluGrad" op_name="tower0/gradients/tower0/group2/block3/conv2/Relu_grad/ReluGrad"}
  %param_0.626 = f32[1,256,50,76]{3,2,1,0} parameter(0)
  %multiply.105 = f32[1,256,50,76]{3,2,1,0} multiply(f32[1,256,50,76]{3,2,1,0} %select.22.clone.1, f32[1,256,50,76]{3,2,1,0} %param_0.626), metadata={op_type="Mul" op_name="tower0/gradients/tower0/group2/block3/conv2/bn/batchnorm/mul_1_grad/Mul_1"}
  %reduce.37 = f32[256]{0} reduce(f32[1,256,50,76]{3,2,1,0} %multiply.105, f32[] %constant_266), dimensions={0,2,3}, to_apply=%tower0_gradients_tower0_group2_block3_conv2_bn_batchnorm_mul_1_grad_Sum_1-reduction.3604, metadata={op_type="Sum" op_name="tower0/gradients/tower0/group2/block3/conv2/bn/batchnorm/mul_1_grad/Sum_1"}
  %reduce.94 = f32[256]{0} reduce(f32[1,256,50,76]{3,2,1,0} %select.22.clone.1, f32[] %constant_266), dimensions={0,2,3}, to_apply=%tower0_gradients_tower0_group2_block3_conv2_bn_batchnorm_add_1_grad_Sum_1-reduction.3614, metadata={op_type="Sum" op_name="tower0/gradients/tower0/group2/block3/conv2/bn/batchnorm/add_1_grad/Sum_1"}
  ROOT %tuple.215 = (f32[256]{0}, f32[256]{0}, f32[1,256,50,76]{3,2,1,0}) tuple(f32[256]{0} %reduce.37, f32[256]{0} %reduce.94, f32[1,256,50,76]{3,2,1,0} %select.22.clone.1)
}

%fused_computation.77 (param_0.206: f32[1,1024,1,1], param_1.220: f32[1,1024,1,1], param_2.168: f32[1024], param_3.95: f32[1024]) -> f32[1024] {
  %param_3.95 = f32[1024]{0} parameter(3)
  %bitcast.300 = f32[1,1024,1,1]{3,2,1,0} bitcast(f32[1024]{0} %param_3.95), metadata={op_type="Reshape" op_name="tower0/gradients/tower0/group2/block3/conv3/bn/batchnorm/mul_1_grad/Reshape_1"}
  %param_2.168 = f32[1024]{0} parameter(2)
  %negate.71 = f32[1024]{0} negate(f32[1024]{0} %param_2.168), metadata={op_type="Neg" op_name="tower0/gradients/tower0/group2/block3/conv3/bn/batchnorm/sub_grad/Neg"}
  %bitcast.299 = f32[1,1024,1,1]{3,2,1,0} bitcast(f32[1024]{0} %negate.71), metadata={op_type="Neg" op_name="tower0/gradients/tower0/group2/block3/conv3/bn/batchnorm/sub_grad/Neg"}
  %param_1.220 = f32[1,1024,1,1]{3,2,1,0} parameter(1)
  %multiply.108 = f32[1,1024,1,1]{3,2,1,0} multiply(f32[1,1024,1,1]{3,2,1,0} %bitcast.299, f32[1,1024,1,1]{3,2,1,0} %param_1.220), metadata={op_type="Mul" op_name="tower0/gradients/tower0/group2/block3/conv3/bn/batchnorm/mul_2_grad/Mul_1"}
  %add.57 = f32[1,1024,1,1]{3,2,1,0} add(f32[1,1024,1,1]{3,2,1,0} %bitcast.300, f32[1,1024,1,1]{3,2,1,0} %multiply.108), metadata={op_type="AddN" op_name="tower0/gradients/AddN_148"}
  %param_0.206 = f32[1,1024,1,1]{3,2,1,0} parameter(0)
  %multiply.107 = f32[1,1024,1,1]{3,2,1,0} multiply(f32[1,1024,1,1]{3,2,1,0} %add.57, f32[1,1024,1,1]{3,2,1,0} %param_0.206), metadata={op_type="Mul" op_name="tower0/gradients/tower0/group2/block3/conv3/bn/batchnorm/mul_grad/Mul_1"}
  ROOT %bitcast.298 = f32[1024]{0} bitcast(f32[1,1024,1,1]{3,2,1,0} %multiply.107), metadata={op_type="Reshape" op_name="tower0/gradients/tower0/group2/block3/conv3/bn/Reshape_grad/Reshape"}
}

%tower0_gradients_tower0_group2_block3_conv3_bn_batchnorm_mul_1_grad_Sum_1-reduction.3631 (x.3632: f32[], y.3633: f32[]) -> f32[] {
  %x.3632 = f32[] parameter(0)
  %y.3633 = f32[] parameter(1)
  ROOT %add.3634 = f32[] add(f32[] %x.3632, f32[] %y.3633)
}

%tower0_gradients_tower0_group2_block3_conv3_bn_batchnorm_add_1_grad_Sum_1-reduction.3641 (x.3642: f32[], y.3643: f32[]) -> f32[] {
  %x.3642 = f32[] parameter(0)
  %y.3643 = f32[] parameter(1)
  ROOT %add.3644 = f32[] add(f32[] %x.3642, f32[] %y.3643)
}

%fused_computation.78 (param_0.625: f32[1,1024,50,76], param_1.898: f32[1,1024,50,76], param_2.784: f32[1,1024,50,76], param_3.497: f32[1,1024,50,76]) -> (f32[1024], f32[1024], f32[1,1024,50,76]) {
  %param_3.497 = f32[1,1024,50,76]{3,2,1,0} parameter(3)
  %constant_267 = f32[] constant(0), metadata={op_type="ZerosLike" op_name="tower0/gradients/tower0/rpn_losses/level2/logistic_loss/Select_grad/zeros_like"}
  %broadcast.217.clone.1 = f32[1,1024,50,76]{3,2,1,0} broadcast(f32[] %constant_267), dimensions={}, metadata={op_type="ReluGrad" op_name="tower0/gradients/tower0/group2/block5/output_grad/ReluGrad"}
  %compare.23.clone.1 = pred[1,1024,50,76]{3,2,1,0} compare(f32[1,1024,50,76]{3,2,1,0} %param_3.497, f32[1,1024,50,76]{3,2,1,0} %broadcast.217.clone.1), direction=GT, metadata={op_type="ReluGrad" op_name="tower0/gradients/tower0/group2/block3/output_grad/ReluGrad"}
  %param_1.898 = f32[1,1024,50,76]{3,2,1,0} parameter(1)
  %param_2.784 = f32[1,1024,50,76]{3,2,1,0} parameter(2)
  %add.134.clone.1 = f32[1,1024,50,76]{3,2,1,0} add(f32[1,1024,50,76]{3,2,1,0} %param_1.898, f32[1,1024,50,76]{3,2,1,0} %param_2.784), metadata={op_type="AddN" op_name="tower0/gradients/AddN_144"}
  %select.23.clone.1 = f32[1,1024,50,76]{3,2,1,0} select(pred[1,1024,50,76]{3,2,1,0} %compare.23.clone.1, f32[1,1024,50,76]{3,2,1,0} %add.134.clone.1, f32[1,1024,50,76]{3,2,1,0} %broadcast.217.clone.1), metadata={op_type="ReluGrad" op_name="tower0/gradients/tower0/group2/block3/output_grad/ReluGrad"}
  %param_0.625 = f32[1,1024,50,76]{3,2,1,0} parameter(0)
  %multiply.109 = f32[1,1024,50,76]{3,2,1,0} multiply(f32[1,1024,50,76]{3,2,1,0} %select.23.clone.1, f32[1,1024,50,76]{3,2,1,0} %param_0.625), metadata={op_type="Mul" op_name="tower0/gradients/tower0/group2/block3/conv3/bn/batchnorm/mul_1_grad/Mul_1"}
  %reduce.38 = f32[1024]{0} reduce(f32[1,1024,50,76]{3,2,1,0} %multiply.109, f32[] %constant_267), dimensions={0,2,3}, to_apply=%tower0_gradients_tower0_group2_block3_conv3_bn_batchnorm_mul_1_grad_Sum_1-reduction.3631, metadata={op_type="Sum" op_name="tower0/gradients/tower0/group2/block3/conv3/bn/batchnorm/mul_1_grad/Sum_1"}
  %reduce.76 = f32[1024]{0} reduce(f32[1,1024,50,76]{3,2,1,0} %select.23.clone.1, f32[] %constant_267), dimensions={0,2,3}, to_apply=%tower0_gradients_tower0_group2_block3_conv3_bn_batchnorm_add_1_grad_Sum_1-reduction.3641, metadata={op_type="Sum" op_name="tower0/gradients/tower0/group2/block3/conv3/bn/batchnorm/add_1_grad/Sum_1"}
  ROOT %tuple.214 = (f32[1024]{0}, f32[1024]{0}, f32[1,1024,50,76]{3,2,1,0}) tuple(f32[1024]{0} %reduce.38, f32[1024]{0} %reduce.76, f32[1,1024,50,76]{3,2,1,0} %select.23.clone.1)
}

%fused_computation.79 (param_0.211: f32[1,1,256,1024], param_1.714: f32[1,1,256,1024]) -> f32[1,1,256,1024] {
  %param_0.211 = f32[1,1,256,1024]{1,0,2,3} parameter(0)
  %param_1.714 = f32[1,1,256,1024]{3,2,1,0} parameter(1)
  %copy.406 = f32[1,1,256,1024]{1,0,2,3} copy(f32[1,1,256,1024]{3,2,1,0} %param_1.714), metadata={op_name="XLA_Args"}
  %constant_330 = f32[] constant(0.0001), metadata={op_type="Const" op_name="tower0/gradients/tower0/wd_cost_internals/Square_10_grad/Mul"}
  %broadcast.180 = f32[1,1,256,1024]{1,0,2,3} broadcast(f32[] %constant_330), dimensions={}, metadata={op_type="Const" op_name="tower0/gradients/tower0/wd_cost_internals/Square_31_grad/Mul"}
  %multiply.110 = f32[1,1,256,1024]{1,0,2,3} multiply(f32[1,1,256,1024]{1,0,2,3} %copy.406, f32[1,1,256,1024]{1,0,2,3} %broadcast.180), metadata={op_type="Mul" op_name="tower0/gradients/tower0/wd_cost_internals/Square_25_grad/Mul_1"}
  %add.58 = f32[1,1,256,1024]{1,0,2,3} add(f32[1,1,256,1024]{1,0,2,3} %param_0.211, f32[1,1,256,1024]{1,0,2,3} %multiply.110), metadata={op_type="AddN" op_name="tower0/gradients/AddN_147"}
  ROOT %copy.405 = f32[1,1,256,1024]{3,2,1,0} copy(f32[1,1,256,1024]{1,0,2,3} %add.58), metadata={op_name="XLA_Retvals"}
}

%fused_computation.80 (param_0.214: f32[1,256,1,1], param_1.229: f32[1,256,1,1], param_2.175: f32[256], param_3.99: f32[256]) -> f32[256] {
  %param_3.99 = f32[256]{0} parameter(3)
  %bitcast.303 = f32[1,256,1,1]{3,2,1,0} bitcast(f32[256]{0} %param_3.99), metadata={op_type="Reshape" op_name="tower0/gradients/tower0/group2/block4/conv1/bn/batchnorm/mul_1_grad/Reshape_1"}
  %param_2.175 = f32[256]{0} parameter(2)
  %negate.72 = f32[256]{0} negate(f32[256]{0} %param_2.175), metadata={op_type="Neg" op_name="tower0/gradients/tower0/group2/block4/conv1/bn/batchnorm/sub_grad/Neg"}
  %bitcast.302 = f32[1,256,1,1]{3,2,1,0} bitcast(f32[256]{0} %negate.72), metadata={op_type="Neg" op_name="tower0/gradients/tower0/group2/block4/conv1/bn/batchnorm/sub_grad/Neg"}
  %param_1.229 = f32[1,256,1,1]{3,2,1,0} parameter(1)
  %multiply.112 = f32[1,256,1,1]{3,2,1,0} multiply(f32[1,256,1,1]{3,2,1,0} %bitcast.302, f32[1,256,1,1]{3,2,1,0} %param_1.229), metadata={op_type="Mul" op_name="tower0/gradients/tower0/group2/block4/conv1/bn/batchnorm/mul_2_grad/Mul_1"}
  %add.59 = f32[1,256,1,1]{3,2,1,0} add(f32[1,256,1,1]{3,2,1,0} %bitcast.303, f32[1,256,1,1]{3,2,1,0} %multiply.112), metadata={op_type="AddN" op_name="tower0/gradients/AddN_146"}
  %param_0.214 = f32[1,256,1,1]{3,2,1,0} parameter(0)
  %multiply.111 = f32[1,256,1,1]{3,2,1,0} multiply(f32[1,256,1,1]{3,2,1,0} %add.59, f32[1,256,1,1]{3,2,1,0} %param_0.214), metadata={op_type="Mul" op_name="tower0/gradients/tower0/group2/block4/conv1/bn/batchnorm/mul_grad/Mul_1"}
  ROOT %bitcast.301 = f32[256]{0} bitcast(f32[1,256,1,1]{3,2,1,0} %multiply.111), metadata={op_type="Reshape" op_name="tower0/gradients/tower0/group2/block4/conv1/bn/Reshape_grad/Reshape"}
}

%tower0_gradients_tower0_group2_block4_conv1_bn_batchnorm_mul_1_grad_Sum_1-reduction.3658 (x.3659: f32[], y.3660: f32[]) -> f32[] {
  %x.3659 = f32[] parameter(0)
  %y.3660 = f32[] parameter(1)
  ROOT %add.3661 = f32[] add(f32[] %x.3659, f32[] %y.3660)
}

%tower0_gradients_tower0_group2_block4_conv1_bn_batchnorm_add_1_grad_Sum_1-reduction.3668 (x.3669: f32[], y.3670: f32[]) -> f32[] {
  %x.3669 = f32[] parameter(0)
  %y.3670 = f32[] parameter(1)
  ROOT %add.3671 = f32[] add(f32[] %x.3669, f32[] %y.3670)
}

%fused_computation.81 (param_0.624: f32[1,256,50,76], param_1.899: f32[1,256,50,76], param_2.785: f32[1,256,50,76]) -> (f32[256], f32[256], f32[1,256,50,76]) {
  %param_2.785 = f32[1,256,50,76]{3,2,1,0} parameter(2)
  %constant_268 = f32[] constant(0), metadata={op_type="ZerosLike" op_name="tower0/gradients/tower0/rpn_losses/level2/logistic_loss/Select_grad/zeros_like"}
  %broadcast.218.clone.1 = f32[1,256,50,76]{3,2,1,0} broadcast(f32[] %constant_268), dimensions={}, metadata={op_type="ReluGrad" op_name="tower0/gradients/tower0/rpn_2/conv0/Relu_grad/ReluGrad"}
  %compare.24.clone.1 = pred[1,256,50,76]{3,2,1,0} compare(f32[1,256,50,76]{3,2,1,0} %param_2.785, f32[1,256,50,76]{3,2,1,0} %broadcast.218.clone.1), direction=GT, metadata={op_type="ReluGrad" op_name="tower0/gradients/tower0/group2/block4/conv1/Relu_grad/ReluGrad"}
  %param_1.899 = f32[1,256,50,76]{3,2,1,0} parameter(1)
  %select.24.clone.1 = f32[1,256,50,76]{3,2,1,0} select(pred[1,256,50,76]{3,2,1,0} %compare.24.clone.1, f32[1,256,50,76]{3,2,1,0} %param_1.899, f32[1,256,50,76]{3,2,1,0} %broadcast.218.clone.1), metadata={op_type="ReluGrad" op_name="tower0/gradients/tower0/group2/block4/conv1/Relu_grad/ReluGrad"}
  %param_0.624 = f32[1,256,50,76]{3,2,1,0} parameter(0)
  %multiply.113 = f32[1,256,50,76]{3,2,1,0} multiply(f32[1,256,50,76]{3,2,1,0} %select.24.clone.1, f32[1,256,50,76]{3,2,1,0} %param_0.624), metadata={op_type="Mul" op_name="tower0/gradients/tower0/group2/block4/conv1/bn/batchnorm/mul_1_grad/Mul_1"}
  %reduce.39 = f32[256]{0} reduce(f32[1,256,50,76]{3,2,1,0} %multiply.113, f32[] %constant_268), dimensions={0,2,3}, to_apply=%tower0_gradients_tower0_group2_block4_conv1_bn_batchnorm_mul_1_grad_Sum_1-reduction.3658, metadata={op_type="Sum" op_name="tower0/gradients/tower0/group2/block4/conv1/bn/batchnorm/mul_1_grad/Sum_1"}
  %reduce.96 = f32[256]{0} reduce(f32[1,256,50,76]{3,2,1,0} %select.24.clone.1, f32[] %constant_268), dimensions={0,2,3}, to_apply=%tower0_gradients_tower0_group2_block4_conv1_bn_batchnorm_add_1_grad_Sum_1-reduction.3668, metadata={op_type="Sum" op_name="tower0/gradients/tower0/group2/block4/conv1/bn/batchnorm/add_1_grad/Sum_1"}
  ROOT %tuple.213 = (f32[256]{0}, f32[256]{0}, f32[1,256,50,76]{3,2,1,0}) tuple(f32[256]{0} %reduce.39, f32[256]{0} %reduce.96, f32[1,256,50,76]{3,2,1,0} %select.24.clone.1)
}

%fused_computation.82 (param_0.219: f32[1,1,1024,256], param_1.715: f32[1,1,1024,256]) -> f32[1,1,1024,256] {
  %param_0.219 = f32[1,1,1024,256]{1,0,2,3} parameter(0)
  %param_1.715 = f32[1,1,1024,256]{3,2,1,0} parameter(1)
  %copy.408 = f32[1,1,1024,256]{1,0,2,3} copy(f32[1,1,1024,256]{3,2,1,0} %param_1.715), metadata={op_name="XLA_Args"}
…
  %arg276.277 = f32[1,128,100,152]{3,2,1,0} parameter(276), parameter_replication={false}, metadata={op_name="XLA_Args"}
  %bitcast.168 = f32[1,1,128,512]{1,0,3,2} bitcast(f32[1,1,128,512]{3,2,1,0} %arg18.19), metadata={op_name="XLA_Args"}
  %custom-call.231 = (f32[1,128,100,152]{3,2,1,0}, u8[91208]{0}) custom-call(f32[1,512,100,152]{3,2,1,0} %fusion.166, f32[1,1,128,512]{1,0,3,2} %bitcast.168), window={size=1x1}, dim_labels=bf01_01oi->bf01, custom_call_target="__cudnn$convForward", metadata={op_type="Conv2DBackpropInput" op_name="tower0/gradients/tower0/group1/block3/conv3/Conv2D_grad/Conv2DBackpropInput"}, backend_config="{\"algorithm\":\"1\",\"convResultScale\":1}"
  %get-tuple-element.527 = f32[1,128,100,152]{3,2,1,0} get-tuple-element((f32[1,128,100,152]{3,2,1,0}, u8[91208]{0}) %custom-call.231), index=0
  %fusion.35 = (f32[128]{0}, f32[128]{0}, f32[1,128,100,152]{3,2,1,0}) fusion(f32[1,128,100,152]{3,2,1,0} %arg276.277, f32[1,128,100,152]{3,2,1,0} %get-tuple-element.527, f32[1,128,100,152]{3,2,1,0} %arg273.274), kind=kInput, calls=%fused_computation.35, metadata={op_type="Sum" op_name="tower0/gradients/tower0/group1/block3/conv2/bn/batchnorm/mul_1_grad/Sum_1"}
  %get-tuple-element.597 = f32[128]{0} get-tuple-element((f32[128]{0}, f32[128]{0}, f32[1,128,100,152]{3,2,1,0}) %fusion.35), index=1
  %arg278.279 = f32[1,128,100,152]{3,2,1,0} parameter(278), parameter_replication={false}, metadata={op_name="XLA_Args"}
  %get-tuple-element.720 = f32[1,128,100,152]{3,2,1,0} get-tuple-element((f32[128]{0}, f32[128]{0}, f32[1,128,100,152]{3,2,1,0}) %fusion.35), index=2
  %arg275.276 = f32[1,128,1,1]{3,2,1,0} parameter(275), parameter_replication={false}, metadata={op_name="XLA_Args"}
  %fusion.164 = f32[1,128,100,152]{3,2,1,0} fusion(f32[1,128,100,152]{3,2,1,0} %get-tuple-element.720, f32[1,128,1,1]{3,2,1,0} %arg275.276), kind=kLoop, calls=%fused_computation.164, metadata={op_type="Mul" op_name="tower0/gradients/tower0/group1/block3/conv2/bn/batchnorm/mul_1_grad/Mul"}
  %custom-call.232 = (f32[3,3,128,128]{1,0,2,3}, u8[37380096]{0}) custom-call(f32[1,128,100,152]{3,2,1,0} %arg278.279, f32[1,128,100,152]{3,2,1,0} %fusion.164), window={size=3x3 pad=1_1x1_1}, dim_labels=bf01_01io->bf01, custom_call_target="__cudnn$convBackwardFilter", metadata={op_type="Conv2DBackpropFilter" op_name="tower0/gradients/tower0/group1/block3/conv2/Conv2D_grad/Conv2DBackpropFilter"}, backend_config="{\"algorithm\":\"5\",\"tensorOpsEnabled\":true,\"convResultScale\":1}"
  %get-tuple-element.528 = f32[3,3,128,128]{1,0,2,3} get-tuple-element((f32[3,3,128,128]{1,0,2,3}, u8[37380096]{0}) %custom-call.232), index=0
  %arg19.20 = f32[3,3,128,128]{3,2,1,0} parameter(19), parameter_replication={false}, metadata={op_name="XLA_Args"}
  %fusion.36 = f32[3,3,128,128]{3,2,1,0} fusion(f32[3,3,128,128]{1,0,2,3} %get-tuple-element.528, f32[3,3,128,128]{3,2,1,0} %arg19.20), kind=kLoop, calls=%fused_computation.36, metadata={op_name="XLA_Retvals"}
  %arg279.280 = f32[1,128,1,1]{3,2,1,0} parameter(279), parameter_replication={false}, metadata={op_name="XLA_Args"}
  %arg277.278 = f32[1,128,1,1]{3,2,1,0} parameter(277), parameter_replication={false}, metadata={op_name="XLA_Args"}
  %get-tuple-element.596 = f32[128]{0} get-tuple-element((f32[128]{0}, f32[128]{0}, f32[1,128,100,152]{3,2,1,0}) %fusion.35), index=0
  %fusion.34 = f32[128]{0} fusion(f32[1,128,1,1]{3,2,1,0} %arg279.280, f32[1,128,1,1]{3,2,1,0} %arg277.278, f32[128]{0} %get-tuple-element.597, f32[128]{0} %get-tuple-element.596), kind=kLoop, calls=%fused_computation.34, metadata={op_type="Reshape" op_name="tower0/gradients/tower0/group1/block3/conv2/bn/Reshape_grad/Reshape"}
  %arg281.282 = f32[1,128,100,152]{3,2,1,0} parameter(281), parameter_replication={false}, metadata={op_name="XLA_Args"}
  %copy.290 = f32[3,3,128,128]{1,0,2,3} copy(f32[3,3,128,128]{3,2,1,0} %arg19.20), metadata={op_name="XLA_Args"}
  %custom-call.233 = (f32[1,128,100,152]{3,2,1,0}, u8[1638912]{0}) custom-call(f32[1,128,100,152]{3,2,1,0} %fusion.164, f32[3,3,128,128]{1,0,2,3} %copy.290), window={size=3x3 pad=1_1x1_1}, dim_labels=bf01_01io->bf01, custom_call_target="__cudnn$convBackwardInput", metadata={op_type="Conv2DBackpropInput" op_name="tower0/gradients/tower0/group1/block3/conv2/Conv2D_grad/Conv2DBackpropInput"}, backend_config="{\"algorithm\":\"4\",\"convResultScale\":1}"
  %get-tuple-element.529 = f32[1,128,100,152]{3,2,1,0} get-tuple-element((f32[1,128,100,152]{3,2,1,0}, u8[1638912]{0}) %custom-call.233), index=0
  %fusion.32 = (f32[128]{0}, f32[128]{0}, f32[1,128,100,152]{3,2,1,0}) fusion(f32[1,128,100,152]{3,2,1,0} %arg281.282, f32[1,128,100,152]{3,2,1,0} %get-tuple-element.529, f32[1,128,100,152]{3,2,1,0} %arg278.279), kind=kInput, calls=%fused_computation.32, metadata={op_type="Sum" op_name="tower0/gradients/tower0/group1/block3/conv1/bn/batchnorm/mul_1_grad/Sum_1"}
  %get-tuple-element.595 = f32[128]{0} get-tuple-element((f32[128]{0}, f32[128]{0}, f32[1,128,100,152]{3,2,1,0}) %fusion.32), index=1
  %arg283.284 = f32[1,512,100,152]{3,2,1,0} parameter(283), parameter_replication={false}, metadata={op_name="XLA_Args"}
  %get-tuple-element.721 = f32[1,128,100,152]{3,2,1,0} get-tuple-element((f32[128]{0}, f32[128]{0}, f32[1,128,100,152]{3,2,1,0}) %fusion.32), index=2
  %arg280.281 = f32[1,128,1,1]{3,2,1,0} parameter(280), parameter_replication={false}, metadata={op_name="XLA_Args"}
  %fusion.162 = f32[1,128,100,152]{3,2,1,0} fusion(f32[1,128,100,152]{3,2,1,0} %get-tuple-element.721, f32[1,128,1,1]{3,2,1,0} %arg280.281), kind=kLoop, calls=%fused_computation.162, metadata={op_type="Mul" op_name="tower0/gradients/tower0/group1/block3/conv1/bn/batchnorm/mul_1_grad/Mul"}
  %custom-call.234 = (f32[1,1,512,128]{1,0,2,3}, u8[0]{0}) custom-call(f32[1,512,100,152]{3,2,1,0} %arg283.284, f32[1,128,100,152]{3,2,1,0} %fusion.162), window={size=1x1}, dim_labels=bf01_01io->bf01, custom_call_target="__cudnn$convBackwardFilter", metadata={op_type="Conv2DBackpropFilter" op_name="tower0/gradients/tower0/group1/block3/conv1/Conv2D_grad/Conv2DBackpropFilter"}, backend_config="{\"convResultScale\":1}"
  %get-tuple-element.530 = f32[1,1,512,128]{1,0,2,3} get-tuple-element((f32[1,1,512,128]{1,0,2,3}, u8[0]{0}) %custom-call.234), index=0
  %arg20.21 = f32[1,1,512,128]{3,2,1,0} parameter(20), parameter_replication={false}, metadata={op_name="XLA_Args"}
  %fusion.33 = f32[1,1,512,128]{3,2,1,0} fusion(f32[1,1,512,128]{1,0,2,3} %get-tuple-element.530, f32[1,1,512,128]{3,2,1,0} %arg20.21), kind=kLoop, calls=%fused_computation.33, metadata={op_name="XLA_Retvals"}
  %arg284.285 = f32[1,128,1,1]{3,2,1,0} parameter(284), parameter_replication={false}, metadata={op_name="XLA_Args"}
  %arg282.283 = f32[1,128,1,1]{3,2,1,0} parameter(282), parameter_replication={false}, metadata={op_name="XLA_Args"}
  %get-tuple-element.594 = f32[128]{0} get-tuple-element((f32[128]{0}, f32[128]{0}, f32[1,128,100,152]{3,2,1,0}) %fusion.32), index=0
  %fusion.31 = f32[128]{0} fusion(f32[1,128,1,1]{3,2,1,0} %arg284.285, f32[1,128,1,1]{3,2,1,0} %arg282.283, f32[128]{0} %get-tuple-element.595, f32[128]{0} %get-tuple-element.594), kind=kLoop, calls=%fused_computation.31, metadata={op_type="Reshape" op_name="tower0/gradients/tower0/group1/block3/conv1/bn/Reshape_grad/Reshape"}
  %arg286.287 = f32[1,512,100,152]{3,2,1,0} parameter(286), parameter_replication={false}, metadata={op_name="XLA_Args"}
  %bitcast.177 = f32[1,1,512,128]{1,0,3,2} bitcast(f32[1,1,512,128]{3,2,1,0} %arg20.21), metadata={op_name="XLA_Args"}
  %custom-call.235 = (f32[1,512,100,152]{3,2,1,0}, u8[91208]{0}) custom-call(f32[1,128,100,152]{3,2,1,0} %fusion.162, f32[1,1,512,128]{1,0,3,2} %bitcast.177), window={size=1x1}, dim_labels=bf01_01oi->bf01, custom_call_target="__cudnn$convForward", metadata={op_type="Conv2DBackpropInput" op_name="tower0/gradients/tower0/group1/block3/conv1/Conv2D_grad/Conv2DBackpropInput"}, backend_config="{\"algorithm\":\"1\",\"convResultScale\":1}"
  %get-tuple-element.531 = f32[1,512,100,152]{3,2,1,0} get-tuple-element((f32[1,512,100,152]{3,2,1,0}, u8[91208]{0}) %custom-call.235), index=0
  %fusion.29 = (f32[512]{0}, f32[512]{0}, f32[1,512,100,152]{3,2,1,0}) fusion(f32[1,512,100,152]{3,2,1,0} %arg286.287, f32[1,512,100,152]{3,2,1,0} %get-tuple-element.531, f32[1,512,100,152]{3,2,1,0} %get-tuple-element.719, f32[1,512,100,152]{3,2,1,0} %arg283.284), kind=kInput, calls=%fused_computation.29, metadata={op_type="Sum" op_name="tower0/gradients/tower0/group1/block2/conv3/bn/batchnorm/mul_1_grad/Sum_1"}
  %get-tuple-element.562 = f32[512]{0} get-tuple-element((f32[512]{0}, f32[512]{0}, f32[1,512,100,152]{3,2,1,0}) %fusion.29), index=1
  %arg288.289 = f32[1,128,100,152]{3,2,1,0} parameter(288), parameter_replication={false}, metadata={op_name="XLA_Args"}
  %get-tuple-element.722 = f32[1,512,100,152]{3,2,1,0} get-tuple-element((f32[512]{0}, f32[512]{0}, f32[1,512,100,152]{3,2,1,0}) %fusion.29), index=2
  %arg285.286 = f32[1,512,1,1]{3,2,1,0} parameter(285), parameter_replication={false}, metadata={op_name="XLA_Args"}
  %fusion.160 = f32[1,512,100,152]{3,2,1,0} fusion(f32[1,512,100,152]{3,2,1,0} %get-tuple-element.722, f32[1,512,1,1]{3,2,1,0} %arg285.286), kind=kLoop, calls=%fused_computation.160, metadata={op_type="Mul" op_name="tower0/gradients/tower0/group1/block2/conv3/bn/batchnorm/mul_1_grad/Mul"}
  %custom-call.236 = (f32[1,1,128,512]{1,0,2,3}, u8[0]{0}) custom-call(f32[1,128,100,152]{3,2,1,0} %arg288.289, f32[1,512,100,152]{3,2,1,0} %fusion.160), window={size=1x1}, dim_labels=bf01_01io->bf01, custom_call_target="__cudnn$convBackwardFilter", metadata={op_type="Conv2DBackpropFilter" op_name="tower0/gradients/tower0/group1/block2/conv3/Conv2D_grad/Conv2DBackpropFilter"}, backend_config="{\"convResultScale\":1}"
  %get-tuple-element.532 = f32[1,1,128,512]{1,0,2,3} get-tuple-element((f32[1,1,128,512]{1,0,2,3}, u8[0]{0}) %custom-call.236), index=0
  %arg21.22 = f32[1,1,128,512]{3,2,1,0} parameter(21), parameter_replication={false}, metadata={op_name="XLA_Args"}
  %fusion.30 = f32[1,1,128,512]{3,2,1,0} fusion(f32[1,1,128,512]{1,0,2,3} %get-tuple-element.532, f32[1,1,128,512]{3,2,1,0} %arg21.22), kind=kLoop, calls=%fused_computation.30, metadata={op_name="XLA_Retvals"}
  %arg289.290 = f32[1,512,1,1]{3,2,1,0} parameter(289), parameter_replication={false}, metadata={op_name="XLA_Args"}
  %arg287.288 = f32[1,512,1,1]{3,2,1,0} parameter(287), parameter_replication={false}, metadata={op_name="XLA_Args"}
  %get-tuple-element.561 = f32[512]{0} get-tuple-element((f32[512]{0}, f32[512]{0}, f32[1,512,100,152]{3,2,1,0}) %fusion.29), index=0
  %fusion.28 = f32[512]{0} fusion(f32[1,512,1,1]{3,2,1,0} %arg289.290, f32[1,512,1,1]{3,2,1,0} %arg287.288, f32[512]{0} %get-tuple-element.562, f32[512]{0} %get-tuple-element.561), kind=kLoop, calls=%fused_computation.28, metadata={op_type="Reshape" op_name="tower0/gradients/tower0/group1/block2/conv3/bn/Reshape_grad/Reshape"}
  %arg291.292 = f32[1,128,100,152]{3,2,1,0} parameter(291), parameter_replication={false}, metadata={op_name="XLA_Args"}
  %bitcast.182 = f32[1,1,128,512]{1,0,3,2} bitcast(f32[1,1,128,512]{3,2,1,0} %arg21.22), metadata={op_name="XLA_Args"}
  %custom-call.237 = (f32[1,128,100,152]{3,2,1,0}, u8[91208]{0}) custom-call(f32[1,512,100,152]{3,2,1,0} %fusion.160, f32[1,1,128,512]{1,0,3,2} %bitcast.182), window={size=1x1}, dim_labels=bf01_01oi->bf01, custom_call_target="__cudnn$convForward", metadata={op_type="Conv2DBackpropInput" op_name="tower0/gradients/tower0/group1/block2/conv3/Conv2D_grad/Conv2DBackpropInput"}, backend_config="{\"algorithm\":\"1\",\"convResultScale\":1}"
  %get-tuple-element.533 = f32[1,128,100,152]{3,2,1,0} get-tuple-element((f32[1,128,100,152]{3,2,1,0}, u8[91208]{0}) %custom-call.237), index=0
  %fusion.26 = (f32[128]{0}, f32[128]{0}, f32[1,128,100,152]{3,2,1,0}) fusion(f32[1,128,100,152]{3,2,1,0} %arg291.292, f32[1,128,100,152]{3,2,1,0} %get-tuple-element.533, f32[1,128,100,152]{3,2,1,0} %arg288.289), kind=kInput, calls=%fused_computation.26, metadata={op_type="Sum" op_name="tower0/gradients/tower0/group1/block2/conv2/bn/batchnorm/mul_1_grad/Sum_1"}
  %get-tuple-element.591 = f32[128]{0} get-tuple-element((f32[128]{0}, f32[128]{0}, f32[1,128,100,152]{3,2,1,0}) %fusion.26), index=1
  %arg293.294 = f32[1,128,100,152]{3,2,1,0} parameter(293), parameter_replication={false}, metadata={op_name="XLA_Args"}
  %get-tuple-element.723 = f32[1,128,100,152]{3,2,1,0} get-tuple-element((f32[128]{0}, f32[128]{0}, f32[1,128,100,152]{3,2,1,0}) %fusion.26), index=2
  %arg290.291 = f32[1,128,1,1]{3,2,1,0} parameter(290), parameter_replication={false}, metadata={op_name="XLA_Args"}
  %fusion.158 = f32[1,128,100,152]{3,2,1,0} fusion(f32[1,128,100,152]{3,2,1,0} %get-tuple-element.723, f32[1,128,1,1]{3,2,1,0} %arg290.291), kind=kLoop, calls=%fused_computation.158, metadata={op_type="Mul" op_name="tower0/gradients/tower0/group1/block2/conv2/bn/batchnorm/mul_1_grad/Mul"}
  %custom-call.238 = (f32[3,3,128,128]{1,0,2,3}, u8[37380096]{0}) custom-call(f32[1,128,100,152]{3,2,1,0} %arg293.294, f32[1,128,100,152]{3,2,1,0} %fusion.158), window={size=3x3 pad=1_1x1_1}, dim_labels=bf01_01io->bf01, custom_call_target="__cudnn$convBackwardFilter", metadata={op_type="Conv2DBackpropFilter" op_name="tower0/gradients/tower0/group1/block2/conv2/Conv2D_grad/Conv2DBackpropFilter"}, backend_config="{\"algorithm\":\"5\",\"tensorOpsEnabled\":true,\"convResultScale\":1}"
  %get-tuple-element.534 = f32[3,3,128,128]{1,0,2,3} get-tuple-element((f32[3,3,128,128]{1,0,2,3}, u8[37380096]{0}) %custom-call.238), index=0
  %arg22.23 = f32[3,3,128,128]{3,2,1,0} parameter(22), parameter_replication={false}, metadata={op_name="XLA_Args"}
  %fusion.27 = f32[3,3,128,128]{3,2,1,0} fusion(f32[3,3,128,128]{1,0,2,3} %get-tuple-element.534, f32[3,3,128,128]{3,2,1,0} %arg22.23), kind=kLoop, calls=%fused_computation.27, metadata={op_name="XLA_Retvals"}
  %arg294.295 = f32[1,128,1,1]{3,2,1,0} parameter(294), parameter_replication={false}, metadata={op_name="XLA_Args"}
  %arg292.293 = f32[1,128,1,1]{3,2,1,0} parameter(292), parameter_replication={false}, metadata={op_name="XLA_Args"}
  %get-tuple-element.590 = f32[128]{0} get-tuple-element((f32[128]{0}, f32[128]{0}, f32[1,128,100,152]{3,2,1,0}) %fusion.26), index=0
  %fusion.25 = f32[128]{0} fusion(f32[1,128,1,1]{3,2,1,0} %arg294.295, f32[1,128,1,1]{3,2,1,0} %arg292.293, f32[128]{0} %get-tuple-element.591, f32[128]{0} %get-tuple-element.590), kind=kLoop, calls=%fused_computation.25, metadata={op_type="Reshape" op_name="tower0/gradients/tower0/group1/block2/conv2/bn/Reshape_grad/Reshape"}
  %arg296.297 = f32[1,128,100,152]{3,2,1,0} parameter(296), parameter_replication={false}, metadata={op_name="XLA_Args"}
  %copy.296 = f32[3,3,128,128]{1,0,2,3} copy(f32[3,3,128,128]{3,2,1,0} %arg22.23), metadata={op_name="XLA_Args"}
  %custom-call.239 = (f32[1,128,100,152]{3,2,1,0}, u8[1638912]{0}) custom-call(f32[1,128,100,152]{3,2,1,0} %fusion.158, f32[3,3,128,128]{1,0,2,3} %copy.296), window={size=3x3 pad=1_1x1_1}, dim_labels=bf01_01io->bf01, custom_call_target="__cudnn$convBackwardInput", metadata={op_type="Conv2DBackpropInput" op_name="tower0/gradients/tower0/group1/block2/conv2/Conv2D_grad/Conv2DBackpropInput"}, backend_config="{\"algorithm\":\"4\",\"convResultScale\":1}"
  %get-tuple-element.535 = f32[1,128,100,152]{3,2,1,0} get-tuple-element((f32[1,128,100,152]{3,2,1,0}, u8[1638912]{0}) %custom-call.239), index=0
  %fusion.23 = (f32[128]{0}, f32[128]{0}, f32[1,128,100,152]{3,2,1,0}) fusion(f32[1,128,100,152]{3,2,1,0} %arg296.297, f32[1,128,100,152]{3,2,1,0} %get-tuple-element.535, f32[1,128,100,152]{3,2,1,0} %arg293.294), kind=kInput, calls=%fused_computation.23, metadata={op_type="Sum" op_name="tower0/gradients/tower0/group1/block2/conv1/bn/batchnorm/mul_1_grad/Sum_1"}
  %get-tuple-element.593 = f32[128]{0} get-tuple-element((f32[128]{0}, f32[128]{0}, f32[1,128,100,152]{3,2,1,0}) %fusion.23), index=1
  %arg298.299 = f32[1,512,100,152]{3,2,1,0} parameter(298), parameter_replication={false}, metadata={op_name="XLA_Args"}
  %get-tuple-element.724 = f32[1,128,100,152]{3,2,1,0} get-tuple-element((f32[128]{0}, f32[128]{0}, f32[1,128,100,152]{3,2,1,0}) %fusion.23), index=2
  %arg295.296 = f32[1,128,1,1]{3,2,1,0} parameter(295), parameter_replication={false}, metadata={op_name="XLA_Args"}
  %fusion.156 = f32[1,128,100,152]{3,2,1,0} fusion(f32[1,128,100,152]{3,2,1,0} %get-tuple-element.724, f32[1,128,1,1]{3,2,1,0} %arg295.296), kind=kLoop, calls=%fused_computation.156, metadata={op_type="Mul" op_name="tower0/gradients/tower0/group1/block2/conv1/bn/batchnorm/mul_1_grad/Mul"}
  %custom-call.240 = (f32[1,1,512,128]{1,0,2,3}, u8[0]{0}) custom-call(f32[1,512,100,152]{3,2,1,0} %arg298.299, f32[1,128,100,152]{3,2,1,0} %fusion.156), window={size=1x1}, dim_labels=bf01_01io->bf01, custom_call_target="__cudnn$convBackwardFilter", metadata={op_type="Conv2DBackpropFilter" op_name="tower0/gradients/tower0/group1/block2/conv1/Conv2D_grad/Conv2DBackpropFilter"}, backend_config="{\"convResultScale\":1}"
  %get-tuple-element.536 = f32[1,1,512,128]{1,0,2,3} get-tuple-element((f32[1,1,512,128]{1,0,2,3}, u8[0]{0}) %custom-call.240), index=0
  %arg23.24 = f32[1,1,512,128]{3,2,1,0} parameter(23), parameter_replication={false}, metadata={op_name="XLA_Args"}
  %fusion.24 = f32[1,1,512,128]{3,2,1,0} fusion(f32[1,1,512,128]{1,0,2,3} %get-tuple-element.536, f32[1,1,512,128]{3,2,1,0} %arg23.24), kind=kLoop, calls=%fused_computation.24, metadata={op_name="XLA_Retvals"}
  %arg299.300 = f32[1,128,1,1]{3,2,1,0} parameter(299), parameter_replication={false}, metadata={op_name="XLA_Args"}
  %arg297.298 = f32[1,128,1,1]{3,2,1,0} parameter(297), parameter_replication={false}, metadata={op_name="XLA_Args"}
  %get-tuple-element.592 = f32[128]{0} get-tuple-element((f32[128]{0}, f32[128]{0}, f32[1,128,100,152]{3,2,1,0}) %fusion.23), index=0
  %fusion.22 = f32[128]{0} fusion(f32[1,128,1,1]{3,2,1,0} %arg299.300, f32[1,128,1,1]{3,2,1,0} %arg297.298, f32[128]{0} %get-tuple-element.593, f32[128]{0} %get-tuple-element.592), kind=kLoop, calls=%fused_computation.22, metadata={op_type="Reshape" op_name="tower0/gradients/tower0/group1/block2/conv1/bn/Reshape_grad/Reshape"}
  %arg301.302 = f32[1,512,100,152]{3,2,1,0} parameter(301), parameter_replication={false}, metadata={op_name="XLA_Args"}
  %bitcast.191 = f32[1,1,512,128]{1,0,3,2} bitcast(f32[1,1,512,128]{3,2,1,0} %arg23.24), metadata={op_name="XLA_Args"}
  %custom-call.241 = (f32[1,512,100,152]{3,2,1,0}, u8[91208]{0}) custom-call(f32[1,128,100,152]{3,2,1,0} %fusion.156, f32[1,1,512,128]{1,0,3,2} %bitcast.191), window={size=1x1}, dim_labels=bf01_01oi->bf01, custom_call_target="__cudnn$convForward", metadata={op_type="Conv2DBackpropInput" op_name="tower0/gradients/tower0/group1/block2/conv1/Conv2D_grad/Conv2DBackpropInput"}, backend_config="{\"algorithm\":\"1\",\"convResultScale\":1}"
  %get-tuple-element.537 = f32[1,512,100,152]{3,2,1,0} get-tuple-element((f32[1,512,100,152]{3,2,1,0}, u8[91208]{0}) %custom-call.241), index=0
  %fusion.20 = (f32[512]{0}, f32[512]{0}, f32[1,512,100,152]{3,2,1,0}) fusion(f32[1,512,100,152]{3,2,1,0} %arg301.302, f32[1,512,100,152]{3,2,1,0} %get-tuple-element.537, f32[1,512,100,152]{3,2,1,0} %get-tuple-element.722, f32[1,512,100,152]{3,2,1,0} %arg298.299), kind=kInput, calls=%fused_computation.20, metadata={op_type="Sum" op_name="tower0/gradients/tower0/group1/block1/conv3/bn/batchnorm/mul_1_grad/Sum_1"}
  %get-tuple-element.553 = f32[512]{0} get-tuple-element((f32[512]{0}, f32[512]{0}, f32[1,512,100,152]{3,2,1,0}) %fusion.20), index=1
  %arg303.304 = f32[1,128,100,152]{3,2,1,0} parameter(303), parameter_replication={false}, metadata={op_name="XLA_Args"}
  %get-tuple-element.725 = f32[1,512,100,152]{3,2,1,0} get-tuple-element((f32[512]{0}, f32[512]{0}, f32[1,512,100,152]{3,2,1,0}) %fusion.20), index=2
  %arg300.301 = f32[1,512,1,1]{3,2,1,0} parameter(300), parameter_replication={false}, metadata={op_name="XLA_Args"}
  %fusion.154 = f32[1,512,100,152]{3,2,1,0} fusion(f32[1,512,100,152]{3,2,1,0} %get-tuple-element.725, f32[1,512,1,1]{3,2,1,0} %arg300.301), kind=kLoop, calls=%fused_computation.154, metadata={op_type="Mul" op_name="tower0/gradients/tower0/group1/block1/conv3/bn/batchnorm/mul_1_grad/Mul"}
  %custom-call.242 = (f32[1,1,128,512]{1,0,2,3}, u8[0]{0}) custom-call(f32[1,128,100,152]{3,2,1,0} %arg303.304, f32[1,512,100,152]{3,2,1,0} %fusion.154), window={size=1x1}, dim_labels=bf01_01io->bf01, custom_call_target="__cudnn$convBackwardFilter", metadata={op_type="Conv2DBackpropFilter" op_name="tower0/gradients/tower0/group1/block1/conv3/Conv2D_grad/Conv2DBackpropFilter"}, backend_config="{\"convResultScale\":1}"
  %get-tuple-element.538 = f32[1,1,128,512]{1,0,2,3} get-tuple-element((f32[1,1,128,512]{1,0,2,3}, u8[0]{0}) %custom-call.242), index=0
  %arg24.25 = f32[1,1,128,512]{3,2,1,0} parameter(24), parameter_replication={false}, metadata={op_name="XLA_Args"}
  %fusion.21 = f32[1,1,128,512]{3,2,1,0} fusion(f32[1,1,128,512]{1,0,2,3} %get-tuple-element.538, f32[1,1,128,512]{3,2,1,0} %arg24.25), kind=kLoop, calls=%fused_computation.21, metadata={op_name="XLA_Retvals"}
  %arg304.305 = f32[1,512,1,1]{3,2,1,0} parameter(304), parameter_replication={false}, metadata={op_name="XLA_Args"}
  %arg302.303 = f32[1,512,1,1]{3,2,1,0} parameter(302), parameter_replication={false}, metadata={op_name="XLA_Args"}
  %get-tuple-element.552 = f32[512]{0} get-tuple-element((f32[512]{0}, f32[512]{0}, f32[1,512,100,152]{3,2,1,0}) %fusion.20), index=0
  %fusion.19 = f32[512]{0} fusion(f32[1,512,1,1]{3,2,1,0} %arg304.305, f32[1,512,1,1]{3,2,1,0} %arg302.303, f32[512]{0} %get-tuple-element.553, f32[512]{0} %get-tuple-element.552), kind=kLoop, calls=%fused_computation.19, metadata={op_type="Reshape" op_name="tower0/gradients/tower0/group1/block1/conv3/bn/Reshape_grad/Reshape"}
  %arg306.307 = f32[1,128,100,152]{3,2,1,0} parameter(306), parameter_replication={false}, metadata={op_name="XLA_Args"}
  %bitcast.196 = f32[1,1,128,512]{1,0,3,2} bitcast(f32[1,1,128,512]{3,2,1,0} %arg24.25), metadata={op_name="XLA_Args"}
  %custom-call.243 = (f32[1,128,100,152]{3,2,1,0}, u8[91208]{0}) custom-call(f32[1,512,100,152]{3,2,1,0} %fusion.154, f32[1,1,128,512]{1,0,3,2} %bitcast.196), window={size=1x1}, dim_labels=bf01_01oi->bf01, custom_call_target="__cudnn$convForward", metadata={op_type="Conv2DBackpropInput" op_name="tower0/gradients/tower0/group1/block1/conv3/Conv2D_grad/Conv2DBackpropInput"}, backend_config="{\"algorithm\":\"1\",\"convResultScale\":1}"
  %get-tuple-element.539 = f32[1,128,100,152]{3,2,1,0} get-tuple-element((f32[1,128,100,152]{3,2,1,0}, u8[91208]{0}) %custom-call.243), index=0
  %fusion.17 = (f32[128]{0}, f32[128]{0}, f32[1,128,100,152]{3,2,1,0}) fusion(f32[1,128,100,152]{3,2,1,0} %arg306.307, f32[1,128,100,152]{3,2,1,0} %get-tuple-element.539, f32[1,128,100,152]{3,2,1,0} %arg303.304), kind=kInput, calls=%fused_computation.17, metadata={op_type="Sum" op_name="tower0/gradients/tower0/group1/block1/conv2/bn/batchnorm/mul_1_grad/Sum_1"}
  %get-tuple-element.589 = f32[128]{0} get-tuple-element((f32[128]{0}, f32[128]{0}, f32[1,128,100,152]{3,2,1,0}) %fusion.17), index=1
  %arg308.309 = f32[1,128,100,152]{3,2,1,0} parameter(308), parameter_replication={false}, metadata={op_name="XLA_Args"}
  %get-tuple-element.726 = f32[1,128,100,152]{3,2,1,0} get-tuple-element((f32[128]{0}, f32[128]{0}, f32[1,128,100,152]{3,2,1,0}) %fusion.17), index=2
  %arg305.306 = f32[1,128,1,1]{3,2,1,0} parameter(305), parameter_replication={false}, metadata={op_name="XLA_Args"}
  %fusion.152 = f32[1,128,100,152]{3,2,1,0} fusion(f32[1,128,100,152]{3,2,1,0} %get-tuple-element.726, f32[1,128,1,1]{3,2,1,0} %arg305.306), kind=kLoop, calls=%fused_computation.152, metadata={op_type="Mul" op_name="tower0/gradients/tower0/group1/block1/conv2/bn/batchnorm/mul_1_grad/Mul"}
  %custom-call.244 = (f32[3,3,128,128]{1,0,2,3}, u8[37380096]{0}) custom-call(f32[1,128,100,152]{3,2,1,0} %arg308.309, f32[1,128,100,152]{3,2,1,0} %fusion.152), window={size=3x3 pad=1_1x1_1}, dim_labels=bf01_01io->bf01, custom_call_target="__cudnn$convBackwardFilter", metadata={op_type="Conv2DBackpropFilter" op_name="tower0/gradients/tower0/group1/block1/conv2/Conv2D_grad/Conv2DBackpropFilter"}, backend_config="{\"algorithm\":\"5\",\"tensorOpsEnabled\":true,\"convResultScale\":1}"
  %get-tuple-element.540 = f32[3,3,128,128]{1,0,2,3} get-tuple-element((f32[3,3,128,128]{1,0,2,3}, u8[37380096]{0}) %custom-call.244), index=0
  %arg25.26 = f32[3,3,128,128]{3,2,1,0} parameter(25), parameter_replication={false}, metadata={op_name="XLA_Args"}
  %fusion.18 = f32[3,3,128,128]{3,2,1,0} fusion(f32[3,3,128,128]{1,0,2,3} %get-tuple-element.540, f32[3,3,128,128]{3,2,1,0} %arg25.26), kind=kLoop, calls=%fused_computation.18, metadata={op_name="XLA_Retvals"}
  %arg309.310 = f32[1,128,1,1]{3,2,1,0} parameter(309), parameter_replication={false}, metadata={op_name="XLA_Args"}
  %arg307.308 = f32[1,128,1,1]{3,2,1,0} parameter(307), parameter_replication={false}, metadata={op_name="XLA_Args"}
  %get-tuple-element.588 = f32[128]{0} get-tuple-element((f32[128]{0}, f32[128]{0}, f32[1,128,100,152]{3,2,1,0}) %fusion.17), index=0
  %fusion.16 = f32[128]{0} fusion(f32[1,128,1,1]{3,2,1,0} %arg309.310, f32[1,128,1,1]{3,2,1,0} %arg307.308, f32[128]{0} %get-tuple-element.589, f32[128]{0} %get-tuple-element.588), kind=kLoop, calls=%fused_computation.16, metadata={op_type="Reshape" op_name="tower0/gradients/tower0/group1/block1/conv2/bn/Reshape_grad/Reshape"}
  %arg311.312 = f32[1,128,100,152]{3,2,1,0} parameter(311), parameter_replication={false}, metadata={op_name="XLA_Args"}
  %copy.302 = f32[3,3,128,128]{1,0,2,3} copy(f32[3,3,128,128]{3,2,1,0} %arg25.26), metadata={op_name="XLA_Args"}
  %custom-call.245 = (f32[1,128,100,152]{3,2,1,0}, u8[1638912]{0}) custom-call(f32[1,128,100,152]{3,2,1,0} %fusion.152, f32[3,3,128,128]{1,0,2,3} %copy.302), window={size=3x3 pad=1_1x1_1}, dim_labels=bf01_01io->bf01, custom_call_target="__cudnn$convBackwardInput", metadata={op_type="Conv2DBackpropInput" op_name="tower0/gradients/tower0/group1/block1/conv2/Conv2D_grad/Conv2DBackpropInput"}, backend_config="{\"algorithm\":\"4\",\"convResultScale\":1}"
  %get-tuple-element.541 = f32[1,128,100,152]{3,2,1,0} get-tuple-element((f32[1,128,100,152]{3,2,1,0}, u8[1638912]{0}) %custom-call.245), index=0
  %fusion.14 = (f32[128]{0}, f32[128]{0}, f32[1,128,100,152]{3,2,1,0}) fusion(f32[1,128,100,152]{3,2,1,0} %arg311.312, f32[1,128,100,152]{3,2,1,0} %get-tuple-element.541, f32[1,128,100,152]{3,2,1,0} %arg308.309), kind=kInput, calls=%fused_computation.14, metadata={op_type="Sum" op_name="tower0/gradients/tower0/group1/block1/conv1/bn/batchnorm/mul_1_grad/Sum_1"}
  %get-tuple-element.587 = f32[128]{0} get-tuple-element((f32[128]{0}, f32[128]{0}, f32[1,128,100,152]{3,2,1,0}) %fusion.14), index=1
  %arg313.314 = f32[1,512,100,152]{3,2,1,0} parameter(313), parameter_replication={false}, metadata={op_name="XLA_Args"}
  %get-tuple-element.727 = f32[1,128,100,152]{3,2,1,0} get-tuple-element((f32[128]{0}, f32[128]{0}, f32[1,128,100,152]{3,2,1,0}) %fusion.14), index=2
  %arg310.311 = f32[1,128,1,1]{3,2,1,0} parameter(310), parameter_replication={false}, metadata={op_name="XLA_Args"}
  %fusion.150 = f32[1,128,100,152]{3,2,1,0} fusion(f32[1,128,100,152]{3,2,1,0} %get-tuple-element.727, f32[1,128,1,1]{3,2,1,0} %arg310.311), kind=kLoop, calls=%fused_computation.150, metadata={op_type="Mul" op_name="tower0/gradients/tower0/group1/block1/conv1/bn/batchnorm/mul_1_grad/Mul"}
  %custom-call.246 = (f32[1,1,512,128]{1,0,2,3}, u8[0]{0}) custom-call(f32[1,512,100,152]{3,2,1,0} %arg313.314, f32[1,128,100,152]{3,2,1,0} %fusion.150), window={size=1x1}, dim_labels=bf01_01io->bf01, custom_call_target="__cudnn$convBackwardFilter", metadata={op_type="Conv2DBackpropFilter" op_name="tower0/gradients/tower0/group1/block1/conv1/Conv2D_grad/Conv2DBackpropFilter"}, backend_config="{\"convResultScale\":1}"
  %get-tuple-element.542 = f32[1,1,512,128]{1,0,2,3} get-tuple-element((f32[1,1,512,128]{1,0,2,3}, u8[0]{0}) %custom-call.246), index=0
  %arg26.27 = f32[1,1,512,128]{3,2,1,0} parameter(26), parameter_replication={false}, metadata={op_name="XLA_Args"}
  %fusion.15 = f32[1,1,512,128]{3,2,1,0} fusion(f32[1,1,512,128]{1,0,2,3} %get-tuple-element.542, f32[1,1,512,128]{3,2,1,0} %arg26.27), kind=kLoop, calls=%fused_computation.15, metadata={op_name="XLA_Retvals"}
  %arg314.315 = f32[1,128,1,1]{3,2,1,0} parameter(314), parameter_replication={false}, metadata={op_name="XLA_Args"}
  %arg312.313 = f32[1,128,1,1]{3,2,1,0} parameter(312), parameter_replication={false}, metadata={op_name="XLA_Args"}
  %get-tuple-element.586 = f32[128]{0} get-tuple-element((f32[128]{0}, f32[128]{0}, f32[1,128,100,152]{3,2,1,0}) %fusion.14), index=0
  %fusion.13 = f32[128]{0} fusion(f32[1,128,1,1]{3,2,1,0} %arg314.315, f32[1,128,1,1]{3,2,1,0} %arg312.313, f32[128]{0} %get-tuple-element.587, f32[128]{0} %get-tuple-element.586), kind=kLoop, calls=%fused_computation.13, metadata={op_type="Reshape" op_name="tower0/gradients/tower0/group1/block1/conv1/bn/Reshape_grad/Reshape"}
  %arg316.317 = f32[1,512,100,152]{3,2,1,0} parameter(316), parameter_replication={false}, metadata={op_name="XLA_Args"}
  %arg317.318 = f32[1,512,100,152]{3,2,1,0} parameter(317), parameter_replication={false}, metadata={op_name="XLA_Args"}
  %bitcast.205 = f32[1,1,512,128]{1,0,3,2} bitcast(f32[1,1,512,128]{3,2,1,0} %arg26.27), metadata={op_name="XLA_Args"}
  %custom-call.247 = (f32[1,512,100,152]{3,2,1,0}, u8[91208]{0}) custom-call(f32[1,128,100,152]{3,2,1,0} %fusion.150, f32[1,1,512,128]{1,0,3,2} %bitcast.205), window={size=1x1}, dim_labels=bf01_01oi->bf01, custom_call_target="__cudnn$convForward", metadata={op_type="Conv2DBackpropInput" op_name="tower0/gradients/tower0/group1/block1/conv1/Conv2D_grad/Conv2DBackpropInput"}, backend_config="{\"algorithm\":\"1\",\"convResultScale\":1}"
  %get-tuple-element.543 = f32[1,512,100,152]{3,2,1,0} get-tuple-element((f32[1,512,100,152]{3,2,1,0}, u8[91208]{0}) %custom-call.247), index=0
  %fusion.10 = (f32[512]{0}, f32[512]{0}, f32[512]{0}, f32[1,512,100,152]{3,2,1,0}) fusion(f32[1,512,100,152]{3,2,1,0} %arg316.317, f32[1,512,100,152]{3,2,1,0} %arg317.318, f32[1,512,100,152]{3,2,1,0} %get-tuple-element.543, f32[1,512,100,152]{3,2,1,0} %get-tuple-element.725, f32[1,512,100,152]{3,2,1,0} %arg313.314), kind=kInput, calls=%fused_computation.10, metadata={op_type="Sum" op_name="tower0/gradients/tower0/group1/block0/convshortcut/bn/batchnorm/mul_1_grad/Sum_1"}
  %get-tuple-element.555 = f32[512]{0} get-tuple-element((f32[512]{0}, f32[512]{0}, f32[512]{0}, f32[1,512,100,152]{3,2,1,0}) %fusion.10), index=1
  %copy.486 = f32[512]{0} copy(f32[512]{0} %get-tuple-element.555)
  %get-tuple-element.728 = f32[1,512,100,152]{3,2,1,0} get-tuple-element((f32[512]{0}, f32[512]{0}, f32[512]{0}, f32[1,512,100,152]{3,2,1,0}) %fusion.10), index=3
  %arg318.319 = f32[1,512,1,1]{3,2,1,0} parameter(318), parameter_replication={false}, metadata={op_name="XLA_Args"}
  %arg315.316 = f32[1,512,1,1]{3,2,1,0} parameter(315), parameter_replication={false}, metadata={op_name="XLA_Args"}
  %fusion.148 = (f32[1,512,100,152]{3,2,1,0}, f32[1,512,100,152]{3,2,1,0}) fusion(f32[1,512,100,152]{3,2,1,0} %get-tuple-element.728, f32[1,512,1,1]{3,2,1,0} %arg318.319, f32[1,512,1,1]{3,2,1,0} %arg315.316), kind=kLoop, calls=%fused_computation.148, metadata={op_type="Mul" op_name="tower0/gradients/tower0/group1/block0/conv3/bn/batchnorm/mul_1_grad/Mul"}
  %get-tuple-element.551 = f32[1,512,100,152]{3,2,1,0} get-tuple-element((f32[1,512,100,152]{3,2,1,0}, f32[1,512,100,152]{3,2,1,0}) %fusion.148), index=1
  %custom-call.253 = (f32[1,1,256,512]{1,0,2,3}, u8[0]{0}) custom-call(f32[1,256,200,304]{3,2,1,0} %arg122.123, f32[1,512,100,152]{3,2,1,0} %get-tuple-element.551), window={size=1x1 stride=2x2}, dim_labels=bf01_01io->bf01, custom_call_target="__cudnn$convBackwardFilter", metadata={op_type="Conv2DBackpropFilter" op_name="tower0/gradients/tower0/group1/block0/convshortcut/Conv2D_grad/Conv2DBackpropFilter"}, backend_config="{\"convResultScale\":1}"
  %get-tuple-element.549 = f32[1,1,256,512]{1,0,2,3} get-tuple-element((f32[1,1,256,512]{1,0,2,3}, u8[0]{0}) %custom-call.253), index=0
  %arg27.28 = f32[1,1,256,512]{3,2,1,0} parameter(27), parameter_replication={false}, metadata={op_name="XLA_Args"}
  %fusion.12 = f32[1,1,256,512]{3,2,1,0} fusion(f32[1,1,256,512]{1,0,2,3} %get-tuple-element.549, f32[1,1,256,512]{3,2,1,0} %arg27.28), kind=kLoop, calls=%fused_computation.12, metadata={op_name="XLA_Retvals"}
  %arg321.322 = f32[1,128,100,152]{3,2,1,0} parameter(321), parameter_replication={false}, metadata={op_name="XLA_Args"}
  %get-tuple-element.550 = f32[1,512,100,152]{3,2,1,0} get-tuple-element((f32[1,512,100,152]{3,2,1,0}, f32[1,512,100,152]{3,2,1,0}) %fusion.148), index=0
  %custom-call.248 = (f32[1,1,128,512]{1,0,2,3}, u8[0]{0}) custom-call(f32[1,128,100,152]{3,2,1,0} %arg321.322, f32[1,512,100,152]{3,2,1,0} %get-tuple-element.550), window={size=1x1}, dim_labels=bf01_01io->bf01, custom_call_target="__cudnn$convBackwardFilter", metadata={op_type="Conv2DBackpropFilter" op_name="tower0/gradients/tower0/group1/block0/conv3/Conv2D_grad/Conv2DBackpropFilter"}, backend_config="{\"convResultScale\":1}"
  %get-tuple-element.544 = f32[1,1,128,512]{1,0,2,3} get-tuple-element((f32[1,1,128,512]{1,0,2,3}, u8[0]{0}) %custom-call.248), index=0
  %arg28.29 = f32[1,1,128,512]{3,2,1,0} parameter(28), parameter_replication={false}, metadata={op_name="XLA_Args"}
  %fusion.11 = f32[1,1,128,512]{3,2,1,0} fusion(f32[1,1,128,512]{1,0,2,3} %get-tuple-element.544, f32[1,1,128,512]{3,2,1,0} %arg28.29), kind=kLoop, calls=%fused_computation.11, metadata={op_name="XLA_Retvals"}
  %arg322.323 = f32[1,512,1,1]{3,2,1,0} parameter(322), parameter_replication={false}, metadata={op_name="XLA_Args"}
  %arg319.320 = f32[1,512,1,1]{3,2,1,0} parameter(319), parameter_replication={false}, metadata={op_name="XLA_Args"}
  %get-tuple-element.554 = f32[512]{0} get-tuple-element((f32[512]{0}, f32[512]{0}, f32[512]{0}, f32[1,512,100,152]{3,2,1,0}) %fusion.10), index=0
  %arg323.324 = f32[1,512,1,1]{3,2,1,0} parameter(323), parameter_replication={false}, metadata={op_name="XLA_Args"}
  %arg320.321 = f32[1,512,1,1]{3,2,1,0} parameter(320), parameter_replication={false}, metadata={op_name="XLA_Args"}
  %get-tuple-element.558 = f32[512]{0} get-tuple-element((f32[512]{0}, f32[512]{0}, f32[512]{0}, f32[1,512,100,152]{3,2,1,0}) %fusion.10), index=2
  %fusion.8 = (f32[512]{0}, f32[512]{0}) fusion(f32[1,512,1,1]{3,2,1,0} %arg322.323, f32[1,512,1,1]{3,2,1,0} %arg319.320, f32[512]{0} %get-tuple-element.554, f32[512]{0} %get-tuple-element.555, f32[1,512,1,1]{3,2,1,0} %arg323.324, f32[1,512,1,1]{3,2,1,0} %arg320.321, f32[512]{0} %get-tuple-element.558), kind=kLoop, calls=%fused_computation.8, metadata={op_type="Reshape" op_name="tower0/gradients/tower0/group1/block0/convshortcut/bn/Reshape_grad/Reshape"}
  %get-tuple-element.666 = f32[512]{0} get-tuple-element((f32[512]{0}, f32[512]{0}) %fusion.8), index=0
  %get-tuple-element.667 = f32[512]{0} get-tuple-element((f32[512]{0}, f32[512]{0}) %fusion.8), index=1
  %arg324.325 = f32[1,128,100,152]{3,2,1,0} parameter(324), parameter_replication={false}, metadata={op_name="XLA_Args"}
  %bitcast.213 = f32[1,1,128,512]{1,0,3,2} bitcast(f32[1,1,128,512]{3,2,1,0} %arg28.29), metadata={op_name="XLA_Args"}
  %custom-call.249 = (f32[1,128,100,152]{3,2,1,0}, u8[91208]{0}) custom-call(f32[1,512,100,152]{3,2,1,0} %get-tuple-element.550, f32[1,1,128,512]{1,0,3,2} %bitcast.213), window={size=1x1}, dim_labels=bf01_01oi->bf01, custom_call_target="__cudnn$convForward", metadata={op_type="Conv2DBackpropInput" op_name="tower0/gradients/tower0/group1/block0/conv3/Conv2D_grad/Conv2DBackpropInput"}, backend_config="{\"algorithm\":\"1\",\"convResultScale\":1}"
  %get-tuple-element.545 = f32[1,128,100,152]{3,2,1,0} get-tuple-element((f32[1,128,100,152]{3,2,1,0}, u8[91208]{0}) %custom-call.249), index=0
  %fusion.4 = (f32[128]{0}, f32[128]{0}, f32[1,128,100,152]{3,2,1,0}) fusion(f32[1,128,100,152]{3,2,1,0} %arg324.325, f32[1,128,100,152]{3,2,1,0} %get-tuple-element.545, f32[1,128,100,152]{3,2,1,0} %arg321.322), kind=kInput, calls=%fused_computation.4, metadata={op_type="Sum" op_name="tower0/gradients/tower0/group1/block0/conv2/bn/batchnorm/mul_1_grad/Sum_1"}
  %get-tuple-element.585 = f32[128]{0} get-tuple-element((f32[128]{0}, f32[128]{0}, f32[1,128,100,152]{3,2,1,0}) %fusion.4), index=1
  %arg327.328 = f32[1,128,201,305]{3,2,1,0} parameter(327), parameter_replication={false}, metadata={op_name="XLA_Args"}
  %get-tuple-element.729 = f32[1,128,100,152]{3,2,1,0} get-tuple-element((f32[128]{0}, f32[128]{0}, f32[1,128,100,152]{3,2,1,0}) %fusion.4), index=2
  %arg325.326 = f32[1,128,1,1]{3,2,1,0} parameter(325), parameter_replication={false}, metadata={op_name="XLA_Args"}
  %fusion.146 = f32[1,128,100,152]{3,2,1,0} fusion(f32[1,128,100,152]{3,2,1,0} %get-tuple-element.729, f32[1,128,1,1]{3,2,1,0} %arg325.326), kind=kLoop, calls=%fused_computation.146, metadata={op_type="Mul" op_name="tower0/gradients/tower0/group1/block0/conv2/bn/batchnorm/mul_1_grad/Mul"}
  %custom-call.250 = (f32[3,3,128,128]{1,0,2,3}, u8[0]{0}) custom-call(f32[1,128,201,305]{3,2,1,0} %arg327.328, f32[1,128,100,152]{3,2,1,0} %fusion.146), window={size=3x3 stride=2x2}, dim_labels=bf01_01io->bf01, custom_call_target="__cudnn$convBackwardFilter", metadata={op_type="Conv2DBackpropFilter" op_name="tower0/gradients/tower0/group1/block0/conv2/Conv2D_grad/Conv2DBackpropFilter"}, backend_config="{\"convResultScale\":1}"
  %get-tuple-element.546 = f32[3,3,128,128]{1,0,2,3} get-tuple-element((f32[3,3,128,128]{1,0,2,3}, u8[0]{0}) %custom-call.250), index=0
  %arg29.30 = f32[3,3,128,128]{3,2,1,0} parameter(29), parameter_replication={false}, metadata={op_name="XLA_Args"}
  %fusion.5 = f32[3,3,128,128]{3,2,1,0} fusion(f32[3,3,128,128]{1,0,2,3} %get-tuple-element.546, f32[3,3,128,128]{3,2,1,0} %arg29.30), kind=kLoop, calls=%fused_computation.5, metadata={op_name="XLA_Retvals"}
  %arg328.329 = f32[1,128,1,1]{3,2,1,0} parameter(328), parameter_replication={false}, metadata={op_name="XLA_Args"}
  %arg326.327 = f32[1,128,1,1]{3,2,1,0} parameter(326), parameter_replication={false}, metadata={op_name="XLA_Args"}
  %get-tuple-element.584 = f32[128]{0} get-tuple-element((f32[128]{0}, f32[128]{0}, f32[1,128,100,152]{3,2,1,0}) %fusion.4), index=0
  %fusion.3 = f32[128]{0} fusion(f32[1,128,1,1]{3,2,1,0} %arg328.329, f32[1,128,1,1]{3,2,1,0} %arg326.327, f32[128]{0} %get-tuple-element.585, f32[128]{0} %get-tuple-element.584), kind=kLoop, calls=%fused_computation.3, metadata={op_type="Reshape" op_name="tower0/gradients/tower0/group1/block0/conv2/bn/Reshape_grad/Reshape"}
  %arg330.331 = f32[1,128,200,304]{3,2,1,0} parameter(330), parameter_replication={false}, metadata={op_name="XLA_Args"}
  %copy.309 = f32[3,3,128,128]{1,0,2,3} copy(f32[3,3,128,128]{3,2,1,0} %arg29.30), metadata={op_name="XLA_Args"}
  %custom-call.251 = (f32[1,128,201,305]{3,2,1,0}, u8[0]{0}) custom-call(f32[1,128,100,152]{3,2,1,0} %fusion.146, f32[3,3,128,128]{1,0,2,3} %copy.309), window={size=3x3 stride=2x2}, dim_labels=bf01_01io->bf01, custom_call_target="__cudnn$convBackwardInput", metadata={op_type="Conv2DBackpropInput" op_name="tower0/gradients/tower0/group1/block0/conv2/Conv2D_grad/Conv2DBackpropInput"}, backend_config="{\"convResultScale\":1}"
  %get-tuple-element.547 = f32[1,128,201,305]{3,2,1,0} get-tuple-element((f32[1,128,201,305]{3,2,1,0}, u8[0]{0}) %custom-call.251), index=0
  %arg329.330 = f32[1,128,200,304]{3,2,1,0} parameter(329), parameter_replication={false}, metadata={op_name="XLA_Args"}
  %fusion.1 = (f32[128]{0}, f32[128]{0}, f32[1,128,200,304]{3,2,1,0}) fusion(f32[1,128,200,304]{3,2,1,0} %arg330.331, f32[1,128,201,305]{3,2,1,0} %get-tuple-element.547, f32[1,128,200,304]{3,2,1,0} %arg329.330), kind=kInput, calls=%fused_computation.1, metadata={op_type="Sum" op_name="tower0/gradients/tower0/group1/block0/conv1/bn/batchnorm/mul_1_grad/Sum_1"}
  %get-tuple-element.557 = f32[128]{0} get-tuple-element((f32[128]{0}, f32[128]{0}, f32[1,128,200,304]{3,2,1,0}) %fusion.1), index=1
  %get-tuple-element.730 = f32[1,128,200,304]{3,2,1,0} get-tuple-element((f32[128]{0}, f32[128]{0}, f32[1,128,200,304]{3,2,1,0}) %fusion.1), index=2
  %arg331.332 = f32[1,128,1,1]{3,2,1,0} parameter(331), parameter_replication={false}, metadata={op_name="XLA_Args"}
  %fusion.144 = f32[1,128,200,304]{3,2,1,0} fusion(f32[1,128,200,304]{3,2,1,0} %get-tuple-element.730, f32[1,128,1,1]{3,2,1,0} %arg331.332), kind=kLoop, calls=%fused_computation.144, metadata={op_type="Mul" op_name="tower0/gradients/tower0/group1/block0/conv1/bn/batchnorm/mul_1_grad/Mul"}
  %custom-call.252 = (f32[1,1,256,128]{1,0,2,3}, u8[0]{0}) custom-call(f32[1,256,200,304]{3,2,1,0} %arg122.123, f32[1,128,200,304]{3,2,1,0} %fusion.144), window={size=1x1}, dim_labels=bf01_01io->bf01, custom_call_target="__cudnn$convBackwardFilter", metadata={op_type="Conv2DBackpropFilter" op_name="tower0/gradients/tower0/group1/block0/conv1/Conv2D_grad/Conv2DBackpropFilter"}, backend_config="{\"convResultScale\":1}"
  %get-tuple-element.548 = f32[1,1,256,128]{1,0,2,3} get-tuple-element((f32[1,1,256,128]{1,0,2,3}, u8[0]{0}) %custom-call.252), index=0
  %arg30.31 = f32[1,1,256,128]{3,2,1,0} parameter(30), parameter_replication={false}, metadata={op_name="XLA_Args"}
  %fusion.2 = f32[1,1,256,128]{3,2,1,0} fusion(f32[1,1,256,128]{1,0,2,3} %get-tuple-element.548, f32[1,1,256,128]{3,2,1,0} %arg30.31), kind=kLoop, calls=%fused_computation.2, metadata={op_name="XLA_Retvals"}
  %arg333.334 = f32[1,128,1,1]{3,2,1,0} parameter(333), parameter_replication={false}, metadata={op_name="XLA_Args"}
  %arg332.333 = f32[1,128,1,1]{3,2,1,0} parameter(332), parameter_replication={false}, metadata={op_name="XLA_Args"}
  %get-tuple-element.556 = f32[128]{0} get-tuple-element((f32[128]{0}, f32[128]{0}, f32[1,128,200,304]{3,2,1,0}) %fusion.1), index=0
  %fusion = f32[128]{0} fusion(f32[1,128,1,1]{3,2,1,0} %arg333.334, f32[1,128,1,1]{3,2,1,0} %arg332.333, f32[128]{0} %get-tuple-element.557, f32[128]{0} %get-tuple-element.556), kind=kLoop, calls=%fused_computation, metadata={op_type="Reshape" op_name="tower0/gradients/tower0/group1/block0/conv1/bn/Reshape_grad/Reshape"}
  ROOT %tuple.238 = (f32[3]{0}, f32[1,1,256,3]{3,2,1,0}, f32[12]{0}, f32[1,1,256,12]{3,2,1,0}, f32[256]{0}, f32[3,3,256,256]{3,2,1,0}, f32[256]{0}, f32[256]{0}, f32[256]{0}, f32[256]{0}, f32[3,3,256,256]{3,2,1,0}, f32[3,3,256,256]{3,2,1,0}, f32[3,3,256,256]{3,2,1,0}, f32[3,3,256,256]{3,2,1,0}, f32[256]{0}, f32[1,1,256,256]{3,2,1,0}, f32[256]{0}, f32[1,1,512,256]{3,2,1,0}, f32[256]{0}, f32[1,1,1024,256]{3,2,1,0}, f32[256]{0}, f32[1,1,2048,256]{3,2,1,0}, f32[2048]{0}, f32[1,1,512,2048]{3,2,1,0}, f32[2048]{0}, f32[512]{0}, f32[3,3,512,512]{3,2,1,0}, f32[512]{0}, f32[512]{0}, f32[1,1,2048,512]{3,2,1,0}, f32[512]{0}, f32[2048]{0}, f32[1,1,512,2048]{3,2,1,0}, f32[2048]{0}, f32[512]{0}, f32[3,3,512,512]{3,2,1,0}, f32[512]{0}, f32[512]{0}, f32[1,1,2048,512]{3,2,1,0}, f32[512]{0}, f32[2048]{0}, f32[2048]{0}, f32[1,1,512,2048]{3,2,1,0}, f32[1,1,1024,2048]{3,2,1,0}, f32[2048]{0}, f32[2048]{0}, f32[512]{0}, f32[3,3,512,512]{3,2,1,0}, f32[512]{0}, f32[512]{0}, f32[1,1,1024,512]{3,2,1,0}, f32[512]{0}, f32[1024]{0}, f32[1,1,256,1024]{3,2,1,0}, f32[1024]{0}, f32[256]{0}, f32[3,3,256,256]{3,2,1,0}, f32[256]{0}, f32[256]{0}, f32[1,1,1024,256]{3,2,1,0}, f32[256]{0}, f32[1024]{0}, f32[1,1,256,1024]{3,2,1,0}, f32[1024]{0}, f32[256]{0}, f32[3,3,256,256]{3,2,1,0}, f32[256]{0}, f32[256]{0}, f32[1,1,1024,256]{3,2,1,0}, f32[256]{0}, f32[1024]{0}, f32[1,1,256,1024]{3,2,1,0}, f32[1024]{0}, f32[256]{0}, f32[3,3,256,256]{3,2,1,0}, f32[256]{0}, f32[256]{0}, f32[1,1,1024,256]{3,2,1,0}, f32[256]{0}, f32[1024]{0}, f32[1,1,256,1024]{3,2,1,0}, f32[1024]{0}, f32[256]{0}, f32[3,3,256,256]{3,2,1,0}, f32[256]{0}, f32[256]{0}, f32[1,1,1024,256]{3,2,1,0}, f32[256]{0}, f32[1024]{0}, f32[1,1,256,1024]{3,2,1,0}, f32[1024]{0}, f32[256]{0}, f32[3,3,256,256]{3,2,1,0}, f32[256]{0}, f32[256]{0}, f32[1,1,1024,256]{3,2,1,0}, f32[256]{0}, f32[1024]{0}, f32[1024]{0}, f32[1,1,512,1024]{3,2,1,0}, f32[1,1,256,1024]{3,2,1,0}, f32[1024]{0}, f32[1024]{0}, f32[256]{0}, f32[3,3,256,256]{3,2,1,0}, f32[256]{0}, f32[256]{0}, f32[1,1,512,256]{3,2,1,0}, f32[256]{0}, f32[512]{0}, f32[1,1,128,512]{3,2,1,0}, f32[512]{0}, f32[128]{0}, f32[3,3,128,128]{3,2,1,0}, f32[128]{0}, f32[128]{0}, f32[1,1,512,128]{3,2,1,0}, f32[128]{0}, f32[512]{0}, f32[1,1,128,512]{3,2,1,0}, f32[512]{0}, f32[128]{0}, f32[3,3,128,128]{3,2,1,0}, f32[128]{0}, f32[128]{0}, f32[1,1,512,128]{3,2,1,0}, f32[128]{0}, f32[512]{0}, f32[1,1,128,512]{3,2,1,0}, f32[512]{0}, f32[128]{0}, f32[3,3,128,128]{3,2,1,0}, f32[128]{0}, f32[128]{0}, f32[1,1,512,128]{3,2,1,0}, f32[128]{0}, f32[512]{0}, f32[512]{0}, f32[1,1,256,512]{3,2,1,0}, f32[1,1,128,512]{3,2,1,0}, f32[512]{0}, f32[512]{0}, f32[128]{0}, f32[3,3,128,128]{3,2,1,0}, f32[128]{0}, f32[128]{0}, f32[1,1,256,128]{3,2,1,0}, f32[128]{0}) tuple(f32[3]{0} %fusion.142, f32[1,1,256,3]{3,2,1,0} %fusion.141, f32[12]{0} %fusion.140, f32[1,1,256,12]{3,2,1,0} %fusion.139, f32[256]{0} %fusion.138, f32[3,3,256,256]{3,2,1,0} %get-tuple-element.646, f32[256]{0} %get-tuple-element.678, f32[256]{0} %get-tuple-element.680, f32[256]{0} %get-tuple-element.682, f32[256]{0} %get-tuple-element.684, f32[3,3,256,256]{3,2,1,0} %get-tuple-element.649, f32[3,3,256,256]{3,2,1,0} %get-tuple-element.643, f32[3,3,256,256]{3,2,1,0} %get-tuple-element.645, f32[3,3,256,256]{3,2,1,0} %get-tuple-element.648, f32[256]{0} %reduce.1253, f32[1,1,256,256]{3,2,1,0} %fusion.132, f32[256]{0} %get-tuple-element.686, f32[1,1,512,256]{3,2,1,0} %fusion.131, f32[256]{0} %get-tuple-element.688, f32[1,1,1024,256]{3,2,1,0} %fusion.130, f32[256]{0} %get-tuple-element.690, f32[1,1,2048,256]{3,2,1,0} %fusion.129, f32[2048]{0} %get-tuple-element.581, f32[1,1,512,2048]{3,2,1,0} %fusion.128, f32[2048]{0} %fusion.126, f32[512]{0} %get-tuple-element.659, f32[3,3,512,512]{3,2,1,0} %fusion.125, f32[512]{0} %fusion.123, f32[512]{0} %get-tuple-element.661, f32[1,1,2048,512]{3,2,1,0} %fusion.122, f32[512]{0} %fusion.120, f32[2048]{0} %get-tuple-element.604, f32[1,1,512,2048]{3,2,1,0} %fusion.119, f32[2048]{0} %fusion.117, f32[512]{0} %get-tuple-element.655, f32[3,3,512,512]{3,2,1,0} %fusion.116, f32[512]{0} %fusion.114, f32[512]{0} %get-tuple-element.657, f32[1,1,2048,512]{3,2,1,0} %fusion.113, f32[512]{0} %fusion.111, f32[2048]{0} %get-tuple-element.600, f32[2048]{0} %copy.484, f32[1,1,512,2048]{3,2,1,0} %fusion.110, f32[1,1,1024,2048]{3,2,1,0} %fusion.109, f32[2048]{0} %get-tuple-element.662, f32[2048]{0} %get-tuple-element.663, f32[512]{0} %get-tuple-element.653, f32[3,3,512,512]{3,2,1,0} %fusion.103, f32[512]{0} %fusion.101, f32[512]{0} %get-tuple-element.583, f32[1,1,1024,512]{3,2,1,0} %fusion.100, f32[512]{0} %fusion.98, f32[1024]{0} %get-tuple-element.568, f32[1,1,256,1024]{3,2,1,0} %fusion.97, f32[1024]{0} %fusion.95, f32[256]{0} %get-tuple-element.624, f32[3,3,256,256]{3,2,1,0} %get-tuple-element.650, f32[256]{0} %fusion.92, f32[256]{0} %get-tuple-element.626, f32[1,1,1024,256]{3,2,1,0} %fusion.91, f32[256]{0} %fusion.89, f32[1024]{0} %get-tuple-element.570, f32[1,1,256,1024]{3,2,1,0} %fusion.88, f32[1024]{0} %fusion.86, f32[256]{0} %get-tuple-element.618, f32[3,3,256,256]{3,2,1,0} %get-tuple-element.631, f32[256]{0} %fusion.83, f32[256]{0} %get-tuple-element.616, f32[1,1,1024,256]{3,2,1,0} %fusion.82, f32[256]{0} %fusion.80, f32[1024]{0} %get-tuple-element.572, f32[1,1,256,1024]{3,2,1,0} %fusion.79, f32[1024]{0} %fusion.77, f32[256]{0} %get-tuple-element.612, f32[3,3,256,256]{3,2,1,0} %get-tuple-element.644, f32[256]{0} %fusion.74, f32[256]{0} %get-tuple-element.610, f32[1,1,1024,256]{3,2,1,0} %fusion.73, f32[256]{0} %fusion.71, f32[1024]{0} %get-tuple-element.564, f32[1,1,256,1024]{3,2,1,0} %fusion.70, f32[1024]{0} %fusion.68, f32[256]{0} %get-tuple-element.606, f32[3,3,256,256]{3,2,1,0} %get-tuple-element.651, f32[256]{0} %fusion.65, f32[256]{0} %get-tuple-element.608, f32[1,1,1024,256]{3,2,1,0} %fusion.64, f32[256]{0} %fusion.62, f32[1024]{0} %get-tuple-element.576, f32[1,1,256,1024]{3,2,1,0} %fusion.61, f32[1024]{0} %fusion.59, f32[256]{0} %get-tuple-element.620, f32[3,3,256,256]{3,2,1,0} %get-tuple-element.647, f32[256]{0} %fusion.56, f32[256]{0} %get-tuple-element.622, f32[1,1,1024,256]{3,2,1,0} %fusion.55, f32[256]{0} %fusion.53, f32[1024]{0} %get-tuple-element.578, f32[1024]{0} %copy.485, f32[1,1,512,1024]{3,2,1,0} %fusion.52, f32[1,1,256,1024]{3,2,1,0} %fusion.51, f32[1024]{0} %get-tuple-element.664, f32[1024]{0} %get-tuple-element.665, f32[256]{0} %get-tuple-element.614, f32[3,3,256,256]{3,2,1,0} %get-tuple-element.632, f32[256]{0} %fusion.43, f32[256]{0} %get-tuple-element.574, f32[1,1,512,256]{3,2,1,0} %fusion.42, f32[256]{0} %fusion.40, f32[512]{0} %get-tuple-element.560, f32[1,1,128,512]{3,2,1,0} %fusion.39, f32[512]{0} %fusion.37, f32[128]{0} %get-tuple-element.597, f32[3,3,128,128]{3,2,1,0} %fusion.36, f32[128]{0} %fusion.34, f32[128]{0} %get-tuple-element.595, f32[1,1,512,128]{3,2,1,0} %fusion.33, f32[128]{0} %fusion.31, f32[512]{0} %get-tuple-element.562, f32[1,1,128,512]{3,2,1,0} %fusion.30, f32[512]{0} %fusion.28, f32[128]{0} %get-tuple-element.591, f32[3,3,128,128]{3,2,1,0} %fusion.27, f32[128]{0} %fusion.25, f32[128]{0} %get-tuple-element.593, f32[1,1,512,128]{3,2,1,0} %fusion.24, f32[128]{0} %fusion.22, f32[512]{0} %get-tuple-element.553, f32[1,1,128,512]{3,2,1,0} %fusion.21, f32[512]{0} %fusion.19, f32[128]{0} %get-tuple-element.589, f32[3,3,128,128]{3,2,1,0} %fusion.18, f32[128]{0} %fusion.16, f32[128]{0} %get-tuple-element.587, f32[1,1,512,128]{3,2,1,0} %fusion.15, f32[128]{0} %fusion.13, f32[512]{0} %get-tuple-element.555, f32[512]{0} %copy.486, f32[1,1,256,512]{3,2,1,0} %fusion.12, f32[1,1,128,512]{3,2,1,0} %fusion.11, f32[512]{0} %get-tuple-element.666, f32[512]{0} %get-tuple-element.667, f32[128]{0} %get-tuple-element.585, f32[3,3,128,128]{3,2,1,0} %fusion.5, f32[128]{0} %fusion.3, f32[128]{0} %get-tuple-element.557, f32[1,1,256,128]{3,2,1,0} %fusion.2, f32[128]{0} %fusion)
}

