HloModule cluster_5__XlaCompiledKernel_true__XlaNumConstantArgs_39__XlaNumResourceArgs_0_.2788

%max_F32.1823 (lhs.1824: f32[], rhs.1825: f32[]) -> f32[] {
  %lhs.1824 = f32[] parameter(0)
  %rhs.1825 = f32[] parameter(1)
  ROOT %maximum.1826 = f32[] maximum(f32[] %lhs.1824, f32[] %rhs.1825)
}

%fused_computation (param_0.2: s32[], param_1.3: s32[], param_2.6: f32[], param_3.10: f32[]) -> pred[] {
  %param_3.10 = f32[] parameter(3)
  %bitcast-convert.35 = s32[] bitcast-convert(f32[] %param_3.10)
  %constant_128 = s32[] constant(0)
  %compare.30 = pred[] compare(s32[] %bitcast-convert.35, s32[] %constant_128), direction=LT
  %constant_127 = u32[] constant(2147483647)
  %bitcast-convert.34 = u32[] bitcast-convert(f32[] %param_3.10)
  %subtract.22 = u32[] subtract(u32[] %constant_127, u32[] %bitcast-convert.34)
  %bitcast-convert.33 = s32[] bitcast-convert(u32[] %subtract.22)
  %select.17 = s32[] select(pred[] %compare.30, s32[] %bitcast-convert.33, s32[] %bitcast-convert.35)
  %param_2.6 = f32[] parameter(2)
  %bitcast-convert.32 = s32[] bitcast-convert(f32[] %param_2.6)
  %compare.29 = pred[] compare(s32[] %bitcast-convert.32, s32[] %constant_128), direction=LT
  %bitcast-convert.31 = u32[] bitcast-convert(f32[] %param_2.6)
  %subtract.21 = u32[] subtract(u32[] %constant_127, u32[] %bitcast-convert.31)
  %bitcast-convert.30 = s32[] bitcast-convert(u32[] %subtract.21)
  %select.16 = s32[] select(pred[] %compare.29, s32[] %bitcast-convert.30, s32[] %bitcast-convert.32)
  %compare.28 = pred[] compare(s32[] %select.17, s32[] %select.16), direction=GT
  %compare.27 = pred[] compare(s32[] %select.16, s32[] %select.17), direction=GT
  %compare.26 = pred[] compare(pred[] %compare.28, pred[] %compare.27), direction=EQ
  %param_0.2 = s32[] parameter(0)
  %param_1.3 = s32[] parameter(1)
  %compare.25 = pred[] compare(s32[] %param_0.2, s32[] %param_1.3), direction=LT
  ROOT %select.15 = pred[] select(pred[] %compare.26, pred[] %compare.25, pred[] %compare.28)
}

%compare-greater-than.1898 (p.0.lhs.1899: f32[], p.0.rhs.1900: f32[], p.1.lhs.1901: s32[], p.1.rhs.1902: s32[]) -> pred[] {
  %p.1.lhs.1901 = s32[] parameter(2)
  %p.1.rhs.1902 = s32[] parameter(3)
  %p.0.rhs.1900 = f32[] parameter(1)
  %p.0.lhs.1899 = f32[] parameter(0)
  ROOT %fusion = pred[] fusion(s32[] %p.1.lhs.1901, s32[] %p.1.rhs.1902, f32[] %p.0.rhs.1900, f32[] %p.0.lhs.1899), kind=kLoop, calls=%fused_computation
}

%fused_computation.1 (param_0.5: s32[], param_1.7: s32[], param_2.13: f32[], param_3.21: f32[]) -> pred[] {
  %param_3.21 = f32[] parameter(3)
  %bitcast-convert.41 = s32[] bitcast-convert(f32[] %param_3.21)
  %constant_130 = s32[] constant(0)
  %compare.36 = pred[] compare(s32[] %bitcast-convert.41, s32[] %constant_130), direction=LT
  %constant_129 = u32[] constant(2147483647)
  %bitcast-convert.40 = u32[] bitcast-convert(f32[] %param_3.21)
  %subtract.24 = u32[] subtract(u32[] %constant_129, u32[] %bitcast-convert.40)
  %bitcast-convert.39 = s32[] bitcast-convert(u32[] %subtract.24)
  %select.20 = s32[] select(pred[] %compare.36, s32[] %bitcast-convert.39, s32[] %bitcast-convert.41)
  %param_2.13 = f32[] parameter(2)
  %bitcast-convert.38 = s32[] bitcast-convert(f32[] %param_2.13)
  %compare.35 = pred[] compare(s32[] %bitcast-convert.38, s32[] %constant_130), direction=LT
  %bitcast-convert.37 = u32[] bitcast-convert(f32[] %param_2.13)
  %subtract.23 = u32[] subtract(u32[] %constant_129, u32[] %bitcast-convert.37)
  %bitcast-convert.36 = s32[] bitcast-convert(u32[] %subtract.23)
  %select.19 = s32[] select(pred[] %compare.35, s32[] %bitcast-convert.36, s32[] %bitcast-convert.38)
  %compare.34 = pred[] compare(s32[] %select.20, s32[] %select.19), direction=GT
  %compare.33 = pred[] compare(s32[] %select.19, s32[] %select.20), direction=GT
  %compare.32 = pred[] compare(pred[] %compare.34, pred[] %compare.33), direction=EQ
  %param_0.5 = s32[] parameter(0)
  %param_1.7 = s32[] parameter(1)
  %compare.31 = pred[] compare(s32[] %param_0.5, s32[] %param_1.7), direction=LT
  ROOT %select.18 = pred[] select(pred[] %compare.32, pred[] %compare.31, pred[] %compare.34)
}

%compare-greater-than.1972 (p.0.lhs.1973: f32[], p.0.rhs.1974: f32[], p.1.lhs.1975: s32[], p.1.rhs.1976: s32[]) -> pred[] {
  %p.1.lhs.1975 = s32[] parameter(2)
  %p.1.rhs.1976 = s32[] parameter(3)
  %p.0.rhs.1974 = f32[] parameter(1)
  %p.0.lhs.1973 = f32[] parameter(0)
  ROOT %fusion.1 = pred[] fusion(s32[] %p.1.lhs.1975, s32[] %p.1.rhs.1976, f32[] %p.0.rhs.1974, f32[] %p.0.lhs.1973), kind=kLoop, calls=%fused_computation.1
}

%fused_computation.2 (param_0.8: s32[], param_1.11: s32[], param_2.20: f32[], param_3.32: f32[]) -> pred[] {
  %param_3.32 = f32[] parameter(3)
  %bitcast-convert.47 = s32[] bitcast-convert(f32[] %param_3.32)
  %constant_132 = s32[] constant(0)
  %compare.42 = pred[] compare(s32[] %bitcast-convert.47, s32[] %constant_132), direction=LT
  %constant_131 = u32[] constant(2147483647)
  %bitcast-convert.46 = u32[] bitcast-convert(f32[] %param_3.32)
  %subtract.26 = u32[] subtract(u32[] %constant_131, u32[] %bitcast-convert.46)
  %bitcast-convert.45 = s32[] bitcast-convert(u32[] %subtract.26)
  %select.23 = s32[] select(pred[] %compare.42, s32[] %bitcast-convert.45, s32[] %bitcast-convert.47)
  %param_2.20 = f32[] parameter(2)
  %bitcast-convert.44 = s32[] bitcast-convert(f32[] %param_2.20)
  %compare.41 = pred[] compare(s32[] %bitcast-convert.44, s32[] %constant_132), direction=LT
  %bitcast-convert.43 = u32[] bitcast-convert(f32[] %param_2.20)
  %subtract.25 = u32[] subtract(u32[] %constant_131, u32[] %bitcast-convert.43)
  %bitcast-convert.42 = s32[] bitcast-convert(u32[] %subtract.25)
  %select.22 = s32[] select(pred[] %compare.41, s32[] %bitcast-convert.42, s32[] %bitcast-convert.44)
  %compare.40 = pred[] compare(s32[] %select.23, s32[] %select.22), direction=GT
  %compare.39 = pred[] compare(s32[] %select.22, s32[] %select.23), direction=GT
  %compare.38 = pred[] compare(pred[] %compare.40, pred[] %compare.39), direction=EQ
  %param_0.8 = s32[] parameter(0)
  %param_1.11 = s32[] parameter(1)
  %compare.37 = pred[] compare(s32[] %param_0.8, s32[] %param_1.11), direction=LT
  ROOT %select.21 = pred[] select(pred[] %compare.38, pred[] %compare.37, pred[] %compare.40)
}

%compare-greater-than.2138 (p.0.lhs.2139: f32[], p.0.rhs.2140: f32[], p.1.lhs.2141: s32[], p.1.rhs.2142: s32[]) -> pred[] {
  %p.1.lhs.2141 = s32[] parameter(2)
  %p.1.rhs.2142 = s32[] parameter(3)
  %p.0.rhs.2140 = f32[] parameter(1)
  %p.0.lhs.2139 = f32[] parameter(0)
  ROOT %fusion.2 = pred[] fusion(s32[] %p.1.lhs.2141, s32[] %p.1.rhs.2142, f32[] %p.0.rhs.2140, f32[] %p.0.lhs.2139), kind=kLoop, calls=%fused_computation.2
}

%fused_computation.3 (param_0.11: s32[], param_1.15: s32[], param_2.27: f32[], param_3.43: f32[]) -> pred[] {
  %param_3.43 = f32[] parameter(3)
  %bitcast-convert.53 = s32[] bitcast-convert(f32[] %param_3.43)
  %constant_134 = s32[] constant(0)
  %compare.48 = pred[] compare(s32[] %bitcast-convert.53, s32[] %constant_134), direction=LT
  %constant_133 = u32[] constant(2147483647)
  %bitcast-convert.52 = u32[] bitcast-convert(f32[] %param_3.43)
  %subtract.28 = u32[] subtract(u32[] %constant_133, u32[] %bitcast-convert.52)
  %bitcast-convert.51 = s32[] bitcast-convert(u32[] %subtract.28)
  %select.26 = s32[] select(pred[] %compare.48, s32[] %bitcast-convert.51, s32[] %bitcast-convert.53)
  %param_2.27 = f32[] parameter(2)
  %bitcast-convert.50 = s32[] bitcast-convert(f32[] %param_2.27)
  %compare.47 = pred[] compare(s32[] %bitcast-convert.50, s32[] %constant_134), direction=LT
  %bitcast-convert.49 = u32[] bitcast-convert(f32[] %param_2.27)
  %subtract.27 = u32[] subtract(u32[] %constant_133, u32[] %bitcast-convert.49)
  %bitcast-convert.48 = s32[] bitcast-convert(u32[] %subtract.27)
  %select.25 = s32[] select(pred[] %compare.47, s32[] %bitcast-convert.48, s32[] %bitcast-convert.50)
  %compare.46 = pred[] compare(s32[] %select.26, s32[] %select.25), direction=GT
  %compare.45 = pred[] compare(s32[] %select.25, s32[] %select.26), direction=GT
  %compare.44 = pred[] compare(pred[] %compare.46, pred[] %compare.45), direction=EQ
  %param_0.11 = s32[] parameter(0)
  %param_1.15 = s32[] parameter(1)
  %compare.43 = pred[] compare(s32[] %param_0.11, s32[] %param_1.15), direction=LT
  ROOT %select.24 = pred[] select(pred[] %compare.44, pred[] %compare.43, pred[] %compare.46)
}

%compare-greater-than.2304 (p.0.lhs.2305: f32[], p.0.rhs.2306: f32[], p.1.lhs.2307: s32[], p.1.rhs.2308: s32[]) -> pred[] {
  %p.1.lhs.2307 = s32[] parameter(2)
  %p.1.rhs.2308 = s32[] parameter(3)
  %p.0.rhs.2306 = f32[] parameter(1)
  %p.0.lhs.2305 = f32[] parameter(0)
  ROOT %fusion.3 = pred[] fusion(s32[] %p.1.lhs.2307, s32[] %p.1.rhs.2308, f32[] %p.0.rhs.2306, f32[] %p.0.lhs.2305), kind=kLoop, calls=%fused_computation.3
}

%fused_computation.4 (param_0.14: s32[], param_1.19: s32[], param_2.34: f32[], param_3.54: f32[]) -> pred[] {
  %param_3.54 = f32[] parameter(3)
  %bitcast-convert.59 = s32[] bitcast-convert(f32[] %param_3.54)
  %constant_136 = s32[] constant(0)
  %compare.54 = pred[] compare(s32[] %bitcast-convert.59, s32[] %constant_136), direction=LT
  %constant_135 = u32[] constant(2147483647)
  %bitcast-convert.58 = u32[] bitcast-convert(f32[] %param_3.54)
  %subtract.30 = u32[] subtract(u32[] %constant_135, u32[] %bitcast-convert.58)
  %bitcast-convert.57 = s32[] bitcast-convert(u32[] %subtract.30)
  %select.29 = s32[] select(pred[] %compare.54, s32[] %bitcast-convert.57, s32[] %bitcast-convert.59)
  %param_2.34 = f32[] parameter(2)
  %bitcast-convert.56 = s32[] bitcast-convert(f32[] %param_2.34)
  %compare.53 = pred[] compare(s32[] %bitcast-convert.56, s32[] %constant_136), direction=LT
  %bitcast-convert.55 = u32[] bitcast-convert(f32[] %param_2.34)
  %subtract.29 = u32[] subtract(u32[] %constant_135, u32[] %bitcast-convert.55)
  %bitcast-convert.54 = s32[] bitcast-convert(u32[] %subtract.29)
  %select.28 = s32[] select(pred[] %compare.53, s32[] %bitcast-convert.54, s32[] %bitcast-convert.56)
  %compare.52 = pred[] compare(s32[] %select.29, s32[] %select.28), direction=GT
  %compare.51 = pred[] compare(s32[] %select.28, s32[] %select.29), direction=GT
  %compare.50 = pred[] compare(pred[] %compare.52, pred[] %compare.51), direction=EQ
  %param_0.14 = s32[] parameter(0)
  %param_1.19 = s32[] parameter(1)
  %compare.49 = pred[] compare(s32[] %param_0.14, s32[] %param_1.19), direction=LT
  ROOT %select.27 = pred[] select(pred[] %compare.50, pred[] %compare.49, pred[] %compare.52)
}

%compare-greater-than.2470 (p.0.lhs.2471: f32[], p.0.rhs.2472: f32[], p.1.lhs.2473: s32[], p.1.rhs.2474: s32[]) -> pred[] {
  %p.1.lhs.2473 = s32[] parameter(2)
  %p.1.rhs.2474 = s32[] parameter(3)
  %p.0.rhs.2472 = f32[] parameter(1)
  %p.0.lhs.2471 = f32[] parameter(0)
  ROOT %fusion.4 = pred[] fusion(s32[] %p.1.lhs.2473, s32[] %p.1.rhs.2474, f32[] %p.0.rhs.2472, f32[] %p.0.lhs.2471), kind=kLoop, calls=%fused_computation.4
}

%fused_computation.6 (param_0.499: f32[1,3,200,304], param_1.589: f32[3]) -> f32[182400] {
  %param_0.499 = f32[1,3,200,304]{3,2,1,0} parameter(0)
  %param_1.589 = f32[3]{0} parameter(1)
  %broadcast.394 = f32[1,3,200,304]{3,2,1,0} broadcast(f32[3]{0} %param_1.589), dimensions={1}, metadata={op_type="BiasAdd" op_name="tower0/rpn/class/BiasAdd"}
  %add.228 = f32[1,3,200,304]{3,2,1,0} add(f32[1,3,200,304]{3,2,1,0} %param_0.499, f32[1,3,200,304]{3,2,1,0} %broadcast.394), metadata={op_type="BiasAdd" op_name="tower0/rpn/class/BiasAdd"}
  %bitcast.308 = f32[1,200,304,3]{2,1,3,0} bitcast(f32[1,3,200,304]{3,2,1,0} %add.228), metadata={op_type="Transpose" op_name="tower0/rpn/transpose"}
  ROOT %reshape.185 = f32[182400]{0} reshape(f32[1,200,304,3]{2,1,3,0} %bitcast.308), metadata={op_type="Reshape" op_name="tower0/generate_fpn_proposals/Lvl2/Reshape_1"}
}

%fused_computation.7 (param_0.401: f32[1,200,304,12]) -> f32[182400,1,2] {
  %param_0.401 = f32[1,200,304,12]{3,2,1,0} parameter(0)
  %bitcast.547 = f32[182400,2,2]{2,1,0} bitcast(f32[1,200,304,12]{3,2,1,0} %param_0.401), metadata={op_type="Reshape" op_name="tower0/decode_bbox_target/Reshape"}
  %slice.2 = f32[182400,1,2]{2,1,0} slice(f32[182400,2,2]{2,1,0} %bitcast.547), slice={[0:182400], [1:2], [0:2]}, metadata={op_type="Split" op_name="tower0/decode_bbox_target/split"}
  %constant_138 = f32[] constant(4.43082), metadata={op_type="Minimum" op_name="tower0/decode_bbox_target_4/Minimum"}
  %broadcast.107 = f32[182400,1,2]{2,1,0} broadcast(f32[] %constant_138), dimensions={}, metadata={op_type="Minimum" op_name="tower0/decode_bbox_target/Minimum"}
  %minimum.1 = f32[182400,1,2]{2,1,0} minimum(f32[182400,1,2]{2,1,0} %slice.2, f32[182400,1,2]{2,1,0} %broadcast.107), metadata={op_type="Minimum" op_name="tower0/decode_bbox_target/Minimum"}
  ROOT %exponential.0 = f32[182400,1,2]{2,1,0} exponential(f32[182400,1,2]{2,1,0} %minimum.1), metadata={op_type="Exp" op_name="tower0/decode_bbox_target/Exp"}
}

%fused_computation.8 (param_0.25: f32[1,12,200,304], param_1.27: f32[12]) -> f32[1,200,304,12] {
  %param_0.25 = f32[1,12,200,304]{3,2,1,0} parameter(0)
  %param_1.27 = f32[12]{0} parameter(1)
  %broadcast.108 = f32[1,12,200,304]{3,2,1,0} broadcast(f32[12]{0} %param_1.27), dimensions={1}, metadata={op_type="BiasAdd" op_name="tower0/rpn/box/BiasAdd"}
  %add.59 = f32[1,12,200,304]{3,2,1,0} add(f32[1,12,200,304]{3,2,1,0} %param_0.25, f32[1,12,200,304]{3,2,1,0} %broadcast.108), metadata={op_type="BiasAdd" op_name="tower0/rpn/box/BiasAdd"}
  %bitcast.309 = f32[1,200,304,12]{2,1,3,0} bitcast(f32[1,12,200,304]{3,2,1,0} %add.59), metadata={op_type="Transpose" op_name="tower0/rpn/transpose_1"}
  ROOT %copy.184 = f32[1,200,304,12]{3,2,1,0} copy(f32[1,200,304,12]{2,1,3,0} %bitcast.309), metadata={op_name="XLA_Retvals"}
}

%fused_computation.9 (param_0.501: f32[1,3,200,304], param_1.592: f32[3]) -> f32[200,304,3] {
  %param_0.501 = f32[1,3,200,304]{3,2,1,0} parameter(0)
  %param_1.592 = f32[3]{0} parameter(1)
  %broadcast.396 = f32[1,3,200,304]{3,2,1,0} broadcast(f32[3]{0} %param_1.592), dimensions={1}, metadata={op_type="BiasAdd" op_name="tower0/rpn/class/BiasAdd"}
  %add.230 = f32[1,3,200,304]{3,2,1,0} add(f32[1,3,200,304]{3,2,1,0} %param_0.501, f32[1,3,200,304]{3,2,1,0} %broadcast.396), metadata={op_type="BiasAdd" op_name="tower0/rpn/class/BiasAdd"}
  %bitcast.310 = f32[200,304,3]{1,0,2} bitcast(f32[1,3,200,304]{3,2,1,0} %add.230), metadata={op_type="Squeeze" op_name="tower0/rpn/Squeeze"}
  ROOT %copy.185 = f32[200,304,3]{2,1,0} copy(f32[200,304,3]{1,0,2} %bitcast.310), metadata={op_name="XLA_Retvals"}
}

%fused_computation.12 (param_0.495: f32[1,3,100,152], param_1.583: f32[3]) -> f32[45600] {
  %param_0.495 = f32[1,3,100,152]{3,2,1,0} parameter(0)
  %param_1.583 = f32[3]{0} parameter(1)
  %broadcast.390 = f32[1,3,100,152]{3,2,1,0} broadcast(f32[3]{0} %param_1.583), dimensions={1}, metadata={op_type="BiasAdd" op_name="tower0/rpn_1/class/BiasAdd"}
  %add.224 = f32[1,3,100,152]{3,2,1,0} add(f32[1,3,100,152]{3,2,1,0} %param_0.495, f32[1,3,100,152]{3,2,1,0} %broadcast.390), metadata={op_type="BiasAdd" op_name="tower0/rpn_1/class/BiasAdd"}
  %bitcast.312 = f32[1,100,152,3]{2,1,3,0} bitcast(f32[1,3,100,152]{3,2,1,0} %add.224), metadata={op_type="Transpose" op_name="tower0/rpn_1/transpose"}
  ROOT %reshape.186 = f32[45600]{0} reshape(f32[1,100,152,3]{2,1,3,0} %bitcast.312), metadata={op_type="Reshape" op_name="tower0/generate_fpn_proposals/Lvl3/Reshape_1"}
}

%fused_computation.13 (param_0.403: f32[1,100,152,12]) -> f32[45600,1,2] {
  %param_0.403 = f32[1,100,152,12]{3,2,1,0} parameter(0)
  %bitcast.549 = f32[45600,2,2]{2,1,0} bitcast(f32[1,100,152,12]{3,2,1,0} %param_0.403), metadata={op_type="Reshape" op_name="tower0/decode_bbox_target_1/Reshape"}
  %slice.5 = f32[45600,1,2]{2,1,0} slice(f32[45600,2,2]{2,1,0} %bitcast.549), slice={[0:45600], [1:2], [0:2]}, metadata={op_type="Split" op_name="tower0/decode_bbox_target_1/split"}
  %constant_140 = f32[] constant(4.43082), metadata={op_type="Minimum" op_name="tower0/decode_bbox_target_4/Minimum"}
  %broadcast.111 = f32[45600,1,2]{2,1,0} broadcast(f32[] %constant_140), dimensions={}, metadata={op_type="Minimum" op_name="tower0/decode_bbox_target_1/Minimum"}
  %minimum.3 = f32[45600,1,2]{2,1,0} minimum(f32[45600,1,2]{2,1,0} %slice.5, f32[45600,1,2]{2,1,0} %broadcast.111), metadata={op_type="Minimum" op_name="tower0/decode_bbox_target_1/Minimum"}
  ROOT %exponential.1 = f32[45600,1,2]{2,1,0} exponential(f32[45600,1,2]{2,1,0} %minimum.3), metadata={op_type="Exp" op_name="tower0/decode_bbox_target_1/Exp"}
}

%fused_computation.15 (param_0.405: s32[336,336,3]) -> (pred[200,304,3], pred[200,304,3]) {
  %param_0.405 = s32[336,336,3]{2,1,0} parameter(0)
  %slice.15 = s32[200,304,3]{2,1,0} slice(s32[336,336,3]{2,1,0} %param_0.405), slice={[0:200], [0:304], [0:3]}, metadata={op_type="Slice" op_name="tower0/FPN_slice_lvl0/narrow_to/Slice_1"}
  %constant_142 = s32[] constant(-1), metadata={op_type="NotEqual" op_name="tower0/rpn_losses/level5/NotEqual"}
  %broadcast.113 = s32[200,304,3]{2,1,0} broadcast(s32[] %constant_142), dimensions={}, metadata={op_type="NotEqual" op_name="tower0/rpn_losses/level2/NotEqual"}
  %compare.56 = pred[200,304,3]{2,1,0} compare(s32[200,304,3]{2,1,0} %slice.15, s32[200,304,3]{2,1,0} %broadcast.113), direction=NE, metadata={op_type="NotEqual" op_name="tower0/rpn_losses/level2/NotEqual"}
  %constant_141_clone_1 = s32[] constant(1), metadata={op_type="Equal" op_name="tower0/rpn_losses/level5/Equal"}
  %broadcast.112.clone.1 = s32[200,304,3]{2,1,0} broadcast(s32[] %constant_141_clone_1), dimensions={}, metadata={op_type="Equal" op_name="tower0/rpn_losses/level2/Equal"}
  %compare.55.clone.1 = pred[200,304,3]{2,1,0} compare(s32[200,304,3]{2,1,0} %slice.15, s32[200,304,3]{2,1,0} %broadcast.112.clone.1), direction=EQ, metadata={op_type="Equal" op_name="tower0/rpn_losses/level2/Equal"}
  ROOT %tuple.78 = (pred[200,304,3]{2,1,0}, pred[200,304,3]{2,1,0}) tuple(pred[200,304,3]{2,1,0} %compare.56, pred[200,304,3]{2,1,0} %compare.55.clone.1)
}

%fused_computation.16 (param_0.41: f32[1,12,100,152], param_1.41: f32[12]) -> f32[1,100,152,12] {
  %param_0.41 = f32[1,12,100,152]{3,2,1,0} parameter(0)
  %param_1.41 = f32[12]{0} parameter(1)
  %broadcast.114 = f32[1,12,100,152]{3,2,1,0} broadcast(f32[12]{0} %param_1.41), dimensions={1}, metadata={op_type="BiasAdd" op_name="tower0/rpn_1/box/BiasAdd"}
  %add.63 = f32[1,12,100,152]{3,2,1,0} add(f32[1,12,100,152]{3,2,1,0} %param_0.41, f32[1,12,100,152]{3,2,1,0} %broadcast.114), metadata={op_type="BiasAdd" op_name="tower0/rpn_1/box/BiasAdd"}
  %bitcast.313 = f32[1,100,152,12]{2,1,3,0} bitcast(f32[1,12,100,152]{3,2,1,0} %add.63), metadata={op_type="Transpose" op_name="tower0/rpn_1/transpose_1"}
  ROOT %copy.186 = f32[1,100,152,12]{3,2,1,0} copy(f32[1,100,152,12]{2,1,3,0} %bitcast.313), metadata={op_name="XLA_Retvals"}
}

%fused_computation.17 (param_0.497: f32[1,3,100,152], param_1.586: f32[3]) -> f32[100,152,3] {
  %param_0.497 = f32[1,3,100,152]{3,2,1,0} parameter(0)
  %param_1.586 = f32[3]{0} parameter(1)
  %broadcast.392 = f32[1,3,100,152]{3,2,1,0} broadcast(f32[3]{0} %param_1.586), dimensions={1}, metadata={op_type="BiasAdd" op_name="tower0/rpn_1/class/BiasAdd"}
  %add.226 = f32[1,3,100,152]{3,2,1,0} add(f32[1,3,100,152]{3,2,1,0} %param_0.497, f32[1,3,100,152]{3,2,1,0} %broadcast.392), metadata={op_type="BiasAdd" op_name="tower0/rpn_1/class/BiasAdd"}
  %bitcast.314 = f32[100,152,3]{1,0,2} bitcast(f32[1,3,100,152]{3,2,1,0} %add.226), metadata={op_type="Squeeze" op_name="tower0/rpn_1/Squeeze"}
  ROOT %copy.187 = f32[100,152,3]{2,1,0} copy(f32[100,152,3]{1,0,2} %bitcast.314), metadata={op_name="XLA_Retvals"}
}

%fused_computation.19 (param_0.406: s32[11400], param_1.422: f32[11400,1,2], param_2.344: f32[11400,1,2], param_3.307: f32[11400,1,2], param_4.244: f32[1,50,76,12], param_5.244: f32[2], param_6.133: s32[45600], param_7.82: f32[45600,1,2], param_8.27: f32[45600,1,2], param_9.14: f32[1,100,152,12], param_10.5: f32[45600,1,2], param_11.10: s32[182400], param_12.5: f32[182400,1,2], param_13.11: f32[182400,1,2], param_14.6: f32[182400,1,2], param_15.6: f32[1,200,304,12], param_16.9: s32[2850], param_17.13: f32[2850,1,2], param_18.5: f32[2850,1,2], param_19.4: f32[1,25,38,12], param_20.3: f32[2850,1,2]) -> (f32[2000,4], f32[2000,4], f32[2000,4], f32[2000,4]) {
  %constant_143 = f32[] constant(0.5), metadata={op_type="Mul" op_name="EMA/QueueInput/queue_size_EMA_apply/mul"}
  %broadcast.116 = f32[11400,1,2]{2,1,0} broadcast(f32[] %constant_143), dimensions={}, metadata={op_type="Mul" op_name="tower0/decode_bbox_target_2/mul"}
  %param_3.307 = f32[11400,1,2]{2,1,0} parameter(3)
  %multiply.36 = f32[11400,1,2]{2,1,0} multiply(f32[11400,1,2]{2,1,0} %broadcast.116, f32[11400,1,2]{2,1,0} %param_3.307), metadata={op_type="Mul" op_name="tower0/decode_bbox_target_2/mul"}
  %param_4.244 = f32[1,50,76,12]{3,2,1,0} parameter(4)
  %bitcast.550 = f32[11400,2,2]{2,1,0} bitcast(f32[1,50,76,12]{3,2,1,0} %param_4.244), metadata={op_type="Reshape" op_name="tower0/decode_bbox_target_2/Reshape"}
  %slice.7 = f32[11400,1,2]{2,1,0} slice(f32[11400,2,2]{2,1,0} %bitcast.550), slice={[0:11400], [0:1], [0:2]}, metadata={op_type="Split" op_name="tower0/decode_bbox_target_2/split"}
  %param_2.344 = f32[11400,1,2]{2,1,0} parameter(2)
  %multiply.35 = f32[11400,1,2]{2,1,0} multiply(f32[11400,1,2]{2,1,0} %slice.7, f32[11400,1,2]{2,1,0} %param_2.344), metadata={op_type="Mul" op_name="tower0/decode_bbox_target_2/mul_2"}
  %add.66 = f32[11400,1,2]{2,1,0} add(f32[11400,1,2]{2,1,0} %multiply.36, f32[11400,1,2]{2,1,0} %multiply.35), metadata={op_type="Add" op_name="tower0/decode_bbox_target_2/add_1"}
  %param_1.422 = f32[11400,1,2]{2,1,0} parameter(1)
  %multiply.34 = f32[11400,1,2]{2,1,0} multiply(f32[11400,1,2]{2,1,0} %broadcast.116, f32[11400,1,2]{2,1,0} %param_2.344), metadata={op_type="Mul" op_name="tower0/decode_bbox_target_2/mul_1"}
  %multiply.33 = f32[11400,1,2]{2,1,0} multiply(f32[11400,1,2]{2,1,0} %param_1.422, f32[11400,1,2]{2,1,0} %multiply.34), metadata={op_type="Mul" op_name="tower0/decode_bbox_target_2/mul_4"}
  %subtract.33 = f32[11400,1,2]{2,1,0} subtract(f32[11400,1,2]{2,1,0} %add.66, f32[11400,1,2]{2,1,0} %multiply.33), metadata={op_type="Sub" op_name="tower0/decode_bbox_target_2/sub_1"}
  %add.65 = f32[11400,1,2]{2,1,0} add(f32[11400,1,2]{2,1,0} %add.66, f32[11400,1,2]{2,1,0} %multiply.33), metadata={op_type="Add" op_name="tower0/decode_bbox_target_2/add_2"}
  %concatenate.2 = f32[11400,2,2]{2,1,0} concatenate(f32[11400,1,2]{2,1,0} %subtract.33, f32[11400,1,2]{2,1,0} %add.65), dimensions={1}, metadata={op_type="ConcatV2" op_name="tower0/decode_bbox_target_2/concat"}
  %bitcast.315 = f32[11400,4]{1,0} bitcast(f32[11400,2,2]{2,1,0} %concatenate.2), metadata={op_type="Reshape" op_name="tower0/generate_fpn_proposals/Lvl4/Reshape"}
  %param_0.406 = s32[11400]{0} parameter(0)
  %slice.6 = s32[2000]{0} slice(s32[11400]{0} %param_0.406), slice={[0:2000]}, metadata={op_type="TopKV2" op_name="tower0/generate_fpn_proposals/Lvl4/generate_rpn_proposals/TopKV2"}
  %gather.2 = f32[2000,4]{1,0} gather(f32[11400,4]{1,0} %bitcast.315, s32[2000]{0} %slice.6), offset_dims={1}, collapsed_slice_dims={0}, start_index_map={0}, index_vector_dim=1, slice_sizes={1,4}, metadata={op_type="GatherV2" op_name="tower0/generate_fpn_proposals/Lvl4/generate_rpn_proposals/GatherV2"}
  %constant_167 = f32[] constant(0), metadata={op_type="Relu" op_name="tower0/conv0/Relu"}
  %broadcast.265 = f32[2000,4]{1,0} broadcast(f32[] %constant_167), dimensions={}, metadata={op_type="Maximum" op_name="tower0/generate_fpn_proposals/Lvl5/generate_rpn_proposals/clip_boxes/Maximum"}
  %maximum.2 = f32[2000,4]{1,0} maximum(f32[2000,4]{1,0} %gather.2, f32[2000,4]{1,0} %broadcast.265), metadata={op_type="Maximum" op_name="tower0/generate_fpn_proposals/Lvl4/generate_rpn_proposals/clip_boxes/Maximum"}
  %param_5.244 = f32[2]{0} parameter(5)
  %broadcast.382 = f32[2,2]{1,0} broadcast(f32[2]{0} %param_5.244), dimensions={1}
  %bitcast.605 = f32[4]{0} bitcast(f32[2,2]{1,0} %broadcast.382), metadata={op_type="Cast" op_name="tower0/generate_fpn_proposals/Lvl6/generate_rpn_proposals/clip_boxes/Cast"}
  %broadcast.266 = f32[2000,4]{1,0} broadcast(f32[4]{0} %bitcast.605), dimensions={1}, metadata={op_type="Minimum" op_name="tower0/generate_fpn_proposals/Lvl5/generate_rpn_proposals/clip_boxes/Minimum"}
  %minimum.4 = f32[2000,4]{1,0} minimum(f32[2000,4]{1,0} %maximum.2, f32[2000,4]{1,0} %broadcast.266), metadata={op_type="Minimum" op_name="tower0/generate_fpn_proposals/Lvl4/generate_rpn_proposals/clip_boxes/Minimum"}
  %broadcast.110.clone.1 = f32[45600,1,2]{2,1,0} broadcast(f32[] %constant_143), dimensions={}, metadata={op_type="Mul" op_name="tower0/decode_bbox_target_1/mul"}
  %param_10.5 = f32[45600,1,2]{2,1,0} parameter(10)
  %multiply.32.clone.1 = f32[45600,1,2]{2,1,0} multiply(f32[45600,1,2]{2,1,0} %broadcast.110.clone.1, f32[45600,1,2]{2,1,0} %param_10.5), metadata={op_type="Mul" op_name="tower0/decode_bbox_target_1/mul"}
  %param_9.14 = f32[1,100,152,12]{3,2,1,0} parameter(9)
  %bitcast.548.clone.1 = f32[45600,2,2]{2,1,0} bitcast(f32[1,100,152,12]{3,2,1,0} %param_9.14), metadata={op_type="Reshape" op_name="tower0/decode_bbox_target_1/Reshape"}
  %slice.4.clone.1 = f32[45600,1,2]{2,1,0} slice(f32[45600,2,2]{2,1,0} %bitcast.548.clone.1), slice={[0:45600], [0:1], [0:2]}, metadata={op_type="Split" op_name="tower0/decode_bbox_target_1/split"}
  %param_8.27 = f32[45600,1,2]{2,1,0} parameter(8)
  %multiply.31.clone.1 = f32[45600,1,2]{2,1,0} multiply(f32[45600,1,2]{2,1,0} %slice.4.clone.1, f32[45600,1,2]{2,1,0} %param_8.27), metadata={op_type="Mul" op_name="tower0/decode_bbox_target_1/mul_2"}
  %add.62.clone.1 = f32[45600,1,2]{2,1,0} add(f32[45600,1,2]{2,1,0} %multiply.32.clone.1, f32[45600,1,2]{2,1,0} %multiply.31.clone.1), metadata={op_type="Add" op_name="tower0/decode_bbox_target_1/add_1"}
  %param_7.82 = f32[45600,1,2]{2,1,0} parameter(7)
  %multiply.30.clone.1 = f32[45600,1,2]{2,1,0} multiply(f32[45600,1,2]{2,1,0} %broadcast.110.clone.1, f32[45600,1,2]{2,1,0} %param_8.27), metadata={op_type="Mul" op_name="tower0/decode_bbox_target_1/mul_1"}
  %multiply.29.clone.1 = f32[45600,1,2]{2,1,0} multiply(f32[45600,1,2]{2,1,0} %param_7.82, f32[45600,1,2]{2,1,0} %multiply.30.clone.1), metadata={op_type="Mul" op_name="tower0/decode_bbox_target_1/mul_4"}
  %subtract.32.clone.1 = f32[45600,1,2]{2,1,0} subtract(f32[45600,1,2]{2,1,0} %add.62.clone.1, f32[45600,1,2]{2,1,0} %multiply.29.clone.1), metadata={op_type="Sub" op_name="tower0/decode_bbox_target_1/sub_1"}
  %add.61.clone.1 = f32[45600,1,2]{2,1,0} add(f32[45600,1,2]{2,1,0} %add.62.clone.1, f32[45600,1,2]{2,1,0} %multiply.29.clone.1), metadata={op_type="Add" op_name="tower0/decode_bbox_target_1/add_2"}
  %concatenate.1.clone.1 = f32[45600,2,2]{2,1,0} concatenate(f32[45600,1,2]{2,1,0} %subtract.32.clone.1, f32[45600,1,2]{2,1,0} %add.61.clone.1), dimensions={1}, metadata={op_type="ConcatV2" op_name="tower0/decode_bbox_target_1/concat"}
  %bitcast.311.clone.1 = f32[45600,4]{1,0} bitcast(f32[45600,2,2]{2,1,0} %concatenate.1.clone.1), metadata={op_type="Reshape" op_name="tower0/generate_fpn_proposals/Lvl3/Reshape"}
  %param_6.133 = s32[45600]{0} parameter(6)
  %slice.3.clone.1 = s32[2000]{0} slice(s32[45600]{0} %param_6.133), slice={[0:2000]}, metadata={op_type="TopKV2" op_name="tower0/generate_fpn_proposals/Lvl3/generate_rpn_proposals/TopKV2"}
  %gather.1.clone.1 = f32[2000,4]{1,0} gather(f32[45600,4]{1,0} %bitcast.311.clone.1, s32[2000]{0} %slice.3.clone.1), offset_dims={1}, collapsed_slice_dims={0}, start_index_map={0}, index_vector_dim=1, slice_sizes={1,4}, metadata={op_type="GatherV2" op_name="tower0/generate_fpn_proposals/Lvl3/generate_rpn_proposals/GatherV2"}
  %maximum.1.clone.1 = f32[2000,4]{1,0} maximum(f32[2000,4]{1,0} %gather.1.clone.1, f32[2000,4]{1,0} %broadcast.265), metadata={op_type="Maximum" op_name="tower0/generate_fpn_proposals/Lvl3/generate_rpn_proposals/clip_boxes/Maximum"}
  %minimum.2.clone.1 = f32[2000,4]{1,0} minimum(f32[2000,4]{1,0} %maximum.1.clone.1, f32[2000,4]{1,0} %broadcast.266), metadata={op_type="Minimum" op_name="tower0/generate_fpn_proposals/Lvl3/generate_rpn_proposals/clip_boxes/Minimum"}
  %broadcast.126.clone.1 = f32[2850,1,2]{2,1,0} broadcast(f32[] %constant_143), dimensions={}, metadata={op_type="Mul" op_name="tower0/decode_bbox_target_3/mul"}
  %param_20.3 = f32[2850,1,2]{2,1,0} parameter(20)
  %multiply.44.clone.1 = f32[2850,1,2]{2,1,0} multiply(f32[2850,1,2]{2,1,0} %broadcast.126.clone.1, f32[2850,1,2]{2,1,0} %param_20.3), metadata={op_type="Mul" op_name="tower0/decode_bbox_target_3/mul"}
  %param_19.4 = f32[1,25,38,12]{3,2,1,0} parameter(19)
  %bitcast.554.clone.1 = f32[2850,2,2]{2,1,0} bitcast(f32[1,25,38,12]{3,2,1,0} %param_19.4), metadata={op_type="Reshape" op_name="tower0/decode_bbox_target_3/Reshape"}
  %slice.12.clone.1 = f32[2850,1,2]{2,1,0} slice(f32[2850,2,2]{2,1,0} %bitcast.554.clone.1), slice={[0:2850], [0:1], [0:2]}, metadata={op_type="Split" op_name="tower0/decode_bbox_target_3/split"}
  %param_18.5 = f32[2850,1,2]{2,1,0} parameter(18)
  %multiply.43.clone.1 = f32[2850,1,2]{2,1,0} multiply(f32[2850,1,2]{2,1,0} %slice.12.clone.1, f32[2850,1,2]{2,1,0} %param_18.5), metadata={op_type="Mul" op_name="tower0/decode_bbox_target_3/mul_2"}
  %add.72.clone.1 = f32[2850,1,2]{2,1,0} add(f32[2850,1,2]{2,1,0} %multiply.44.clone.1, f32[2850,1,2]{2,1,0} %multiply.43.clone.1), metadata={op_type="Add" op_name="tower0/decode_bbox_target_3/add_1"}
  %param_17.13 = f32[2850,1,2]{2,1,0} parameter(17)
  %multiply.42.clone.1 = f32[2850,1,2]{2,1,0} multiply(f32[2850,1,2]{2,1,0} %broadcast.126.clone.1, f32[2850,1,2]{2,1,0} %param_18.5), metadata={op_type="Mul" op_name="tower0/decode_bbox_target_3/mul_1"}
  %multiply.41.clone.1 = f32[2850,1,2]{2,1,0} multiply(f32[2850,1,2]{2,1,0} %param_17.13, f32[2850,1,2]{2,1,0} %multiply.42.clone.1), metadata={op_type="Mul" op_name="tower0/decode_bbox_target_3/mul_4"}
  %subtract.35.clone.1 = f32[2850,1,2]{2,1,0} subtract(f32[2850,1,2]{2,1,0} %add.72.clone.1, f32[2850,1,2]{2,1,0} %multiply.41.clone.1), metadata={op_type="Sub" op_name="tower0/decode_bbox_target_3/sub_1"}
  %add.71.clone.1 = f32[2850,1,2]{2,1,0} add(f32[2850,1,2]{2,1,0} %add.72.clone.1, f32[2850,1,2]{2,1,0} %multiply.41.clone.1), metadata={op_type="Add" op_name="tower0/decode_bbox_target_3/add_2"}
  %concatenate.4.clone.1 = f32[2850,2,2]{2,1,0} concatenate(f32[2850,1,2]{2,1,0} %subtract.35.clone.1, f32[2850,1,2]{2,1,0} %add.71.clone.1), dimensions={1}, metadata={op_type="ConcatV2" op_name="tower0/decode_bbox_target_3/concat"}
  %bitcast.321.clone.1 = f32[2850,4]{1,0} bitcast(f32[2850,2,2]{2,1,0} %concatenate.4.clone.1), metadata={op_type="Reshape" op_name="tower0/generate_fpn_proposals/Lvl5/Reshape"}
  %param_16.9 = s32[2850]{0} parameter(16)
  %slice.11.clone.1 = s32[2000]{0} slice(s32[2850]{0} %param_16.9), slice={[0:2000]}, metadata={op_type="TopKV2" op_name="tower0/generate_fpn_proposals/Lvl5/generate_rpn_proposals/TopKV2"}
  %gather.4.clone.1 = f32[2000,4]{1,0} gather(f32[2850,4]{1,0} %bitcast.321.clone.1, s32[2000]{0} %slice.11.clone.1), offset_dims={1}, collapsed_slice_dims={0}, start_index_map={0}, index_vector_dim=1, slice_sizes={1,4}, metadata={op_type="GatherV2" op_name="tower0/generate_fpn_proposals/Lvl5/generate_rpn_proposals/GatherV2"}
  %maximum.4.clone.1 = f32[2000,4]{1,0} maximum(f32[2000,4]{1,0} %gather.4.clone.1, f32[2000,4]{1,0} %broadcast.265), metadata={op_type="Maximum" op_name="tower0/generate_fpn_proposals/Lvl5/generate_rpn_proposals/clip_boxes/Maximum"}
  %minimum.8.clone.1 = f32[2000,4]{1,0} minimum(f32[2000,4]{1,0} %maximum.4.clone.1, f32[2000,4]{1,0} %broadcast.266), metadata={op_type="Minimum" op_name="tower0/generate_fpn_proposals/Lvl5/generate_rpn_proposals/clip_boxes/Minimum"}
  %param_15.6 = f32[1,200,304,12]{3,2,1,0} parameter(15)
  %bitcast.546.clone.1.clone.1 = f32[182400,2,2]{2,1,0} bitcast(f32[1,200,304,12]{3,2,1,0} %param_15.6), metadata={op_type="Reshape" op_name="tower0/decode_bbox_target/Reshape"}
  %slice.1.clone.1.clone.1 = f32[182400,1,2]{2,1,0} slice(f32[182400,2,2]{2,1,0} %bitcast.546.clone.1.clone.1), slice={[0:182400], [0:1], [0:2]}, metadata={op_type="Split" op_name="tower0/decode_bbox_target/split"}
  %param_13.11 = f32[182400,1,2]{2,1,0} parameter(13)
  %multiply.28.clone.1.clone.1 = f32[182400,1,2]{2,1,0} multiply(f32[182400,1,2]{2,1,0} %slice.1.clone.1.clone.1, f32[182400,1,2]{2,1,0} %param_13.11), metadata={op_type="Mul" op_name="tower0/decode_bbox_target/mul_2"}
  %broadcast.106.clone.1.clone.1 = f32[182400,1,2]{2,1,0} broadcast(f32[] %constant_143), dimensions={}, metadata={op_type="Mul" op_name="tower0/rpn_losses/encode_bbox_target/mul"}
  %param_14.6 = f32[182400,1,2]{2,1,0} parameter(14)
  %multiply.27.clone.1.clone.1 = f32[182400,1,2]{2,1,0} multiply(f32[182400,1,2]{2,1,0} %broadcast.106.clone.1.clone.1, f32[182400,1,2]{2,1,0} %param_14.6), metadata={op_type="Mul" op_name="tower0/rpn_losses/encode_bbox_target/mul"}
  %add.58.clone.1.clone.1 = f32[182400,1,2]{2,1,0} add(f32[182400,1,2]{2,1,0} %multiply.28.clone.1.clone.1, f32[182400,1,2]{2,1,0} %multiply.27.clone.1.clone.1), metadata={op_type="Add" op_name="tower0/decode_bbox_target/add_1"}
  %param_12.5 = f32[182400,1,2]{2,1,0} parameter(12)
  %multiply.26.clone.1.clone.1 = f32[182400,1,2]{2,1,0} multiply(f32[182400,1,2]{2,1,0} %broadcast.106.clone.1.clone.1, f32[182400,1,2]{2,1,0} %param_13.11), metadata={op_type="Mul" op_name="tower0/decode_bbox_target/mul_1"}
  %multiply.25.clone.1.clone.1 = f32[182400,1,2]{2,1,0} multiply(f32[182400,1,2]{2,1,0} %param_12.5, f32[182400,1,2]{2,1,0} %multiply.26.clone.1.clone.1), metadata={op_type="Mul" op_name="tower0/decode_bbox_target/mul_4"}
  %subtract.31.clone.1.clone.1 = f32[182400,1,2]{2,1,0} subtract(f32[182400,1,2]{2,1,0} %add.58.clone.1.clone.1, f32[182400,1,2]{2,1,0} %multiply.25.clone.1.clone.1), metadata={op_type="Sub" op_name="tower0/decode_bbox_target/sub_1"}
  %add.57.clone.1.clone.1 = f32[182400,1,2]{2,1,0} add(f32[182400,1,2]{2,1,0} %add.58.clone.1.clone.1, f32[182400,1,2]{2,1,0} %multiply.25.clone.1.clone.1), metadata={op_type="Add" op_name="tower0/decode_bbox_target/add_2"}
  %concatenate.0.clone.1.clone.1 = f32[182400,2,2]{2,1,0} concatenate(f32[182400,1,2]{2,1,0} %subtract.31.clone.1.clone.1, f32[182400,1,2]{2,1,0} %add.57.clone.1.clone.1), dimensions={1}, metadata={op_type="ConcatV2" op_name="tower0/decode_bbox_target/concat"}
  %bitcast.307.clone.1.clone.1 = f32[182400,4]{1,0} bitcast(f32[182400,2,2]{2,1,0} %concatenate.0.clone.1.clone.1), metadata={op_type="Reshape" op_name="tower0/generate_fpn_proposals/Lvl2/Reshape"}
  %param_11.10 = s32[182400]{0} parameter(11)
  %slice.0.clone.1.clone.1 = s32[2000]{0} slice(s32[182400]{0} %param_11.10), slice={[0:2000]}, metadata={op_type="TopKV2" op_name="tower0/generate_fpn_proposals/Lvl2/generate_rpn_proposals/TopKV2"}
  %gather.0.clone.1.clone.1 = f32[2000,4]{1,0} gather(f32[182400,4]{1,0} %bitcast.307.clone.1.clone.1, s32[2000]{0} %slice.0.clone.1.clone.1), offset_dims={1}, collapsed_slice_dims={0}, start_index_map={0}, index_vector_dim=1, slice_sizes={1,4}, metadata={op_type="GatherV2" op_name="tower0/generate_fpn_proposals/Lvl2/generate_rpn_proposals/GatherV2"}
  %maximum.0.clone.1.clone.1 = f32[2000,4]{1,0} maximum(f32[2000,4]{1,0} %gather.0.clone.1.clone.1, f32[2000,4]{1,0} %broadcast.265), metadata={op_type="Maximum" op_name="tower0/generate_fpn_proposals/Lvl2/generate_rpn_proposals/clip_boxes/Maximum"}
  %minimum.0.clone.1.clone.1 = f32[2000,4]{1,0} minimum(f32[2000,4]{1,0} %maximum.0.clone.1.clone.1, f32[2000,4]{1,0} %broadcast.266), metadata={op_type="Minimum" op_name="tower0/generate_fpn_proposals/Lvl2/generate_rpn_proposals/clip_boxes/Minimum"}
  ROOT %tuple.85 = (f32[2000,4]{1,0}, f32[2000,4]{1,0}, f32[2000,4]{1,0}, f32[2000,4]{1,0}) tuple(f32[2000,4]{1,0} %minimum.4, f32[2000,4]{1,0} %minimum.2.clone.1, f32[2000,4]{1,0} %minimum.8.clone.1, f32[2000,4]{1,0} %minimum.0.clone.1.clone.1)
}

%fused_computation.20 (param_0.491: f32[1,3,50,76], param_1.577: f32[3]) -> f32[11400] {
  %param_0.491 = f32[1,3,50,76]{3,2,1,0} parameter(0)
  %param_1.577 = f32[3]{0} parameter(1)
  %broadcast.386 = f32[1,3,50,76]{3,2,1,0} broadcast(f32[3]{0} %param_1.577), dimensions={1}, metadata={op_type="BiasAdd" op_name="tower0/rpn_2/class/BiasAdd"}
  %add.220 = f32[1,3,50,76]{3,2,1,0} add(f32[1,3,50,76]{3,2,1,0} %param_0.491, f32[1,3,50,76]{3,2,1,0} %broadcast.386), metadata={op_type="BiasAdd" op_name="tower0/rpn_2/class/BiasAdd"}
  %bitcast.316 = f32[1,50,76,3]{2,1,3,0} bitcast(f32[1,3,50,76]{3,2,1,0} %add.220), metadata={op_type="Transpose" op_name="tower0/rpn_2/transpose"}
  ROOT %reshape.187 = f32[11400]{0} reshape(f32[1,50,76,3]{2,1,3,0} %bitcast.316), metadata={op_type="Reshape" op_name="tower0/generate_fpn_proposals/Lvl4/Reshape_1"}
}

%fused_computation.21 (param_0.407: f32[1,50,76,12]) -> f32[11400,1,2] {
  %param_0.407 = f32[1,50,76,12]{3,2,1,0} parameter(0)
  %bitcast.551 = f32[11400,2,2]{2,1,0} bitcast(f32[1,50,76,12]{3,2,1,0} %param_0.407), metadata={op_type="Reshape" op_name="tower0/decode_bbox_target_2/Reshape"}
  %slice.8 = f32[11400,1,2]{2,1,0} slice(f32[11400,2,2]{2,1,0} %bitcast.551), slice={[0:11400], [1:2], [0:2]}, metadata={op_type="Split" op_name="tower0/decode_bbox_target_2/split"}
  %constant_144 = f32[] constant(4.43082), metadata={op_type="Minimum" op_name="tower0/decode_bbox_target_4/Minimum"}
  %broadcast.117 = f32[11400,1,2]{2,1,0} broadcast(f32[] %constant_144), dimensions={}, metadata={op_type="Minimum" op_name="tower0/decode_bbox_target_2/Minimum"}
  %minimum.5 = f32[11400,1,2]{2,1,0} minimum(f32[11400,1,2]{2,1,0} %slice.8, f32[11400,1,2]{2,1,0} %broadcast.117), metadata={op_type="Minimum" op_name="tower0/decode_bbox_target_2/Minimum"}
  ROOT %exponential.2 = f32[11400,1,2]{2,1,0} exponential(f32[11400,1,2]{2,1,0} %minimum.5), metadata={op_type="Exp" op_name="tower0/decode_bbox_target_2/Exp"}
}

%fused_computation.23 (param_0.409: s32[168,168,3]) -> (pred[100,152,3], pred[100,152,3]) {
  %param_0.409 = s32[168,168,3]{2,1,0} parameter(0)
  %slice.17 = s32[100,152,3]{2,1,0} slice(s32[168,168,3]{2,1,0} %param_0.409), slice={[0:100], [0:152], [0:3]}, metadata={op_type="Slice" op_name="tower0/FPN_slice_lvl1/narrow_to/Slice_1"}
  %constant_146 = s32[] constant(-1), metadata={op_type="NotEqual" op_name="tower0/rpn_losses/level5/NotEqual"}
  %broadcast.119 = s32[100,152,3]{2,1,0} broadcast(s32[] %constant_146), dimensions={}, metadata={op_type="NotEqual" op_name="tower0/rpn_losses/level3/NotEqual"}
  %compare.58 = pred[100,152,3]{2,1,0} compare(s32[100,152,3]{2,1,0} %slice.17, s32[100,152,3]{2,1,0} %broadcast.119), direction=NE, metadata={op_type="NotEqual" op_name="tower0/rpn_losses/level3/NotEqual"}
  %constant_145_clone_1 = s32[] constant(1), metadata={op_type="Equal" op_name="tower0/rpn_losses/level5/Equal"}
  %broadcast.118.clone.1 = s32[100,152,3]{2,1,0} broadcast(s32[] %constant_145_clone_1), dimensions={}, metadata={op_type="Equal" op_name="tower0/rpn_losses/level3/Equal"}
  %compare.57.clone.1 = pred[100,152,3]{2,1,0} compare(s32[100,152,3]{2,1,0} %slice.17, s32[100,152,3]{2,1,0} %broadcast.118.clone.1), direction=EQ, metadata={op_type="Equal" op_name="tower0/rpn_losses/level3/Equal"}
  ROOT %tuple.79 = (pred[100,152,3]{2,1,0}, pred[100,152,3]{2,1,0}) tuple(pred[100,152,3]{2,1,0} %compare.58, pred[100,152,3]{2,1,0} %compare.57.clone.1)
}

%fused_computation.24 (param_0.57: f32[1,12,50,76], param_1.55: f32[12]) -> f32[1,50,76,12] {
  %param_0.57 = f32[1,12,50,76]{3,2,1,0} parameter(0)
  %param_1.55 = f32[12]{0} parameter(1)
  %broadcast.120 = f32[1,12,50,76]{3,2,1,0} broadcast(f32[12]{0} %param_1.55), dimensions={1}, metadata={op_type="BiasAdd" op_name="tower0/rpn_2/box/BiasAdd"}
  %add.67 = f32[1,12,50,76]{3,2,1,0} add(f32[1,12,50,76]{3,2,1,0} %param_0.57, f32[1,12,50,76]{3,2,1,0} %broadcast.120), metadata={op_type="BiasAdd" op_name="tower0/rpn_2/box/BiasAdd"}
  %bitcast.317 = f32[1,50,76,12]{2,1,3,0} bitcast(f32[1,12,50,76]{3,2,1,0} %add.67), metadata={op_type="Transpose" op_name="tower0/rpn_2/transpose_1"}
  ROOT %copy.188 = f32[1,50,76,12]{3,2,1,0} copy(f32[1,50,76,12]{2,1,3,0} %bitcast.317), metadata={op_name="XLA_Retvals"}
}

%fused_computation.25 (param_0.485: s32[741], param_1.574: f32[741,1,2], param_2.431: f32[741,1,2], param_3.394: f32[741,1,2], param_4.329: f32[1,13,19,12], param_5.238: f32[2]) -> f32[741,4] {
  %constant_147 = f32[] constant(0.5), metadata={op_type="Mul" op_name="EMA/QueueInput/queue_size_EMA_apply/mul"}
  %broadcast.123 = f32[741,1,2]{2,1,0} broadcast(f32[] %constant_147), dimensions={}, metadata={op_type="Mul" op_name="tower0/decode_bbox_target_4/mul"}
  %param_3.394 = f32[741,1,2]{2,1,0} parameter(3)
  %multiply.40 = f32[741,1,2]{2,1,0} multiply(f32[741,1,2]{2,1,0} %broadcast.123, f32[741,1,2]{2,1,0} %param_3.394), metadata={op_type="Mul" op_name="tower0/decode_bbox_target_4/mul"}
  %param_4.329 = f32[1,13,19,12]{3,2,1,0} parameter(4)
  %bitcast.552 = f32[741,2,2]{2,1,0} bitcast(f32[1,13,19,12]{3,2,1,0} %param_4.329), metadata={op_type="Reshape" op_name="tower0/decode_bbox_target_4/Reshape"}
  %slice.9 = f32[741,1,2]{2,1,0} slice(f32[741,2,2]{2,1,0} %bitcast.552), slice={[0:741], [0:1], [0:2]}, metadata={op_type="Split" op_name="tower0/decode_bbox_target_4/split"}
  %param_2.431 = f32[741,1,2]{2,1,0} parameter(2)
  %multiply.39 = f32[741,1,2]{2,1,0} multiply(f32[741,1,2]{2,1,0} %slice.9, f32[741,1,2]{2,1,0} %param_2.431), metadata={op_type="Mul" op_name="tower0/decode_bbox_target_4/mul_2"}
  %add.69 = f32[741,1,2]{2,1,0} add(f32[741,1,2]{2,1,0} %multiply.40, f32[741,1,2]{2,1,0} %multiply.39), metadata={op_type="Add" op_name="tower0/decode_bbox_target_4/add_1"}
  %param_1.574 = f32[741,1,2]{2,1,0} parameter(1)
  %multiply.38 = f32[741,1,2]{2,1,0} multiply(f32[741,1,2]{2,1,0} %broadcast.123, f32[741,1,2]{2,1,0} %param_2.431), metadata={op_type="Mul" op_name="tower0/decode_bbox_target_4/mul_1"}
  %multiply.37 = f32[741,1,2]{2,1,0} multiply(f32[741,1,2]{2,1,0} %param_1.574, f32[741,1,2]{2,1,0} %multiply.38), metadata={op_type="Mul" op_name="tower0/decode_bbox_target_4/mul_4"}
  %subtract.34 = f32[741,1,2]{2,1,0} subtract(f32[741,1,2]{2,1,0} %add.69, f32[741,1,2]{2,1,0} %multiply.37), metadata={op_type="Sub" op_name="tower0/decode_bbox_target_4/sub_1"}
  %add.68 = f32[741,1,2]{2,1,0} add(f32[741,1,2]{2,1,0} %add.69, f32[741,1,2]{2,1,0} %multiply.37), metadata={op_type="Add" op_name="tower0/decode_bbox_target_4/add_2"}
  %concatenate.3 = f32[741,2,2]{2,1,0} concatenate(f32[741,1,2]{2,1,0} %subtract.34, f32[741,1,2]{2,1,0} %add.68), dimensions={1}, metadata={op_type="ConcatV2" op_name="tower0/decode_bbox_target_4/concat"}
  %bitcast.318 = f32[741,4]{1,0} bitcast(f32[741,2,2]{2,1,0} %concatenate.3), metadata={op_type="Reshape" op_name="tower0/generate_fpn_proposals/Lvl6/Reshape"}
  %param_0.485 = s32[741]{0} parameter(0)
  %gather.3 = f32[741,4]{1,0} gather(f32[741,4]{1,0} %bitcast.318, s32[741]{0} %param_0.485), offset_dims={1}, collapsed_slice_dims={0}, start_index_map={0}, index_vector_dim=1, slice_sizes={1,4}, metadata={op_type="GatherV2" op_name="tower0/generate_fpn_proposals/Lvl6/generate_rpn_proposals/GatherV2"}
  %constant_148 = f32[] constant(0), metadata={op_type="Relu" op_name="tower0/conv0/Relu"}
  %broadcast.122 = f32[741,4]{1,0} broadcast(f32[] %constant_148), dimensions={}, metadata={op_type="Maximum" op_name="tower0/generate_fpn_proposals/Lvl6/generate_rpn_proposals/clip_boxes/Maximum"}
  %maximum.3 = f32[741,4]{1,0} maximum(f32[741,4]{1,0} %gather.3, f32[741,4]{1,0} %broadcast.122), metadata={op_type="Maximum" op_name="tower0/generate_fpn_proposals/Lvl6/generate_rpn_proposals/clip_boxes/Maximum"}
  %param_5.238 = f32[2]{0} parameter(5)
  %broadcast.376 = f32[2,2]{1,0} broadcast(f32[2]{0} %param_5.238), dimensions={1}
  %bitcast.599 = f32[4]{0} bitcast(f32[2,2]{1,0} %broadcast.376), metadata={op_type="Cast" op_name="tower0/generate_fpn_proposals/Lvl6/generate_rpn_proposals/clip_boxes/Cast"}
  %broadcast.121 = f32[741,4]{1,0} broadcast(f32[4]{0} %bitcast.599), dimensions={1}, metadata={op_type="Minimum" op_name="tower0/generate_fpn_proposals/Lvl6/generate_rpn_proposals/clip_boxes/Minimum"}
  ROOT %minimum.6 = f32[741,4]{1,0} minimum(f32[741,4]{1,0} %maximum.3, f32[741,4]{1,0} %broadcast.121), metadata={op_type="Minimum" op_name="tower0/generate_fpn_proposals/Lvl6/generate_rpn_proposals/clip_boxes/Minimum"}
}

%fused_computation.26 (param_0.481: f32[1,3,13,19], param_1.570: f32[3]) -> f32[741] {
  %param_0.481 = f32[1,3,13,19]{3,2,1,0} parameter(0)
  %param_1.570 = f32[3]{0} parameter(1)
  %broadcast.372 = f32[1,3,13,19]{3,2,1,0} broadcast(f32[3]{0} %param_1.570), dimensions={1}, metadata={op_type="BiasAdd" op_name="tower0/rpn_4/class/BiasAdd"}
  %add.216 = f32[1,3,13,19]{3,2,1,0} add(f32[1,3,13,19]{3,2,1,0} %param_0.481, f32[1,3,13,19]{3,2,1,0} %broadcast.372), metadata={op_type="BiasAdd" op_name="tower0/rpn_4/class/BiasAdd"}
  %bitcast.319 = f32[1,13,19,3]{2,1,3,0} bitcast(f32[1,3,13,19]{3,2,1,0} %add.216), metadata={op_type="Transpose" op_name="tower0/rpn_4/transpose"}
  ROOT %reshape.188 = f32[741]{0} reshape(f32[1,13,19,3]{2,1,3,0} %bitcast.319), metadata={op_type="Reshape" op_name="tower0/generate_fpn_proposals/Lvl6/Reshape_1"}
}

%fused_computation.27 (param_0.410: f32[1,13,19,12]) -> f32[741,1,2] {
  %param_0.410 = f32[1,13,19,12]{3,2,1,0} parameter(0)
  %bitcast.553 = f32[741,2,2]{2,1,0} bitcast(f32[1,13,19,12]{3,2,1,0} %param_0.410), metadata={op_type="Reshape" op_name="tower0/decode_bbox_target_4/Reshape"}
  %slice.10 = f32[741,1,2]{2,1,0} slice(f32[741,2,2]{2,1,0} %bitcast.553), slice={[0:741], [1:2], [0:2]}, metadata={op_type="Split" op_name="tower0/decode_bbox_target_4/split"}
  %constant_149 = f32[] constant(4.43082), metadata={op_type="Minimum" op_name="tower0/decode_bbox_target_4/Minimum"}
  %broadcast.124 = f32[741,1,2]{2,1,0} broadcast(f32[] %constant_149), dimensions={}, metadata={op_type="Minimum" op_name="tower0/decode_bbox_target_4/Minimum"}
  %minimum.7 = f32[741,1,2]{2,1,0} minimum(f32[741,1,2]{2,1,0} %slice.10, f32[741,1,2]{2,1,0} %broadcast.124), metadata={op_type="Minimum" op_name="tower0/decode_bbox_target_4/Minimum"}
  ROOT %exponential.3 = f32[741,1,2]{2,1,0} exponential(f32[741,1,2]{2,1,0} %minimum.7), metadata={op_type="Exp" op_name="tower0/decode_bbox_target_4/Exp"}
}

%fused_computation.28 (param_0.493: f32[1,3,50,76], param_1.580: f32[3]) -> f32[50,76,3] {
  %param_0.493 = f32[1,3,50,76]{3,2,1,0} parameter(0)
  %param_1.580 = f32[3]{0} parameter(1)
  %broadcast.388 = f32[1,3,50,76]{3,2,1,0} broadcast(f32[3]{0} %param_1.580), dimensions={1}, metadata={op_type="BiasAdd" op_name="tower0/rpn_2/class/BiasAdd"}
  %add.222 = f32[1,3,50,76]{3,2,1,0} add(f32[1,3,50,76]{3,2,1,0} %param_0.493, f32[1,3,50,76]{3,2,1,0} %broadcast.388), metadata={op_type="BiasAdd" op_name="tower0/rpn_2/class/BiasAdd"}
  %bitcast.320 = f32[50,76,3]{1,0,2} bitcast(f32[1,3,50,76]{3,2,1,0} %add.222), metadata={op_type="Squeeze" op_name="tower0/rpn_2/Squeeze"}
  ROOT %copy.189 = f32[50,76,3]{2,1,0} copy(f32[50,76,3]{1,0,2} %bitcast.320), metadata={op_name="XLA_Retvals"}
}

%fused_computation.32 (param_0.477: f32[1,3,25,38], param_1.564: f32[3]) -> f32[2850] {
  %param_0.477 = f32[1,3,25,38]{3,2,1,0} parameter(0)
  %param_1.564 = f32[3]{0} parameter(1)
  %broadcast.368 = f32[1,3,25,38]{3,2,1,0} broadcast(f32[3]{0} %param_1.564), dimensions={1}, metadata={op_type="BiasAdd" op_name="tower0/rpn_3/class/BiasAdd"}
  %add.212 = f32[1,3,25,38]{3,2,1,0} add(f32[1,3,25,38]{3,2,1,0} %param_0.477, f32[1,3,25,38]{3,2,1,0} %broadcast.368), metadata={op_type="BiasAdd" op_name="tower0/rpn_3/class/BiasAdd"}
  %bitcast.323 = f32[1,25,38,3]{2,1,3,0} bitcast(f32[1,3,25,38]{3,2,1,0} %add.212), metadata={op_type="Transpose" op_name="tower0/rpn_3/transpose"}
  ROOT %reshape.189 = f32[2850]{0} reshape(f32[1,25,38,3]{2,1,3,0} %bitcast.323), metadata={op_type="Reshape" op_name="tower0/generate_fpn_proposals/Lvl5/Reshape_1"}
}

%fused_computation.33 (param_0.412: f32[1,25,38,12]) -> f32[2850,1,2] {
  %param_0.412 = f32[1,25,38,12]{3,2,1,0} parameter(0)
  %bitcast.555 = f32[2850,2,2]{2,1,0} bitcast(f32[1,25,38,12]{3,2,1,0} %param_0.412), metadata={op_type="Reshape" op_name="tower0/decode_bbox_target_3/Reshape"}
  %slice.13 = f32[2850,1,2]{2,1,0} slice(f32[2850,2,2]{2,1,0} %bitcast.555), slice={[0:2850], [1:2], [0:2]}, metadata={op_type="Split" op_name="tower0/decode_bbox_target_3/split"}
  %constant_151 = f32[] constant(4.43082), metadata={op_type="Minimum" op_name="tower0/decode_bbox_target_4/Minimum"}
  %broadcast.128 = f32[2850,1,2]{2,1,0} broadcast(f32[] %constant_151), dimensions={}, metadata={op_type="Minimum" op_name="tower0/decode_bbox_target_3/Minimum"}
  %minimum.9 = f32[2850,1,2]{2,1,0} minimum(f32[2850,1,2]{2,1,0} %slice.13, f32[2850,1,2]{2,1,0} %broadcast.128), metadata={op_type="Minimum" op_name="tower0/decode_bbox_target_3/Minimum"}
  ROOT %exponential.4 = f32[2850,1,2]{2,1,0} exponential(f32[2850,1,2]{2,1,0} %minimum.9), metadata={op_type="Exp" op_name="tower0/decode_bbox_target_3/Exp"}
}

%fused_computation.35 (param_0.414: s32[84,84,3]) -> (pred[50,76,3], pred[50,76,3]) {
  %param_0.414 = s32[84,84,3]{2,1,0} parameter(0)
  %slice.19 = s32[50,76,3]{2,1,0} slice(s32[84,84,3]{2,1,0} %param_0.414), slice={[0:50], [0:76], [0:3]}, metadata={op_type="Slice" op_name="tower0/FPN_slice_lvl2/narrow_to/Slice_1"}
  %constant_153 = s32[] constant(-1), metadata={op_type="NotEqual" op_name="tower0/rpn_losses/level5/NotEqual"}
  %broadcast.130 = s32[50,76,3]{2,1,0} broadcast(s32[] %constant_153), dimensions={}, metadata={op_type="NotEqual" op_name="tower0/rpn_losses/level4/NotEqual"}
  %compare.60 = pred[50,76,3]{2,1,0} compare(s32[50,76,3]{2,1,0} %slice.19, s32[50,76,3]{2,1,0} %broadcast.130), direction=NE, metadata={op_type="NotEqual" op_name="tower0/rpn_losses/level4/NotEqual"}
  %constant_152_clone_1 = s32[] constant(1), metadata={op_type="Equal" op_name="tower0/rpn_losses/level5/Equal"}
  %broadcast.129.clone.1 = s32[50,76,3]{2,1,0} broadcast(s32[] %constant_152_clone_1), dimensions={}, metadata={op_type="Equal" op_name="tower0/rpn_losses/level4/Equal"}
  %compare.59.clone.1 = pred[50,76,3]{2,1,0} compare(s32[50,76,3]{2,1,0} %slice.19, s32[50,76,3]{2,1,0} %broadcast.129.clone.1), direction=EQ, metadata={op_type="Equal" op_name="tower0/rpn_losses/level4/Equal"}
  ROOT %tuple.80 = (pred[50,76,3]{2,1,0}, pred[50,76,3]{2,1,0}) tuple(pred[50,76,3]{2,1,0} %compare.60, pred[50,76,3]{2,1,0} %compare.59.clone.1)
}

%fused_computation.36 (param_0.82: f32[1,12,13,19], param_1.76: f32[12]) -> f32[1,13,19,12] {
  %param_0.82 = f32[1,12,13,19]{3,2,1,0} parameter(0)
  %param_1.76 = f32[12]{0} parameter(1)
  %broadcast.131 = f32[1,12,13,19]{3,2,1,0} broadcast(f32[12]{0} %param_1.76), dimensions={1}, metadata={op_type="BiasAdd" op_name="tower0/rpn_4/box/BiasAdd"}
  %add.73 = f32[1,12,13,19]{3,2,1,0} add(f32[1,12,13,19]{3,2,1,0} %param_0.82, f32[1,12,13,19]{3,2,1,0} %broadcast.131), metadata={op_type="BiasAdd" op_name="tower0/rpn_4/box/BiasAdd"}
  %bitcast.324 = f32[1,13,19,12]{2,1,3,0} bitcast(f32[1,12,13,19]{3,2,1,0} %add.73), metadata={op_type="Transpose" op_name="tower0/rpn_4/transpose_1"}
  ROOT %copy.190 = f32[1,13,19,12]{3,2,1,0} copy(f32[1,13,19,12]{2,1,3,0} %bitcast.324), metadata={op_name="XLA_Retvals"}
}

%fused_computation.37 (param_0.85: f32[1,12,25,38], param_1.78: f32[12]) -> f32[1,25,38,12] {
  %param_0.85 = f32[1,12,25,38]{3,2,1,0} parameter(0)
  %param_1.78 = f32[12]{0} parameter(1)
  %broadcast.132 = f32[1,12,25,38]{3,2,1,0} broadcast(f32[12]{0} %param_1.78), dimensions={1}, metadata={op_type="BiasAdd" op_name="tower0/rpn_3/box/BiasAdd"}
  %add.74 = f32[1,12,25,38]{3,2,1,0} add(f32[1,12,25,38]{3,2,1,0} %param_0.85, f32[1,12,25,38]{3,2,1,0} %broadcast.132), metadata={op_type="BiasAdd" op_name="tower0/rpn_3/box/BiasAdd"}
  %bitcast.325 = f32[1,25,38,12]{2,1,3,0} bitcast(f32[1,12,25,38]{3,2,1,0} %add.74), metadata={op_type="Transpose" op_name="tower0/rpn_3/transpose_1"}
  ROOT %copy.191 = f32[1,25,38,12]{3,2,1,0} copy(f32[1,25,38,12]{2,1,3,0} %bitcast.325), metadata={op_name="XLA_Retvals"}
}

%fused_computation.38 (param_0.483: f32[1,3,13,19], param_1.573: f32[3]) -> f32[13,19,3] {
  %param_0.483 = f32[1,3,13,19]{3,2,1,0} parameter(0)
  %param_1.573 = f32[3]{0} parameter(1)
  %broadcast.374 = f32[1,3,13,19]{3,2,1,0} broadcast(f32[3]{0} %param_1.573), dimensions={1}, metadata={op_type="BiasAdd" op_name="tower0/rpn_4/class/BiasAdd"}
  %add.218 = f32[1,3,13,19]{3,2,1,0} add(f32[1,3,13,19]{3,2,1,0} %param_0.483, f32[1,3,13,19]{3,2,1,0} %broadcast.374), metadata={op_type="BiasAdd" op_name="tower0/rpn_4/class/BiasAdd"}
  %bitcast.326 = f32[13,19,3]{1,0,2} bitcast(f32[1,3,13,19]{3,2,1,0} %add.218), metadata={op_type="Squeeze" op_name="tower0/rpn_4/Squeeze"}
  ROOT %copy.192 = f32[13,19,3]{2,1,0} copy(f32[13,19,3]{1,0,2} %bitcast.326), metadata={op_name="XLA_Retvals"}
}

%fused_computation.40 (param_0.479: f32[1,3,25,38], param_1.567: f32[3]) -> f32[25,38,3] {
  %param_0.479 = f32[1,3,25,38]{3,2,1,0} parameter(0)
  %param_1.567 = f32[3]{0} parameter(1)
  %broadcast.370 = f32[1,3,25,38]{3,2,1,0} broadcast(f32[3]{0} %param_1.567), dimensions={1}, metadata={op_type="BiasAdd" op_name="tower0/rpn_3/class/BiasAdd"}
  %add.214 = f32[1,3,25,38]{3,2,1,0} add(f32[1,3,25,38]{3,2,1,0} %param_0.479, f32[1,3,25,38]{3,2,1,0} %broadcast.370), metadata={op_type="BiasAdd" op_name="tower0/rpn_3/class/BiasAdd"}
  %bitcast.327 = f32[25,38,3]{1,0,2} bitcast(f32[1,3,25,38]{3,2,1,0} %add.214), metadata={op_type="Squeeze" op_name="tower0/rpn_3/Squeeze"}
  ROOT %copy.193 = f32[25,38,3]{2,1,0} copy(f32[25,38,3]{1,0,2} %bitcast.327), metadata={op_name="XLA_Retvals"}
}

%fused_computation.43 (param_0.416: s32[21,21,3]) -> (pred[13,19,3], pred[13,19,3]) {
  %param_0.416 = s32[21,21,3]{2,1,0} parameter(0)
  %slice.21 = s32[13,19,3]{2,1,0} slice(s32[21,21,3]{2,1,0} %param_0.416), slice={[0:13], [0:19], [0:3]}, metadata={op_type="Slice" op_name="tower0/FPN_slice_lvl4/narrow_to/Slice_1"}
  %constant_155 = s32[] constant(-1), metadata={op_type="NotEqual" op_name="tower0/rpn_losses/level5/NotEqual"}
  %broadcast.136 = s32[13,19,3]{2,1,0} broadcast(s32[] %constant_155), dimensions={}, metadata={op_type="NotEqual" op_name="tower0/rpn_losses/level6/NotEqual"}
  %compare.62 = pred[13,19,3]{2,1,0} compare(s32[13,19,3]{2,1,0} %slice.21, s32[13,19,3]{2,1,0} %broadcast.136), direction=NE, metadata={op_type="NotEqual" op_name="tower0/rpn_losses/level6/NotEqual"}
  %constant_154_clone_1 = s32[] constant(1), metadata={op_type="Equal" op_name="tower0/rpn_losses/level5/Equal"}
  %broadcast.135.clone.1 = s32[13,19,3]{2,1,0} broadcast(s32[] %constant_154_clone_1), dimensions={}, metadata={op_type="Equal" op_name="tower0/rpn_losses/level6/Equal"}
  %compare.61.clone.1 = pred[13,19,3]{2,1,0} compare(s32[13,19,3]{2,1,0} %slice.21, s32[13,19,3]{2,1,0} %broadcast.135.clone.1), direction=EQ, metadata={op_type="Equal" op_name="tower0/rpn_losses/level6/Equal"}
  ROOT %tuple.82 = (pred[13,19,3]{2,1,0}, pred[13,19,3]{2,1,0}) tuple(pred[13,19,3]{2,1,0} %compare.62, pred[13,19,3]{2,1,0} %compare.61.clone.1)
}

%fused_computation.45 (param_0.418: s32[42,42,3]) -> (pred[25,38,3], pred[25,38,3]) {
  %param_0.418 = s32[42,42,3]{2,1,0} parameter(0)
  %slice.23 = s32[25,38,3]{2,1,0} slice(s32[42,42,3]{2,1,0} %param_0.418), slice={[0:25], [0:38], [0:3]}, metadata={op_type="Slice" op_name="tower0/FPN_slice_lvl3/narrow_to/Slice_1"}
  %constant_157 = s32[] constant(-1), metadata={op_type="NotEqual" op_name="tower0/rpn_losses/level5/NotEqual"}
  %broadcast.138 = s32[25,38,3]{2,1,0} broadcast(s32[] %constant_157), dimensions={}, metadata={op_type="NotEqual" op_name="tower0/rpn_losses/level5/NotEqual"}
  %compare.64 = pred[25,38,3]{2,1,0} compare(s32[25,38,3]{2,1,0} %slice.23, s32[25,38,3]{2,1,0} %broadcast.138), direction=NE, metadata={op_type="NotEqual" op_name="tower0/rpn_losses/level5/NotEqual"}
  %constant_156_clone_1 = s32[] constant(1), metadata={op_type="Equal" op_name="tower0/rpn_losses/level5/Equal"}
  %broadcast.137.clone.1 = s32[25,38,3]{2,1,0} broadcast(s32[] %constant_156_clone_1), dimensions={}, metadata={op_type="Equal" op_name="tower0/rpn_losses/level5/Equal"}
  %compare.63.clone.1 = pred[25,38,3]{2,1,0} compare(s32[25,38,3]{2,1,0} %slice.23, s32[25,38,3]{2,1,0} %broadcast.137.clone.1), direction=EQ, metadata={op_type="Equal" op_name="tower0/rpn_losses/level5/Equal"}
  ROOT %tuple.81 = (pred[25,38,3]{2,1,0}, pred[25,38,3]{2,1,0}) tuple(pred[25,38,3]{2,1,0} %compare.64, pred[25,38,3]{2,1,0} %compare.63.clone.1)
}

%fused_computation.46 (param_0.97: f32[], param_1.93: s32[]) -> f32[] {
  %constant_158 = f32[] constant(0.5), metadata={op_type="Mul" op_name="EMA/QueueInput/queue_size_EMA_apply/mul"}
  %param_0.97 = f32[] parameter(0)
  %param_1.93 = s32[] parameter(1)
  %convert.2 = f32[] convert(s32[] %param_1.93), metadata={op_type="Cast" op_name="QueueInput/queue_size"}
  %subtract.36 = f32[] subtract(f32[] %param_0.97, f32[] %convert.2), metadata={op_type="Sub" op_name="EMA/QueueInput/queue_size_EMA_apply/sub"}
  ROOT %multiply.45 = f32[] multiply(f32[] %constant_158, f32[] %subtract.36), metadata={op_type="Mul" op_name="EMA/QueueInput/queue_size_EMA_apply/mul"}
}

%fused_computation.47 (param_0.98: f32[1,256,200,304], param_1.95: f32[256]) -> f32[1,256,200,304] {
  %param_0.98 = f32[1,256,200,304]{3,2,1,0} parameter(0)
  %param_1.95 = f32[256]{0} parameter(1)
  %broadcast.139 = f32[1,256,200,304]{3,2,1,0} broadcast(f32[256]{0} %param_1.95), dimensions={1}, metadata={op_type="BiasAdd" op_name="tower0/fpn/posthoc_3x3_p2/BiasAdd"}
  ROOT %add.77 = f32[1,256,200,304]{3,2,1,0} add(f32[1,256,200,304]{3,2,1,0} %param_0.98, f32[1,256,200,304]{3,2,1,0} %broadcast.139), metadata={op_type="BiasAdd" op_name="tower0/fpn/posthoc_3x3_p2/BiasAdd"}
}

%fused_computation.48 (param_0.100: f32[1,256,100,152], param_1.101: f32[1,256,200,304], param_2.55: f32[256]) -> f32[1,256,200,304] {
  %param_1.101 = f32[1,256,200,304]{3,2,1,0} parameter(1)
  %param_2.55 = f32[256]{0} parameter(2)
  %broadcast.141 = f32[1,256,200,304]{3,2,1,0} broadcast(f32[256]{0} %param_2.55), dimensions={1}, metadata={op_type="BiasAdd" op_name="tower0/fpn/lateral_1x1_c2/BiasAdd"}
  %add.79 = f32[1,256,200,304]{3,2,1,0} add(f32[1,256,200,304]{3,2,1,0} %param_1.101, f32[1,256,200,304]{3,2,1,0} %broadcast.141), metadata={op_type="BiasAdd" op_name="tower0/fpn/lateral_1x1_c2/BiasAdd"}
  %param_0.100 = f32[1,256,100,152]{3,2,1,0} parameter(0)
  %bitcast.329 = f32[3891200]{0} bitcast(f32[1,256,100,152]{3,2,1,0} %param_0.100)
  %broadcast.140 = f32[3891200,4]{1,0} broadcast(f32[3891200]{0} %bitcast.329), dimensions={0}, metadata={op_type="MatMul" op_name="tower0/fpn/upsample_lat3/Tensordot/MatMul"}
  %reshape.190 = f32[1,256,100,152,2,2]{5,3,4,2,1,0} reshape(f32[3891200,4]{1,0} %broadcast.140), metadata={op_type="Reshape" op_name="tower0/fpn/upsample_lat3/Tensordot"}
  %bitcast.328 = f32[1,256,200,304]{3,2,1,0} bitcast(f32[1,256,100,152,2,2]{5,3,4,2,1,0} %reshape.190), metadata={op_type="Reshape" op_name="tower0/fpn/upsample_lat3/Reshape"}
  ROOT %add.78 = f32[1,256,200,304]{3,2,1,0} add(f32[1,256,200,304]{3,2,1,0} %add.79, f32[1,256,200,304]{3,2,1,0} %bitcast.328), metadata={op_type="Add" op_name="tower0/fpn/add_2"}
}

%fused_computation.49 (param_0.101: f32[1,256,100,152], param_1.103: f32[256]) -> f32[1,256,100,152] {
  %param_0.101 = f32[1,256,100,152]{3,2,1,0} parameter(0)
  %param_1.103 = f32[256]{0} parameter(1)
  %broadcast.142 = f32[1,256,100,152]{3,2,1,0} broadcast(f32[256]{0} %param_1.103), dimensions={1}, metadata={op_type="BiasAdd" op_name="tower0/fpn/posthoc_3x3_p3/BiasAdd"}
  ROOT %add.80 = f32[1,256,100,152]{3,2,1,0} add(f32[1,256,100,152]{3,2,1,0} %param_0.101, f32[1,256,100,152]{3,2,1,0} %broadcast.142), metadata={op_type="BiasAdd" op_name="tower0/fpn/posthoc_3x3_p3/BiasAdd"}
}

%fused_computation.50 (param_0.103: f32[1,256,50,76], param_1.109: f32[1,256,100,152], param_2.57: f32[256]) -> f32[1,256,100,152] {
  %param_1.109 = f32[1,256,100,152]{3,2,1,0} parameter(1)
  %param_2.57 = f32[256]{0} parameter(2)
  %broadcast.144 = f32[1,256,100,152]{3,2,1,0} broadcast(f32[256]{0} %param_2.57), dimensions={1}, metadata={op_type="BiasAdd" op_name="tower0/fpn/lateral_1x1_c3/BiasAdd"}
  %add.82 = f32[1,256,100,152]{3,2,1,0} add(f32[1,256,100,152]{3,2,1,0} %param_1.109, f32[1,256,100,152]{3,2,1,0} %broadcast.144), metadata={op_type="BiasAdd" op_name="tower0/fpn/lateral_1x1_c3/BiasAdd"}
  %param_0.103 = f32[1,256,50,76]{3,2,1,0} parameter(0)
  %bitcast.331 = f32[972800]{0} bitcast(f32[1,256,50,76]{3,2,1,0} %param_0.103)
  %broadcast.143 = f32[972800,4]{1,0} broadcast(f32[972800]{0} %bitcast.331), dimensions={0}, metadata={op_type="MatMul" op_name="tower0/fpn/upsample_lat4/Tensordot/MatMul"}
  %reshape.191 = f32[1,256,50,76,2,2]{5,3,4,2,1,0} reshape(f32[972800,4]{1,0} %broadcast.143), metadata={op_type="Reshape" op_name="tower0/fpn/upsample_lat4/Tensordot"}
  %bitcast.330 = f32[1,256,100,152]{3,2,1,0} bitcast(f32[1,256,50,76,2,2]{5,3,4,2,1,0} %reshape.191), metadata={op_type="Reshape" op_name="tower0/fpn/upsample_lat4/Reshape"}
  ROOT %add.81 = f32[1,256,100,152]{3,2,1,0} add(f32[1,256,100,152]{3,2,1,0} %add.82, f32[1,256,100,152]{3,2,1,0} %bitcast.330), metadata={op_type="Add" op_name="tower0/fpn/add_1"}
}

%fused_computation.51 (param_0.104: f32[1,256,50,76], param_1.111: f32[256]) -> f32[1,256,50,76] {
  %param_0.104 = f32[1,256,50,76]{3,2,1,0} parameter(0)
  %param_1.111 = f32[256]{0} parameter(1)
  %broadcast.145 = f32[1,256,50,76]{3,2,1,0} broadcast(f32[256]{0} %param_1.111), dimensions={1}, metadata={op_type="BiasAdd" op_name="tower0/fpn/posthoc_3x3_p4/BiasAdd"}
  ROOT %add.83 = f32[1,256,50,76]{3,2,1,0} add(f32[1,256,50,76]{3,2,1,0} %param_0.104, f32[1,256,50,76]{3,2,1,0} %broadcast.145), metadata={op_type="BiasAdd" op_name="tower0/fpn/posthoc_3x3_p4/BiasAdd"}
}

%fused_computation.52 (param_0.106: f32[1,256,25,38], param_1.117: f32[1,256,50,76], param_2.59: f32[256]) -> f32[1,256,50,76] {
  %param_1.117 = f32[1,256,50,76]{3,2,1,0} parameter(1)
  %param_2.59 = f32[256]{0} parameter(2)
  %broadcast.147 = f32[1,256,50,76]{3,2,1,0} broadcast(f32[256]{0} %param_2.59), dimensions={1}, metadata={op_type="BiasAdd" op_name="tower0/fpn/lateral_1x1_c4/BiasAdd"}
  %add.85 = f32[1,256,50,76]{3,2,1,0} add(f32[1,256,50,76]{3,2,1,0} %param_1.117, f32[1,256,50,76]{3,2,1,0} %broadcast.147), metadata={op_type="BiasAdd" op_name="tower0/fpn/lateral_1x1_c4/BiasAdd"}
  %param_0.106 = f32[1,256,25,38]{3,2,1,0} parameter(0)
  %bitcast.333 = f32[243200]{0} bitcast(f32[1,256,25,38]{3,2,1,0} %param_0.106)
  %broadcast.146 = f32[243200,4]{1,0} broadcast(f32[243200]{0} %bitcast.333), dimensions={0}, metadata={op_type="MatMul" op_name="tower0/fpn/upsample_lat5/Tensordot/MatMul"}
  %reshape.192 = f32[1,256,25,38,2,2]{5,3,4,2,1,0} reshape(f32[243200,4]{1,0} %broadcast.146), metadata={op_type="Reshape" op_name="tower0/fpn/upsample_lat5/Tensordot"}
  %bitcast.332 = f32[1,256,50,76]{3,2,1,0} bitcast(f32[1,256,25,38,2,2]{5,3,4,2,1,0} %reshape.192), metadata={op_type="Reshape" op_name="tower0/fpn/upsample_lat5/Reshape"}
  ROOT %add.84 = f32[1,256,50,76]{3,2,1,0} add(f32[1,256,50,76]{3,2,1,0} %add.85, f32[1,256,50,76]{3,2,1,0} %bitcast.332), metadata={op_type="Add" op_name="tower0/fpn/add"}
}

%fused_computation.53 (param_0.107: f32[1,256,25,38], param_1.119: f32[256]) -> f32[1,256,25,38] {
  %param_0.107 = f32[1,256,25,38]{3,2,1,0} parameter(0)
  %param_1.119 = f32[256]{0} parameter(1)
  %broadcast.148 = f32[1,256,25,38]{3,2,1,0} broadcast(f32[256]{0} %param_1.119), dimensions={1}, metadata={op_type="BiasAdd" op_name="tower0/fpn/posthoc_3x3_p5/BiasAdd"}
  ROOT %add.86 = f32[1,256,25,38]{3,2,1,0} add(f32[1,256,25,38]{3,2,1,0} %param_0.107, f32[1,256,25,38]{3,2,1,0} %broadcast.148), metadata={op_type="BiasAdd" op_name="tower0/fpn/posthoc_3x3_p5/BiasAdd"}
}

%fused_computation.54 (param_0.108: f32[1,256,25,38], param_1.121: f32[256]) -> f32[1,256,25,38] {
  %param_0.108 = f32[1,256,25,38]{3,2,1,0} parameter(0)
  %param_1.121 = f32[256]{0} parameter(1)
  %broadcast.149 = f32[1,256,25,38]{3,2,1,0} broadcast(f32[256]{0} %param_1.121), dimensions={1}, metadata={op_type="BiasAdd" op_name="tower0/fpn/lateral_1x1_c5/BiasAdd"}
  ROOT %add.87 = f32[1,256,25,38]{3,2,1,0} add(f32[1,256,25,38]{3,2,1,0} %param_0.108, f32[1,256,25,38]{3,2,1,0} %broadcast.149), metadata={op_type="BiasAdd" op_name="tower0/fpn/lateral_1x1_c5/BiasAdd"}
}

%fused_computation.55 (param_0.419: f32[1,2048,1,1], param_1.426: f32[2048], param_2.348: f32[1,2048,25,38], param_3.311: f32[1,2048,25,38], param_4.249: f32[2048]) -> f32[1,2048,25,38] {
  %constant_169 = f32[] constant(0), metadata={op_type="Relu" op_name="tower0/conv0/Relu"}
  %broadcast.269 = f32[1,2048,25,38]{3,2,1,0} broadcast(f32[] %constant_169), dimensions={}, metadata={op_type="Relu" op_name="tower0/group3/block0/output"}
  %param_2.348 = f32[1,2048,25,38]{3,2,1,0} parameter(2)
  %param_3.311 = f32[1,2048,25,38]{3,2,1,0} parameter(3)
  %param_0.419 = f32[1,2048,1,1]{3,2,1,0} parameter(0)
  %bitcast.336 = f32[1,2048]{1,0} bitcast(f32[1,2048,1,1]{3,2,1,0} %param_0.419), metadata={op_type="Mul" op_name="tower0/group3/block2/conv3/bn/batchnorm/mul_1"}
  %broadcast.151 = f32[1,2048,25,38]{3,2,1,0} broadcast(f32[1,2048]{1,0} %bitcast.336), dimensions={0,1}, metadata={op_type="Mul" op_name="tower0/group3/block2/conv3/bn/batchnorm/mul_1"}
  %multiply.47 = f32[1,2048,25,38]{3,2,1,0} multiply(f32[1,2048,25,38]{3,2,1,0} %param_3.311, f32[1,2048,25,38]{3,2,1,0} %broadcast.151), metadata={op_type="Mul" op_name="tower0/group3/block2/conv3/bn/batchnorm/mul_1"}
  %add.89 = f32[1,2048,25,38]{3,2,1,0} add(f32[1,2048,25,38]{3,2,1,0} %param_2.348, f32[1,2048,25,38]{3,2,1,0} %multiply.47), metadata={op_type="AddN" op_name="tower0/group3/block2/ArithmeticOptimizer/AddOpsRewrite_Leaf_1_add"}
  %param_1.426 = f32[2048]{0} parameter(1)
  %bitcast.335 = f32[1,2048,1,1]{3,2,1,0} bitcast(f32[2048]{0} %param_1.426), metadata={op_type="Reshape" op_name="tower0/group3/block2/conv3/bn/Reshape_1"}
  %param_4.249 = f32[2048]{0} parameter(4)
  %bitcast.556 = f32[1,2048,1,1]{3,2,1,0} bitcast(f32[2048]{0} %param_4.249), metadata={op_type="Reshape" op_name="tower0/group3/block2/conv3/bn/Reshape_2"}
  %multiply.46 = f32[1,2048,1,1]{3,2,1,0} multiply(f32[1,2048,1,1]{3,2,1,0} %bitcast.556, f32[1,2048,1,1]{3,2,1,0} %param_0.419), metadata={op_type="Mul" op_name="tower0/group3/block2/conv3/bn/batchnorm/mul_2"}
  %subtract.37 = f32[1,2048,1,1]{3,2,1,0} subtract(f32[1,2048,1,1]{3,2,1,0} %bitcast.335, f32[1,2048,1,1]{3,2,1,0} %multiply.46), metadata={op_type="Sub" op_name="tower0/group3/block2/conv3/bn/batchnorm/sub"}
  %bitcast.334 = f32[1,2048]{1,0} bitcast(f32[1,2048,1,1]{3,2,1,0} %subtract.37), metadata={op_type="Add" op_name="tower0/group3/block2/ArithmeticOptimizer/AddOpsRewrite_add"}
  %broadcast.150 = f32[1,2048,25,38]{3,2,1,0} broadcast(f32[1,2048]{1,0} %bitcast.334), dimensions={0,1}, metadata={op_type="Add" op_name="tower0/group3/block2/ArithmeticOptimizer/AddOpsRewrite_add"}
  %add.88 = f32[1,2048,25,38]{3,2,1,0} add(f32[1,2048,25,38]{3,2,1,0} %add.89, f32[1,2048,25,38]{3,2,1,0} %broadcast.150), metadata={op_type="Add" op_name="tower0/group3/block2/ArithmeticOptimizer/AddOpsRewrite_add"}
  ROOT %maximum.5 = f32[1,2048,25,38]{3,2,1,0} maximum(f32[1,2048,25,38]{3,2,1,0} %broadcast.269, f32[1,2048,25,38]{3,2,1,0} %add.88), metadata={op_type="Relu" op_name="tower0/group3/block2/output"}
}

%fused_computation.56 (param_0.111: f32[1,2048,1,1], param_1.126: f32[2048]) -> f32[1,2048,1,1] {
  %param_1.126 = f32[2048]{0} parameter(1)
  %bitcast.337 = f32[1,2048,1,1]{3,2,1,0} bitcast(f32[2048]{0} %param_1.126), metadata={op_type="Reshape" op_name="tower0/group3/block2/conv3/bn/Reshape"}
  %param_0.111 = f32[1,2048,1,1]{3,2,1,0} parameter(0)
  ROOT %multiply.48 = f32[1,2048,1,1]{3,2,1,0} multiply(f32[1,2048,1,1]{3,2,1,0} %bitcast.337, f32[1,2048,1,1]{3,2,1,0} %param_0.111), metadata={op_type="Mul" op_name="tower0/group3/block2/conv3/bn/batchnorm/mul"}
}

%fused_computation.57 (param_0.420: f32[2048]) -> f32[1,2048,1,1] {
  %constant_170 = f32[] constant(1e-05), metadata={op_type="Add" op_name="tower0/conv0/bn/batchnorm/add"}
  %broadcast.270 = f32[2048]{0} broadcast(f32[] %constant_170), dimensions={}, metadata={op_type="Add" op_name="tower0/group3/block0/conv3/bn/batchnorm/add"}
  %param_0.420 = f32[2048]{0} parameter(0)
  %add.90 = f32[2048]{0} add(f32[2048]{0} %broadcast.270, f32[2048]{0} %param_0.420), metadata={op_type="Add" op_name="tower0/group3/block2/conv3/bn/batchnorm/add"}
  %rsqrt.53 = f32[2048]{0} rsqrt(f32[2048]{0} %add.90), metadata={op_type="Rsqrt" op_name="tower0/group3/block2/conv3/bn/batchnorm/Rsqrt"}
  ROOT %bitcast.338 = f32[1,2048,1,1]{3,2,1,0} bitcast(f32[2048]{0} %rsqrt.53), metadata={op_type="Rsqrt" op_name="tower0/group3/block2/conv3/bn/batchnorm/Rsqrt"}
}

%fused_computation.58 (param_0.421: f32[1,512,1,1], param_1.429: f32[512], param_2.350: f32[1,512,25,38], param_3.313: f32[512]) -> f32[1,512,25,38] {
  %constant_171 = f32[] constant(0), metadata={op_type="Relu" op_name="tower0/conv0/Relu"}
  %broadcast.271 = f32[1,512,25,38]{3,2,1,0} broadcast(f32[] %constant_171), dimensions={}, metadata={op_type="Relu" op_name="tower0/group3/block0/conv2/Relu"}
  %param_2.350 = f32[1,512,25,38]{3,2,1,0} parameter(2)
  %param_0.421 = f32[1,512,1,1]{3,2,1,0} parameter(0)
  %bitcast.341 = f32[1,512]{1,0} bitcast(f32[1,512,1,1]{3,2,1,0} %param_0.421), metadata={op_type="Mul" op_name="tower0/group3/block2/conv2/bn/batchnorm/mul_1"}
  %broadcast.153 = f32[1,512,25,38]{3,2,1,0} broadcast(f32[1,512]{1,0} %bitcast.341), dimensions={0,1}, metadata={op_type="Mul" op_name="tower0/group3/block2/conv2/bn/batchnorm/mul_1"}
  %multiply.50 = f32[1,512,25,38]{3,2,1,0} multiply(f32[1,512,25,38]{3,2,1,0} %param_2.350, f32[1,512,25,38]{3,2,1,0} %broadcast.153), metadata={op_type="Mul" op_name="tower0/group3/block2/conv2/bn/batchnorm/mul_1"}
  %param_1.429 = f32[512]{0} parameter(1)
  %bitcast.340 = f32[1,512,1,1]{3,2,1,0} bitcast(f32[512]{0} %param_1.429), metadata={op_type="Reshape" op_name="tower0/group3/block2/conv2/bn/Reshape_1"}
  %param_3.313 = f32[512]{0} parameter(3)
  %bitcast.557 = f32[1,512,1,1]{3,2,1,0} bitcast(f32[512]{0} %param_3.313), metadata={op_type="Reshape" op_name="tower0/group3/block2/conv2/bn/Reshape_2"}
  %multiply.49 = f32[1,512,1,1]{3,2,1,0} multiply(f32[1,512,1,1]{3,2,1,0} %bitcast.557, f32[1,512,1,1]{3,2,1,0} %param_0.421), metadata={op_type="Mul" op_name="tower0/group3/block2/conv2/bn/batchnorm/mul_2"}
  %subtract.38 = f32[1,512,1,1]{3,2,1,0} subtract(f32[1,512,1,1]{3,2,1,0} %bitcast.340, f32[1,512,1,1]{3,2,1,0} %multiply.49), metadata={op_type="Sub" op_name="tower0/group3/block2/conv2/bn/batchnorm/sub"}
  %bitcast.339 = f32[1,512]{1,0} bitcast(f32[1,512,1,1]{3,2,1,0} %subtract.38), metadata={op_type="Add" op_name="tower0/group3/block2/conv2/bn/batchnorm/add_1"}
  %broadcast.152 = f32[1,512,25,38]{3,2,1,0} broadcast(f32[1,512]{1,0} %bitcast.339), dimensions={0,1}, metadata={op_type="Add" op_name="tower0/group3/block2/conv2/bn/batchnorm/add_1"}
  %add.91 = f32[1,512,25,38]{3,2,1,0} add(f32[1,512,25,38]{3,2,1,0} %multiply.50, f32[1,512,25,38]{3,2,1,0} %broadcast.152), metadata={op_type="Add" op_name="tower0/group3/block2/conv2/bn/batchnorm/add_1"}
  ROOT %maximum.6 = f32[1,512,25,38]{3,2,1,0} maximum(f32[1,512,25,38]{3,2,1,0} %broadcast.271, f32[1,512,25,38]{3,2,1,0} %add.91), metadata={op_type="Relu" op_name="tower0/group3/block2/conv2/Relu"}
}

%fused_computation.59 (param_0.117: f32[1,512,1,1], param_1.132: f32[512]) -> f32[1,512,1,1] {
  %param_1.132 = f32[512]{0} parameter(1)
  %bitcast.342 = f32[1,512,1,1]{3,2,1,0} bitcast(f32[512]{0} %param_1.132), metadata={op_type="Reshape" op_name="tower0/group3/block2/conv2/bn/Reshape"}
  %param_0.117 = f32[1,512,1,1]{3,2,1,0} parameter(0)
  ROOT %multiply.51 = f32[1,512,1,1]{3,2,1,0} multiply(f32[1,512,1,1]{3,2,1,0} %bitcast.342, f32[1,512,1,1]{3,2,1,0} %param_0.117), metadata={op_type="Mul" op_name="tower0/group3/block2/conv2/bn/batchnorm/mul"}
}

%fused_computation.60 (param_0.422: f32[512]) -> f32[1,512,1,1] {
  %constant_172 = f32[] constant(1e-05), metadata={op_type="Add" op_name="tower0/conv0/bn/batchnorm/add"}
  %broadcast.272 = f32[512]{0} broadcast(f32[] %constant_172), dimensions={}, metadata={op_type="Add" op_name="tower0/group1/block0/conv3/bn/batchnorm/add"}
  %param_0.422 = f32[512]{0} parameter(0)
  %add.92 = f32[512]{0} add(f32[512]{0} %broadcast.272, f32[512]{0} %param_0.422), metadata={op_type="Add" op_name="tower0/group3/block2/conv2/bn/batchnorm/add"}
  %rsqrt.54 = f32[512]{0} rsqrt(f32[512]{0} %add.92), metadata={op_type="Rsqrt" op_name="tower0/group3/block2/conv2/bn/batchnorm/Rsqrt"}
  ROOT %bitcast.343 = f32[1,512,1,1]{3,2,1,0} bitcast(f32[512]{0} %rsqrt.54), metadata={op_type="Rsqrt" op_name="tower0/group3/block2/conv2/bn/batchnorm/Rsqrt"}
}

%fused_computation.61 (param_0.423: f32[1,512,1,1], param_1.432: f32[512], param_2.352: f32[1,512,25,38], param_3.315: f32[512]) -> f32[1,512,25,38] {
  %constant_173 = f32[] constant(0), metadata={op_type="Relu" op_name="tower0/conv0/Relu"}
  %broadcast.273 = f32[1,512,25,38]{3,2,1,0} broadcast(f32[] %constant_173), dimensions={}, metadata={op_type="Relu" op_name="tower0/group3/block0/conv2/Relu"}
  %param_2.352 = f32[1,512,25,38]{3,2,1,0} parameter(2)
  %param_0.423 = f32[1,512,1,1]{3,2,1,0} parameter(0)
  %bitcast.346 = f32[1,512]{1,0} bitcast(f32[1,512,1,1]{3,2,1,0} %param_0.423), metadata={op_type="Mul" op_name="tower0/group3/block2/conv1/bn/batchnorm/mul_1"}
  %broadcast.155 = f32[1,512,25,38]{3,2,1,0} broadcast(f32[1,512]{1,0} %bitcast.346), dimensions={0,1}, metadata={op_type="Mul" op_name="tower0/group3/block2/conv1/bn/batchnorm/mul_1"}
  %multiply.53 = f32[1,512,25,38]{3,2,1,0} multiply(f32[1,512,25,38]{3,2,1,0} %param_2.352, f32[1,512,25,38]{3,2,1,0} %broadcast.155), metadata={op_type="Mul" op_name="tower0/group3/block2/conv1/bn/batchnorm/mul_1"}
  %param_1.432 = f32[512]{0} parameter(1)
  %bitcast.345 = f32[1,512,1,1]{3,2,1,0} bitcast(f32[512]{0} %param_1.432), metadata={op_type="Reshape" op_name="tower0/group3/block2/conv1/bn/Reshape_1"}
  %param_3.315 = f32[512]{0} parameter(3)
  %bitcast.558 = f32[1,512,1,1]{3,2,1,0} bitcast(f32[512]{0} %param_3.315), metadata={op_type="Reshape" op_name="tower0/group3/block2/conv1/bn/Reshape_2"}
  %multiply.52 = f32[1,512,1,1]{3,2,1,0} multiply(f32[1,512,1,1]{3,2,1,0} %bitcast.558, f32[1,512,1,1]{3,2,1,0} %param_0.423), metadata={op_type="Mul" op_name="tower0/group3/block2/conv1/bn/batchnorm/mul_2"}
  %subtract.39 = f32[1,512,1,1]{3,2,1,0} subtract(f32[1,512,1,1]{3,2,1,0} %bitcast.345, f32[1,512,1,1]{3,2,1,0} %multiply.52), metadata={op_type="Sub" op_name="tower0/group3/block2/conv1/bn/batchnorm/sub"}
  %bitcast.344 = f32[1,512]{1,0} bitcast(f32[1,512,1,1]{3,2,1,0} %subtract.39), metadata={op_type="Add" op_name="tower0/group3/block2/conv1/bn/batchnorm/add_1"}
  %broadcast.154 = f32[1,512,25,38]{3,2,1,0} broadcast(f32[1,512]{1,0} %bitcast.344), dimensions={0,1}, metadata={op_type="Add" op_name="tower0/group3/block2/conv1/bn/batchnorm/add_1"}
  %add.93 = f32[1,512,25,38]{3,2,1,0} add(f32[1,512,25,38]{3,2,1,0} %multiply.53, f32[1,512,25,38]{3,2,1,0} %broadcast.154), metadata={op_type="Add" op_name="tower0/group3/block2/conv1/bn/batchnorm/add_1"}
  ROOT %maximum.7 = f32[1,512,25,38]{3,2,1,0} maximum(f32[1,512,25,38]{3,2,1,0} %broadcast.273, f32[1,512,25,38]{3,2,1,0} %add.93), metadata={op_type="Relu" op_name="tower0/group3/block2/conv1/Relu"}
}

%fused_computation.62 (param_0.123: f32[1,512,1,1], param_1.138: f32[512]) -> f32[1,512,1,1] {
  %param_1.138 = f32[512]{0} parameter(1)
  %bitcast.347 = f32[1,512,1,1]{3,2,1,0} bitcast(f32[512]{0} %param_1.138), metadata={op_type="Reshape" op_name="tower0/group3/block2/conv1/bn/Reshape"}
  %param_0.123 = f32[1,512,1,1]{3,2,1,0} parameter(0)
  ROOT %multiply.54 = f32[1,512,1,1]{3,2,1,0} multiply(f32[1,512,1,1]{3,2,1,0} %bitcast.347, f32[1,512,1,1]{3,2,1,0} %param_0.123), metadata={op_type="Mul" op_name="tower0/group3/block2/conv1/bn/batchnorm/mul"}
}

%fused_computation.63 (param_0.424: f32[512]) -> f32[1,512,1,1] {
  %constant_174 = f32[] constant(1e-05), metadata={op_type="Add" op_name="tower0/conv0/bn/batchnorm/add"}
  %broadcast.274 = f32[512]{0} broadcast(f32[] %constant_174), dimensions={}, metadata={op_type="Add" op_name="tower0/group1/block0/conv3/bn/batchnorm/add"}
  %param_0.424 = f32[512]{0} parameter(0)
  %add.94 = f32[512]{0} add(f32[512]{0} %broadcast.274, f32[512]{0} %param_0.424), metadata={op_type="Add" op_name="tower0/group3/block2/conv1/bn/batchnorm/add"}
  %rsqrt.55 = f32[512]{0} rsqrt(f32[512]{0} %add.94), metadata={op_type="Rsqrt" op_name="tower0/group3/block2/conv1/bn/batchnorm/Rsqrt"}
  ROOT %bitcast.348 = f32[1,512,1,1]{3,2,1,0} bitcast(f32[512]{0} %rsqrt.55), metadata={op_type="Rsqrt" op_name="tower0/group3/block2/conv1/bn/batchnorm/Rsqrt"}
}

%fused_computation.64 (param_0.425: f32[1,2048,1,1], param_1.435: f32[2048], param_2.354: f32[1,2048,25,38], param_3.317: f32[1,2048,25,38], param_4.255: f32[2048]) -> f32[1,2048,25,38] {
  %constant_175 = f32[] constant(0), metadata={op_type="Relu" op_name="tower0/conv0/Relu"}
  %broadcast.275 = f32[1,2048,25,38]{3,2,1,0} broadcast(f32[] %constant_175), dimensions={}, metadata={op_type="Relu" op_name="tower0/group3/block0/output"}
  %param_2.354 = f32[1,2048,25,38]{3,2,1,0} parameter(2)
  %param_3.317 = f32[1,2048,25,38]{3,2,1,0} parameter(3)
  %param_0.425 = f32[1,2048,1,1]{3,2,1,0} parameter(0)
  %bitcast.351 = f32[1,2048]{1,0} bitcast(f32[1,2048,1,1]{3,2,1,0} %param_0.425), metadata={op_type="Mul" op_name="tower0/group3/block1/conv3/bn/batchnorm/mul_1"}
  %broadcast.157 = f32[1,2048,25,38]{3,2,1,0} broadcast(f32[1,2048]{1,0} %bitcast.351), dimensions={0,1}, metadata={op_type="Mul" op_name="tower0/group3/block1/conv3/bn/batchnorm/mul_1"}
  %multiply.56 = f32[1,2048,25,38]{3,2,1,0} multiply(f32[1,2048,25,38]{3,2,1,0} %param_3.317, f32[1,2048,25,38]{3,2,1,0} %broadcast.157), metadata={op_type="Mul" op_name="tower0/group3/block1/conv3/bn/batchnorm/mul_1"}
  %add.96 = f32[1,2048,25,38]{3,2,1,0} add(f32[1,2048,25,38]{3,2,1,0} %param_2.354, f32[1,2048,25,38]{3,2,1,0} %multiply.56), metadata={op_type="AddN" op_name="tower0/group3/block1/ArithmeticOptimizer/AddOpsRewrite_Leaf_1_add"}
  %param_1.435 = f32[2048]{0} parameter(1)
  %bitcast.350 = f32[1,2048,1,1]{3,2,1,0} bitcast(f32[2048]{0} %param_1.435), metadata={op_type="Reshape" op_name="tower0/group3/block1/conv3/bn/Reshape_1"}
  %param_4.255 = f32[2048]{0} parameter(4)
  %bitcast.559 = f32[1,2048,1,1]{3,2,1,0} bitcast(f32[2048]{0} %param_4.255), metadata={op_type="Reshape" op_name="tower0/group3/block1/conv3/bn/Reshape_2"}
  %multiply.55 = f32[1,2048,1,1]{3,2,1,0} multiply(f32[1,2048,1,1]{3,2,1,0} %bitcast.559, f32[1,2048,1,1]{3,2,1,0} %param_0.425), metadata={op_type="Mul" op_name="tower0/group3/block1/conv3/bn/batchnorm/mul_2"}
  %subtract.40 = f32[1,2048,1,1]{3,2,1,0} subtract(f32[1,2048,1,1]{3,2,1,0} %bitcast.350, f32[1,2048,1,1]{3,2,1,0} %multiply.55), metadata={op_type="Sub" op_name="tower0/group3/block1/conv3/bn/batchnorm/sub"}
  %bitcast.349 = f32[1,2048]{1,0} bitcast(f32[1,2048,1,1]{3,2,1,0} %subtract.40), metadata={op_type="Add" op_name="tower0/group3/block1/ArithmeticOptimizer/AddOpsRewrite_add"}
  %broadcast.156 = f32[1,2048,25,38]{3,2,1,0} broadcast(f32[1,2048]{1,0} %bitcast.349), dimensions={0,1}, metadata={op_type="Add" op_name="tower0/group3/block1/ArithmeticOptimizer/AddOpsRewrite_add"}
  %add.95 = f32[1,2048,25,38]{3,2,1,0} add(f32[1,2048,25,38]{3,2,1,0} %add.96, f32[1,2048,25,38]{3,2,1,0} %broadcast.156), metadata={op_type="Add" op_name="tower0/group3/block1/ArithmeticOptimizer/AddOpsRewrite_add"}
  ROOT %maximum.8 = f32[1,2048,25,38]{3,2,1,0} maximum(f32[1,2048,25,38]{3,2,1,0} %broadcast.275, f32[1,2048,25,38]{3,2,1,0} %add.95), metadata={op_type="Relu" op_name="tower0/group3/block1/output"}
}

%fused_computation.65 (param_0.129: f32[1,2048,1,1], param_1.144: f32[2048]) -> f32[1,2048,1,1] {
  %param_1.144 = f32[2048]{0} parameter(1)
  %bitcast.352 = f32[1,2048,1,1]{3,2,1,0} bitcast(f32[2048]{0} %param_1.144), metadata={op_type="Reshape" op_name="tower0/group3/block1/conv3/bn/Reshape"}
  %param_0.129 = f32[1,2048,1,1]{3,2,1,0} parameter(0)
  ROOT %multiply.57 = f32[1,2048,1,1]{3,2,1,0} multiply(f32[1,2048,1,1]{3,2,1,0} %bitcast.352, f32[1,2048,1,1]{3,2,1,0} %param_0.129), metadata={op_type="Mul" op_name="tower0/group3/block1/conv3/bn/batchnorm/mul"}
}

%fused_computation.66 (param_0.426: f32[2048]) -> f32[1,2048,1,1] {
  %constant_176 = f32[] constant(1e-05), metadata={op_type="Add" op_name="tower0/conv0/bn/batchnorm/add"}
  %broadcast.276 = f32[2048]{0} broadcast(f32[] %constant_176), dimensions={}, metadata={op_type="Add" op_name="tower0/group3/block0/conv3/bn/batchnorm/add"}
  %param_0.426 = f32[2048]{0} parameter(0)
  %add.97 = f32[2048]{0} add(f32[2048]{0} %broadcast.276, f32[2048]{0} %param_0.426), metadata={op_type="Add" op_name="tower0/group3/block1/conv3/bn/batchnorm/add"}
  %rsqrt.56 = f32[2048]{0} rsqrt(f32[2048]{0} %add.97), metadata={op_type="Rsqrt" op_name="tower0/group3/block1/conv3/bn/batchnorm/Rsqrt"}
  ROOT %bitcast.353 = f32[1,2048,1,1]{3,2,1,0} bitcast(f32[2048]{0} %rsqrt.56), metadata={op_type="Rsqrt" op_name="tower0/group3/block1/conv3/bn/batchnorm/Rsqrt"}
}

%fused_computation.67 (param_0.427: f32[1,512,1,1], param_1.438: f32[512], param_2.356: f32[1,512,25,38], param_3.319: f32[512]) -> f32[1,512,25,38] {
  %constant_177 = f32[] constant(0), metadata={op_type="Relu" op_name="tower0/conv0/Relu"}
  %broadcast.277 = f32[1,512,25,38]{3,2,1,0} broadcast(f32[] %constant_177), dimensions={}, metadata={op_type="Relu" op_name="tower0/group3/block0/conv2/Relu"}
  %param_2.356 = f32[1,512,25,38]{3,2,1,0} parameter(2)
  %param_0.427 = f32[1,512,1,1]{3,2,1,0} parameter(0)
  %bitcast.356 = f32[1,512]{1,0} bitcast(f32[1,512,1,1]{3,2,1,0} %param_0.427), metadata={op_type="Mul" op_name="tower0/group3/block1/conv2/bn/batchnorm/mul_1"}
  %broadcast.159 = f32[1,512,25,38]{3,2,1,0} broadcast(f32[1,512]{1,0} %bitcast.356), dimensions={0,1}, metadata={op_type="Mul" op_name="tower0/group3/block1/conv2/bn/batchnorm/mul_1"}
  %multiply.59 = f32[1,512,25,38]{3,2,1,0} multiply(f32[1,512,25,38]{3,2,1,0} %param_2.356, f32[1,512,25,38]{3,2,1,0} %broadcast.159), metadata={op_type="Mul" op_name="tower0/group3/block1/conv2/bn/batchnorm/mul_1"}
  %param_1.438 = f32[512]{0} parameter(1)
  %bitcast.355 = f32[1,512,1,1]{3,2,1,0} bitcast(f32[512]{0} %param_1.438), metadata={op_type="Reshape" op_name="tower0/group3/block1/conv2/bn/Reshape_1"}
  %param_3.319 = f32[512]{0} parameter(3)
  %bitcast.560 = f32[1,512,1,1]{3,2,1,0} bitcast(f32[512]{0} %param_3.319), metadata={op_type="Reshape" op_name="tower0/group3/block1/conv2/bn/Reshape_2"}
  %multiply.58 = f32[1,512,1,1]{3,2,1,0} multiply(f32[1,512,1,1]{3,2,1,0} %bitcast.560, f32[1,512,1,1]{3,2,1,0} %param_0.427), metadata={op_type="Mul" op_name="tower0/group3/block1/conv2/bn/batchnorm/mul_2"}
  %subtract.41 = f32[1,512,1,1]{3,2,1,0} subtract(f32[1,512,1,1]{3,2,1,0} %bitcast.355, f32[1,512,1,1]{3,2,1,0} %multiply.58), metadata={op_type="Sub" op_name="tower0/group3/block1/conv2/bn/batchnorm/sub"}
  %bitcast.354 = f32[1,512]{1,0} bitcast(f32[1,512,1,1]{3,2,1,0} %subtract.41), metadata={op_type="Add" op_name="tower0/group3/block1/conv2/bn/batchnorm/add_1"}
  %broadcast.158 = f32[1,512,25,38]{3,2,1,0} broadcast(f32[1,512]{1,0} %bitcast.354), dimensions={0,1}, metadata={op_type="Add" op_name="tower0/group3/block1/conv2/bn/batchnorm/add_1"}
  %add.98 = f32[1,512,25,38]{3,2,1,0} add(f32[1,512,25,38]{3,2,1,0} %multiply.59, f32[1,512,25,38]{3,2,1,0} %broadcast.158), metadata={op_type="Add" op_name="tower0/group3/block1/conv2/bn/batchnorm/add_1"}
  ROOT %maximum.9 = f32[1,512,25,38]{3,2,1,0} maximum(f32[1,512,25,38]{3,2,1,0} %broadcast.277, f32[1,512,25,38]{3,2,1,0} %add.98), metadata={op_type="Relu" op_name="tower0/group3/block1/conv2/Relu"}
}

%fused_computation.68 (param_0.135: f32[1,512,1,1], param_1.150: f32[512]) -> f32[1,512,1,1] {
  %param_1.150 = f32[512]{0} parameter(1)
  %bitcast.357 = f32[1,512,1,1]{3,2,1,0} bitcast(f32[512]{0} %param_1.150), metadata={op_type="Reshape" op_name="tower0/group3/block1/conv2/bn/Reshape"}
  %param_0.135 = f32[1,512,1,1]{3,2,1,0} parameter(0)
  ROOT %multiply.60 = f32[1,512,1,1]{3,2,1,0} multiply(f32[1,512,1,1]{3,2,1,0} %bitcast.357, f32[1,512,1,1]{3,2,1,0} %param_0.135), metadata={op_type="Mul" op_name="tower0/group3/block1/conv2/bn/batchnorm/mul"}
}

%fused_computation.69 (param_0.428: f32[512]) -> f32[1,512,1,1] {
  %constant_178 = f32[] constant(1e-05), metadata={op_type="Add" op_name="tower0/conv0/bn/batchnorm/add"}
  %broadcast.278 = f32[512]{0} broadcast(f32[] %constant_178), dimensions={}, metadata={op_type="Add" op_name="tower0/group1/block0/conv3/bn/batchnorm/add"}
  %param_0.428 = f32[512]{0} parameter(0)
  %add.99 = f32[512]{0} add(f32[512]{0} %broadcast.278, f32[512]{0} %param_0.428), metadata={op_type="Add" op_name="tower0/group3/block1/conv2/bn/batchnorm/add"}
  %rsqrt.57 = f32[512]{0} rsqrt(f32[512]{0} %add.99), metadata={op_type="Rsqrt" op_name="tower0/group3/block1/conv2/bn/batchnorm/Rsqrt"}
  ROOT %bitcast.358 = f32[1,512,1,1]{3,2,1,0} bitcast(f32[512]{0} %rsqrt.57), metadata={op_type="Rsqrt" op_name="tower0/group3/block1/conv2/bn/batchnorm/Rsqrt"}
}

%fused_computation.70 (param_0.429: f32[1,512,1,1], param_1.441: f32[512], param_2.358: f32[1,512,25,38], param_3.321: f32[512]) -> f32[1,512,25,38] {
  %constant_179 = f32[] constant(0), metadata={op_type="Relu" op_name="tower0/conv0/Relu"}
  %broadcast.279 = f32[1,512,25,38]{3,2,1,0} broadcast(f32[] %constant_179), dimensions={}, metadata={op_type="Relu" op_name="tower0/group3/block0/conv2/Relu"}
  %param_2.358 = f32[1,512,25,38]{3,2,1,0} parameter(2)
  %param_0.429 = f32[1,512,1,1]{3,2,1,0} parameter(0)
  %bitcast.361 = f32[1,512]{1,0} bitcast(f32[1,512,1,1]{3,2,1,0} %param_0.429), metadata={op_type="Mul" op_name="tower0/group3/block1/conv1/bn/batchnorm/mul_1"}
  %broadcast.161 = f32[1,512,25,38]{3,2,1,0} broadcast(f32[1,512]{1,0} %bitcast.361), dimensions={0,1}, metadata={op_type="Mul" op_name="tower0/group3/block1/conv1/bn/batchnorm/mul_1"}
  %multiply.62 = f32[1,512,25,38]{3,2,1,0} multiply(f32[1,512,25,38]{3,2,1,0} %param_2.358, f32[1,512,25,38]{3,2,1,0} %broadcast.161), metadata={op_type="Mul" op_name="tower0/group3/block1/conv1/bn/batchnorm/mul_1"}
  %param_1.441 = f32[512]{0} parameter(1)
  %bitcast.360 = f32[1,512,1,1]{3,2,1,0} bitcast(f32[512]{0} %param_1.441), metadata={op_type="Reshape" op_name="tower0/group3/block1/conv1/bn/Reshape_1"}
  %param_3.321 = f32[512]{0} parameter(3)
  %bitcast.561 = f32[1,512,1,1]{3,2,1,0} bitcast(f32[512]{0} %param_3.321), metadata={op_type="Reshape" op_name="tower0/group3/block1/conv1/bn/Reshape_2"}
  %multiply.61 = f32[1,512,1,1]{3,2,1,0} multiply(f32[1,512,1,1]{3,2,1,0} %bitcast.561, f32[1,512,1,1]{3,2,1,0} %param_0.429), metadata={op_type="Mul" op_name="tower0/group3/block1/conv1/bn/batchnorm/mul_2"}
  %subtract.42 = f32[1,512,1,1]{3,2,1,0} subtract(f32[1,512,1,1]{3,2,1,0} %bitcast.360, f32[1,512,1,1]{3,2,1,0} %multiply.61), metadata={op_type="Sub" op_name="tower0/group3/block1/conv1/bn/batchnorm/sub"}
  %bitcast.359 = f32[1,512]{1,0} bitcast(f32[1,512,1,1]{3,2,1,0} %subtract.42), metadata={op_type="Add" op_name="tower0/group3/block1/conv1/bn/batchnorm/add_1"}
  %broadcast.160 = f32[1,512,25,38]{3,2,1,0} broadcast(f32[1,512]{1,0} %bitcast.359), dimensions={0,1}, metadata={op_type="Add" op_name="tower0/group3/block1/conv1/bn/batchnorm/add_1"}
  %add.100 = f32[1,512,25,38]{3,2,1,0} add(f32[1,512,25,38]{3,2,1,0} %multiply.62, f32[1,512,25,38]{3,2,1,0} %broadcast.160), metadata={op_type="Add" op_name="tower0/group3/block1/conv1/bn/batchnorm/add_1"}
  ROOT %maximum.10 = f32[1,512,25,38]{3,2,1,0} maximum(f32[1,512,25,38]{3,2,1,0} %broadcast.279, f32[1,512,25,38]{3,2,1,0} %add.100), metadata={op_type="Relu" op_name="tower0/group3/block1/conv1/Relu"}
}

%fused_computation.71 (param_0.141: f32[1,512,1,1], param_1.156: f32[512]) -> f32[1,512,1,1] {
  %param_1.156 = f32[512]{0} parameter(1)
  %bitcast.362 = f32[1,512,1,1]{3,2,1,0} bitcast(f32[512]{0} %param_1.156), metadata={op_type="Reshape" op_name="tower0/group3/block1/conv1/bn/Reshape"}
  %param_0.141 = f32[1,512,1,1]{3,2,1,0} parameter(0)
  ROOT %multiply.63 = f32[1,512,1,1]{3,2,1,0} multiply(f32[1,512,1,1]{3,2,1,0} %bitcast.362, f32[1,512,1,1]{3,2,1,0} %param_0.141), metadata={op_type="Mul" op_name="tower0/group3/block1/conv1/bn/batchnorm/mul"}
}

%fused_computation.72 (param_0.430: f32[512]) -> f32[1,512,1,1] {
  %constant_180 = f32[] constant(1e-05), metadata={op_type="Add" op_name="tower0/conv0/bn/batchnorm/add"}
  %broadcast.280 = f32[512]{0} broadcast(f32[] %constant_180), dimensions={}, metadata={op_type="Add" op_name="tower0/group1/block0/conv3/bn/batchnorm/add"}
  %param_0.430 = f32[512]{0} parameter(0)
  %add.101 = f32[512]{0} add(f32[512]{0} %broadcast.280, f32[512]{0} %param_0.430), metadata={op_type="Add" op_name="tower0/group3/block1/conv1/bn/batchnorm/add"}
  %rsqrt.58 = f32[512]{0} rsqrt(f32[512]{0} %add.101), metadata={op_type="Rsqrt" op_name="tower0/group3/block1/conv1/bn/batchnorm/Rsqrt"}
  ROOT %bitcast.363 = f32[1,512,1,1]{3,2,1,0} bitcast(f32[512]{0} %rsqrt.58), metadata={op_type="Rsqrt" op_name="tower0/group3/block1/conv1/bn/batchnorm/Rsqrt"}
}

%fused_computation.73 (param_0.431: f32[1,2048,1,1], param_1.444: f32[2048], param_2.360: f32[1,2048,25,38], param_3.323: f32[1,2048,1,1], param_4.261: f32[2048], param_5.205: f32[1,2048,25,38], param_6.120: f32[2048], param_7.64: f32[2048]) -> f32[1,2048,25,38] {
  %constant_181 = f32[] constant(0), metadata={op_type="Relu" op_name="tower0/conv0/Relu"}
  %broadcast.281 = f32[1,2048,25,38]{3,2,1,0} broadcast(f32[] %constant_181), dimensions={}, metadata={op_type="Relu" op_name="tower0/group3/block0/output"}
  %param_5.205 = f32[1,2048,25,38]{3,2,1,0} parameter(5)
  %param_3.323 = f32[1,2048,1,1]{3,2,1,0} parameter(3)
  %bitcast.369 = f32[1,2048]{1,0} bitcast(f32[1,2048,1,1]{3,2,1,0} %param_3.323), metadata={op_type="Mul" op_name="tower0/group3/block0/conv3/bn/batchnorm/mul_1"}
  %broadcast.165 = f32[1,2048,25,38]{3,2,1,0} broadcast(f32[1,2048]{1,0} %bitcast.369), dimensions={0,1}, metadata={op_type="Mul" op_name="tower0/group3/block0/conv3/bn/batchnorm/mul_1"}
  %multiply.67 = f32[1,2048,25,38]{3,2,1,0} multiply(f32[1,2048,25,38]{3,2,1,0} %param_5.205, f32[1,2048,25,38]{3,2,1,0} %broadcast.165), metadata={op_type="Mul" op_name="tower0/group3/block0/conv3/bn/batchnorm/mul_1"}
  %param_4.261 = f32[2048]{0} parameter(4)
  %bitcast.368 = f32[1,2048,1,1]{3,2,1,0} bitcast(f32[2048]{0} %param_4.261), metadata={op_type="Reshape" op_name="tower0/group3/block0/conv3/bn/Reshape_1"}
  %param_6.120 = f32[2048]{0} parameter(6)
  %bitcast.562 = f32[1,2048,1,1]{3,2,1,0} bitcast(f32[2048]{0} %param_6.120), metadata={op_type="Reshape" op_name="tower0/group3/block0/conv3/bn/Reshape_2"}
  %multiply.66 = f32[1,2048,1,1]{3,2,1,0} multiply(f32[1,2048,1,1]{3,2,1,0} %bitcast.562, f32[1,2048,1,1]{3,2,1,0} %param_3.323), metadata={op_type="Mul" op_name="tower0/group3/block0/conv3/bn/batchnorm/mul_2"}
  %subtract.44 = f32[1,2048,1,1]{3,2,1,0} subtract(f32[1,2048,1,1]{3,2,1,0} %bitcast.368, f32[1,2048,1,1]{3,2,1,0} %multiply.66), metadata={op_type="Sub" op_name="tower0/group3/block0/conv3/bn/batchnorm/sub"}
  %bitcast.367 = f32[1,2048]{1,0} bitcast(f32[1,2048,1,1]{3,2,1,0} %subtract.44), metadata={op_type="Add" op_name="tower0/group3/block0/conv3/bn/batchnorm/add_1"}
  %broadcast.164 = f32[1,2048,25,38]{3,2,1,0} broadcast(f32[1,2048]{1,0} %bitcast.367), dimensions={0,1}, metadata={op_type="Add" op_name="tower0/group3/block0/conv3/bn/batchnorm/add_1"}
  %add.104 = f32[1,2048,25,38]{3,2,1,0} add(f32[1,2048,25,38]{3,2,1,0} %multiply.67, f32[1,2048,25,38]{3,2,1,0} %broadcast.164), metadata={op_type="Add" op_name="tower0/group3/block0/conv3/bn/batchnorm/add_1"}
  %param_2.360 = f32[1,2048,25,38]{3,2,1,0} parameter(2)
  %param_0.431 = f32[1,2048,1,1]{3,2,1,0} parameter(0)
  %bitcast.366 = f32[1,2048]{1,0} bitcast(f32[1,2048,1,1]{3,2,1,0} %param_0.431), metadata={op_type="Mul" op_name="tower0/group3/block0/convshortcut/bn/batchnorm/mul_1"}
  %broadcast.163 = f32[1,2048,25,38]{3,2,1,0} broadcast(f32[1,2048]{1,0} %bitcast.366), dimensions={0,1}, metadata={op_type="Mul" op_name="tower0/group3/block0/convshortcut/bn/batchnorm/mul_1"}
  %multiply.65 = f32[1,2048,25,38]{3,2,1,0} multiply(f32[1,2048,25,38]{3,2,1,0} %param_2.360, f32[1,2048,25,38]{3,2,1,0} %broadcast.163), metadata={op_type="Mul" op_name="tower0/group3/block0/convshortcut/bn/batchnorm/mul_1"}
  %param_1.444 = f32[2048]{0} parameter(1)
  %bitcast.365 = f32[1,2048,1,1]{3,2,1,0} bitcast(f32[2048]{0} %param_1.444), metadata={op_type="Reshape" op_name="tower0/group3/block0/convshortcut/bn/Reshape_1"}
  %param_7.64 = f32[2048]{0} parameter(7)
  %bitcast.563 = f32[1,2048,1,1]{3,2,1,0} bitcast(f32[2048]{0} %param_7.64), metadata={op_type="Reshape" op_name="tower0/group3/block0/convshortcut/bn/Reshape_2"}
  %multiply.64 = f32[1,2048,1,1]{3,2,1,0} multiply(f32[1,2048,1,1]{3,2,1,0} %bitcast.563, f32[1,2048,1,1]{3,2,1,0} %param_0.431), metadata={op_type="Mul" op_name="tower0/group3/block0/convshortcut/bn/batchnorm/mul_2"}
  %subtract.43 = f32[1,2048,1,1]{3,2,1,0} subtract(f32[1,2048,1,1]{3,2,1,0} %bitcast.365, f32[1,2048,1,1]{3,2,1,0} %multiply.64), metadata={op_type="Sub" op_name="tower0/group3/block0/convshortcut/bn/batchnorm/sub"}
  %bitcast.364 = f32[1,2048]{1,0} bitcast(f32[1,2048,1,1]{3,2,1,0} %subtract.43), metadata={op_type="Add" op_name="tower0/group3/block0/convshortcut/bn/batchnorm/add_1"}
  %broadcast.162 = f32[1,2048,25,38]{3,2,1,0} broadcast(f32[1,2048]{1,0} %bitcast.364), dimensions={0,1}, metadata={op_type="Add" op_name="tower0/group3/block0/convshortcut/bn/batchnorm/add_1"}
  %add.103 = f32[1,2048,25,38]{3,2,1,0} add(f32[1,2048,25,38]{3,2,1,0} %multiply.65, f32[1,2048,25,38]{3,2,1,0} %broadcast.162), metadata={op_type="Add" op_name="tower0/group3/block0/convshortcut/bn/batchnorm/add_1"}
  %add.102 = f32[1,2048,25,38]{3,2,1,0} add(f32[1,2048,25,38]{3,2,1,0} %add.104, f32[1,2048,25,38]{3,2,1,0} %add.103), metadata={op_type="Add" op_name="tower0/group3/block0/add"}
  ROOT %maximum.11 = f32[1,2048,25,38]{3,2,1,0} maximum(f32[1,2048,25,38]{3,2,1,0} %broadcast.281, f32[1,2048,25,38]{3,2,1,0} %add.102), metadata={op_type="Relu" op_name="tower0/group3/block0/output"}
}

%fused_computation.74 (param_0.147: f32[1,2048,1,1], param_1.162: f32[2048]) -> f32[1,2048,1,1] {
  %param_1.162 = f32[2048]{0} parameter(1)
  %bitcast.370 = f32[1,2048,1,1]{3,2,1,0} bitcast(f32[2048]{0} %param_1.162), metadata={op_type="Reshape" op_name="tower0/group3/block0/convshortcut/bn/Reshape"}
  %param_0.147 = f32[1,2048,1,1]{3,2,1,0} parameter(0)
  ROOT %multiply.68 = f32[1,2048,1,1]{3,2,1,0} multiply(f32[1,2048,1,1]{3,2,1,0} %bitcast.370, f32[1,2048,1,1]{3,2,1,0} %param_0.147), metadata={op_type="Mul" op_name="tower0/group3/block0/convshortcut/bn/batchnorm/mul"}
}

%fused_computation.75 (param_0.433: f32[2048]) -> f32[1,2048,1,1] {
  %constant_183 = f32[] constant(1e-05), metadata={op_type="Add" op_name="tower0/conv0/bn/batchnorm/add"}
  %broadcast.283 = f32[2048]{0} broadcast(f32[] %constant_183), dimensions={}, metadata={op_type="Add" op_name="tower0/group3/block0/conv3/bn/batchnorm/add"}
  %param_0.433 = f32[2048]{0} parameter(0)
  %add.105 = f32[2048]{0} add(f32[2048]{0} %broadcast.283, f32[2048]{0} %param_0.433), metadata={op_type="Add" op_name="tower0/group3/block0/convshortcut/bn/batchnorm/add"}
  %rsqrt.59 = f32[2048]{0} rsqrt(f32[2048]{0} %add.105), metadata={op_type="Rsqrt" op_name="tower0/group3/block0/convshortcut/bn/batchnorm/Rsqrt"}
  ROOT %bitcast.371 = f32[1,2048,1,1]{3,2,1,0} bitcast(f32[2048]{0} %rsqrt.59), metadata={op_type="Rsqrt" op_name="tower0/group3/block0/convshortcut/bn/batchnorm/Rsqrt"}
}

%fused_computation.76 (param_0.152: f32[1,2048,1,1], param_1.165: f32[2048]) -> f32[1,2048,1,1] {
  %param_1.165 = f32[2048]{0} parameter(1)
  %bitcast.372 = f32[1,2048,1,1]{3,2,1,0} bitcast(f32[2048]{0} %param_1.165), metadata={op_type="Reshape" op_name="tower0/group3/block0/conv3/bn/Reshape"}
  %param_0.152 = f32[1,2048,1,1]{3,2,1,0} parameter(0)
  ROOT %multiply.69 = f32[1,2048,1,1]{3,2,1,0} multiply(f32[1,2048,1,1]{3,2,1,0} %bitcast.372, f32[1,2048,1,1]{3,2,1,0} %param_0.152), metadata={op_type="Mul" op_name="tower0/group3/block0/conv3/bn/batchnorm/mul"}
}

%fused_computation.77 (param_0.432: f32[2048]) -> f32[1,2048,1,1] {
  %constant_182 = f32[] constant(1e-05), metadata={op_type="Add" op_name="tower0/conv0/bn/batchnorm/add"}
  %broadcast.282 = f32[2048]{0} broadcast(f32[] %constant_182), dimensions={}, metadata={op_type="Add" op_name="tower0/group3/block0/conv3/bn/batchnorm/add"}
  %param_0.432 = f32[2048]{0} parameter(0)
  %add.106 = f32[2048]{0} add(f32[2048]{0} %broadcast.282, f32[2048]{0} %param_0.432), metadata={op_type="Add" op_name="tower0/group3/block0/conv3/bn/batchnorm/add"}
  %rsqrt.60 = f32[2048]{0} rsqrt(f32[2048]{0} %add.106), metadata={op_type="Rsqrt" op_name="tower0/group3/block0/conv3/bn/batchnorm/Rsqrt"}
  ROOT %bitcast.373 = f32[1,2048,1,1]{3,2,1,0} bitcast(f32[2048]{0} %rsqrt.60), metadata={op_type="Rsqrt" op_name="tower0/group3/block0/conv3/bn/batchnorm/Rsqrt"}
}

%fused_computation.78 (param_0.434: f32[1,512,1,1], param_1.448: f32[512], param_2.362: f32[1,512,25,38], param_3.325: f32[512]) -> f32[1,512,25,38] {
  %constant_184 = f32[] constant(0), metadata={op_type="Relu" op_name="tower0/conv0/Relu"}
  %broadcast.284 = f32[1,512,25,38]{3,2,1,0} broadcast(f32[] %constant_184), dimensions={}, metadata={op_type="Relu" op_name="tower0/group3/block0/conv2/Relu"}
  %param_2.362 = f32[1,512,25,38]{3,2,1,0} parameter(2)
  %param_0.434 = f32[1,512,1,1]{3,2,1,0} parameter(0)
  %bitcast.376 = f32[1,512]{1,0} bitcast(f32[1,512,1,1]{3,2,1,0} %param_0.434), metadata={op_type="Mul" op_name="tower0/group3/block0/conv2/bn/batchnorm/mul_1"}
  %broadcast.167 = f32[1,512,25,38]{3,2,1,0} broadcast(f32[1,512]{1,0} %bitcast.376), dimensions={0,1}, metadata={op_type="Mul" op_name="tower0/group3/block0/conv2/bn/batchnorm/mul_1"}
  %multiply.71 = f32[1,512,25,38]{3,2,1,0} multiply(f32[1,512,25,38]{3,2,1,0} %param_2.362, f32[1,512,25,38]{3,2,1,0} %broadcast.167), metadata={op_type="Mul" op_name="tower0/group3/block0/conv2/bn/batchnorm/mul_1"}
  %param_1.448 = f32[512]{0} parameter(1)
  %bitcast.375 = f32[1,512,1,1]{3,2,1,0} bitcast(f32[512]{0} %param_1.448), metadata={op_type="Reshape" op_name="tower0/group3/block0/conv2/bn/Reshape_1"}
  %param_3.325 = f32[512]{0} parameter(3)
  %bitcast.564 = f32[1,512,1,1]{3,2,1,0} bitcast(f32[512]{0} %param_3.325), metadata={op_type="Reshape" op_name="tower0/group3/block0/conv2/bn/Reshape_2"}
  %multiply.70 = f32[1,512,1,1]{3,2,1,0} multiply(f32[1,512,1,1]{3,2,1,0} %bitcast.564, f32[1,512,1,1]{3,2,1,0} %param_0.434), metadata={op_type="Mul" op_name="tower0/group3/block0/conv2/bn/batchnorm/mul_2"}
  %subtract.45 = f32[1,512,1,1]{3,2,1,0} subtract(f32[1,512,1,1]{3,2,1,0} %bitcast.375, f32[1,512,1,1]{3,2,1,0} %multiply.70), metadata={op_type="Sub" op_name="tower0/group3/block0/conv2/bn/batchnorm/sub"}
  %bitcast.374 = f32[1,512]{1,0} bitcast(f32[1,512,1,1]{3,2,1,0} %subtract.45), metadata={op_type="Add" op_name="tower0/group3/block0/conv2/bn/batchnorm/add_1"}
  %broadcast.166 = f32[1,512,25,38]{3,2,1,0} broadcast(f32[1,512]{1,0} %bitcast.374), dimensions={0,1}, metadata={op_type="Add" op_name="tower0/group3/block0/conv2/bn/batchnorm/add_1"}
  %add.107 = f32[1,512,25,38]{3,2,1,0} add(f32[1,512,25,38]{3,2,1,0} %multiply.71, f32[1,512,25,38]{3,2,1,0} %broadcast.166), metadata={op_type="Add" op_name="tower0/group3/block0/conv2/bn/batchnorm/add_1"}
  ROOT %maximum.12 = f32[1,512,25,38]{3,2,1,0} maximum(f32[1,512,25,38]{3,2,1,0} %broadcast.284, f32[1,512,25,38]{3,2,1,0} %add.107), metadata={op_type="Relu" op_name="tower0/group3/block0/conv2/Relu"}
}

%fused_computation.79 (param_0.158: f32[1,512,1,1], param_1.171: f32[512]) -> f32[1,512,1,1] {
  %param_1.171 = f32[512]{0} parameter(1)
  %bitcast.377 = f32[1,512,1,1]{3,2,1,0} bitcast(f32[512]{0} %param_1.171), metadata={op_type="Reshape" op_name="tower0/group3/block0/conv2/bn/Reshape"}
  %param_0.158 = f32[1,512,1,1]{3,2,1,0} parameter(0)
  ROOT %multiply.72 = f32[1,512,1,1]{3,2,1,0} multiply(f32[1,512,1,1]{3,2,1,0} %bitcast.377, f32[1,512,1,1]{3,2,1,0} %param_0.158), metadata={op_type="Mul" op_name="tower0/group3/block0/conv2/bn/batchnorm/mul"}
}

%fused_computation.80 (param_0.436: f32[512]) -> f32[1,512,1,1] {
  %constant_186 = f32[] constant(1e-05), metadata={op_type="Add" op_name="tower0/conv0/bn/batchnorm/add"}
  %broadcast.286 = f32[512]{0} broadcast(f32[] %constant_186), dimensions={}, metadata={op_type="Add" op_name="tower0/group1/block0/conv3/bn/batchnorm/add"}
  %param_0.436 = f32[512]{0} parameter(0)
  %add.108 = f32[512]{0} add(f32[512]{0} %broadcast.286, f32[512]{0} %param_0.436), metadata={op_type="Add" op_name="tower0/group3/block0/conv2/bn/batchnorm/add"}
  %rsqrt.61 = f32[512]{0} rsqrt(f32[512]{0} %add.108), metadata={op_type="Rsqrt" op_name="tower0/group3/block0/conv2/bn/batchnorm/Rsqrt"}
  ROOT %bitcast.378 = f32[1,512,1,1]{3,2,1,0} bitcast(f32[512]{0} %rsqrt.61), metadata={op_type="Rsqrt" op_name="tower0/group3/block0/conv2/bn/batchnorm/Rsqrt"}
}

%fused_computation.81 (param_0.435: f32[1,512,1,1], param_1.449: f32[512], param_2.363: f32[1,512,50,76], param_3.326: f32[512]) -> f32[1,512,50,76] {
  %constant_159 = f32[] constant(0), metadata={op_type="Relu" op_name="tower0/conv0/Relu"}
  %broadcast.170 = f32[1,512,50,76]{3,2,1,0} broadcast(f32[] %constant_159), dimensions={}, metadata={op_type="Relu" op_name="tower0/group3/block0/conv1/Relu"}
  %param_2.363 = f32[1,512,50,76]{3,2,1,0} parameter(2)
  %param_0.435 = f32[1,512,1,1]{3,2,1,0} parameter(0)
  %bitcast.381 = f32[1,512]{1,0} bitcast(f32[1,512,1,1]{3,2,1,0} %param_0.435), metadata={op_type="Mul" op_name="tower0/group3/block0/conv1/bn/batchnorm/mul_1"}
  %broadcast.169 = f32[1,512,50,76]{3,2,1,0} broadcast(f32[1,512]{1,0} %bitcast.381), dimensions={0,1}, metadata={op_type="Mul" op_name="tower0/group3/block0/conv1/bn/batchnorm/mul_1"}
  %multiply.74 = f32[1,512,50,76]{3,2,1,0} multiply(f32[1,512,50,76]{3,2,1,0} %param_2.363, f32[1,512,50,76]{3,2,1,0} %broadcast.169), metadata={op_type="Mul" op_name="tower0/group3/block0/conv1/bn/batchnorm/mul_1"}
  %param_1.449 = f32[512]{0} parameter(1)
  %bitcast.380 = f32[1,512,1,1]{3,2,1,0} bitcast(f32[512]{0} %param_1.449), metadata={op_type="Reshape" op_name="tower0/group3/block0/conv1/bn/Reshape_1"}
  %param_3.326 = f32[512]{0} parameter(3)
  %bitcast.565 = f32[1,512,1,1]{3,2,1,0} bitcast(f32[512]{0} %param_3.326), metadata={op_type="Reshape" op_name="tower0/group3/block0/conv1/bn/Reshape_2"}
  %multiply.73 = f32[1,512,1,1]{3,2,1,0} multiply(f32[1,512,1,1]{3,2,1,0} %bitcast.565, f32[1,512,1,1]{3,2,1,0} %param_0.435), metadata={op_type="Mul" op_name="tower0/group3/block0/conv1/bn/batchnorm/mul_2"}
  %subtract.46 = f32[1,512,1,1]{3,2,1,0} subtract(f32[1,512,1,1]{3,2,1,0} %bitcast.380, f32[1,512,1,1]{3,2,1,0} %multiply.73), metadata={op_type="Sub" op_name="tower0/group3/block0/conv1/bn/batchnorm/sub"}
  %bitcast.379 = f32[1,512]{1,0} bitcast(f32[1,512,1,1]{3,2,1,0} %subtract.46), metadata={op_type="Add" op_name="tower0/group3/block0/conv1/bn/batchnorm/add_1"}
  %broadcast.168 = f32[1,512,50,76]{3,2,1,0} broadcast(f32[1,512]{1,0} %bitcast.379), dimensions={0,1}, metadata={op_type="Add" op_name="tower0/group3/block0/conv1/bn/batchnorm/add_1"}
  %add.109 = f32[1,512,50,76]{3,2,1,0} add(f32[1,512,50,76]{3,2,1,0} %multiply.74, f32[1,512,50,76]{3,2,1,0} %broadcast.168), metadata={op_type="Add" op_name="tower0/group3/block0/conv1/bn/batchnorm/add_1"}
  ROOT %maximum.13 = f32[1,512,50,76]{3,2,1,0} maximum(f32[1,512,50,76]{3,2,1,0} %broadcast.170, f32[1,512,50,76]{3,2,1,0} %add.109), metadata={op_type="Relu" op_name="tower0/group3/block0/conv1/Relu"}
}

%fused_computation.82 (param_0.165: f32[1,512,1,1], param_1.178: f32[512]) -> f32[1,512,1,1] {
  %param_1.178 = f32[512]{0} parameter(1)
  %bitcast.382 = f32[1,512,1,1]{3,2,1,0} bitcast(f32[512]{0} %param_1.178), metadata={op_type="Reshape" op_name="tower0/group3/block0/conv1/bn/Reshape"}
  %param_0.165 = f32[1,512,1,1]{3,2,1,0} parameter(0)
  ROOT %multiply.75 = f32[1,512,1,1]{3,2,1,0} multiply(f32[1,512,1,1]{3,2,1,0} %bitcast.382, f32[1,512,1,1]{3,2,1,0} %param_0.165), metadata={op_type="Mul" op_name="tower0/group3/block0/conv1/bn/batchnorm/mul"}
}

%fused_computation.83 (param_0.168: f32[512]) -> f32[1,512,1,1] {
  %param_0.168 = f32[512]{0} parameter(0)
  %constant_185 = f32[] constant(1e-05), metadata={op_type="Add" op_name="tower0/conv0/bn/batchnorm/add"}
  %broadcast.285 = f32[512]{0} broadcast(f32[] %constant_185), dimensions={}, metadata={op_type="Add" op_name="tower0/group1/block0/conv3/bn/batchnorm/add"}
  %add.110 = f32[512]{0} add(f32[512]{0} %param_0.168, f32[512]{0} %broadcast.285), metadata={op_type="Add" op_name="tower0/group3/block0/conv1/bn/batchnorm/add"}
  %rsqrt.62 = f32[512]{0} rsqrt(f32[512]{0} %add.110), metadata={op_type="Rsqrt" op_name="tower0/group3/block0/conv1/bn/batchnorm/Rsqrt"}
  ROOT %bitcast.383 = f32[1,512,1,1]{3,2,1,0} bitcast(f32[512]{0} %rsqrt.62), metadata={op_type="Rsqrt" op_name="tower0/group3/block0/conv1/bn/batchnorm/Rsqrt"}
}

%fused_computation.84 (param_0.437: f32[1,1024,1,1], param_1.453: f32[1024], param_2.365: f32[1,1024,50,76], param_3.328: f32[1,1024,50,76], param_4.265: f32[1024]) -> f32[1,1024,50,76] {
  %constant_187 = f32[] constant(0), metadata={op_type="Relu" op_name="tower0/conv0/Relu"}
  %broadcast.287 = f32[1,1024,50,76]{3,2,1,0} broadcast(f32[] %constant_187), dimensions={}, metadata={op_type="Relu" op_name="tower0/group2/block0/output"}
  %param_2.365 = f32[1,1024,50,76]{3,2,1,0} parameter(2)
  %param_3.328 = f32[1,1024,50,76]{3,2,1,0} parameter(3)
  %param_0.437 = f32[1,1024,1,1]{3,2,1,0} parameter(0)
  %bitcast.386 = f32[1,1024]{1,0} bitcast(f32[1,1024,1,1]{3,2,1,0} %param_0.437), metadata={op_type="Mul" op_name="tower0/group2/block5/conv3/bn/batchnorm/mul_1"}
  %broadcast.172 = f32[1,1024,50,76]{3,2,1,0} broadcast(f32[1,1024]{1,0} %bitcast.386), dimensions={0,1}, metadata={op_type="Mul" op_name="tower0/group2/block5/conv3/bn/batchnorm/mul_1"}
  %multiply.77 = f32[1,1024,50,76]{3,2,1,0} multiply(f32[1,1024,50,76]{3,2,1,0} %param_3.328, f32[1,1024,50,76]{3,2,1,0} %broadcast.172), metadata={op_type="Mul" op_name="tower0/group2/block5/conv3/bn/batchnorm/mul_1"}
  %add.112 = f32[1,1024,50,76]{3,2,1,0} add(f32[1,1024,50,76]{3,2,1,0} %param_2.365, f32[1,1024,50,76]{3,2,1,0} %multiply.77), metadata={op_type="AddN" op_name="tower0/group2/block5/ArithmeticOptimizer/AddOpsRewrite_Leaf_1_add"}
  %param_1.453 = f32[1024]{0} parameter(1)
  %bitcast.385 = f32[1,1024,1,1]{3,2,1,0} bitcast(f32[1024]{0} %param_1.453), metadata={op_type="Reshape" op_name="tower0/group2/block5/conv3/bn/Reshape_1"}
  %param_4.265 = f32[1024]{0} parameter(4)
  %bitcast.566 = f32[1,1024,1,1]{3,2,1,0} bitcast(f32[1024]{0} %param_4.265), metadata={op_type="Reshape" op_name="tower0/group2/block5/conv3/bn/Reshape_2"}
  %multiply.76 = f32[1,1024,1,1]{3,2,1,0} multiply(f32[1,1024,1,1]{3,2,1,0} %bitcast.566, f32[1,1024,1,1]{3,2,1,0} %param_0.437), metadata={op_type="Mul" op_name="tower0/group2/block5/conv3/bn/batchnorm/mul_2"}
  %subtract.47 = f32[1,1024,1,1]{3,2,1,0} subtract(f32[1,1024,1,1]{3,2,1,0} %bitcast.385, f32[1,1024,1,1]{3,2,1,0} %multiply.76), metadata={op_type="Sub" op_name="tower0/group2/block5/conv3/bn/batchnorm/sub"}
  %bitcast.384 = f32[1,1024]{1,0} bitcast(f32[1,1024,1,1]{3,2,1,0} %subtract.47), metadata={op_type="Add" op_name="tower0/group2/block5/ArithmeticOptimizer/AddOpsRewrite_add"}
  %broadcast.171 = f32[1,1024,50,76]{3,2,1,0} broadcast(f32[1,1024]{1,0} %bitcast.384), dimensions={0,1}, metadata={op_type="Add" op_name="tower0/group2/block5/ArithmeticOptimizer/AddOpsRewrite_add"}
  %add.111 = f32[1,1024,50,76]{3,2,1,0} add(f32[1,1024,50,76]{3,2,1,0} %add.112, f32[1,1024,50,76]{3,2,1,0} %broadcast.171), metadata={op_type="Add" op_name="tower0/group2/block5/ArithmeticOptimizer/AddOpsRewrite_add"}
  ROOT %maximum.14 = f32[1,1024,50,76]{3,2,1,0} maximum(f32[1,1024,50,76]{3,2,1,0} %broadcast.287, f32[1,1024,50,76]{3,2,1,0} %add.111), metadata={op_type="Relu" op_name="tower0/group2/block5/output"}
}

%fused_computation.85 (param_0.171: f32[1,1024,1,1], param_1.184: f32[1024]) -> f32[1,1024,1,1] {
  %param_1.184 = f32[1024]{0} parameter(1)
  %bitcast.387 = f32[1,1024,1,1]{3,2,1,0} bitcast(f32[1024]{0} %param_1.184), metadata={op_type="Reshape" op_name="tower0/group2/block5/conv3/bn/Reshape"}
  %param_0.171 = f32[1,1024,1,1]{3,2,1,0} parameter(0)
  ROOT %multiply.78 = f32[1,1024,1,1]{3,2,1,0} multiply(f32[1,1024,1,1]{3,2,1,0} %bitcast.387, f32[1,1024,1,1]{3,2,1,0} %param_0.171), metadata={op_type="Mul" op_name="tower0/group2/block5/conv3/bn/batchnorm/mul"}
}

%fused_computation.86 (param_0.174: f32[1024]) -> f32[1,1024,1,1] {
  %param_0.174 = f32[1024]{0} parameter(0)
  %constant_188 = f32[] constant(1e-05), metadata={op_type="Add" op_name="tower0/conv0/bn/batchnorm/add"}
  %broadcast.288 = f32[1024]{0} broadcast(f32[] %constant_188), dimensions={}, metadata={op_type="Add" op_name="tower0/group2/block0/conv3/bn/batchnorm/add"}
  %add.113 = f32[1024]{0} add(f32[1024]{0} %param_0.174, f32[1024]{0} %broadcast.288), metadata={op_type="Add" op_name="tower0/group2/block5/conv3/bn/batchnorm/add"}
  %rsqrt.63 = f32[1024]{0} rsqrt(f32[1024]{0} %add.113), metadata={op_type="Rsqrt" op_name="tower0/group2/block5/conv3/bn/batchnorm/Rsqrt"}
  ROOT %bitcast.388 = f32[1,1024,1,1]{3,2,1,0} bitcast(f32[1024]{0} %rsqrt.63), metadata={op_type="Rsqrt" op_name="tower0/group2/block5/conv3/bn/batchnorm/Rsqrt"}
}

%fused_computation.87 (param_0.438: f32[1,256,1,1], param_1.456: f32[256], param_2.367: f32[1,256,50,76], param_3.330: f32[256]) -> f32[1,256,50,76] {
  %constant_189 = f32[] constant(0), metadata={op_type="Relu" op_name="tower0/conv0/Relu"}
  %broadcast.289 = f32[1,256,50,76]{3,2,1,0} broadcast(f32[] %constant_189), dimensions={}, metadata={op_type="Relu" op_name="tower0/group2/block0/conv2/Relu"}
  %param_2.367 = f32[1,256,50,76]{3,2,1,0} parameter(2)
  %param_0.438 = f32[1,256,1,1]{3,2,1,0} parameter(0)
  %bitcast.391 = f32[1,256]{1,0} bitcast(f32[1,256,1,1]{3,2,1,0} %param_0.438), metadata={op_type="Mul" op_name="tower0/group2/block5/conv2/bn/batchnorm/mul_1"}
  %broadcast.174 = f32[1,256,50,76]{3,2,1,0} broadcast(f32[1,256]{1,0} %bitcast.391), dimensions={0,1}, metadata={op_type="Mul" op_name="tower0/group2/block5/conv2/bn/batchnorm/mul_1"}
  %multiply.80 = f32[1,256,50,76]{3,2,1,0} multiply(f32[1,256,50,76]{3,2,1,0} %param_2.367, f32[1,256,50,76]{3,2,1,0} %broadcast.174), metadata={op_type="Mul" op_name="tower0/group2/block5/conv2/bn/batchnorm/mul_1"}
  %param_1.456 = f32[256]{0} parameter(1)
  %bitcast.390 = f32[1,256,1,1]{3,2,1,0} bitcast(f32[256]{0} %param_1.456), metadata={op_type="Reshape" op_name="tower0/group2/block5/conv2/bn/Reshape_1"}
  %param_3.330 = f32[256]{0} parameter(3)
  %bitcast.567 = f32[1,256,1,1]{3,2,1,0} bitcast(f32[256]{0} %param_3.330), metadata={op_type="Reshape" op_name="tower0/group2/block5/conv2/bn/Reshape_2"}
  %multiply.79 = f32[1,256,1,1]{3,2,1,0} multiply(f32[1,256,1,1]{3,2,1,0} %bitcast.567, f32[1,256,1,1]{3,2,1,0} %param_0.438), metadata={op_type="Mul" op_name="tower0/group2/block5/conv2/bn/batchnorm/mul_2"}
  %subtract.48 = f32[1,256,1,1]{3,2,1,0} subtract(f32[1,256,1,1]{3,2,1,0} %bitcast.390, f32[1,256,1,1]{3,2,1,0} %multiply.79), metadata={op_type="Sub" op_name="tower0/group2/block5/conv2/bn/batchnorm/sub"}
  %bitcast.389 = f32[1,256]{1,0} bitcast(f32[1,256,1,1]{3,2,1,0} %subtract.48), metadata={op_type="Add" op_name="tower0/group2/block5/conv2/bn/batchnorm/add_1"}
  %broadcast.173 = f32[1,256,50,76]{3,2,1,0} broadcast(f32[1,256]{1,0} %bitcast.389), dimensions={0,1}, metadata={op_type="Add" op_name="tower0/group2/block5/conv2/bn/batchnorm/add_1"}
  %add.114 = f32[1,256,50,76]{3,2,1,0} add(f32[1,256,50,76]{3,2,1,0} %multiply.80, f32[1,256,50,76]{3,2,1,0} %broadcast.173), metadata={op_type="Add" op_name="tower0/group2/block5/conv2/bn/batchnorm/add_1"}
  ROOT %maximum.15 = f32[1,256,50,76]{3,2,1,0} maximum(f32[1,256,50,76]{3,2,1,0} %broadcast.289, f32[1,256,50,76]{3,2,1,0} %add.114), metadata={op_type="Relu" op_name="tower0/group2/block5/conv2/Relu"}
}

%fused_computation.88 (param_0.177: f32[1,256,1,1], param_1.190: f32[256]) -> f32[1,256,1,1] {
  %param_1.190 = f32[256]{0} parameter(1)
  %bitcast.392 = f32[1,256,1,1]{3,2,1,0} bitcast(f32[256]{0} %param_1.190), metadata={op_type="Reshape" op_name="tower0/group2/block5/conv2/bn/Reshape"}
  %param_0.177 = f32[1,256,1,1]{3,2,1,0} parameter(0)
  ROOT %multiply.81 = f32[1,256,1,1]{3,2,1,0} multiply(f32[1,256,1,1]{3,2,1,0} %bitcast.392, f32[1,256,1,1]{3,2,1,0} %param_0.177), metadata={op_type="Mul" op_name="tower0/group2/block5/conv2/bn/batchnorm/mul"}
}

%fused_computation.89 (param_0.180: f32[256]) -> f32[1,256,1,1] {
  %param_0.180 = f32[256]{0} parameter(0)
  %constant_190 = f32[] constant(1e-05), metadata={op_type="Add" op_name="tower0/conv0/bn/batchnorm/add"}
  %broadcast.290 = f32[256]{0} broadcast(f32[] %constant_190), dimensions={}, metadata={op_type="Add" op_name="tower0/group0/block0/conv3/bn/batchnorm/add"}
  %add.115 = f32[256]{0} add(f32[256]{0} %param_0.180, f32[256]{0} %broadcast.290), metadata={op_type="Add" op_name="tower0/group2/block5/conv2/bn/batchnorm/add"}
  %rsqrt.64 = f32[256]{0} rsqrt(f32[256]{0} %add.115), metadata={op_type="Rsqrt" op_name="tower0/group2/block5/conv2/bn/batchnorm/Rsqrt"}
  ROOT %bitcast.393 = f32[1,256,1,1]{3,2,1,0} bitcast(f32[256]{0} %rsqrt.64), metadata={op_type="Rsqrt" op_name="tower0/group2/block5/conv2/bn/batchnorm/Rsqrt"}
}

%fused_computation.90 (param_0.439: f32[1,256,1,1], param_1.459: f32[256], param_2.369: f32[1,256,50,76], param_3.332: f32[256]) -> f32[1,256,50,76] {
  %constant_191 = f32[] constant(0), metadata={op_type="Relu" op_name="tower0/conv0/Relu"}
  %broadcast.291 = f32[1,256,50,76]{3,2,1,0} broadcast(f32[] %constant_191), dimensions={}, metadata={op_type="Relu" op_name="tower0/group2/block0/conv2/Relu"}
  %param_2.369 = f32[1,256,50,76]{3,2,1,0} parameter(2)
  %param_0.439 = f32[1,256,1,1]{3,2,1,0} parameter(0)
  %bitcast.396 = f32[1,256]{1,0} bitcast(f32[1,256,1,1]{3,2,1,0} %param_0.439), metadata={op_type="Mul" op_name="tower0/group2/block5/conv1/bn/batchnorm/mul_1"}
  %broadcast.176 = f32[1,256,50,76]{3,2,1,0} broadcast(f32[1,256]{1,0} %bitcast.396), dimensions={0,1}, metadata={op_type="Mul" op_name="tower0/group2/block5/conv1/bn/batchnorm/mul_1"}
  %multiply.83 = f32[1,256,50,76]{3,2,1,0} multiply(f32[1,256,50,76]{3,2,1,0} %param_2.369, f32[1,256,50,76]{3,2,1,0} %broadcast.176), metadata={op_type="Mul" op_name="tower0/group2/block5/conv1/bn/batchnorm/mul_1"}
  %param_1.459 = f32[256]{0} parameter(1)
  %bitcast.395 = f32[1,256,1,1]{3,2,1,0} bitcast(f32[256]{0} %param_1.459), metadata={op_type="Reshape" op_name="tower0/group2/block5/conv1/bn/Reshape_1"}
  %param_3.332 = f32[256]{0} parameter(3)
  %bitcast.568 = f32[1,256,1,1]{3,2,1,0} bitcast(f32[256]{0} %param_3.332), metadata={op_type="Reshape" op_name="tower0/group2/block5/conv1/bn/Reshape_2"}
  %multiply.82 = f32[1,256,1,1]{3,2,1,0} multiply(f32[1,256,1,1]{3,2,1,0} %bitcast.568, f32[1,256,1,1]{3,2,1,0} %param_0.439), metadata={op_type="Mul" op_name="tower0/group2/block5/conv1/bn/batchnorm/mul_2"}
  %subtract.49 = f32[1,256,1,1]{3,2,1,0} subtract(f32[1,256,1,1]{3,2,1,0} %bitcast.395, f32[1,256,1,1]{3,2,1,0} %multiply.82), metadata={op_type="Sub" op_name="tower0/group2/block5/conv1/bn/batchnorm/sub"}
  %bitcast.394 = f32[1,256]{1,0} bitcast(f32[1,256,1,1]{3,2,1,0} %subtract.49), metadata={op_type="Add" op_name="tower0/group2/block5/conv1/bn/batchnorm/add_1"}
  %broadcast.175 = f32[1,256,50,76]{3,2,1,0} broadcast(f32[1,256]{1,0} %bitcast.394), dimensions={0,1}, metadata={op_type="Add" op_name="tower0/group2/block5/conv1/bn/batchnorm/add_1"}
  %add.116 = f32[1,256,50,76]{3,2,1,0} add(f32[1,256,50,76]{3,2,1,0} %multiply.83, f32[1,256,50,76]{3,2,1,0} %broadcast.175), metadata={op_type="Add" op_name="tower0/group2/block5/conv1/bn/batchnorm/add_1"}
  ROOT %maximum.16 = f32[1,256,50,76]{3,2,1,0} maximum(f32[1,256,50,76]{3,2,1,0} %broadcast.291, f32[1,256,50,76]{3,2,1,0} %add.116), metadata={op_type="Relu" op_name="tower0/group2/block5/conv1/Relu"}
}

%fused_computation.91 (param_0.183: f32[1,256,1,1], param_1.196: f32[256]) -> f32[1,256,1,1] {
  %param_1.196 = f32[256]{0} parameter(1)
  %bitcast.397 = f32[1,256,1,1]{3,2,1,0} bitcast(f32[256]{0} %param_1.196), metadata={op_type="Reshape" op_name="tower0/group2/block5/conv1/bn/Reshape"}
  %param_0.183 = f32[1,256,1,1]{3,2,1,0} parameter(0)
  ROOT %multiply.84 = f32[1,256,1,1]{3,2,1,0} multiply(f32[1,256,1,1]{3,2,1,0} %bitcast.397, f32[1,256,1,1]{3,2,1,0} %param_0.183), metadata={op_type="Mul" op_name="tower0/group2/block5/conv1/bn/batchnorm/mul"}
}

%fused_computation.92 (param_0.186: f32[256]) -> f32[1,256,1,1] {
  %param_0.186 = f32[256]{0} parameter(0)
  %constant_192 = f32[] constant(1e-05), metadata={op_type="Add" op_name="tower0/conv0/bn/batchnorm/add"}
  %broadcast.292 = f32[256]{0} broadcast(f32[] %constant_192), dimensions={}, metadata={op_type="Add" op_name="tower0/group0/block0/conv3/bn/batchnorm/add"}
  %add.117 = f32[256]{0} add(f32[256]{0} %param_0.186, f32[256]{0} %broadcast.292), metadata={op_type="Add" op_name="tower0/group2/block5/conv1/bn/batchnorm/add"}
  %rsqrt.65 = f32[256]{0} rsqrt(f32[256]{0} %add.117), metadata={op_type="Rsqrt" op_name="tower0/group2/block5/conv1/bn/batchnorm/Rsqrt"}
  ROOT %bitcast.398 = f32[1,256,1,1]{3,2,1,0} bitcast(f32[256]{0} %rsqrt.65), metadata={op_type="Rsqrt" op_name="tower0/group2/block5/conv1/bn/batchnorm/Rsqrt"}
}

%fused_computation.93 (param_0.440: f32[1,1024,1,1], param_1.462: f32[1024], param_2.371: f32[1,1024,50,76], param_3.334: f32[1,1024,50,76], param_4.271: f32[1024]) -> f32[1,1024,50,76] {
  %constant_193 = f32[] constant(0), metadata={op_type="Relu" op_name="tower0/conv0/Relu"}
  %broadcast.293 = f32[1,1024,50,76]{3,2,1,0} broadcast(f32[] %constant_193), dimensions={}, metadata={op_type="Relu" op_name="tower0/group2/block0/output"}
  %param_2.371 = f32[1,1024,50,76]{3,2,1,0} parameter(2)
  %param_3.334 = f32[1,1024,50,76]{3,2,1,0} parameter(3)
  %param_0.440 = f32[1,1024,1,1]{3,2,1,0} parameter(0)
  %bitcast.401 = f32[1,1024]{1,0} bitcast(f32[1,1024,1,1]{3,2,1,0} %param_0.440), metadata={op_type="Mul" op_name="tower0/group2/block4/conv3/bn/batchnorm/mul_1"}
  %broadcast.178 = f32[1,1024,50,76]{3,2,1,0} broadcast(f32[1,1024]{1,0} %bitcast.401), dimensions={0,1}, metadata={op_type="Mul" op_name="tower0/group2/block4/conv3/bn/batchnorm/mul_1"}
  %multiply.86 = f32[1,1024,50,76]{3,2,1,0} multiply(f32[1,1024,50,76]{3,2,1,0} %param_3.334, f32[1,1024,50,76]{3,2,1,0} %broadcast.178), metadata={op_type="Mul" op_name="tower0/group2/block4/conv3/bn/batchnorm/mul_1"}
  %add.119 = f32[1,1024,50,76]{3,2,1,0} add(f32[1,1024,50,76]{3,2,1,0} %param_2.371, f32[1,1024,50,76]{3,2,1,0} %multiply.86), metadata={op_type="AddN" op_name="tower0/group2/block4/ArithmeticOptimizer/AddOpsRewrite_Leaf_1_add"}
  %param_1.462 = f32[1024]{0} parameter(1)
  %bitcast.400 = f32[1,1024,1,1]{3,2,1,0} bitcast(f32[1024]{0} %param_1.462), metadata={op_type="Reshape" op_name="tower0/group2/block4/conv3/bn/Reshape_1"}
  %param_4.271 = f32[1024]{0} parameter(4)
  %bitcast.569 = f32[1,1024,1,1]{3,2,1,0} bitcast(f32[1024]{0} %param_4.271), metadata={op_type="Reshape" op_name="tower0/group2/block4/conv3/bn/Reshape_2"}
  %multiply.85 = f32[1,1024,1,1]{3,2,1,0} multiply(f32[1,1024,1,1]{3,2,1,0} %bitcast.569, f32[1,1024,1,1]{3,2,1,0} %param_0.440), metadata={op_type="Mul" op_name="tower0/group2/block4/conv3/bn/batchnorm/mul_2"}
  %subtract.50 = f32[1,1024,1,1]{3,2,1,0} subtract(f32[1,1024,1,1]{3,2,1,0} %bitcast.400, f32[1,1024,1,1]{3,2,1,0} %multiply.85), metadata={op_type="Sub" op_name="tower0/group2/block4/conv3/bn/batchnorm/sub"}
  %bitcast.399 = f32[1,1024]{1,0} bitcast(f32[1,1024,1,1]{3,2,1,0} %subtract.50), metadata={op_type="Add" op_name="tower0/group2/block4/ArithmeticOptimizer/AddOpsRewrite_add"}
  %broadcast.177 = f32[1,1024,50,76]{3,2,1,0} broadcast(f32[1,1024]{1,0} %bitcast.399), dimensions={0,1}, metadata={op_type="Add" op_name="tower0/group2/block4/ArithmeticOptimizer/AddOpsRewrite_add"}
  %add.118 = f32[1,1024,50,76]{3,2,1,0} add(f32[1,1024,50,76]{3,2,1,0} %add.119, f32[1,1024,50,76]{3,2,1,0} %broadcast.177), metadata={op_type="Add" op_name="tower0/group2/block4/ArithmeticOptimizer/AddOpsRewrite_add"}
  ROOT %maximum.17 = f32[1,1024,50,76]{3,2,1,0} maximum(f32[1,1024,50,76]{3,2,1,0} %broadcast.293, f32[1,1024,50,76]{3,2,1,0} %add.118), metadata={op_type="Relu" op_name="tower0/group2/block4/output"}
}

%fused_computation.94 (param_0.189: f32[1,1024,1,1], param_1.202: f32[1024]) -> f32[1,1024,1,1] {
  %param_1.202 = f32[1024]{0} parameter(1)
  %bitcast.402 = f32[1,1024,1,1]{3,2,1,0} bitcast(f32[1024]{0} %param_1.202), metadata={op_type="Reshape" op_name="tower0/group2/block4/conv3/bn/Reshape"}
  %param_0.189 = f32[1,1024,1,1]{3,2,1,0} parameter(0)
  ROOT %multiply.87 = f32[1,1024,1,1]{3,2,1,0} multiply(f32[1,1024,1,1]{3,2,1,0} %bitcast.402, f32[1,1024,1,1]{3,2,1,0} %param_0.189), metadata={op_type="Mul" op_name="tower0/group2/block4/conv3/bn/batchnorm/mul"}
}

%fused_computation.95 (param_0.192: f32[1024]) -> f32[1,1024,1,1] {
  %param_0.192 = f32[1024]{0} parameter(0)
  %constant_194 = f32[] constant(1e-05), metadata={op_type="Add" op_name="tower0/conv0/bn/batchnorm/add"}
  %broadcast.294 = f32[1024]{0} broadcast(f32[] %constant_194), dimensions={}, metadata={op_type="Add" op_name="tower0/group2/block0/conv3/bn/batchnorm/add"}
  %add.120 = f32[1024]{0} add(f32[1024]{0} %param_0.192, f32[1024]{0} %broadcast.294), metadata={op_type="Add" op_name="tower0/group2/block4/conv3/bn/batchnorm/add"}
  %rsqrt.66 = f32[1024]{0} rsqrt(f32[1024]{0} %add.120), metadata={op_type="Rsqrt" op_name="tower0/group2/block4/conv3/bn/batchnorm/Rsqrt"}
  ROOT %bitcast.403 = f32[1,1024,1,1]{3,2,1,0} bitcast(f32[1024]{0} %rsqrt.66), metadata={op_type="Rsqrt" op_name="tower0/group2/block4/conv3/bn/batchnorm/Rsqrt"}
}

%fused_computation.96 (param_0.441: f32[1,256,1,1], param_1.465: f32[256], param_2.373: f32[1,256,50,76], param_3.336: f32[256]) -> f32[1,256,50,76] {
  %constant_195 = f32[] constant(0), metadata={op_type="Relu" op_name="tower0/conv0/Relu"}
  %broadcast.295 = f32[1,256,50,76]{3,2,1,0} broadcast(f32[] %constant_195), dimensions={}, metadata={op_type="Relu" op_name="tower0/group2/block0/conv2/Relu"}
  %param_2.373 = f32[1,256,50,76]{3,2,1,0} parameter(2)
  %param_0.441 = f32[1,256,1,1]{3,2,1,0} parameter(0)
  %bitcast.406 = f32[1,256]{1,0} bitcast(f32[1,256,1,1]{3,2,1,0} %param_0.441), metadata={op_type="Mul" op_name="tower0/group2/block4/conv2/bn/batchnorm/mul_1"}
  %broadcast.180 = f32[1,256,50,76]{3,2,1,0} broadcast(f32[1,256]{1,0} %bitcast.406), dimensions={0,1}, metadata={op_type="Mul" op_name="tower0/group2/block4/conv2/bn/batchnorm/mul_1"}
  %multiply.89 = f32[1,256,50,76]{3,2,1,0} multiply(f32[1,256,50,76]{3,2,1,0} %param_2.373, f32[1,256,50,76]{3,2,1,0} %broadcast.180), metadata={op_type="Mul" op_name="tower0/group2/block4/conv2/bn/batchnorm/mul_1"}
  %param_1.465 = f32[256]{0} parameter(1)
  %bitcast.405 = f32[1,256,1,1]{3,2,1,0} bitcast(f32[256]{0} %param_1.465), metadata={op_type="Reshape" op_name="tower0/group2/block4/conv2/bn/Reshape_1"}
  %param_3.336 = f32[256]{0} parameter(3)
  %bitcast.570 = f32[1,256,1,1]{3,2,1,0} bitcast(f32[256]{0} %param_3.336), metadata={op_type="Reshape" op_name="tower0/group2/block4/conv2/bn/Reshape_2"}
  %multiply.88 = f32[1,256,1,1]{3,2,1,0} multiply(f32[1,256,1,1]{3,2,1,0} %bitcast.570, f32[1,256,1,1]{3,2,1,0} %param_0.441), metadata={op_type="Mul" op_name="tower0/group2/block4/conv2/bn/batchnorm/mul_2"}
  %subtract.51 = f32[1,256,1,1]{3,2,1,0} subtract(f32[1,256,1,1]{3,2,1,0} %bitcast.405, f32[1,256,1,1]{3,2,1,0} %multiply.88), metadata={op_type="Sub" op_name="tower0/group2/block4/conv2/bn/batchnorm/sub"}
  %bitcast.404 = f32[1,256]{1,0} bitcast(f32[1,256,1,1]{3,2,1,0} %subtract.51), metadata={op_type="Add" op_name="tower0/group2/block4/conv2/bn/batchnorm/add_1"}
  %broadcast.179 = f32[1,256,50,76]{3,2,1,0} broadcast(f32[1,256]{1,0} %bitcast.404), dimensions={0,1}, metadata={op_type="Add" op_name="tower0/group2/block4/conv2/bn/batchnorm/add_1"}
  %add.121 = f32[1,256,50,76]{3,2,1,0} add(f32[1,256,50,76]{3,2,1,0} %multiply.89, f32[1,256,50,76]{3,2,1,0} %broadcast.179), metadata={op_type="Add" op_name="tower0/group2/block4/conv2/bn/batchnorm/add_1"}
  ROOT %maximum.18 = f32[1,256,50,76]{3,2,1,0} maximum(f32[1,256,50,76]{3,2,1,0} %broadcast.295, f32[1,256,50,76]{3,2,1,0} %add.121), metadata={op_type="Relu" op_name="tower0/group2/block4/conv2/Relu"}
}

%fused_computation.97 (param_0.195: f32[1,256,1,1], param_1.208: f32[256]) -> f32[1,256,1,1] {
  %param_1.208 = f32[256]{0} parameter(1)
  %bitcast.407 = f32[1,256,1,1]{3,2,1,0} bitcast(f32[256]{0} %param_1.208), metadata={op_type="Reshape" op_name="tower0/group2/block4/conv2/bn/Reshape"}
  %param_0.195 = f32[1,256,1,1]{3,2,1,0} parameter(0)
  ROOT %multiply.90 = f32[1,256,1,1]{3,2,1,0} multiply(f32[1,256,1,1]{3,2,1,0} %bitcast.407, f32[1,256,1,1]{3,2,1,0} %param_0.195), metadata={op_type="Mul" op_name="tower0/group2/block4/conv2/bn/batchnorm/mul"}
}

%fused_computation.98 (param_0.198: f32[256]) -> f32[1,256,1,1] {
  %param_0.198 = f32[256]{0} parameter(0)
  %constant_196 = f32[] constant(1e-05), metadata={op_type="Add" op_name="tower0/conv0/bn/batchnorm/add"}
  %broadcast.296 = f32[256]{0} broadcast(f32[] %constant_196), dimensions={}, metadata={op_type="Add" op_name="tower0/group0/block0/conv3/bn/batchnorm/add"}
  %add.122 = f32[256]{0} add(f32[256]{0} %param_0.198, f32[256]{0} %broadcast.296), metadata={op_type="Add" op_name="tower0/group2/block4/conv2/bn/batchnorm/add"}
  %rsqrt.67 = f32[256]{0} rsqrt(f32[256]{0} %add.122), metadata={op_type="Rsqrt" op_name="tower0/group2/block4/conv2/bn/batchnorm/Rsqrt"}
  ROOT %bitcast.408 = f32[1,256,1,1]{3,2,1,0} bitcast(f32[256]{0} %rsqrt.67), metadata={op_type="Rsqrt" op_name="tower0/group2/block4/conv2/bn/batchnorm/Rsqrt"}
}

%fused_computation.99 (param_0.442: f32[1,256,1,1], param_1.468: f32[256], param_2.375: f32[1,256,50,76], param_3.338: f32[256]) -> f32[1,256,50,76] {
  %constant_197 = f32[] constant(0), metadata={op_type="Relu" op_name="tower0/conv0/Relu"}
  %broadcast.297 = f32[1,256,50,76]{3,2,1,0} broadcast(f32[] %constant_197), dimensions={}, metadata={op_type="Relu" op_name="tower0/group2/block0/conv2/Relu"}
  %param_2.375 = f32[1,256,50,76]{3,2,1,0} parameter(2)
  %param_0.442 = f32[1,256,1,1]{3,2,1,0} parameter(0)
  %bitcast.411 = f32[1,256]{1,0} bitcast(f32[1,256,1,1]{3,2,1,0} %param_0.442), metadata={op_type="Mul" op_name="tower0/group2/block4/conv1/bn/batchnorm/mul_1"}
  %broadcast.182 = f32[1,256,50,76]{3,2,1,0} broadcast(f32[1,256]{1,0} %bitcast.411), dimensions={0,1}, metadata={op_type="Mul" op_name="tower0/group2/block4/conv1/bn/batchnorm/mul_1"}
  %multiply.92 = f32[1,256,50,76]{3,2,1,0} multiply(f32[1,256,50,76]{3,2,1,0} %param_2.375, f32[1,256,50,76]{3,2,1,0} %broadcast.182), metadata={op_type="Mul" op_name="tower0/group2/block4/conv1/bn/batchnorm/mul_1"}
  %param_1.468 = f32[256]{0} parameter(1)
  %bitcast.410 = f32[1,256,1,1]{3,2,1,0} bitcast(f32[256]{0} %param_1.468), metadata={op_type="Reshape" op_name="tower0/group2/block4/conv1/bn/Reshape_1"}
  %param_3.338 = f32[256]{0} parameter(3)
  %bitcast.571 = f32[1,256,1,1]{3,2,1,0} bitcast(f32[256]{0} %param_3.338), metadata={op_type="Reshape" op_name="tower0/group2/block4/conv1/bn/Reshape_2"}
  %multiply.91 = f32[1,256,1,1]{3,2,1,0} multiply(f32[1,256,1,1]{3,2,1,0} %bitcast.571, f32[1,256,1,1]{3,2,1,0} %param_0.442), metadata={op_type="Mul" op_name="tower0/group2/block4/conv1/bn/batchnorm/mul_2"}
  %subtract.52 = f32[1,256,1,1]{3,2,1,0} subtract(f32[1,256,1,1]{3,2,1,0} %bitcast.410, f32[1,256,1,1]{3,2,1,0} %multiply.91), metadata={op_type="Sub" op_name="tower0/group2/block4/conv1/bn/batchnorm/sub"}
  %bitcast.409 = f32[1,256]{1,0} bitcast(f32[1,256,1,1]{3,2,1,0} %subtract.52), metadata={op_type="Add" op_name="tower0/group2/block4/conv1/bn/batchnorm/add_1"}
  %broadcast.181 = f32[1,256,50,76]{3,2,1,0} broadcast(f32[1,256]{1,0} %bitcast.409), dimensions={0,1}, metadata={op_type="Add" op_name="tower0/group2/block4/conv1/bn/batchnorm/add_1"}
  %add.123 = f32[1,256,50,76]{3,2,1,0} add(f32[1,256,50,76]{3,2,1,0} %multiply.92, f32[1,256,50,76]{3,2,1,0} %broadcast.181), metadata={op_type="Add" op_name="tower0/group2/block4/conv1/bn/batchnorm/add_1"}
  ROOT %maximum.19 = f32[1,256,50,76]{3,2,1,0} maximum(f32[1,256,50,76]{3,2,1,0} %broadcast.297, f32[1,256,50,76]{3,2,1,0} %add.123), metadata={op_type="Relu" op_name="tower0/group2/block4/conv1/Relu"}
}

%fused_computation.100 (param_0.201: f32[1,256,1,1], param_1.214: f32[256]) -> f32[1,256,1,1] {
  %param_1.214 = f32[256]{0} parameter(1)
  %bitcast.412 = f32[1,256,1,1]{3,2,1,0} bitcast(f32[256]{0} %param_1.214), metadata={op_type="Reshape" op_name="tower0/group2/block4/conv1/bn/Reshape"}
  %param_0.201 = f32[1,256,1,1]{3,2,1,0} parameter(0)
  ROOT %multiply.93 = f32[1,256,1,1]{3,2,1,0} multiply(f32[1,256,1,1]{3,2,1,0} %bitcast.412, f32[1,256,1,1]{3,2,1,0} %param_0.201), metadata={op_type="Mul" op_name="tower0/group2/block4/conv1/bn/batchnorm/mul"}
}

%fused_computation.101 (param_0.204: f32[256]) -> f32[1,256,1,1] {
  %param_0.204 = f32[256]{0} parameter(0)
  %constant_198 = f32[] constant(1e-05), metadata={op_type="Add" op_name="tower0/conv0/bn/batchnorm/add"}
  %broadcast.298 = f32[256]{0} broadcast(f32[] %constant_198), dimensions={}, metadata={op_type="Add" op_name="tower0/group0/block0/conv3/bn/batchnorm/add"}
  %add.124 = f32[256]{0} add(f32[256]{0} %param_0.204, f32[256]{0} %broadcast.298), metadata={op_type="Add" op_name="tower0/group2/block4/conv1/bn/batchnorm/add"}
  %rsqrt.68 = f32[256]{0} rsqrt(f32[256]{0} %add.124), metadata={op_type="Rsqrt" op_name="tower0/group2/block4/conv1/bn/batchnorm/Rsqrt"}
  ROOT %bitcast.413 = f32[1,256,1,1]{3,2,1,0} bitcast(f32[256]{0} %rsqrt.68), metadata={op_type="Rsqrt" op_name="tower0/group2/block4/conv1/bn/batchnorm/Rsqrt"}
}

%fused_computation.102 (param_0.443: f32[1,1024,1,1], param_1.471: f32[1024], param_2.377: f32[1,1024,50,76], param_3.340: f32[1,1024,50,76], param_4.277: f32[1024]) -> f32[1,1024,50,76] {
  %constant_199 = f32[] constant(0), metadata={op_type="Relu" op_name="tower0/conv0/Relu"}
  %broadcast.299 = f32[1,1024,50,76]{3,2,1,0} broadcast(f32[] %constant_199), dimensions={}, metadata={op_type="Relu" op_name="tower0/group2/block0/output"}
  %param_2.377 = f32[1,1024,50,76]{3,2,1,0} parameter(2)
  %param_3.340 = f32[1,1024,50,76]{3,2,1,0} parameter(3)
  %param_0.443 = f32[1,1024,1,1]{3,2,1,0} parameter(0)
  %bitcast.416 = f32[1,1024]{1,0} bitcast(f32[1,1024,1,1]{3,2,1,0} %param_0.443), metadata={op_type="Mul" op_name="tower0/group2/block3/conv3/bn/batchnorm/mul_1"}
  %broadcast.184 = f32[1,1024,50,76]{3,2,1,0} broadcast(f32[1,1024]{1,0} %bitcast.416), dimensions={0,1}, metadata={op_type="Mul" op_name="tower0/group2/block3/conv3/bn/batchnorm/mul_1"}
  %multiply.95 = f32[1,1024,50,76]{3,2,1,0} multiply(f32[1,1024,50,76]{3,2,1,0} %param_3.340, f32[1,1024,50,76]{3,2,1,0} %broadcast.184), metadata={op_type="Mul" op_name="tower0/group2/block3/conv3/bn/batchnorm/mul_1"}
  %add.126 = f32[1,1024,50,76]{3,2,1,0} add(f32[1,1024,50,76]{3,2,1,0} %param_2.377, f32[1,1024,50,76]{3,2,1,0} %multiply.95), metadata={op_type="AddN" op_name="tower0/group2/block3/ArithmeticOptimizer/AddOpsRewrite_Leaf_1_add"}
  %param_1.471 = f32[1024]{0} parameter(1)
  %bitcast.415 = f32[1,1024,1,1]{3,2,1,0} bitcast(f32[1024]{0} %param_1.471), metadata={op_type="Reshape" op_name="tower0/group2/block3/conv3/bn/Reshape_1"}
  %param_4.277 = f32[1024]{0} parameter(4)
  %bitcast.572 = f32[1,1024,1,1]{3,2,1,0} bitcast(f32[1024]{0} %param_4.277), metadata={op_type="Reshape" op_name="tower0/group2/block3/conv3/bn/Reshape_2"}
  %multiply.94 = f32[1,1024,1,1]{3,2,1,0} multiply(f32[1,1024,1,1]{3,2,1,0} %bitcast.572, f32[1,1024,1,1]{3,2,1,0} %param_0.443), metadata={op_type="Mul" op_name="tower0/group2/block3/conv3/bn/batchnorm/mul_2"}
  %subtract.53 = f32[1,1024,1,1]{3,2,1,0} subtract(f32[1,1024,1,1]{3,2,1,0} %bitcast.415, f32[1,1024,1,1]{3,2,1,0} %multiply.94), metadata={op_type="Sub" op_name="tower0/group2/block3/conv3/bn/batchnorm/sub"}
  %bitcast.414 = f32[1,1024]{1,0} bitcast(f32[1,1024,1,1]{3,2,1,0} %subtract.53), metadata={op_type="Add" op_name="tower0/group2/block3/ArithmeticOptimizer/AddOpsRewrite_add"}
  %broadcast.183 = f32[1,1024,50,76]{3,2,1,0} broadcast(f32[1,1024]{1,0} %bitcast.414), dimensions={0,1}, metadata={op_type="Add" op_name="tower0/group2/block3/ArithmeticOptimizer/AddOpsRewrite_add"}
  %add.125 = f32[1,1024,50,76]{3,2,1,0} add(f32[1,1024,50,76]{3,2,1,0} %add.126, f32[1,1024,50,76]{3,2,1,0} %broadcast.183), metadata={op_type="Add" op_name="tower0/group2/block3/ArithmeticOptimizer/AddOpsRewrite_add"}
  ROOT %maximum.20 = f32[1,1024,50,76]{3,2,1,0} maximum(f32[1,1024,50,76]{3,2,1,0} %broadcast.299, f32[1,1024,50,76]{3,2,1,0} %add.125), metadata={op_type="Relu" op_name="tower0/group2/block3/output"}
}

%fused_computation.103 (param_0.207: f32[1,1024,1,1], param_1.220: f32[1024]) -> f32[1,1024,1,1] {
  %param_1.220 = f32[1024]{0} parameter(1)
  %bitcast.417 = f32[1,1024,1,1]{3,2,1,0} bitcast(f32[1024]{0} %param_1.220), metadata={op_type="Reshape" op_name="tower0/group2/block3/conv3/bn/Reshape"}
  %param_0.207 = f32[1,1024,1,1]{3,2,1,0} parameter(0)
  ROOT %multiply.96 = f32[1,1024,1,1]{3,2,1,0} multiply(f32[1,1024,1,1]{3,2,1,0} %bitcast.417, f32[1,1024,1,1]{3,2,1,0} %param_0.207), metadata={op_type="Mul" op_name="tower0/group2/block3/conv3/bn/batchnorm/mul"}
}

%fused_computation.104 (param_0.210: f32[1024]) -> f32[1,1024,1,1] {
  %param_0.210 = f32[1024]{0} parameter(0)
  %constant_200 = f32[] constant(1e-05), metadata={op_type="Add" op_name="tower0/conv0/bn/batchnorm/add"}
  %broadcast.300 = f32[1024]{0} broadcast(f32[] %constant_200), dimensions={}, metadata={op_type="Add" op_name="tower0/group2/block0/conv3/bn/batchnorm/add"}
  %add.127 = f32[1024]{0} add(f32[1024]{0} %param_0.210, f32[1024]{0} %broadcast.300), metadata={op_type="Add" op_name="tower0/group2/block3/conv3/bn/batchnorm/add"}
  %rsqrt.69 = f32[1024]{0} rsqrt(f32[1024]{0} %add.127), metadata={op_type="Rsqrt" op_name="tower0/group2/block3/conv3/bn/batchnorm/Rsqrt"}
  ROOT %bitcast.418 = f32[1,1024,1,1]{3,2,1,0} bitcast(f32[1024]{0} %rsqrt.69), metadata={op_type="Rsqrt" op_name="tower0/group2/block3/conv3/bn/batchnorm/Rsqrt"}
}

%fused_computation.105 (param_0.444: f32[1,256,1,1], param_1.474: f32[256], param_2.379: f32[1,256,50,76], param_3.342: f32[256]) -> f32[1,256,50,76] {
  %constant_201 = f32[] constant(0), metadata={op_type="Relu" op_name="tower0/conv0/Relu"}
  %broadcast.301 = f32[1,256,50,76]{3,2,1,0} broadcast(f32[] %constant_201), dimensions={}, metadata={op_type="Relu" op_name="tower0/group2/block0/conv2/Relu"}
  %param_2.379 = f32[1,256,50,76]{3,2,1,0} parameter(2)
  %param_0.444 = f32[1,256,1,1]{3,2,1,0} parameter(0)
  %bitcast.421 = f32[1,256]{1,0} bitcast(f32[1,256,1,1]{3,2,1,0} %param_0.444), metadata={op_type="Mul" op_name="tower0/group2/block3/conv2/bn/batchnorm/mul_1"}
  %broadcast.186 = f32[1,256,50,76]{3,2,1,0} broadcast(f32[1,256]{1,0} %bitcast.421), dimensions={0,1}, metadata={op_type="Mul" op_name="tower0/group2/block3/conv2/bn/batchnorm/mul_1"}
  %multiply.98 = f32[1,256,50,76]{3,2,1,0} multiply(f32[1,256,50,76]{3,2,1,0} %param_2.379, f32[1,256,50,76]{3,2,1,0} %broadcast.186), metadata={op_type="Mul" op_name="tower0/group2/block3/conv2/bn/batchnorm/mul_1"}
  %param_1.474 = f32[256]{0} parameter(1)
  %bitcast.420 = f32[1,256,1,1]{3,2,1,0} bitcast(f32[256]{0} %param_1.474), metadata={op_type="Reshape" op_name="tower0/group2/block3/conv2/bn/Reshape_1"}
  %param_3.342 = f32[256]{0} parameter(3)
  %bitcast.573 = f32[1,256,1,1]{3,2,1,0} bitcast(f32[256]{0} %param_3.342), metadata={op_type="Reshape" op_name="tower0/group2/block3/conv2/bn/Reshape_2"}
  %multiply.97 = f32[1,256,1,1]{3,2,1,0} multiply(f32[1,256,1,1]{3,2,1,0} %bitcast.573, f32[1,256,1,1]{3,2,1,0} %param_0.444), metadata={op_type="Mul" op_name="tower0/group2/block3/conv2/bn/batchnorm/mul_2"}
  %subtract.54 = f32[1,256,1,1]{3,2,1,0} subtract(f32[1,256,1,1]{3,2,1,0} %bitcast.420, f32[1,256,1,1]{3,2,1,0} %multiply.97), metadata={op_type="Sub" op_name="tower0/group2/block3/conv2/bn/batchnorm/sub"}
  %bitcast.419 = f32[1,256]{1,0} bitcast(f32[1,256,1,1]{3,2,1,0} %subtract.54), metadata={op_type="Add" op_name="tower0/group2/block3/conv2/bn/batchnorm/add_1"}
  %broadcast.185 = f32[1,256,50,76]{3,2,1,0} broadcast(f32[1,256]{1,0} %bitcast.419), dimensions={0,1}, metadata={op_type="Add" op_name="tower0/group2/block3/conv2/bn/batchnorm/add_1"}
  %add.128 = f32[1,256,50,76]{3,2,1,0} add(f32[1,256,50,76]{3,2,1,0} %multiply.98, f32[1,256,50,76]{3,2,1,0} %broadcast.185), metadata={op_type="Add" op_name="tower0/group2/block3/conv2/bn/batchnorm/add_1"}
  ROOT %maximum.21 = f32[1,256,50,76]{3,2,1,0} maximum(f32[1,256,50,76]{3,2,1,0} %broadcast.301, f32[1,256,50,76]{3,2,1,0} %add.128), metadata={op_type="Relu" op_name="tower0/group2/block3/conv2/Relu"}
}

%fused_computation.106 (param_0.213: f32[1,256,1,1], param_1.226: f32[256]) -> f32[1,256,1,1] {
  %param_1.226 = f32[256]{0} parameter(1)
  %bitcast.422 = f32[1,256,1,1]{3,2,1,0} bitcast(f32[256]{0} %param_1.226), metadata={op_type="Reshape" op_name="tower0/group2/block3/conv2/bn/Reshape"}
  %param_0.213 = f32[1,256,1,1]{3,2,1,0} parameter(0)
  ROOT %multiply.99 = f32[1,256,1,1]{3,2,1,0} multiply(f32[1,256,1,1]{3,2,1,0} %bitcast.422, f32[1,256,1,1]{3,2,1,0} %param_0.213), metadata={op_type="Mul" op_name="tower0/group2/block3/conv2/bn/batchnorm/mul"}
}

%fused_computation.107 (param_0.216: f32[256]) -> f32[1,256,1,1] {
  %param_0.216 = f32[256]{0} parameter(0)
  %constant_202 = f32[] constant(1e-05), metadata={op_type="Add" op_name="tower0/conv0/bn/batchnorm/add"}
  %broadcast.302 = f32[256]{0} broadcast(f32[] %constant_202), dimensions={}, metadata={op_type="Add" op_name="tower0/group0/block0/conv3/bn/batchnorm/add"}
  %add.129 = f32[256]{0} add(f32[256]{0} %param_0.216, f32[256]{0} %broadcast.302), metadata={op_type="Add" op_name="tower0/group2/block3/conv2/bn/batchnorm/add"}
  %rsqrt.70 = f32[256]{0} rsqrt(f32[256]{0} %add.129), metadata={op_type="Rsqrt" op_name="tower0/group2/block3/conv2/bn/batchnorm/Rsqrt"}
  ROOT %bitcast.423 = f32[1,256,1,1]{3,2,1,0} bitcast(f32[256]{0} %rsqrt.70), metadata={op_type="Rsqrt" op_name="tower0/group2/block3/conv2/bn/batchnorm/Rsqrt"}
}

%fused_computation.108 (param_0.445: f32[1,256,1,1], param_1.477: f32[256], param_2.381: f32[1,256,50,76], param_3.344: f32[256]) -> f32[1,256,50,76] {
  %constant_203 = f32[] constant(0), metadata={op_type="Relu" op_name="tower0/conv0/Relu"}
  %broadcast.303 = f32[1,256,50,76]{3,2,1,0} broadcast(f32[] %constant_203), dimensions={}, metadata={op_type="Relu" op_name="tower0/group2/block0/conv2/Relu"}
  %param_2.381 = f32[1,256,50,76]{3,2,1,0} parameter(2)
  %param_0.445 = f32[1,256,1,1]{3,2,1,0} parameter(0)
  %bitcast.426 = f32[1,256]{1,0} bitcast(f32[1,256,1,1]{3,2,1,0} %param_0.445), metadata={op_type="Mul" op_name="tower0/group2/block3/conv1/bn/batchnorm/mul_1"}
  %broadcast.188 = f32[1,256,50,76]{3,2,1,0} broadcast(f32[1,256]{1,0} %bitcast.426), dimensions={0,1}, metadata={op_type="Mul" op_name="tower0/group2/block3/conv1/bn/batchnorm/mul_1"}
  %multiply.101 = f32[1,256,50,76]{3,2,1,0} multiply(f32[1,256,50,76]{3,2,1,0} %param_2.381, f32[1,256,50,76]{3,2,1,0} %broadcast.188), metadata={op_type="Mul" op_name="tower0/group2/block3/conv1/bn/batchnorm/mul_1"}
  %param_1.477 = f32[256]{0} parameter(1)
  %bitcast.425 = f32[1,256,1,1]{3,2,1,0} bitcast(f32[256]{0} %param_1.477), metadata={op_type="Reshape" op_name="tower0/group2/block3/conv1/bn/Reshape_1"}
  %param_3.344 = f32[256]{0} parameter(3)
  %bitcast.574 = f32[1,256,1,1]{3,2,1,0} bitcast(f32[256]{0} %param_3.344), metadata={op_type="Reshape" op_name="tower0/group2/block3/conv1/bn/Reshape_2"}
  %multiply.100 = f32[1,256,1,1]{3,2,1,0} multiply(f32[1,256,1,1]{3,2,1,0} %bitcast.574, f32[1,256,1,1]{3,2,1,0} %param_0.445), metadata={op_type="Mul" op_name="tower0/group2/block3/conv1/bn/batchnorm/mul_2"}
  %subtract.55 = f32[1,256,1,1]{3,2,1,0} subtract(f32[1,256,1,1]{3,2,1,0} %bitcast.425, f32[1,256,1,1]{3,2,1,0} %multiply.100), metadata={op_type="Sub" op_name="tower0/group2/block3/conv1/bn/batchnorm/sub"}
  %bitcast.424 = f32[1,256]{1,0} bitcast(f32[1,256,1,1]{3,2,1,0} %subtract.55), metadata={op_type="Add" op_name="tower0/group2/block3/conv1/bn/batchnorm/add_1"}
  %broadcast.187 = f32[1,256,50,76]{3,2,1,0} broadcast(f32[1,256]{1,0} %bitcast.424), dimensions={0,1}, metadata={op_type="Add" op_name="tower0/group2/block3/conv1/bn/batchnorm/add_1"}
  %add.130 = f32[1,256,50,76]{3,2,1,0} add(f32[1,256,50,76]{3,2,1,0} %multiply.101, f32[1,256,50,76]{3,2,1,0} %broadcast.187), metadata={op_type="Add" op_name="tower0/group2/block3/conv1/bn/batchnorm/add_1"}
  ROOT %maximum.22 = f32[1,256,50,76]{3,2,1,0} maximum(f32[1,256,50,76]{3,2,1,0} %broadcast.303, f32[1,256,50,76]{3,2,1,0} %add.130), metadata={op_type="Relu" op_name="tower0/group2/block3/conv1/Relu"}
}

%fused_computation.109 (param_0.219: f32[1,256,1,1], param_1.232: f32[256]) -> f32[1,256,1,1] {
  %param_1.232 = f32[256]{0} parameter(1)
  %bitcast.427 = f32[1,256,1,1]{3,2,1,0} bitcast(f32[256]{0} %param_1.232), metadata={op_type="Reshape" op_name="tower0/group2/block3/conv1/bn/Reshape"}
  %param_0.219 = f32[1,256,1,1]{3,2,1,0} parameter(0)
  ROOT %multiply.102 = f32[1,256,1,1]{3,2,1,0} multiply(f32[1,256,1,1]{3,2,1,0} %bitcast.427, f32[1,256,1,1]{3,2,1,0} %param_0.219), metadata={op_type="Mul" op_name="tower0/group2/block3/conv1/bn/batchnorm/mul"}
}

%fused_computation.110 (param_0.222: f32[256]) -> f32[1,256,1,1] {
  %param_0.222 = f32[256]{0} parameter(0)
  %constant_204 = f32[] constant(1e-05), metadata={op_type="Add" op_name="tower0/conv0/bn/batchnorm/add"}
  %broadcast.304 = f32[256]{0} broadcast(f32[] %constant_204), dimensions={}, metadata={op_type="Add" op_name="tower0/group0/block0/conv3/bn/batchnorm/add"}
  %add.131 = f32[256]{0} add(f32[256]{0} %param_0.222, f32[256]{0} %broadcast.304), metadata={op_type="Add" op_name="tower0/group2/block3/conv1/bn/batchnorm/add"}
  %rsqrt.71 = f32[256]{0} rsqrt(f32[256]{0} %add.131), metadata={op_type="Rsqrt" op_name="tower0/group2/block3/conv1/bn/batchnorm/Rsqrt"}
  ROOT %bitcast.428 = f32[1,256,1,1]{3,2,1,0} bitcast(f32[256]{0} %rsqrt.71), metadata={op_type="Rsqrt" op_name="tower0/group2/block3/conv1/bn/batchnorm/Rsqrt"}
}

%fused_computation.111 (param_0.446: f32[1,1024,1,1], param_1.480: f32[1024], param_2.383: f32[1,1024,50,76], param_3.346: f32[1,1024,50,76], param_4.283: f32[1024]) -> f32[1,1024,50,76] {
  %constant_205 = f32[] constant(0), metadata={op_type="Relu" op_name="tower0/conv0/Relu"}
  %broadcast.305 = f32[1,1024,50,76]{3,2,1,0} broadcast(f32[] %constant_205), dimensions={}, metadata={op_type="Relu" op_name="tower0/group2/block0/output"}
  %param_2.383 = f32[1,1024,50,76]{3,2,1,0} parameter(2)
  %param_3.346 = f32[1,1024,50,76]{3,2,1,0} parameter(3)
  %param_0.446 = f32[1,1024,1,1]{3,2,1,0} parameter(0)
  %bitcast.431 = f32[1,1024]{1,0} bitcast(f32[1,1024,1,1]{3,2,1,0} %param_0.446), metadata={op_type="Mul" op_name="tower0/group2/block2/conv3/bn/batchnorm/mul_1"}
  %broadcast.190 = f32[1,1024,50,76]{3,2,1,0} broadcast(f32[1,1024]{1,0} %bitcast.431), dimensions={0,1}, metadata={op_type="Mul" op_name="tower0/group2/block2/conv3/bn/batchnorm/mul_1"}
  %multiply.104 = f32[1,1024,50,76]{3,2,1,0} multiply(f32[1,1024,50,76]{3,2,1,0} %param_3.346, f32[1,1024,50,76]{3,2,1,0} %broadcast.190), metadata={op_type="Mul" op_name="tower0/group2/block2/conv3/bn/batchnorm/mul_1"}
  %add.133 = f32[1,1024,50,76]{3,2,1,0} add(f32[1,1024,50,76]{3,2,1,0} %param_2.383, f32[1,1024,50,76]{3,2,1,0} %multiply.104), metadata={op_type="AddN" op_name="tower0/group2/block2/ArithmeticOptimizer/AddOpsRewrite_Leaf_1_add"}
  %param_1.480 = f32[1024]{0} parameter(1)
  %bitcast.430 = f32[1,1024,1,1]{3,2,1,0} bitcast(f32[1024]{0} %param_1.480), metadata={op_type="Reshape" op_name="tower0/group2/block2/conv3/bn/Reshape_1"}
  %param_4.283 = f32[1024]{0} parameter(4)
  %bitcast.575 = f32[1,1024,1,1]{3,2,1,0} bitcast(f32[1024]{0} %param_4.283), metadata={op_type="Reshape" op_name="tower0/group2/block2/conv3/bn/Reshape_2"}
  %multiply.103 = f32[1,1024,1,1]{3,2,1,0} multiply(f32[1,1024,1,1]{3,2,1,0} %bitcast.575, f32[1,1024,1,1]{3,2,1,0} %param_0.446), metadata={op_type="Mul" op_name="tower0/group2/block2/conv3/bn/batchnorm/mul_2"}
  %subtract.56 = f32[1,1024,1,1]{3,2,1,0} subtract(f32[1,1024,1,1]{3,2,1,0} %bitcast.430, f32[1,1024,1,1]{3,2,1,0} %multiply.103), metadata={op_type="Sub" op_name="tower0/group2/block2/conv3/bn/batchnorm/sub"}
  %bitcast.429 = f32[1,1024]{1,0} bitcast(f32[1,1024,1,1]{3,2,1,0} %subtract.56), metadata={op_type="Add" op_name="tower0/group2/block2/ArithmeticOptimizer/AddOpsRewrite_add"}
  %broadcast.189 = f32[1,1024,50,76]{3,2,1,0} broadcast(f32[1,1024]{1,0} %bitcast.429), dimensions={0,1}, metadata={op_type="Add" op_name="tower0/group2/block2/ArithmeticOptimizer/AddOpsRewrite_add"}
  %add.132 = f32[1,1024,50,76]{3,2,1,0} add(f32[1,1024,50,76]{3,2,1,0} %add.133, f32[1,1024,50,76]{3,2,1,0} %broadcast.189), metadata={op_type="Add" op_name="tower0/group2/block2/ArithmeticOptimizer/AddOpsRewrite_add"}
  ROOT %maximum.23 = f32[1,1024,50,76]{3,2,1,0} maximum(f32[1,1024,50,76]{3,2,1,0} %broadcast.305, f32[1,1024,50,76]{3,2,1,0} %add.132), metadata={op_type="Relu" op_name="tower0/group2/block2/output"}
}

%fused_computation.112 (param_0.225: f32[1,1024,1,1], param_1.238: f32[1024]) -> f32[1,1024,1,1] {
  %param_1.238 = f32[1024]{0} parameter(1)
  %bitcast.432 = f32[1,1024,1,1]{3,2,1,0} bitcast(f32[1024]{0} %param_1.238), metadata={op_type="Reshape" op_name="tower0/group2/block2/conv3/bn/Reshape"}
  %param_0.225 = f32[1,1024,1,1]{3,2,1,0} parameter(0)
  ROOT %multiply.105 = f32[1,1024,1,1]{3,2,1,0} multiply(f32[1,1024,1,1]{3,2,1,0} %bitcast.432, f32[1,1024,1,1]{3,2,1,0} %param_0.225), metadata={op_type="Mul" op_name="tower0/group2/block2/conv3/bn/batchnorm/mul"}
}

%fused_computation.113 (param_0.228: f32[1024]) -> f32[1,1024,1,1] {
  %param_0.228 = f32[1024]{0} parameter(0)
  %constant_206 = f32[] constant(1e-05), metadata={op_type="Add" op_name="tower0/conv0/bn/batchnorm/add"}
  %broadcast.306 = f32[1024]{0} broadcast(f32[] %constant_206), dimensions={}, metadata={op_type="Add" op_name="tower0/group2/block0/conv3/bn/batchnorm/add"}
  %add.134 = f32[1024]{0} add(f32[1024]{0} %param_0.228, f32[1024]{0} %broadcast.306), metadata={op_type="Add" op_name="tower0/group2/block2/conv3/bn/batchnorm/add"}
  %rsqrt.72 = f32[1024]{0} rsqrt(f32[1024]{0} %add.134), metadata={op_type="Rsqrt" op_name="tower0/group2/block2/conv3/bn/batchnorm/Rsqrt"}
  ROOT %bitcast.433 = f32[1,1024,1,1]{3,2,1,0} bitcast(f32[1024]{0} %rsqrt.72), metadata={op_type="Rsqrt" op_name="tower0/group2/block2/conv3/bn/batchnorm/Rsqrt"}
}

%fused_computation.114 (param_0.447: f32[1,256,1,1], param_1.483: f32[256], param_2.385: f32[1,256,50,76], param_3.348: f32[256]) -> f32[1,256,50,76] {
  %constant_207 = f32[] constant(0), metadata={op_type="Relu" op_name="tower0/conv0/Relu"}
  %broadcast.307 = f32[1,256,50,76]{3,2,1,0} broadcast(f32[] %constant_207), dimensions={}, metadata={op_type="Relu" op_name="tower0/group2/block0/conv2/Relu"}
  %param_2.385 = f32[1,256,50,76]{3,2,1,0} parameter(2)
  %param_0.447 = f32[1,256,1,1]{3,2,1,0} parameter(0)
  %bitcast.436 = f32[1,256]{1,0} bitcast(f32[1,256,1,1]{3,2,1,0} %param_0.447), metadata={op_type="Mul" op_name="tower0/group2/block2/conv2/bn/batchnorm/mul_1"}
  %broadcast.192 = f32[1,256,50,76]{3,2,1,0} broadcast(f32[1,256]{1,0} %bitcast.436), dimensions={0,1}, metadata={op_type="Mul" op_name="tower0/group2/block2/conv2/bn/batchnorm/mul_1"}
  %multiply.107 = f32[1,256,50,76]{3,2,1,0} multiply(f32[1,256,50,76]{3,2,1,0} %param_2.385, f32[1,256,50,76]{3,2,1,0} %broadcast.192), metadata={op_type="Mul" op_name="tower0/group2/block2/conv2/bn/batchnorm/mul_1"}
  %param_1.483 = f32[256]{0} parameter(1)
  %bitcast.435 = f32[1,256,1,1]{3,2,1,0} bitcast(f32[256]{0} %param_1.483), metadata={op_type="Reshape" op_name="tower0/group2/block2/conv2/bn/Reshape_1"}
  %param_3.348 = f32[256]{0} parameter(3)
  %bitcast.576 = f32[1,256,1,1]{3,2,1,0} bitcast(f32[256]{0} %param_3.348), metadata={op_type="Reshape" op_name="tower0/group2/block2/conv2/bn/Reshape_2"}
  %multiply.106 = f32[1,256,1,1]{3,2,1,0} multiply(f32[1,256,1,1]{3,2,1,0} %bitcast.576, f32[1,256,1,1]{3,2,1,0} %param_0.447), metadata={op_type="Mul" op_name="tower0/group2/block2/conv2/bn/batchnorm/mul_2"}
  %subtract.57 = f32[1,256,1,1]{3,2,1,0} subtract(f32[1,256,1,1]{3,2,1,0} %bitcast.435, f32[1,256,1,1]{3,2,1,0} %multiply.106), metadata={op_type="Sub" op_name="tower0/group2/block2/conv2/bn/batchnorm/sub"}
  %bitcast.434 = f32[1,256]{1,0} bitcast(f32[1,256,1,1]{3,2,1,0} %subtract.57), metadata={op_type="Add" op_name="tower0/group2/block2/conv2/bn/batchnorm/add_1"}
  %broadcast.191 = f32[1,256,50,76]{3,2,1,0} broadcast(f32[1,256]{1,0} %bitcast.434), dimensions={0,1}, metadata={op_type="Add" op_name="tower0/group2/block2/conv2/bn/batchnorm/add_1"}
  %add.135 = f32[1,256,50,76]{3,2,1,0} add(f32[1,256,50,76]{3,2,1,0} %multiply.107, f32[1,256,50,76]{3,2,1,0} %broadcast.191), metadata={op_type="Add" op_name="tower0/group2/block2/conv2/bn/batchnorm/add_1"}
…
  %custom-call.145 = (f32[1,3,50,76]{3,2,1,0}, u8[0]{0}) custom-call(f32[1,256,50,76]{3,2,1,0} %get-tuple-element.692, f32[1,1,256,3]{1,0,2,3} %copy.151), window={size=1x1}, dim_labels=bf01_01io->bf01, custom_call_target="__cudnn$convForward", metadata={op_type="Conv2D" op_name="tower0/rpn_2/class/Conv2D"}, backend_config="{\"convResultScale\":1}"
  %get-tuple-element.683 = f32[1,3,50,76]{3,2,1,0} get-tuple-element((f32[1,3,50,76]{3,2,1,0}, u8[0]{0}) %custom-call.145), index=0
  %fusion.20 = f32[11400]{0} fusion(f32[1,3,50,76]{3,2,1,0} %get-tuple-element.683, f32[3]{0} %arg284.285), kind=kLoop, calls=%fused_computation.20, metadata={op_type="Reshape" op_name="tower0/generate_fpn_proposals/Lvl4/Reshape_1"}
  %iota.2137 = s32[11400]{0} iota(), iota_dimension=0, metadata={op_type="TopKV2" op_name="tower0/generate_fpn_proposals/Lvl4/generate_rpn_proposals/TopKV2"}
  %sort.2160 = (f32[11400]{0}, s32[11400]{0}) sort(f32[11400]{0} %fusion.20, s32[11400]{0} %iota.2137), dimensions={0}, is_stable=true, to_apply=%compare-greater-than.2138, metadata={op_type="TopKV2" op_name="tower0/generate_fpn_proposals/Lvl4/generate_rpn_proposals/TopKV2"}
  %get-tuple-element.2163 = s32[11400]{0} get-tuple-element((f32[11400]{0}, s32[11400]{0}) %sort.2160), index=1, metadata={op_type="TopKV2" op_name="tower0/generate_fpn_proposals/Lvl4/generate_rpn_proposals/TopKV2"}
  %custom-call.144 = (f32[1,12,50,76]{3,2,1,0}, u8[0]{0}) custom-call(f32[1,256,50,76]{3,2,1,0} %get-tuple-element.692, f32[1,1,256,12]{1,0,2,3} %copy.154), window={size=1x1}, dim_labels=bf01_01io->bf01, custom_call_target="__cudnn$convForward", metadata={op_type="Conv2D" op_name="tower0/rpn_2/box/Conv2D"}, backend_config="{\"convResultScale\":1}"
  %get-tuple-element.682 = f32[1,12,50,76]{3,2,1,0} get-tuple-element((f32[1,12,50,76]{3,2,1,0}, u8[0]{0}) %custom-call.144), index=0
  %fusion.24 = f32[1,50,76,12]{3,2,1,0} fusion(f32[1,12,50,76]{3,2,1,0} %get-tuple-element.682, f32[12]{0} %arg285.286), kind=kLoop, calls=%fused_computation.24, metadata={op_name="XLA_Retvals"}
  %fusion.21 = f32[11400,1,2]{2,1,0} fusion(f32[1,50,76,12]{3,2,1,0} %fusion.24), kind=kLoop, calls=%fused_computation.21, metadata={op_type="Exp" op_name="tower0/decode_bbox_target_2/Exp"}
  %constant_33 = f32[11400,1,2]{2,1,0} constant({...}), metadata={op_type="Sub" op_name="tower0/decode_bbox_target_2/sub"}
  %constant_32 = f32[11400,1,2]{2,1,0} constant({...}), metadata={op_type="Add" op_name="tower0/decode_bbox_target_2/add"}
  %constant_46 = f32[2]{0} constant({1199, 800}), metadata={op_type="Cast" op_name="tower0/generate_fpn_proposals/Lvl6/generate_rpn_proposals/clip_boxes/Cast"}
  %arg243.244 = f32[1,1,512,256]{3,2,1,0} parameter(243), parameter_replication={false}, metadata={op_name="XLA_Args"}
  %copy.161 = f32[1,1,512,256]{1,0,2,3} copy(f32[1,1,512,256]{3,2,1,0} %arg243.244), metadata={op_name="XLA_Args"}
  %custom-call.108 = (f32[1,256,100,152]{3,2,1,0}, u8[91208]{0}) custom-call(f32[1,512,100,152]{3,2,1,0} %fusion.140, f32[1,1,512,256]{1,0,2,3} %copy.161), window={size=1x1}, dim_labels=bf01_01io->bf01, custom_call_target="__cudnn$convForward", metadata={op_type="Conv2D" op_name="tower0/fpn/lateral_1x1_c3/Conv2D"}, backend_config="{\"algorithm\":\"1\",\"convResultScale\":1}"
  %get-tuple-element.646 = f32[1,256,100,152]{3,2,1,0} get-tuple-element((f32[1,256,100,152]{3,2,1,0}, u8[91208]{0}) %custom-call.108), index=0
  %arg244.245 = f32[256]{0} parameter(244), parameter_replication={false}, metadata={op_name="XLA_Args"}
  %fusion.50 = f32[1,256,100,152]{3,2,1,0} fusion(f32[1,256,50,76]{3,2,1,0} %fusion.52, f32[1,256,100,152]{3,2,1,0} %get-tuple-element.646, f32[256]{0} %arg244.245), kind=kLoop, calls=%fused_computation.50, metadata={op_type="Add" op_name="tower0/fpn/add_1"}
  %arg289.290 = f32[3,3,256,256]{3,2,1,0} parameter(289), parameter_replication={false}, metadata={op_name="XLA_Args"}
  %copy.162 = f32[3,3,256,256]{1,0,2,3} copy(f32[3,3,256,256]{3,2,1,0} %arg289.290), metadata={op_name="XLA_Args"}
  %custom-call.146 = (f32[1,256,100,152]{3,2,1,0}, u8[6554624]{0}) custom-call(f32[1,256,100,152]{3,2,1,0} %fusion.50, f32[3,3,256,256]{1,0,2,3} %copy.162), window={size=3x3 pad=1_1x1_1}, dim_labels=bf01_01io->bf01, custom_call_target="__cudnn$convForward", metadata={op_type="Conv2D" op_name="tower0/fpn/posthoc_3x3_p3/Conv2D"}, backend_config="{\"algorithm\":\"6\",\"tensorOpsEnabled\":true,\"convResultScale\":1}"
  %get-tuple-element.684 = f32[1,256,100,152]{3,2,1,0} get-tuple-element((f32[1,256,100,152]{3,2,1,0}, u8[6554624]{0}) %custom-call.146), index=0
  %arg290.291 = f32[256]{0} parameter(290), parameter_replication={false}, metadata={op_name="XLA_Args"}
  %fusion.49 = f32[1,256,100,152]{3,2,1,0} fusion(f32[1,256,100,152]{3,2,1,0} %get-tuple-element.684, f32[256]{0} %arg290.291), kind=kLoop, calls=%fused_computation.49, metadata={op_type="BiasAdd" op_name="tower0/fpn/posthoc_3x3_p3/BiasAdd"}
  %custom-call.155 = (f32[1,256,100,152]{3,2,1,0}, u8[6554624]{0}) custom-call(f32[1,256,100,152]{3,2,1,0} %fusion.49, f32[3,3,256,256]{1,0,2,3} %copy.149, f32[256]{0} %arg279.280), window={size=3x3 pad=1_1x1_1}, dim_labels=bf01_01io->bf01, custom_call_target="__cudnn$convBiasActivationForward", metadata={op_type="Conv2D" op_name="tower0/rpn_1/conv0/Conv2D"}, backend_config="{\"algorithm\":\"6\",\"activationMode\":\"2\",\"convResultScale\":1}"
  %get-tuple-element.693 = f32[1,256,100,152]{3,2,1,0} get-tuple-element((f32[1,256,100,152]{3,2,1,0}, u8[6554624]{0}) %custom-call.155), index=0
  %custom-call.148 = (f32[1,3,100,152]{3,2,1,0}, u8[0]{0}) custom-call(f32[1,256,100,152]{3,2,1,0} %get-tuple-element.693, f32[1,1,256,3]{1,0,2,3} %copy.151), window={size=1x1}, dim_labels=bf01_01io->bf01, custom_call_target="__cudnn$convForward", metadata={op_type="Conv2D" op_name="tower0/rpn_1/class/Conv2D"}, backend_config="{\"convResultScale\":1}"
  %get-tuple-element.686 = f32[1,3,100,152]{3,2,1,0} get-tuple-element((f32[1,3,100,152]{3,2,1,0}, u8[0]{0}) %custom-call.148), index=0
  %fusion.12 = f32[45600]{0} fusion(f32[1,3,100,152]{3,2,1,0} %get-tuple-element.686, f32[3]{0} %arg284.285), kind=kLoop, calls=%fused_computation.12, metadata={op_type="Reshape" op_name="tower0/generate_fpn_proposals/Lvl3/Reshape_1"}
  %iota.2303 = s32[45600]{0} iota(), iota_dimension=0, metadata={op_type="TopKV2" op_name="tower0/generate_fpn_proposals/Lvl3/generate_rpn_proposals/TopKV2"}
  %sort.2326 = (f32[45600]{0}, s32[45600]{0}) sort(f32[45600]{0} %fusion.12, s32[45600]{0} %iota.2303), dimensions={0}, is_stable=true, to_apply=%compare-greater-than.2304, metadata={op_type="TopKV2" op_name="tower0/generate_fpn_proposals/Lvl3/generate_rpn_proposals/TopKV2"}
  %get-tuple-element.2329 = s32[45600]{0} get-tuple-element((f32[45600]{0}, s32[45600]{0}) %sort.2326), index=1, metadata={op_type="TopKV2" op_name="tower0/generate_fpn_proposals/Lvl3/generate_rpn_proposals/TopKV2"}
  %custom-call.147 = (f32[1,12,100,152]{3,2,1,0}, u8[0]{0}) custom-call(f32[1,256,100,152]{3,2,1,0} %get-tuple-element.693, f32[1,1,256,12]{1,0,2,3} %copy.154), window={size=1x1}, dim_labels=bf01_01io->bf01, custom_call_target="__cudnn$convForward", metadata={op_type="Conv2D" op_name="tower0/rpn_1/box/Conv2D"}, backend_config="{\"convResultScale\":1}"
  %get-tuple-element.685 = f32[1,12,100,152]{3,2,1,0} get-tuple-element((f32[1,12,100,152]{3,2,1,0}, u8[0]{0}) %custom-call.147), index=0
  %fusion.16 = f32[1,100,152,12]{3,2,1,0} fusion(f32[1,12,100,152]{3,2,1,0} %get-tuple-element.685, f32[12]{0} %arg285.286), kind=kLoop, calls=%fused_computation.16, metadata={op_name="XLA_Retvals"}
  %fusion.13 = f32[45600,1,2]{2,1,0} fusion(f32[1,100,152,12]{3,2,1,0} %fusion.16), kind=kLoop, calls=%fused_computation.13, metadata={op_type="Exp" op_name="tower0/decode_bbox_target_1/Exp"}
  %constant_39 = f32[45600,1,2]{2,1,0} constant({...}), metadata={op_type="Sub" op_name="tower0/decode_bbox_target_1/sub"}
  %constant_38 = f32[45600,1,2]{2,1,0} constant({...}), metadata={op_type="Add" op_name="tower0/decode_bbox_target_1/add"}
  %arg228.229 = f32[1,1,256,256]{3,2,1,0} parameter(228), parameter_replication={false}, metadata={op_name="XLA_Args"}
  %copy.167 = f32[1,1,256,256]{1,0,2,3} copy(f32[1,1,256,256]{3,2,1,0} %arg228.229), metadata={op_name="XLA_Args"}
  %custom-call.95 = (f32[1,256,200,304]{3,2,1,0}, u8[364808]{0}) custom-call(f32[1,256,200,304]{3,2,1,0} %fusion.178, f32[1,1,256,256]{1,0,2,3} %copy.167), window={size=1x1}, dim_labels=bf01_01io->bf01, custom_call_target="__cudnn$convForward", metadata={op_type="Conv2D" op_name="tower0/fpn/lateral_1x1_c2/Conv2D"}, backend_config="{\"algorithm\":\"1\",\"tensorOpsEnabled\":true,\"convResultScale\":1}"
  %get-tuple-element.633 = f32[1,256,200,304]{3,2,1,0} get-tuple-element((f32[1,256,200,304]{3,2,1,0}, u8[364808]{0}) %custom-call.95), index=0
  %arg229.230 = f32[256]{0} parameter(229), parameter_replication={false}, metadata={op_name="XLA_Args"}
  %fusion.48 = f32[1,256,200,304]{3,2,1,0} fusion(f32[1,256,100,152]{3,2,1,0} %fusion.50, f32[1,256,200,304]{3,2,1,0} %get-tuple-element.633, f32[256]{0} %arg229.230), kind=kLoop, calls=%fused_computation.48, metadata={op_type="Add" op_name="tower0/fpn/add_2"}
  %arg292.293 = f32[3,3,256,256]{3,2,1,0} parameter(292), parameter_replication={false}, metadata={op_name="XLA_Args"}
  %copy.168 = f32[3,3,256,256]{1,0,2,3} copy(f32[3,3,256,256]{3,2,1,0} %arg292.293), metadata={op_name="XLA_Args"}
  %custom-call.149 = (f32[1,256,200,304]{3,2,1,0}, u8[6554624]{0}) custom-call(f32[1,256,200,304]{3,2,1,0} %fusion.48, f32[3,3,256,256]{1,0,2,3} %copy.168), window={size=3x3 pad=1_1x1_1}, dim_labels=bf01_01io->bf01, custom_call_target="__cudnn$convForward", metadata={op_type="Conv2D" op_name="tower0/fpn/posthoc_3x3_p2/Conv2D"}, backend_config="{\"algorithm\":\"6\",\"convResultScale\":1}"
  %get-tuple-element.687 = f32[1,256,200,304]{3,2,1,0} get-tuple-element((f32[1,256,200,304]{3,2,1,0}, u8[6554624]{0}) %custom-call.149), index=0
  %arg293.294 = f32[256]{0} parameter(293), parameter_replication={false}, metadata={op_name="XLA_Args"}
  %fusion.47 = f32[1,256,200,304]{3,2,1,0} fusion(f32[1,256,200,304]{3,2,1,0} %get-tuple-element.687, f32[256]{0} %arg293.294), kind=kLoop, calls=%fused_computation.47, metadata={op_type="BiasAdd" op_name="tower0/fpn/posthoc_3x3_p2/BiasAdd"}
  %custom-call.156 = (f32[1,256,200,304]{3,2,1,0}, u8[6554624]{0}) custom-call(f32[1,256,200,304]{3,2,1,0} %fusion.47, f32[3,3,256,256]{1,0,2,3} %copy.149, f32[256]{0} %arg279.280), window={size=3x3 pad=1_1x1_1}, dim_labels=bf01_01io->bf01, custom_call_target="__cudnn$convBiasActivationForward", metadata={op_type="Conv2D" op_name="tower0/rpn/conv0/Conv2D"}, backend_config="{\"algorithm\":\"6\",\"activationMode\":\"2\",\"convResultScale\":1}"
  %get-tuple-element.694 = f32[1,256,200,304]{3,2,1,0} get-tuple-element((f32[1,256,200,304]{3,2,1,0}, u8[6554624]{0}) %custom-call.156), index=0
  %custom-call.151 = (f32[1,3,200,304]{3,2,1,0}, u8[364808]{0}) custom-call(f32[1,256,200,304]{3,2,1,0} %get-tuple-element.694, f32[1,1,256,3]{1,0,2,3} %copy.151), window={size=1x1}, dim_labels=bf01_01io->bf01, custom_call_target="__cudnn$convForward", metadata={op_type="Conv2D" op_name="tower0/rpn/class/Conv2D"}, backend_config="{\"algorithm\":\"1\",\"tensorOpsEnabled\":true,\"convResultScale\":1}"
  %get-tuple-element.689 = f32[1,3,200,304]{3,2,1,0} get-tuple-element((f32[1,3,200,304]{3,2,1,0}, u8[364808]{0}) %custom-call.151), index=0
  %fusion.6 = f32[182400]{0} fusion(f32[1,3,200,304]{3,2,1,0} %get-tuple-element.689, f32[3]{0} %arg284.285), kind=kLoop, calls=%fused_computation.6, metadata={op_type="Reshape" op_name="tower0/generate_fpn_proposals/Lvl2/Reshape_1"}
  %iota.2469 = s32[182400]{0} iota(), iota_dimension=0, metadata={op_type="TopKV2" op_name="tower0/generate_fpn_proposals/Lvl2/generate_rpn_proposals/TopKV2"}
  %sort.2492 = (f32[182400]{0}, s32[182400]{0}) sort(f32[182400]{0} %fusion.6, s32[182400]{0} %iota.2469), dimensions={0}, is_stable=true, to_apply=%compare-greater-than.2470, metadata={op_type="TopKV2" op_name="tower0/generate_fpn_proposals/Lvl2/generate_rpn_proposals/TopKV2"}
  %get-tuple-element.2495 = s32[182400]{0} get-tuple-element((f32[182400]{0}, s32[182400]{0}) %sort.2492), index=1, metadata={op_type="TopKV2" op_name="tower0/generate_fpn_proposals/Lvl2/generate_rpn_proposals/TopKV2"}
  %custom-call.150 = (f32[1,12,200,304]{3,2,1,0}, u8[364808]{0}) custom-call(f32[1,256,200,304]{3,2,1,0} %get-tuple-element.694, f32[1,1,256,12]{1,0,2,3} %copy.154), window={size=1x1}, dim_labels=bf01_01io->bf01, custom_call_target="__cudnn$convForward", metadata={op_type="Conv2D" op_name="tower0/rpn/box/Conv2D"}, backend_config="{\"algorithm\":\"1\",\"convResultScale\":1}"
  %get-tuple-element.688 = f32[1,12,200,304]{3,2,1,0} get-tuple-element((f32[1,12,200,304]{3,2,1,0}, u8[364808]{0}) %custom-call.150), index=0
  %fusion.8 = f32[1,200,304,12]{3,2,1,0} fusion(f32[1,12,200,304]{3,2,1,0} %get-tuple-element.688, f32[12]{0} %arg285.286), kind=kLoop, calls=%fused_computation.8, metadata={op_name="XLA_Retvals"}
  %fusion.7 = f32[182400,1,2]{2,1,0} fusion(f32[1,200,304,12]{3,2,1,0} %fusion.8), kind=kLoop, calls=%fused_computation.7, metadata={op_type="Exp" op_name="tower0/decode_bbox_target/Exp"}
  %constant_44 = f32[182400,1,2]{2,1,0} constant({...}), metadata={op_type="Sub" op_name="tower0/rpn_losses/encode_bbox_target/sub"}
  %constant_45 = f32[182400,1,2]{2,1,0} constant({...}), metadata={op_type="Add" op_name="tower0/rpn_losses/encode_bbox_target/add"}
  %fusion.32 = f32[2850]{0} fusion(f32[1,3,25,38]{3,2,1,0} %get-tuple-element.680, f32[3]{0} %arg284.285), kind=kLoop, calls=%fused_computation.32, metadata={op_type="Reshape" op_name="tower0/generate_fpn_proposals/Lvl5/Reshape_1"}
  %iota.1971 = s32[2850]{0} iota(), iota_dimension=0, metadata={op_type="TopKV2" op_name="tower0/generate_fpn_proposals/Lvl5/generate_rpn_proposals/TopKV2"}
  %sort.1994 = (f32[2850]{0}, s32[2850]{0}) sort(f32[2850]{0} %fusion.32, s32[2850]{0} %iota.1971), dimensions={0}, is_stable=true, to_apply=%compare-greater-than.1972, metadata={op_type="TopKV2" op_name="tower0/generate_fpn_proposals/Lvl5/generate_rpn_proposals/TopKV2"}
  %get-tuple-element.1997 = s32[2850]{0} get-tuple-element((f32[2850]{0}, s32[2850]{0}) %sort.1994), index=1, metadata={op_type="TopKV2" op_name="tower0/generate_fpn_proposals/Lvl5/generate_rpn_proposals/TopKV2"}
  %fusion.33 = f32[2850,1,2]{2,1,0} fusion(f32[1,25,38,12]{3,2,1,0} %fusion.37), kind=kLoop, calls=%fused_computation.33, metadata={op_type="Exp" op_name="tower0/decode_bbox_target_3/Exp"}
  %constant_19 = f32[2850,1,2]{2,1,0} constant({...}), metadata={op_type="Sub" op_name="tower0/decode_bbox_target_3/sub"}
  %constant_18 = f32[2850,1,2]{2,1,0} constant({...}), metadata={op_type="Add" op_name="tower0/decode_bbox_target_3/add"}
  %fusion.19 = (f32[2000,4]{1,0}, f32[2000,4]{1,0}, f32[2000,4]{1,0}, f32[2000,4]{1,0}) fusion(s32[11400]{0} %get-tuple-element.2163, f32[11400,1,2]{2,1,0} %fusion.21, f32[11400,1,2]{2,1,0} %constant_33, f32[11400,1,2]{2,1,0} %constant_32, f32[1,50,76,12]{3,2,1,0} %fusion.24, f32[2]{0} %constant_46, s32[45600]{0} %get-tuple-element.2329, f32[45600,1,2]{2,1,0} %fusion.13, f32[45600,1,2]{2,1,0} %constant_39, f32[1,100,152,12]{3,2,1,0} %fusion.16, f32[45600,1,2]{2,1,0} %constant_38, s32[182400]{0} %get-tuple-element.2495, f32[182400,1,2]{2,1,0} %fusion.7, f32[182400,1,2]{2,1,0} %constant_44, f32[182400,1,2]{2,1,0} %constant_45, f32[1,200,304,12]{3,2,1,0} %fusion.8, s32[2850]{0} %get-tuple-element.1997, f32[2850,1,2]{2,1,0} %fusion.33, f32[2850,1,2]{2,1,0} %constant_19, f32[1,25,38,12]{3,2,1,0} %fusion.37, f32[2850,1,2]{2,1,0} %constant_18), kind=kLoop, calls=%fused_computation.19, metadata={op_type="Minimum" op_name="tower0/generate_fpn_proposals/Lvl4/generate_rpn_proposals/clip_boxes/Minimum"}
  %get-tuple-element.713 = f32[2000,4]{1,0} get-tuple-element((f32[2000,4]{1,0}, f32[2000,4]{1,0}, f32[2000,4]{1,0}, f32[2000,4]{1,0}) %fusion.19), index=2
  %get-tuple-element.1995 = f32[2850]{0} get-tuple-element((f32[2850]{0}, s32[2850]{0}) %sort.1994), index=0, metadata={op_type="TopKV2" op_name="tower0/generate_fpn_proposals/Lvl5/generate_rpn_proposals/TopKV2"}
  %slice.1996 = f32[2000]{0} slice(f32[2850]{0} %get-tuple-element.1995), slice={[0:2000]}, metadata={op_type="TopKV2" op_name="tower0/generate_fpn_proposals/Lvl5/generate_rpn_proposals/TopKV2"}
  %fusion.28 = f32[50,76,3]{2,1,0} fusion(f32[1,3,50,76]{3,2,1,0} %get-tuple-element.683, f32[3]{0} %arg284.285), kind=kLoop, calls=%fused_computation.28, metadata={op_name="XLA_Retvals"}
  %fusion.26 = f32[741]{0} fusion(f32[1,3,13,19]{3,2,1,0} %get-tuple-element.678, f32[3]{0} %arg284.285), kind=kLoop, calls=%fused_computation.26, metadata={op_type="Reshape" op_name="tower0/generate_fpn_proposals/Lvl6/Reshape_1"}
  %iota.1897 = s32[741]{0} iota(), iota_dimension=0, metadata={op_type="TopKV2" op_name="tower0/generate_fpn_proposals/Lvl6/generate_rpn_proposals/TopKV2"}
  %sort.1920 = (f32[741]{0}, s32[741]{0}) sort(f32[741]{0} %fusion.26, s32[741]{0} %iota.1897), dimensions={0}, is_stable=true, to_apply=%compare-greater-than.1898, metadata={op_type="TopKV2" op_name="tower0/generate_fpn_proposals/Lvl6/generate_rpn_proposals/TopKV2"}
  %get-tuple-element.1923 = s32[741]{0} get-tuple-element((f32[741]{0}, s32[741]{0}) %sort.1920), index=1, metadata={op_type="TopKV2" op_name="tower0/generate_fpn_proposals/Lvl6/generate_rpn_proposals/TopKV2"}
  %fusion.27 = f32[741,1,2]{2,1,0} fusion(f32[1,13,19,12]{3,2,1,0} %fusion.36), kind=kLoop, calls=%fused_computation.27, metadata={op_type="Exp" op_name="tower0/decode_bbox_target_4/Exp"}
  %constant_27 = f32[741,1,2]{2,1,0} constant({...}), metadata={op_type="Sub" op_name="tower0/decode_bbox_target_4/sub"}
  %constant_26 = f32[741,1,2]{2,1,0} constant({...}), metadata={op_type="Add" op_name="tower0/decode_bbox_target_4/add"}
  %fusion.25 = f32[741,4]{1,0} fusion(s32[741]{0} %get-tuple-element.1923, f32[741,1,2]{2,1,0} %fusion.27, f32[741,1,2]{2,1,0} %constant_27, f32[741,1,2]{2,1,0} %constant_26, f32[1,13,19,12]{3,2,1,0} %fusion.36, f32[2]{0} %constant_46), kind=kLoop, calls=%fused_computation.25, metadata={op_type="Minimum" op_name="tower0/generate_fpn_proposals/Lvl6/generate_rpn_proposals/clip_boxes/Minimum"}
  %get-tuple-element.1921 = f32[741]{0} get-tuple-element((f32[741]{0}, s32[741]{0}) %sort.1920), index=0, metadata={op_type="TopKV2" op_name="tower0/generate_fpn_proposals/Lvl6/generate_rpn_proposals/TopKV2"}
  %arg291.292 = s32[168,168,3]{2,1,0} parameter(291), parameter_replication={false}, metadata={op_name="XLA_Args"}
  %fusion.23 = (pred[100,152,3]{2,1,0}, pred[100,152,3]{2,1,0}) fusion(s32[168,168,3]{2,1,0} %arg291.292), kind=kLoop, calls=%fused_computation.23, metadata={op_type="NotEqual" op_name="tower0/rpn_losses/level3/NotEqual"}
  %get-tuple-element.701 = pred[100,152,3]{2,1,0} get-tuple-element((pred[100,152,3]{2,1,0}, pred[100,152,3]{2,1,0}) %fusion.23), index=0
  %get-tuple-element.702 = pred[100,152,3]{2,1,0} get-tuple-element((pred[100,152,3]{2,1,0}, pred[100,152,3]{2,1,0}) %fusion.23), index=1
  %bitcast.280 = pred[45600]{0} bitcast(pred[100,152,3]{2,1,0} %get-tuple-element.701), metadata={op_type="Reshape" op_name="tower0/rpn_losses/level3/boolean_mask_1/Reshape_1"}
  %copy.204 = pred[45600]{0} copy(pred[45600]{0} %bitcast.280)
  %copy.205 = pred[45600]{0} copy(pred[45600]{0} %bitcast.280)
  %bitcast.281 = pred[45600]{0} bitcast(pred[100,152,3]{2,1,0} %get-tuple-element.702), metadata={op_type="Reshape" op_name="tower0/rpn_losses/level3/boolean_mask_3/Reshape_1"}
  %copy.206 = pred[45600]{0} copy(pred[45600]{0} %bitcast.281)
  %get-tuple-element.709 = f32[2000,4]{1,0} get-tuple-element((f32[2000,4]{1,0}, f32[2000,4]{1,0}, f32[2000,4]{1,0}, f32[2000,4]{1,0}) %fusion.19), index=0
  %get-tuple-element.2161 = f32[11400]{0} get-tuple-element((f32[11400]{0}, s32[11400]{0}) %sort.2160), index=0, metadata={op_type="TopKV2" op_name="tower0/generate_fpn_proposals/Lvl4/generate_rpn_proposals/TopKV2"}
  %slice.2162 = f32[2000]{0} slice(f32[11400]{0} %get-tuple-element.2161), slice={[0:2000]}, metadata={op_type="TopKV2" op_name="tower0/generate_fpn_proposals/Lvl4/generate_rpn_proposals/TopKV2"}
  %fusion.17 = f32[100,152,3]{2,1,0} fusion(f32[1,3,100,152]{3,2,1,0} %get-tuple-element.686, f32[3]{0} %arg284.285), kind=kLoop, calls=%fused_computation.17, metadata={op_name="XLA_Retvals"}
  %arg294.295 = s32[336,336,3]{2,1,0} parameter(294), parameter_replication={false}, metadata={op_name="XLA_Args"}
  %fusion.15 = (pred[200,304,3]{2,1,0}, pred[200,304,3]{2,1,0}) fusion(s32[336,336,3]{2,1,0} %arg294.295), kind=kLoop, calls=%fused_computation.15, metadata={op_type="NotEqual" op_name="tower0/rpn_losses/level2/NotEqual"}
  %get-tuple-element.699 = pred[200,304,3]{2,1,0} get-tuple-element((pred[200,304,3]{2,1,0}, pred[200,304,3]{2,1,0}) %fusion.15), index=0
  %get-tuple-element.700 = pred[200,304,3]{2,1,0} get-tuple-element((pred[200,304,3]{2,1,0}, pred[200,304,3]{2,1,0}) %fusion.15), index=1
  %bitcast.290 = pred[182400]{0} bitcast(pred[200,304,3]{2,1,0} %get-tuple-element.699), metadata={op_type="Reshape" op_name="tower0/rpn_losses/level2/boolean_mask_1/Reshape_1"}
  %copy.207 = pred[182400]{0} copy(pred[182400]{0} %bitcast.290)
  %copy.208 = pred[182400]{0} copy(pred[182400]{0} %bitcast.290)
  %bitcast.291 = pred[182400]{0} bitcast(pred[200,304,3]{2,1,0} %get-tuple-element.700), metadata={op_type="Reshape" op_name="tower0/rpn_losses/level2/boolean_mask_3/Reshape_1"}
  %copy.209 = pred[182400]{0} copy(pred[182400]{0} %bitcast.291)
  %get-tuple-element.710 = f32[2000,4]{1,0} get-tuple-element((f32[2000,4]{1,0}, f32[2000,4]{1,0}, f32[2000,4]{1,0}, f32[2000,4]{1,0}) %fusion.19), index=1
  %get-tuple-element.2327 = f32[45600]{0} get-tuple-element((f32[45600]{0}, s32[45600]{0}) %sort.2326), index=0, metadata={op_type="TopKV2" op_name="tower0/generate_fpn_proposals/Lvl3/generate_rpn_proposals/TopKV2"}
  %slice.2328 = f32[2000]{0} slice(f32[45600]{0} %get-tuple-element.2327), slice={[0:2000]}, metadata={op_type="TopKV2" op_name="tower0/generate_fpn_proposals/Lvl3/generate_rpn_proposals/TopKV2"}
  %fusion.9 = f32[200,304,3]{2,1,0} fusion(f32[1,3,200,304]{3,2,1,0} %get-tuple-element.689, f32[3]{0} %arg284.285), kind=kLoop, calls=%fused_computation.9, metadata={op_name="XLA_Retvals"}
  %get-tuple-element.714 = f32[2000,4]{1,0} get-tuple-element((f32[2000,4]{1,0}, f32[2000,4]{1,0}, f32[2000,4]{1,0}, f32[2000,4]{1,0}) %fusion.19), index=3
  %get-tuple-element.2493 = f32[182400]{0} get-tuple-element((f32[182400]{0}, s32[182400]{0}) %sort.2492), index=0, metadata={op_type="TopKV2" op_name="tower0/generate_fpn_proposals/Lvl2/generate_rpn_proposals/TopKV2"}
  %slice.2494 = f32[2000]{0} slice(f32[182400]{0} %get-tuple-element.2493), slice={[0:2000]}, metadata={op_type="TopKV2" op_name="tower0/generate_fpn_proposals/Lvl2/generate_rpn_proposals/TopKV2"}
  %bitcast.252 = f32[1,2048,1,1]{3,2,1,0} bitcast(f32[2048]{0} %arg212.213), metadata={op_type="Reshape" op_name="tower0/group3/block2/conv3/bn/Reshape_2"}
  %copy.210 = f32[1,2048,1,1]{3,2,1,0} copy(f32[1,2048,1,1]{3,2,1,0} %bitcast.252)
  %bitcast.246 = f32[1,512,1,1]{3,2,1,0} bitcast(f32[512]{0} %arg208.209), metadata={op_type="Reshape" op_name="tower0/group3/block2/conv2/bn/Reshape_2"}
  %copy.211 = f32[1,512,1,1]{3,2,1,0} copy(f32[1,512,1,1]{3,2,1,0} %bitcast.246)
  %bitcast.240 = f32[1,512,1,1]{3,2,1,0} bitcast(f32[512]{0} %arg204.205), metadata={op_type="Reshape" op_name="tower0/group3/block2/conv1/bn/Reshape_2"}
  %copy.212 = f32[1,512,1,1]{3,2,1,0} copy(f32[1,512,1,1]{3,2,1,0} %bitcast.240)
  %bitcast.234 = f32[1,2048,1,1]{3,2,1,0} bitcast(f32[2048]{0} %arg200.201), metadata={op_type="Reshape" op_name="tower0/group3/block1/conv3/bn/Reshape_2"}
  %copy.213 = f32[1,2048,1,1]{3,2,1,0} copy(f32[1,2048,1,1]{3,2,1,0} %bitcast.234)
  %bitcast.228 = f32[1,512,1,1]{3,2,1,0} bitcast(f32[512]{0} %arg196.197), metadata={op_type="Reshape" op_name="tower0/group3/block1/conv2/bn/Reshape_2"}
  %copy.214 = f32[1,512,1,1]{3,2,1,0} copy(f32[1,512,1,1]{3,2,1,0} %bitcast.228)
  %bitcast.222 = f32[1,512,1,1]{3,2,1,0} bitcast(f32[512]{0} %arg192.193), metadata={op_type="Reshape" op_name="tower0/group3/block1/conv1/bn/Reshape_2"}
  %copy.215 = f32[1,512,1,1]{3,2,1,0} copy(f32[1,512,1,1]{3,2,1,0} %bitcast.222)
  %bitcast.210 = f32[1,2048,1,1]{3,2,1,0} bitcast(f32[2048]{0} %arg184.185), metadata={op_type="Reshape" op_name="tower0/group3/block0/conv3/bn/Reshape_2"}
  %copy.216 = f32[1,2048,1,1]{3,2,1,0} copy(f32[1,2048,1,1]{3,2,1,0} %bitcast.210)
  %bitcast.216 = f32[1,2048,1,1]{3,2,1,0} bitcast(f32[2048]{0} %arg188.189), metadata={op_type="Reshape" op_name="tower0/group3/block0/convshortcut/bn/Reshape_2"}
  %copy.217 = f32[1,2048,1,1]{3,2,1,0} copy(f32[1,2048,1,1]{3,2,1,0} %bitcast.216)
  %bitcast.204 = f32[1,512,1,1]{3,2,1,0} bitcast(f32[512]{0} %arg180.181), metadata={op_type="Reshape" op_name="tower0/group3/block0/conv2/bn/Reshape_2"}
  %copy.218 = f32[1,512,1,1]{3,2,1,0} copy(f32[1,512,1,1]{3,2,1,0} %bitcast.204)
  %bitcast.198 = f32[1,512,1,1]{3,2,1,0} bitcast(f32[512]{0} %arg176.177), metadata={op_type="Reshape" op_name="tower0/group3/block0/conv1/bn/Reshape_2"}
  %copy.219 = f32[1,512,1,1]{3,2,1,0} copy(f32[1,512,1,1]{3,2,1,0} %bitcast.198)
  %bitcast.192 = f32[1,1024,1,1]{3,2,1,0} bitcast(f32[1024]{0} %arg174.175), metadata={op_type="Reshape" op_name="tower0/group2/block5/conv3/bn/Reshape_2"}
  %copy.220 = f32[1,1024,1,1]{3,2,1,0} copy(f32[1,1024,1,1]{3,2,1,0} %bitcast.192)
  %bitcast.186 = f32[1,256,1,1]{3,2,1,0} bitcast(f32[256]{0} %arg6.7), metadata={op_type="Reshape" op_name="tower0/group2/block5/conv2/bn/Reshape_2"}
  %copy.221 = f32[1,256,1,1]{3,2,1,0} copy(f32[1,256,1,1]{3,2,1,0} %bitcast.186)
  %bitcast.180 = f32[1,256,1,1]{3,2,1,0} bitcast(f32[256]{0} %arg10.11), metadata={op_type="Reshape" op_name="tower0/group2/block5/conv1/bn/Reshape_2"}
  %copy.222 = f32[1,256,1,1]{3,2,1,0} copy(f32[1,256,1,1]{3,2,1,0} %bitcast.180)
  %bitcast.174 = f32[1,1024,1,1]{3,2,1,0} bitcast(f32[1024]{0} %arg172.173), metadata={op_type="Reshape" op_name="tower0/group2/block4/conv3/bn/Reshape_2"}
  %copy.223 = f32[1,1024,1,1]{3,2,1,0} copy(f32[1,1024,1,1]{3,2,1,0} %bitcast.174)
  %bitcast.168 = f32[1,256,1,1]{3,2,1,0} bitcast(f32[256]{0} %arg16.17), metadata={op_type="Reshape" op_name="tower0/group2/block4/conv2/bn/Reshape_2"}
  %copy.224 = f32[1,256,1,1]{3,2,1,0} copy(f32[1,256,1,1]{3,2,1,0} %bitcast.168)
  %bitcast.162 = f32[1,256,1,1]{3,2,1,0} bitcast(f32[256]{0} %arg20.21), metadata={op_type="Reshape" op_name="tower0/group2/block4/conv1/bn/Reshape_2"}
  %copy.225 = f32[1,256,1,1]{3,2,1,0} copy(f32[1,256,1,1]{3,2,1,0} %bitcast.162)
  %bitcast.156 = f32[1,1024,1,1]{3,2,1,0} bitcast(f32[1024]{0} %arg170.171), metadata={op_type="Reshape" op_name="tower0/group2/block3/conv3/bn/Reshape_2"}
  %copy.226 = f32[1,1024,1,1]{3,2,1,0} copy(f32[1,1024,1,1]{3,2,1,0} %bitcast.156)
  %bitcast.150 = f32[1,256,1,1]{3,2,1,0} bitcast(f32[256]{0} %arg26.27), metadata={op_type="Reshape" op_name="tower0/group2/block3/conv2/bn/Reshape_2"}
  %copy.227 = f32[1,256,1,1]{3,2,1,0} copy(f32[1,256,1,1]{3,2,1,0} %bitcast.150)
  %bitcast.144 = f32[1,256,1,1]{3,2,1,0} bitcast(f32[256]{0} %arg30.31), metadata={op_type="Reshape" op_name="tower0/group2/block3/conv1/bn/Reshape_2"}
  %copy.228 = f32[1,256,1,1]{3,2,1,0} copy(f32[1,256,1,1]{3,2,1,0} %bitcast.144)
  %bitcast.138 = f32[1,1024,1,1]{3,2,1,0} bitcast(f32[1024]{0} %arg168.169), metadata={op_type="Reshape" op_name="tower0/group2/block2/conv3/bn/Reshape_2"}
  %copy.229 = f32[1,1024,1,1]{3,2,1,0} copy(f32[1,1024,1,1]{3,2,1,0} %bitcast.138)
  %bitcast.132 = f32[1,256,1,1]{3,2,1,0} bitcast(f32[256]{0} %arg36.37), metadata={op_type="Reshape" op_name="tower0/group2/block2/conv2/bn/Reshape_2"}
  %copy.230 = f32[1,256,1,1]{3,2,1,0} copy(f32[1,256,1,1]{3,2,1,0} %bitcast.132)
  %bitcast.126 = f32[1,256,1,1]{3,2,1,0} bitcast(f32[256]{0} %arg40.41), metadata={op_type="Reshape" op_name="tower0/group2/block2/conv1/bn/Reshape_2"}
  %copy.231 = f32[1,256,1,1]{3,2,1,0} copy(f32[1,256,1,1]{3,2,1,0} %bitcast.126)
  %bitcast.120 = f32[1,1024,1,1]{3,2,1,0} bitcast(f32[1024]{0} %arg166.167), metadata={op_type="Reshape" op_name="tower0/group2/block1/conv3/bn/Reshape_2"}
  %copy.232 = f32[1,1024,1,1]{3,2,1,0} copy(f32[1,1024,1,1]{3,2,1,0} %bitcast.120)
  %bitcast.114 = f32[1,256,1,1]{3,2,1,0} bitcast(f32[256]{0} %arg46.47), metadata={op_type="Reshape" op_name="tower0/group2/block1/conv2/bn/Reshape_2"}
  %copy.233 = f32[1,256,1,1]{3,2,1,0} copy(f32[1,256,1,1]{3,2,1,0} %bitcast.114)
  %bitcast.108 = f32[1,256,1,1]{3,2,1,0} bitcast(f32[256]{0} %arg50.51), metadata={op_type="Reshape" op_name="tower0/group2/block1/conv1/bn/Reshape_2"}
  %copy.234 = f32[1,256,1,1]{3,2,1,0} copy(f32[1,256,1,1]{3,2,1,0} %bitcast.108)
  %bitcast.102 = f32[1,1024,1,1]{3,2,1,0} bitcast(f32[1024]{0} %arg54.55), metadata={op_type="Reshape" op_name="tower0/group2/block0/convshortcut/bn/Reshape_2"}
  %copy.235 = f32[1,1024,1,1]{3,2,1,0} copy(f32[1,1024,1,1]{3,2,1,0} %bitcast.102)
  %bitcast.96 = f32[1,1024,1,1]{3,2,1,0} bitcast(f32[1024]{0} %arg156.157), metadata={op_type="Reshape" op_name="tower0/group2/block0/conv3/bn/Reshape_2"}
  %copy.236 = f32[1,1024,1,1]{3,2,1,0} copy(f32[1,1024,1,1]{3,2,1,0} %bitcast.96)
  %bitcast.90 = f32[1,256,1,1]{3,2,1,0} bitcast(f32[256]{0} %arg160.161), metadata={op_type="Reshape" op_name="tower0/group2/block0/conv2/bn/Reshape_2"}
  %copy.237 = f32[1,256,1,1]{3,2,1,0} copy(f32[1,256,1,1]{3,2,1,0} %bitcast.90)
  %bitcast.84 = f32[1,256,1,1]{3,2,1,0} bitcast(f32[256]{0} %arg164.165), metadata={op_type="Reshape" op_name="tower0/group2/block0/conv1/bn/Reshape_2"}
  %copy.238 = f32[1,256,1,1]{3,2,1,0} copy(f32[1,256,1,1]{3,2,1,0} %bitcast.84)
  %bitcast.78 = f32[1,512,1,1]{3,2,1,0} bitcast(f32[512]{0} %arg152.153), metadata={op_type="Reshape" op_name="tower0/group1/block3/conv3/bn/Reshape_2"}
  %copy.239 = f32[1,512,1,1]{3,2,1,0} copy(f32[1,512,1,1]{3,2,1,0} %bitcast.78)
  %bitcast.72 = f32[1,128,1,1]{3,2,1,0} bitcast(f32[128]{0} %arg60.61), metadata={op_type="Reshape" op_name="tower0/group1/block3/conv2/bn/Reshape_2"}
  %copy.240 = f32[1,128,1,1]{3,2,1,0} copy(f32[1,128,1,1]{3,2,1,0} %bitcast.72)
  %bitcast.66 = f32[1,128,1,1]{3,2,1,0} bitcast(f32[128]{0} %arg64.65), metadata={op_type="Reshape" op_name="tower0/group1/block3/conv1/bn/Reshape_2"}
  %copy.241 = f32[1,128,1,1]{3,2,1,0} copy(f32[1,128,1,1]{3,2,1,0} %bitcast.66)
  %bitcast.60 = f32[1,512,1,1]{3,2,1,0} bitcast(f32[512]{0} %arg150.151), metadata={op_type="Reshape" op_name="tower0/group1/block2/conv3/bn/Reshape_2"}
  %copy.242 = f32[1,512,1,1]{3,2,1,0} copy(f32[1,512,1,1]{3,2,1,0} %bitcast.60)
  %bitcast.54 = f32[1,128,1,1]{3,2,1,0} bitcast(f32[128]{0} %arg70.71), metadata={op_type="Reshape" op_name="tower0/group1/block2/conv2/bn/Reshape_2"}
  %copy.243 = f32[1,128,1,1]{3,2,1,0} copy(f32[1,128,1,1]{3,2,1,0} %bitcast.54)
  %bitcast.48 = f32[1,128,1,1]{3,2,1,0} bitcast(f32[128]{0} %arg74.75), metadata={op_type="Reshape" op_name="tower0/group1/block2/conv1/bn/Reshape_2"}
  %copy.244 = f32[1,128,1,1]{3,2,1,0} copy(f32[1,128,1,1]{3,2,1,0} %bitcast.48)
  %bitcast.42 = f32[1,512,1,1]{3,2,1,0} bitcast(f32[512]{0} %arg148.149), metadata={op_type="Reshape" op_name="tower0/group1/block1/conv3/bn/Reshape_2"}
  %copy.245 = f32[1,512,1,1]{3,2,1,0} copy(f32[1,512,1,1]{3,2,1,0} %bitcast.42)
  %bitcast.36 = f32[1,128,1,1]{3,2,1,0} bitcast(f32[128]{0} %arg80.81), metadata={op_type="Reshape" op_name="tower0/group1/block1/conv2/bn/Reshape_2"}
  %copy.246 = f32[1,128,1,1]{3,2,1,0} copy(f32[1,128,1,1]{3,2,1,0} %bitcast.36)
  %bitcast.30 = f32[1,128,1,1]{3,2,1,0} bitcast(f32[128]{0} %arg84.85), metadata={op_type="Reshape" op_name="tower0/group1/block1/conv1/bn/Reshape_2"}
  %copy.247 = f32[1,128,1,1]{3,2,1,0} copy(f32[1,128,1,1]{3,2,1,0} %bitcast.30)
  %bitcast.24 = f32[1,512,1,1]{3,2,1,0} bitcast(f32[512]{0} %arg88.89), metadata={op_type="Reshape" op_name="tower0/group1/block0/convshortcut/bn/Reshape_2"}
  %copy.248 = f32[1,512,1,1]{3,2,1,0} copy(f32[1,512,1,1]{3,2,1,0} %bitcast.24)
  %bitcast.18 = f32[1,512,1,1]{3,2,1,0} bitcast(f32[512]{0} %arg138.139), metadata={op_type="Reshape" op_name="tower0/group1/block0/conv3/bn/Reshape_2"}
  %copy.249 = f32[1,512,1,1]{3,2,1,0} copy(f32[1,512,1,1]{3,2,1,0} %bitcast.18)
  %bitcast.12 = f32[1,128,1,1]{3,2,1,0} bitcast(f32[128]{0} %arg142.143), metadata={op_type="Reshape" op_name="tower0/group1/block0/conv2/bn/Reshape_2"}
  %copy.250 = f32[1,128,1,1]{3,2,1,0} copy(f32[1,128,1,1]{3,2,1,0} %bitcast.12)
  %bitcast.6 = f32[1,128,1,1]{3,2,1,0} bitcast(f32[128]{0} %arg146.147), metadata={op_type="Reshape" op_name="tower0/group1/block0/conv1/bn/Reshape_2"}
  %copy.251 = f32[1,128,1,1]{3,2,1,0} copy(f32[1,128,1,1]{3,2,1,0} %bitcast.6)
  ROOT %tuple.86 = (f32[], f32[1,128,201,305]{3,2,1,0}, f32[1,128,100,152]{3,2,1,0}, f32[1,512,100,152]{3,2,1,0}, f32[1,128,100,152]{3,2,1,0}, f32[1,128,100,152]{3,2,1,0}, f32[1,512,100,152]{3,2,1,0}, f32[1,128,100,152]{3,2,1,0}, f32[1,128,100,152]{3,2,1,0}, f32[1,512,100,152]{3,2,1,0}, f32[1,128,100,152]{3,2,1,0}, f32[1,128,100,152]{3,2,1,0}, f32[1,512,100,152]{3,2,1,0}, f32[1,256,101,153]{3,2,1,0}, f32[1,256,50,76]{3,2,1,0}, f32[1,1024,50,76]{3,2,1,0}, f32[1,256,50,76]{3,2,1,0}, f32[1,256,50,76]{3,2,1,0}, f32[1,1024,50,76]{3,2,1,0}, f32[1,256,50,76]{3,2,1,0}, f32[1,256,50,76]{3,2,1,0}, f32[1,1024,50,76]{3,2,1,0}, f32[1,256,50,76]{3,2,1,0}, f32[1,256,50,76]{3,2,1,0}, f32[1,1024,50,76]{3,2,1,0}, f32[1,256,50,76]{3,2,1,0}, f32[1,256,50,76]{3,2,1,0}, f32[1,1024,50,76]{3,2,1,0}, f32[1,256,50,76]{3,2,1,0}, f32[1,256,50,76]{3,2,1,0}, f32[1,1024,50,76]{3,2,1,0}, f32[1,512,51,77]{3,2,1,0}, f32[1,512,25,38]{3,2,1,0}, f32[1,2048,25,38]{3,2,1,0}, f32[1,512,25,38]{3,2,1,0}, f32[1,512,25,38]{3,2,1,0}, f32[1,2048,25,38]{3,2,1,0}, f32[1,512,25,38]{3,2,1,0}, f32[1,512,25,38]{3,2,1,0}, f32[1,2048,25,38]{3,2,1,0}, f32[1,256,25,38]{3,2,1,0}, f32[1,256,25,38]{3,2,1,0}, f32[1,256,13,19]{3,2,1,0}, f32[1,256,25,38]{3,2,1,0}, f32[1,256,13,19]{3,2,1,0}, pred[25,38,3]{2,1,0}, pred[25,38,3]{2,1,0}, pred[13,19,3]{2,1,0}, pred[13,19,3]{2,1,0}, pred[2850]{0}, pred[2850]{0}, pred[2850]{0}, pred[741]{0}, pred[741]{0}, pred[741]{0}, f32[25,38,3]{2,1,0}, f32[13,19,3]{2,1,0}, f32[1,25,38,12]{3,2,1,0}, f32[1,256,50,76]{3,2,1,0}, f32[1,13,19,12]{3,2,1,0}, f32[1,256,50,76]{3,2,1,0}, f32[1,256,50,76]{3,2,1,0}, pred[50,76,3]{2,1,0}, pred[50,76,3]{2,1,0}, pred[11400]{0}, pred[11400]{0}, pred[11400]{0}, f32[2000,4]{1,0}, f32[2000]{0}, f32[50,76,3]{2,1,0}, f32[741,4]{1,0}, f32[741]{0}, f32[1,50,76,12]{3,2,1,0}, f32[1,256,100,152]{3,2,1,0}, f32[1,256,100,152]{3,2,1,0}, f32[1,256,100,152]{3,2,1,0}, pred[100,152,3]{2,1,0}, pred[100,152,3]{2,1,0}, pred[45600]{0}, pred[45600]{0}, pred[45600]{0}, f32[2000,4]{1,0}, f32[2000]{0}, f32[100,152,3]{2,1,0}, f32[1,100,152,12]{3,2,1,0}, f32[1,256,200,304]{3,2,1,0}, f32[1,256,200,304]{3,2,1,0}, f32[1,256,200,304]{3,2,1,0}, pred[200,304,3]{2,1,0}, pred[200,304,3]{2,1,0}, pred[182400]{0}, pred[182400]{0}, pred[182400]{0}, f32[2000,4]{1,0}, f32[2000]{0}, f32[200,304,3]{2,1,0}, f32[1,200,304,12]{3,2,1,0}, f32[2000,4]{1,0}, f32[2000]{0}, f32[1,256,200,304]{3,2,1,0}, f32[1,2048,1,1]{3,2,1,0}, f32[1,2048,25,38]{3,2,1,0}, f32[1,2048,1,1]{3,2,1,0}, f32[1,2048,1,1]{3,2,1,0}, f32[1,512,1,1]{3,2,1,0}, f32[1,512,25,38]{3,2,1,0}, f32[1,512,1,1]{3,2,1,0}, f32[1,512,1,1]{3,2,1,0}, f32[1,512,1,1]{3,2,1,0}, f32[1,512,25,38]{3,2,1,0}, f32[1,512,1,1]{3,2,1,0}, f32[1,512,1,1]{3,2,1,0}, f32[1,2048,1,1]{3,2,1,0}, f32[1,2048,25,38]{3,2,1,0}, f32[1,2048,1,1]{3,2,1,0}, f32[1,2048,1,1]{3,2,1,0}, f32[1,512,1,1]{3,2,1,0}, f32[1,512,25,38]{3,2,1,0}, f32[1,512,1,1]{3,2,1,0}, f32[1,512,1,1]{3,2,1,0}, f32[1,512,1,1]{3,2,1,0}, f32[1,512,25,38]{3,2,1,0}, f32[1,512,1,1]{3,2,1,0}, f32[1,512,1,1]{3,2,1,0}, f32[1,2048,1,1]{3,2,1,0}, f32[1,2048,25,38]{3,2,1,0}, f32[1,2048,1,1]{3,2,1,0}, f32[1,2048,25,38]{3,2,1,0}, f32[1,2048,1,1]{3,2,1,0}, f32[1,2048,1,1]{3,2,1,0}, f32[1,2048,1,1]{3,2,1,0}, f32[1,2048,1,1]{3,2,1,0}, f32[1,512,1,1]{3,2,1,0}, f32[1,512,25,38]{3,2,1,0}, f32[1,512,1,1]{3,2,1,0}, f32[1,512,1,1]{3,2,1,0}, f32[1,512,50,76]{3,2,1,0}, f32[1,512,50,76]{3,2,1,0}, f32[1,512,1,1]{3,2,1,0}, f32[1,512,1,1]{3,2,1,0}, f32[1,512,1,1]{3,2,1,0}, f32[1,1024,50,76]{3,2,1,0}, f32[1,1024,1,1]{3,2,1,0}, f32[1,1024,1,1]{3,2,1,0}, f32[1,1024,1,1]{3,2,1,0}, f32[1,256,50,76]{3,2,1,0}, f32[1,256,1,1]{3,2,1,0}, f32[1,256,1,1]{3,2,1,0}, f32[1,256,1,1]{3,2,1,0}, f32[1,256,1,1]{3,2,1,0}, f32[1,256,50,76]{3,2,1,0}, f32[1,256,1,1]{3,2,1,0}, f32[1,256,1,1]{3,2,1,0}, f32[1,1024,1,1]{3,2,1,0}, f32[1,1024,50,76]{3,2,1,0}, f32[1,1024,1,1]{3,2,1,0}, f32[1,1024,1,1]{3,2,1,0}, f32[1,256,1,1]{3,2,1,0}, f32[1,256,50,76]{3,2,1,0}, f32[1,256,1,1]{3,2,1,0}, f32[1,256,1,1]{3,2,1,0}, f32[1,256,1,1]{3,2,1,0}, f32[1,256,50,76]{3,2,1,0}, f32[1,256,1,1]{3,2,1,0}, f32[1,256,1,1]{3,2,1,0}, f32[1,1024,1,1]{3,2,1,0}, f32[1,1024,50,76]{3,2,1,0}, f32[1,1024,1,1]{3,2,1,0}, f32[1,1024,1,1]{3,2,1,0}, f32[1,256,1,1]{3,2,1,0}, f32[1,256,50,76]{3,2,1,0}, f32[1,256,1,1]{3,2,1,0}, f32[1,256,1,1]{3,2,1,0}, f32[1,256,1,1]{3,2,1,0}, f32[1,256,50,76]{3,2,1,0}, f32[1,256,1,1]{3,2,1,0}, f32[1,256,1,1]{3,2,1,0}, f32[1,1024,1,1]{3,2,1,0}, f32[1,1024,50,76]{3,2,1,0}, f32[1,1024,1,1]{3,2,1,0}, f32[1,1024,1,1]{3,2,1,0}, f32[1,256,1,1]{3,2,1,0}, f32[1,256,50,76]{3,2,1,0}, f32[1,256,1,1]{3,2,1,0}, f32[1,256,1,1]{3,2,1,0}, f32[1,256,1,1]{3,2,1,0}, f32[1,256,50,76]{3,2,1,0}, f32[1,256,1,1]{3,2,1,0}, f32[1,256,1,1]{3,2,1,0}, f32[1,1024,1,1]{3,2,1,0}, f32[1,1024,50,76]{3,2,1,0}, f32[1,1024,1,1]{3,2,1,0}, f32[1,1024,1,1]{3,2,1,0}, f32[1,256,1,1]{3,2,1,0}, f32[1,256,50,76]{3,2,1,0}, f32[1,256,1,1]{3,2,1,0}, f32[1,256,1,1]{3,2,1,0}, f32[1,256,1,1]{3,2,1,0}, f32[1,256,50,76]{3,2,1,0}, f32[1,256,1,1]{3,2,1,0}, f32[1,256,1,1]{3,2,1,0}, f32[1,1024,1,1]{3,2,1,0}, f32[1,1024,50,76]{3,2,1,0}, f32[1,1024,1,1]{3,2,1,0}, f32[1,1024,50,76]{3,2,1,0}, f32[1,1024,1,1]{3,2,1,0}, f32[1,1024,1,1]{3,2,1,0}, f32[1,1024,1,1]{3,2,1,0}, f32[1,1024,1,1]{3,2,1,0}, f32[1,256,1,1]{3,2,1,0}, f32[1,256,50,76]{3,2,1,0}, f32[1,256,1,1]{3,2,1,0}, f32[1,256,1,1]{3,2,1,0}, f32[1,256,100,152]{3,2,1,0}, f32[1,256,1,1]{3,2,1,0}, f32[1,256,100,152]{3,2,1,0}, f32[1,256,1,1]{3,2,1,0}, f32[1,256,1,1]{3,2,1,0}, f32[1,512,1,1]{3,2,1,0}, f32[1,512,100,152]{3,2,1,0}, f32[1,512,1,1]{3,2,1,0}, f32[1,512,1,1]{3,2,1,0}, f32[1,128,1,1]{3,2,1,0}, f32[1,128,100,152]{3,2,1,0}, f32[1,128,1,1]{3,2,1,0}, f32[1,128,1,1]{3,2,1,0}, f32[1,128,1,1]{3,2,1,0}, f32[1,128,100,152]{3,2,1,0}, f32[1,128,1,1]{3,2,1,0}, f32[1,128,1,1]{3,2,1,0}, f32[1,512,1,1]{3,2,1,0}, f32[1,512,100,152]{3,2,1,0}, f32[1,512,1,1]{3,2,1,0}, f32[1,512,1,1]{3,2,1,0}, f32[1,128,1,1]{3,2,1,0}, f32[1,128,100,152]{3,2,1,0}, f32[1,128,1,1]{3,2,1,0}, f32[1,128,1,1]{3,2,1,0}, f32[1,128,1,1]{3,2,1,0}, f32[1,128,100,152]{3,2,1,0}, f32[1,128,1,1]{3,2,1,0}, f32[1,128,1,1]{3,2,1,0}, f32[1,512,1,1]{3,2,1,0}, f32[1,512,100,152]{3,2,1,0}, f32[1,512,1,1]{3,2,1,0}, f32[1,512,1,1]{3,2,1,0}, f32[1,128,1,1]{3,2,1,0}, f32[1,128,100,152]{3,2,1,0}, f32[1,128,1,1]{3,2,1,0}, f32[1,128,1,1]{3,2,1,0}, f32[1,128,1,1]{3,2,1,0}, f32[1,128,100,152]{3,2,1,0}, f32[1,128,1,1]{3,2,1,0}, f32[1,128,1,1]{3,2,1,0}, f32[1,512,1,1]{3,2,1,0}, f32[1,512,100,152]{3,2,1,0}, f32[1,512,100,152]{3,2,1,0}, f32[1,512,1,1]{3,2,1,0}, f32[1,512,1,1]{3,2,1,0}, f32[1,512,1,1]{3,2,1,0}, f32[1,512,1,1]{3,2,1,0}, f32[1,512,1,1]{3,2,1,0}, f32[1,128,100,152]{3,2,1,0}, f32[1,128,1,1]{3,2,1,0}, f32[1,128,1,1]{3,2,1,0}, f32[1,128,1,1]{3,2,1,0}, f32[1,128,200,304]{3,2,1,0}, f32[1,128,200,304]{3,2,1,0}, f32[1,128,1,1]{3,2,1,0}, f32[1,128,1,1]{3,2,1,0}, f32[1,128,1,1]{3,2,1,0}) tuple(f32[] %fusion.46, f32[1,128,201,305]{3,2,1,0} %pad.9, f32[1,128,100,152]{3,2,1,0} %fusion.172, f32[1,512,100,152]{3,2,1,0} %fusion.167, f32[1,128,100,152]{3,2,1,0} %fusion.164, f32[1,128,100,152]{3,2,1,0} %fusion.161, f32[1,512,100,152]{3,2,1,0} %fusion.158, f32[1,128,100,152]{3,2,1,0} %fusion.155, f32[1,128,100,152]{3,2,1,0} %fusion.152, f32[1,512,100,152]{3,2,1,0} %fusion.149, f32[1,128,100,152]{3,2,1,0} %fusion.146, f32[1,128,100,152]{3,2,1,0} %fusion.143, f32[1,512,100,152]{3,2,1,0} %fusion.140, f32[1,256,101,153]{3,2,1,0} %pad.10, f32[1,256,50,76]{3,2,1,0} %fusion.134, f32[1,1024,50,76]{3,2,1,0} %fusion.129, f32[1,256,50,76]{3,2,1,0} %fusion.126, f32[1,256,50,76]{3,2,1,0} %fusion.123, f32[1,1024,50,76]{3,2,1,0} %fusion.120, f32[1,256,50,76]{3,2,1,0} %fusion.117, f32[1,256,50,76]{3,2,1,0} %fusion.114, f32[1,1024,50,76]{3,2,1,0} %fusion.111, f32[1,256,50,76]{3,2,1,0} %fusion.108, f32[1,256,50,76]{3,2,1,0} %fusion.105, f32[1,1024,50,76]{3,2,1,0} %fusion.102, f32[1,256,50,76]{3,2,1,0} %fusion.99, f32[1,256,50,76]{3,2,1,0} %fusion.96, f32[1,1024,50,76]{3,2,1,0} %fusion.93, f32[1,256,50,76]{3,2,1,0} %fusion.90, f32[1,256,50,76]{3,2,1,0} %fusion.87, f32[1,1024,50,76]{3,2,1,0} %fusion.84, f32[1,512,51,77]{3,2,1,0} %pad.11, f32[1,512,25,38]{3,2,1,0} %fusion.78, f32[1,2048,25,38]{3,2,1,0} %fusion.73, f32[1,512,25,38]{3,2,1,0} %fusion.70, f32[1,512,25,38]{3,2,1,0} %fusion.67, f32[1,2048,25,38]{3,2,1,0} %fusion.64, f32[1,512,25,38]{3,2,1,0} %fusion.61, f32[1,512,25,38]{3,2,1,0} %fusion.58, f32[1,2048,25,38]{3,2,1,0} %fusion.55, f32[1,256,25,38]{3,2,1,0} %fusion.54, f32[1,256,25,38]{3,2,1,0} %fusion.53, f32[1,256,13,19]{3,2,1,0} %reduce-window.1827, f32[1,256,25,38]{3,2,1,0} %get-tuple-element.691, f32[1,256,13,19]{3,2,1,0} %get-tuple-element.690, pred[25,38,3]{2,1,0} %get-tuple-element.705, pred[25,38,3]{2,1,0} %get-tuple-element.706, pred[13,19,3]{2,1,0} %get-tuple-element.707, pred[13,19,3]{2,1,0} %get-tuple-element.708, pred[2850]{0} %copy.195, pred[2850]{0} %copy.196, pred[2850]{0} %copy.197, pred[741]{0} %copy.198, pred[741]{0} %copy.199, pred[741]{0} %copy.200, f32[25,38,3]{2,1,0} %fusion.40, f32[13,19,3]{2,1,0} %fusion.38, f32[1,25,38,12]{3,2,1,0} %fusion.37, f32[1,256,50,76]{3,2,1,0} %fusion.52, f32[1,13,19,12]{3,2,1,0} %fusion.36, f32[1,256,50,76]{3,2,1,0} %fusion.51, f32[1,256,50,76]{3,2,1,0} %get-tuple-element.692, pred[50,76,3]{2,1,0} %get-tuple-element.703, pred[50,76,3]{2,1,0} %get-tuple-element.704, pred[11400]{0} %copy.201, pred[11400]{0} %copy.202, pred[11400]{0} %copy.203, f32[2000,4]{1,0} %get-tuple-element.713, f32[2000]{0} %slice.1996, f32[50,76,3]{2,1,0} %fusion.28, f32[741,4]{1,0} %fusion.25, f32[741]{0} %get-tuple-element.1921, f32[1,50,76,12]{3,2,1,0} %fusion.24, f32[1,256,100,152]{3,2,1,0} %fusion.50, f32[1,256,100,152]{3,2,1,0} %fusion.49, f32[1,256,100,152]{3,2,1,0} %get-tuple-element.693, pred[100,152,3]{2,1,0} %get-tuple-element.701, pred[100,152,3]{2,1,0} %get-tuple-element.702, pred[45600]{0} %copy.204, pred[45600]{0} %copy.205, pred[45600]{0} %copy.206, f32[2000,4]{1,0} %get-tuple-element.709, f32[2000]{0} %slice.2162, f32[100,152,3]{2,1,0} %fusion.17, f32[1,100,152,12]{3,2,1,0} %fusion.16, f32[1,256,200,304]{3,2,1,0} %fusion.48, f32[1,256,200,304]{3,2,1,0} %fusion.47, f32[1,256,200,304]{3,2,1,0} %get-tuple-element.694, pred[200,304,3]{2,1,0} %get-tuple-element.699, pred[200,304,3]{2,1,0} %get-tuple-element.700, pred[182400]{0} %copy.207, pred[182400]{0} %copy.208, pred[182400]{0} %copy.209, f32[2000,4]{1,0} %get-tuple-element.710, f32[2000]{0} %slice.2328, f32[200,304,3]{2,1,0} %fusion.9, f32[1,200,304,12]{3,2,1,0} %fusion.8, f32[2000,4]{1,0} %get-tuple-element.714, f32[2000]{0} %slice.2494, f32[1,256,200,304]{3,2,1,0} %fusion.178, f32[1,2048,1,1]{3,2,1,0} %fusion.56, f32[1,2048,25,38]{3,2,1,0} %get-tuple-element.674, f32[1,2048,1,1]{3,2,1,0} %copy.210, f32[1,2048,1,1]{3,2,1,0} %fusion.57, f32[1,512,1,1]{3,2,1,0} %fusion.59, f32[1,512,25,38]{3,2,1,0} %get-tuple-element.673, f32[1,512,1,1]{3,2,1,0} %copy.211, f32[1,512,1,1]{3,2,1,0} %fusion.60, f32[1,512,1,1]{3,2,1,0} %fusion.62, f32[1,512,25,38]{3,2,1,0} %get-tuple-element.672, f32[1,512,1,1]{3,2,1,0} %copy.212, f32[1,512,1,1]{3,2,1,0} %fusion.63, f32[1,2048,1,1]{3,2,1,0} %fusion.65, f32[1,2048,25,38]{3,2,1,0} %get-tuple-element.671, f32[1,2048,1,1]{3,2,1,0} %copy.213, f32[1,2048,1,1]{3,2,1,0} %fusion.66, f32[1,512,1,1]{3,2,1,0} %fusion.68, f32[1,512,25,38]{3,2,1,0} %get-tuple-element.670, f32[1,512,1,1]{3,2,1,0} %copy.214, f32[1,512,1,1]{3,2,1,0} %fusion.69, f32[1,512,1,1]{3,2,1,0} %fusion.71, f32[1,512,25,38]{3,2,1,0} %get-tuple-element.669, f32[1,512,1,1]{3,2,1,0} %copy.215, f32[1,512,1,1]{3,2,1,0} %fusion.72, f32[1,2048,1,1]{3,2,1,0} %fusion.76, f32[1,2048,25,38]{3,2,1,0} %get-tuple-element.667, f32[1,2048,1,1]{3,2,1,0} %fusion.74, f32[1,2048,25,38]{3,2,1,0} %get-tuple-element.668, f32[1,2048,1,1]{3,2,1,0} %copy.216, f32[1,2048,1,1]{3,2,1,0} %copy.217, f32[1,2048,1,1]{3,2,1,0} %fusion.77, f32[1,2048,1,1]{3,2,1,0} %fusion.75, f32[1,512,1,1]{3,2,1,0} %fusion.79, f32[1,512,25,38]{3,2,1,0} %get-tuple-element.698, f32[1,512,1,1]{3,2,1,0} %copy.218, f32[1,512,1,1]{3,2,1,0} %fusion.80, f32[1,512,50,76]{3,2,1,0} %fusion.81, f32[1,512,50,76]{3,2,1,0} %get-tuple-element.666, f32[1,512,1,1]{3,2,1,0} %fusion.82, f32[1,512,1,1]{3,2,1,0} %copy.219, f32[1,512,1,1]{3,2,1,0} %fusion.83, f32[1,1024,50,76]{3,2,1,0} %get-tuple-element.664, f32[1,1024,1,1]{3,2,1,0} %fusion.85, f32[1,1024,1,1]{3,2,1,0} %copy.220, f32[1,1024,1,1]{3,2,1,0} %fusion.86, f32[1,256,50,76]{3,2,1,0} %get-tuple-element.663, f32[1,256,1,1]{3,2,1,0} %fusion.88, f32[1,256,1,1]{3,2,1,0} %copy.221, f32[1,256,1,1]{3,2,1,0} %fusion.89, f32[1,256,1,1]{3,2,1,0} %fusion.91, f32[1,256,50,76]{3,2,1,0} %get-tuple-element.662, f32[1,256,1,1]{3,2,1,0} %copy.222, f32[1,256,1,1]{3,2,1,0} %fusion.92, f32[1,1024,1,1]{3,2,1,0} %fusion.94, f32[1,1024,50,76]{3,2,1,0} %get-tuple-element.661, f32[1,1024,1,1]{3,2,1,0} %copy.223, f32[1,1024,1,1]{3,2,1,0} %fusion.95, f32[1,256,1,1]{3,2,1,0} %fusion.97, f32[1,256,50,76]{3,2,1,0} %get-tuple-element.660, f32[1,256,1,1]{3,2,1,0} %copy.224, f32[1,256,1,1]{3,2,1,0} %fusion.98, f32[1,256,1,1]{3,2,1,0} %fusion.100, f32[1,256,50,76]{3,2,1,0} %get-tuple-element.659, f32[1,256,1,1]{3,2,1,0} %copy.225, f32[1,256,1,1]{3,2,1,0} %fusion.101, f32[1,1024,1,1]{3,2,1,0} %fusion.103, f32[1,1024,50,76]{3,2,1,0} %get-tuple-element.658, f32[1,1024,1,1]{3,2,1,0} %copy.226, f32[1,1024,1,1]{3,2,1,0} %fusion.104, f32[1,256,1,1]{3,2,1,0} %fusion.106, f32[1,256,50,76]{3,2,1,0} %get-tuple-element.657, f32[1,256,1,1]{3,2,1,0} %copy.227, f32[1,256,1,1]{3,2,1,0} %fusion.107, f32[1,256,1,1]{3,2,1,0} %fusion.109, f32[1,256,50,76]{3,2,1,0} %get-tuple-element.656, f32[1,256,1,1]{3,2,1,0} %copy.228, f32[1,256,1,1]{3,2,1,0} %fusion.110, f32[1,1024,1,1]{3,2,1,0} %fusion.112, f32[1,1024,50,76]{3,2,1,0} %get-tuple-element.655, f32[1,1024,1,1]{3,2,1,0} %copy.229, f32[1,1024,1,1]{3,2,1,0} %fusion.113, f32[1,256,1,1]{3,2,1,0} %fusion.115, f32[1,256,50,76]{3,2,1,0} %get-tuple-element.654, f32[1,256,1,1]{3,2,1,0} %copy.230, f32[1,256,1,1]{3,2,1,0} %fusion.116, f32[1,256,1,1]{3,2,1,0} %fusion.118, f32[1,256,50,76]{3,2,1,0} %get-tuple-element.653, f32[1,256,1,1]{3,2,1,0} %copy.231, f32[1,256,1,1]{3,2,1,0} %fusion.119, f32[1,1024,1,1]{3,2,1,0} %fusion.121, f32[1,1024,50,76]{3,2,1,0} %get-tuple-element.652, f32[1,1024,1,1]{3,2,1,0} %copy.232, f32[1,1024,1,1]{3,2,1,0} %fusion.122, f32[1,256,1,1]{3,2,1,0} %fusion.124, f32[1,256,50,76]{3,2,1,0} %get-tuple-element.651, f32[1,256,1,1]{3,2,1,0} %copy.233, f32[1,256,1,1]{3,2,1,0} %fusion.125, f32[1,256,1,1]{3,2,1,0} %fusion.127, f32[1,256,50,76]{3,2,1,0} %get-tuple-element.650, f32[1,256,1,1]{3,2,1,0} %copy.234, f32[1,256,1,1]{3,2,1,0} %fusion.128, f32[1,1024,1,1]{3,2,1,0} %fusion.130, f32[1,1024,50,76]{3,2,1,0} %get-tuple-element.649, f32[1,1024,1,1]{3,2,1,0} %fusion.132, f32[1,1024,50,76]{3,2,1,0} %get-tuple-element.648, f32[1,1024,1,1]{3,2,1,0} %copy.235, f32[1,1024,1,1]{3,2,1,0} %copy.236, f32[1,1024,1,1]{3,2,1,0} %fusion.131, f32[1,1024,1,1]{3,2,1,0} %fusion.133, f32[1,256,1,1]{3,2,1,0} %fusion.135, f32[1,256,50,76]{3,2,1,0} %get-tuple-element.697, f32[1,256,1,1]{3,2,1,0} %copy.237, f32[1,256,1,1]{3,2,1,0} %fusion.136, f32[1,256,100,152]{3,2,1,0} %fusion.137, f32[1,256,1,1]{3,2,1,0} %fusion.138, f32[1,256,100,152]{3,2,1,0} %get-tuple-element.647, f32[1,256,1,1]{3,2,1,0} %copy.238, f32[1,256,1,1]{3,2,1,0} %fusion.139, f32[1,512,1,1]{3,2,1,0} %fusion.141, f32[1,512,100,152]{3,2,1,0} %get-tuple-element.645, f32[1,512,1,1]{3,2,1,0} %copy.239, f32[1,512,1,1]{3,2,1,0} %fusion.142, f32[1,128,1,1]{3,2,1,0} %fusion.144, f32[1,128,100,152]{3,2,1,0} %get-tuple-element.644, f32[1,128,1,1]{3,2,1,0} %copy.240, f32[1,128,1,1]{3,2,1,0} %fusion.145, f32[1,128,1,1]{3,2,1,0} %fusion.147, f32[1,128,100,152]{3,2,1,0} %get-tuple-element.643, f32[1,128,1,1]{3,2,1,0} %copy.241, f32[1,128,1,1]{3,2,1,0} %fusion.148, f32[1,512,1,1]{3,2,1,0} %fusion.150, f32[1,512,100,152]{3,2,1,0} %get-tuple-element.642, f32[1,512,1,1]{3,2,1,0} %copy.242, f32[1,512,1,1]{3,2,1,0} %fusion.151, f32[1,128,1,1]{3,2,1,0} %fusion.153, f32[1,128,100,152]{3,2,1,0} %get-tuple-element.641, f32[1,128,1,1]{3,2,1,0} %copy.243, f32[1,128,1,1]{3,2,1,0} %fusion.154, f32[1,128,1,1]{3,2,1,0} %fusion.156, f32[1,128,100,152]{3,2,1,0} %get-tuple-element.640, f32[1,128,1,1]{3,2,1,0} %copy.244, f32[1,128,1,1]{3,2,1,0} %fusion.157, f32[1,512,1,1]{3,2,1,0} %fusion.159, f32[1,512,100,152]{3,2,1,0} %get-tuple-element.639, f32[1,512,1,1]{3,2,1,0} %copy.245, f32[1,512,1,1]{3,2,1,0} %fusion.160, f32[1,128,1,1]{3,2,1,0} %fusion.162, f32[1,128,100,152]{3,2,1,0} %get-tuple-element.638, f32[1,128,1,1]{3,2,1,0} %copy.246, f32[1,128,1,1]{3,2,1,0} %fusion.163, f32[1,128,1,1]{3,2,1,0} %fusion.165, f32[1,128,100,152]{3,2,1,0} %get-tuple-element.637, f32[1,128,1,1]{3,2,1,0} %copy.247, f32[1,128,1,1]{3,2,1,0} %fusion.166, f32[1,512,1,1]{3,2,1,0} %fusion.168, f32[1,512,100,152]{3,2,1,0} %get-tuple-element.636, f32[1,512,100,152]{3,2,1,0} %get-tuple-element.635, f32[1,512,1,1]{3,2,1,0} %fusion.170, f32[1,512,1,1]{3,2,1,0} %copy.248, f32[1,512,1,1]{3,2,1,0} %copy.249, f32[1,512,1,1]{3,2,1,0} %fusion.169, f32[1,512,1,1]{3,2,1,0} %fusion.171, f32[1,128,100,152]{3,2,1,0} %get-tuple-element.696, f32[1,128,1,1]{3,2,1,0} %fusion.173, f32[1,128,1,1]{3,2,1,0} %copy.250, f32[1,128,1,1]{3,2,1,0} %fusion.174, f32[1,128,200,304]{3,2,1,0} %fusion.175, f32[1,128,200,304]{3,2,1,0} %get-tuple-element.634, f32[1,128,1,1]{3,2,1,0} %fusion.176, f32[1,128,1,1]{3,2,1,0} %copy.251, f32[1,128,1,1]{3,2,1,0} %fusion.177)
}

