HloModule cluster_6__XlaCompiledKernel_true__XlaNumConstantArgs_142__XlaNumResourceArgs_0_.4110

%add_F32.3607 (lhs.3608: f32[], rhs.3609: f32[]) -> f32[] {
  %lhs.3608 = f32[] parameter(0)
  %rhs.3609 = f32[] parameter(1)
  ROOT %add.3610 = f32[] add(f32[] %lhs.3608, f32[] %rhs.3609)
}

%fused_computation (param_0.3: f32[1,256,14,14], param_1.3: f32[14,14]) -> f32[1,28,28,256] {
  %param_0.3 = f32[1,256,14,14]{1,3,2,0} parameter(0)
  %param_1.3 = f32[14,14]{1,0} parameter(1)
  %broadcast.33 = f32[1,256,14,14]{1,3,2,0} broadcast(f32[14,14]{1,0} %param_1.3), dimensions={2,3}, metadata={op_type="AvgPoolGrad" op_name="tower0/gradients/tower0/multilevel_roi_align_mask/roi_level4/roi_align/AvgPool_grad/AvgPoolGrad"}
  %divide.2 = f32[1,256,14,14]{1,3,2,0} divide(f32[1,256,14,14]{1,3,2,0} %param_0.3, f32[1,256,14,14]{1,3,2,0} %broadcast.33), metadata={op_type="AvgPoolGrad" op_name="tower0/gradients/tower0/multilevel_roi_align_mask/roi_level4/roi_align/AvgPool_grad/AvgPoolGrad"}
  %constant_256 = f32[] constant(0), metadata={op_type="Sum" op_name="tower0/wd_cost_internals/Sum_53"}
  %pad.0 = f32[1,256,29,29]{1,3,2,0} pad(f32[1,256,14,14]{1,3,2,0} %divide.2, f32[] %constant_256), padding=0_0_0x0_0_0x1_1_1x1_1_1, metadata={op_type="AvgPoolGrad" op_name="tower0/gradients/tower0/multilevel_roi_align_mask/roi_level4/roi_align/AvgPool_grad/AvgPoolGrad"}
  %reduce-window.0 = f32[1,256,28,28]{1,3,2,0} reduce-window(f32[1,256,29,29]{1,3,2,0} %pad.0, f32[] %constant_256), window={size=1x1x2x2}, to_apply=%add_F32.3607, metadata={op_type="AvgPoolGrad" op_name="tower0/gradients/tower0/multilevel_roi_align_mask/roi_level4/roi_align/AvgPool_grad/AvgPoolGrad"}
  ROOT %bitcast.55 = f32[1,28,28,256]{3,2,1,0} bitcast(f32[1,256,28,28]{1,3,2,0} %reduce-window.0), metadata={op_type="Transpose" op_name="tower0/gradients/tower0/multilevel_roi_align_mask/roi_level4/roi_align/crop_and_resize/transpose_1_grad/transpose"}
}

%scatter-combiner.3587 (p0.3588: f32[], p1.3589: f32[]) -> f32[] {
  %p0.3588 = f32[] parameter(0)
  %p1.3589 = f32[] parameter(1)
  ROOT %add.3590 = f32[] add(f32[] %p0.3588, f32[] %p1.3589)
}

%fused_computation.1 (param_0.5: f32[1,256,14,14], param_1.6: s64[1], param_2.4: s64[]) -> f32[1,256,14,14] {
  %constant_257 = f32[] constant(0), metadata={op_type="Sum" op_name="tower0/wd_cost_internals/Sum_53"}
  %broadcast.34 = f32[1,256,14,14]{1,3,2,0} broadcast(f32[] %constant_257), dimensions={}, metadata={op_type="UnsortedSegmentSum" op_name="tower0/gradients/tower0/multilevel_roi_align_mask/roi_level4/roi_align/AvgPool_grad/AvgPoolGrad/grad"}
  %param_1.6 = s64[1]{0} parameter(1)
  %param_2.4 = s64[] parameter(2)
  %bitcast.56 = s64[1]{0} bitcast(s64[] %param_2.4), metadata={op_type="Sub" op_name="tower0/gradients/tower0/multilevel_roi_align_mask/concat_grad/sub_2"}
  %subtract.0 = s64[1]{0} subtract(s64[1]{0} %param_1.6, s64[1]{0} %bitcast.56), metadata={op_type="Sub" op_name="tower0/gradients/tower0/multilevel_roi_align_mask/concat_grad/sub_2"}
  %param_0.5 = f32[1,256,14,14]{1,3,2,0} parameter(0)
  ROOT %scatter.0 = f32[1,256,14,14]{1,3,2,0} scatter(f32[1,256,14,14]{1,3,2,0} %broadcast.34, s64[1]{0} %subtract.0, f32[1,256,14,14]{1,3,2,0} %param_0.5), update_window_dims={1,2,3}, inserted_window_dims={0}, scatter_dims_to_operand_dims={0}, index_vector_dim=1, to_apply=%scatter-combiner.3587, metadata={op_type="UnsortedSegmentSum" op_name="tower0/gradients/tower0/multilevel_roi_align_mask/roi_level4/roi_align/AvgPool_grad/AvgPoolGrad/grad"}
}

%add_F32.3576 (lhs.3577: f32[], rhs.3578: f32[]) -> f32[] {
  %lhs.3577 = f32[] parameter(0)
  %rhs.3578 = f32[] parameter(1)
  ROOT %add.3579 = f32[] add(f32[] %lhs.3577, f32[] %rhs.3578)
}

%fused_computation.2 (param_0.9: f32[2,256,14,14], param_1.10: f32[14,14]) -> f32[2,28,28,256] {
  %param_0.9 = f32[2,256,14,14]{1,3,2,0} parameter(0)
  %param_1.10 = f32[14,14]{1,0} parameter(1)
  %broadcast.35 = f32[2,256,14,14]{1,3,2,0} broadcast(f32[14,14]{1,0} %param_1.10), dimensions={2,3}, metadata={op_type="AvgPoolGrad" op_name="tower0/gradients/tower0/multilevel_roi_align_mask/roi_level3/roi_align/AvgPool_grad/AvgPoolGrad"}
  %divide.3 = f32[2,256,14,14]{1,3,2,0} divide(f32[2,256,14,14]{1,3,2,0} %param_0.9, f32[2,256,14,14]{1,3,2,0} %broadcast.35), metadata={op_type="AvgPoolGrad" op_name="tower0/gradients/tower0/multilevel_roi_align_mask/roi_level3/roi_align/AvgPool_grad/AvgPoolGrad"}
  %constant_258 = f32[] constant(0), metadata={op_type="Sum" op_name="tower0/wd_cost_internals/Sum_53"}
  %pad.1 = f32[2,256,29,29]{1,3,2,0} pad(f32[2,256,14,14]{1,3,2,0} %divide.3, f32[] %constant_258), padding=0_0_0x0_0_0x1_1_1x1_1_1, metadata={op_type="AvgPoolGrad" op_name="tower0/gradients/tower0/multilevel_roi_align_mask/roi_level3/roi_align/AvgPool_grad/AvgPoolGrad"}
  %reduce-window.1 = f32[2,256,28,28]{1,3,2,0} reduce-window(f32[2,256,29,29]{1,3,2,0} %pad.1, f32[] %constant_258), window={size=1x1x2x2}, to_apply=%add_F32.3576, metadata={op_type="AvgPoolGrad" op_name="tower0/gradients/tower0/multilevel_roi_align_mask/roi_level3/roi_align/AvgPool_grad/AvgPoolGrad"}
  ROOT %bitcast.57 = f32[2,28,28,256]{3,2,1,0} bitcast(f32[2,256,28,28]{1,3,2,0} %reduce-window.1), metadata={op_type="Transpose" op_name="tower0/gradients/tower0/multilevel_roi_align_mask/roi_level3/roi_align/crop_and_resize/transpose_1_grad/transpose"}
}

%add_F32.3566 (lhs.3567: f32[], rhs.3568: f32[]) -> f32[] {
  %lhs.3567 = f32[] parameter(0)
  %rhs.3568 = f32[] parameter(1)
  ROOT %add.3569 = f32[] add(f32[] %lhs.3567, f32[] %rhs.3568)
}

%fused_computation.3 () -> f32[14,14] {
  %constant_259 = f32[] constant(1), metadata={op_type="SparseSoftmaxCrossEntropyWithLogits" op_name="tower0/fastrcnn_losses/SparseSoftmaxCrossEntropyWithLogits/SparseSoftmaxCrossEntropyWithLogits"}
  %broadcast.36 = f32[28,28]{1,0} broadcast(f32[] %constant_259), dimensions={}, metadata={op_type="AvgPoolGrad" op_name="tower0/gradients/tower0/multilevel_roi_align_mask/roi_level3/roi_align/AvgPool_grad/AvgPoolGrad"}
  %constant_260 = f32[] constant(0), metadata={op_type="Sum" op_name="tower0/wd_cost_internals/Sum_53"}
  ROOT %reduce-window.2 = f32[14,14]{1,0} reduce-window(f32[28,28]{1,0} %broadcast.36, f32[] %constant_260), window={size=2x2 stride=2x2}, to_apply=%add_F32.3566, metadata={op_type="AvgPoolGrad" op_name="tower0/gradients/tower0/multilevel_roi_align_mask/roi_level3/roi_align/AvgPool_grad/AvgPoolGrad"}
}

%scatter-combiner.3556 (p0.3557: f32[], p1.3558: f32[]) -> f32[] {
  %p0.3557 = f32[] parameter(0)
  %p1.3558 = f32[] parameter(1)
  ROOT %add.3559 = f32[] add(f32[] %p0.3557, f32[] %p1.3558)
}

%fused_computation.4 (param_0.13: f32[2,256,14,14], param_1.15: s64[2], param_2.9: s64[]) -> f32[2,256,14,14] {
  %constant_261 = f32[] constant(0), metadata={op_type="Sum" op_name="tower0/wd_cost_internals/Sum_53"}
  %broadcast.38 = f32[2,256,14,14]{1,3,2,0} broadcast(f32[] %constant_261), dimensions={}, metadata={op_type="UnsortedSegmentSum" op_name="tower0/gradients/tower0/multilevel_roi_align_mask/roi_level3/roi_align/AvgPool_grad/AvgPoolGrad/grad"}
  %param_1.15 = s64[2]{0} parameter(1)
  %param_2.9 = s64[] parameter(2)
  %broadcast.37 = s64[2]{0} broadcast(s64[] %param_2.9), dimensions={}, metadata={op_type="Sub" op_name="tower0/gradients/tower0/multilevel_roi_align_mask/concat_grad/sub_1"}
  %subtract.1 = s64[2]{0} subtract(s64[2]{0} %param_1.15, s64[2]{0} %broadcast.37), metadata={op_type="Sub" op_name="tower0/gradients/tower0/multilevel_roi_align_mask/concat_grad/sub_1"}
  %param_0.13 = f32[2,256,14,14]{1,3,2,0} parameter(0)
  ROOT %scatter.1 = f32[2,256,14,14]{1,3,2,0} scatter(f32[2,256,14,14]{1,3,2,0} %broadcast.38, s64[2]{0} %subtract.1, f32[2,256,14,14]{1,3,2,0} %param_0.13), update_window_dims={1,2,3}, inserted_window_dims={0}, scatter_dims_to_operand_dims={0}, index_vector_dim=1, to_apply=%scatter-combiner.3556, metadata={op_type="UnsortedSegmentSum" op_name="tower0/gradients/tower0/multilevel_roi_align_mask/roi_level3/roi_align/AvgPool_grad/AvgPoolGrad/grad"}
}

%fused_computation.5 (param_0.15: f32[3,3,256,256], param_1.629: f32[3,3,256,256]) -> f32[3,3,256,256] {
  %param_0.15 = f32[3,3,256,256]{1,0,2,3} parameter(0)
  %param_1.629 = f32[3,3,256,256]{3,2,1,0} parameter(1)
  %copy.56 = f32[3,3,256,256]{1,0,2,3} copy(f32[3,3,256,256]{3,2,1,0} %param_1.629), metadata={op_name="XLA_Args"}
  %constant_470 = f32[] constant(0.0001), metadata={op_type="Const" op_name="tower0/gradients/tower0/wd_cost_internals/Square_30_grad/Mul"}
  %broadcast.104 = f32[3,3,256,256]{1,0,2,3} broadcast(f32[] %constant_470), dimensions={}, metadata={op_type="Const" op_name="tower0/gradients/tower0/wd_cost_internals/Square_30_grad/Mul"}
  %multiply.11 = f32[3,3,256,256]{1,0,2,3} multiply(f32[3,3,256,256]{1,0,2,3} %copy.56, f32[3,3,256,256]{1,0,2,3} %broadcast.104), metadata={op_type="Mul" op_name="tower0/gradients/tower0/wd_cost_internals/Square_57_grad/Mul_1"}
  %add.10 = f32[3,3,256,256]{1,0,2,3} add(f32[3,3,256,256]{1,0,2,3} %param_0.15, f32[3,3,256,256]{1,0,2,3} %multiply.11), metadata={op_type="AddN" op_name="tower0/gradients/AddN_43"}
  ROOT %copy.50 = f32[3,3,256,256]{3,2,1,0} copy(f32[3,3,256,256]{1,0,2,3} %add.10), metadata={op_name="XLA_Retvals"}
}

%fused_computation.6 (param_0.17: f32[3,3,256,256], param_1.630: f32[3,3,256,256]) -> f32[3,3,256,256] {
  %param_0.17 = f32[3,3,256,256]{1,0,2,3} parameter(0)
  %param_1.630 = f32[3,3,256,256]{3,2,1,0} parameter(1)
  %copy.57 = f32[3,3,256,256]{1,0,2,3} copy(f32[3,3,256,256]{3,2,1,0} %param_1.630), metadata={op_name="XLA_Args"}
  %constant_471 = f32[] constant(0.0001), metadata={op_type="Const" op_name="tower0/gradients/tower0/wd_cost_internals/Square_30_grad/Mul"}
  %broadcast.105 = f32[3,3,256,256]{1,0,2,3} broadcast(f32[] %constant_471), dimensions={}, metadata={op_type="Const" op_name="tower0/gradients/tower0/wd_cost_internals/Square_30_grad/Mul"}
  %multiply.12 = f32[3,3,256,256]{1,0,2,3} multiply(f32[3,3,256,256]{1,0,2,3} %copy.57, f32[3,3,256,256]{1,0,2,3} %broadcast.105), metadata={op_type="Mul" op_name="tower0/gradients/tower0/wd_cost_internals/Square_58_grad/Mul_1"}
  %add.11 = f32[3,3,256,256]{1,0,2,3} add(f32[3,3,256,256]{1,0,2,3} %param_0.17, f32[3,3,256,256]{1,0,2,3} %multiply.12), metadata={op_type="AddN" op_name="tower0/gradients/AddN_34"}
  ROOT %copy.51 = f32[3,3,256,256]{3,2,1,0} copy(f32[3,3,256,256]{1,0,2,3} %add.11), metadata={op_name="XLA_Retvals"}
}

%fused_computation.7 (param_0.19: f32[3,3,256,256], param_1.631: f32[3,3,256,256]) -> f32[3,3,256,256] {
  %param_0.19 = f32[3,3,256,256]{1,0,2,3} parameter(0)
  %param_1.631 = f32[3,3,256,256]{3,2,1,0} parameter(1)
  %copy.58 = f32[3,3,256,256]{1,0,2,3} copy(f32[3,3,256,256]{3,2,1,0} %param_1.631), metadata={op_name="XLA_Args"}
  %constant_472 = f32[] constant(0.0001), metadata={op_type="Const" op_name="tower0/gradients/tower0/wd_cost_internals/Square_30_grad/Mul"}
  %broadcast.106 = f32[3,3,256,256]{1,0,2,3} broadcast(f32[] %constant_472), dimensions={}, metadata={op_type="Const" op_name="tower0/gradients/tower0/wd_cost_internals/Square_30_grad/Mul"}
  %multiply.13 = f32[3,3,256,256]{1,0,2,3} multiply(f32[3,3,256,256]{1,0,2,3} %copy.58, f32[3,3,256,256]{1,0,2,3} %broadcast.106), metadata={op_type="Mul" op_name="tower0/gradients/tower0/wd_cost_internals/Square_59_grad/Mul_1"}
  %add.12 = f32[3,3,256,256]{1,0,2,3} add(f32[3,3,256,256]{1,0,2,3} %param_0.19, f32[3,3,256,256]{1,0,2,3} %multiply.13), metadata={op_type="AddN" op_name="tower0/gradients/AddN_33"}
  ROOT %copy.52 = f32[3,3,256,256]{3,2,1,0} copy(f32[3,3,256,256]{1,0,2,3} %add.12), metadata={op_name="XLA_Retvals"}
}

%fused_computation.8 (param_0.21: f32[3,3,256,256], param_1.632: f32[3,3,256,256]) -> f32[3,3,256,256] {
  %param_0.21 = f32[3,3,256,256]{1,0,2,3} parameter(0)
  %param_1.632 = f32[3,3,256,256]{3,2,1,0} parameter(1)
  %copy.59 = f32[3,3,256,256]{1,0,2,3} copy(f32[3,3,256,256]{3,2,1,0} %param_1.632), metadata={op_name="XLA_Args"}
  %constant_473 = f32[] constant(0.0001), metadata={op_type="Const" op_name="tower0/gradients/tower0/wd_cost_internals/Square_30_grad/Mul"}
  %broadcast.107 = f32[3,3,256,256]{1,0,2,3} broadcast(f32[] %constant_473), dimensions={}, metadata={op_type="Const" op_name="tower0/gradients/tower0/wd_cost_internals/Square_30_grad/Mul"}
  %multiply.14 = f32[3,3,256,256]{1,0,2,3} multiply(f32[3,3,256,256]{1,0,2,3} %copy.59, f32[3,3,256,256]{1,0,2,3} %broadcast.107), metadata={op_type="Mul" op_name="tower0/gradients/tower0/wd_cost_internals/Square_60_grad/Mul_1"}
  %add.13 = f32[3,3,256,256]{1,0,2,3} add(f32[3,3,256,256]{1,0,2,3} %param_0.21, f32[3,3,256,256]{1,0,2,3} %multiply.14), metadata={op_type="AddN" op_name="tower0/gradients/AddN_31"}
  ROOT %copy.53 = f32[3,3,256,256]{3,2,1,0} copy(f32[3,3,256,256]{1,0,2,3} %add.13), metadata={op_name="XLA_Retvals"}
}

%fused_computation.9 (param_0.23: f32[2,2,256,256], param_1.633: f32[2,2,256,256]) -> f32[2,2,256,256] {
  %param_0.23 = f32[2,2,256,256]{1,0,2,3} parameter(0)
  %param_1.633 = f32[2,2,256,256]{3,2,1,0} parameter(1)
  %copy.60 = f32[2,2,256,256]{1,0,2,3} copy(f32[2,2,256,256]{3,2,1,0} %param_1.633), metadata={op_name="XLA_Args"}
  %constant_262 = f32[] constant(0.0001), metadata={op_type="Const" op_name="tower0/gradients/tower0/wd_cost_internals/Square_30_grad/Mul"}
  %broadcast.39 = f32[2,2,256,256]{1,0,2,3} broadcast(f32[] %constant_262), dimensions={}, metadata={op_type="Const" op_name="tower0/gradients/tower0/wd_cost_internals/Square_61_grad/Mul"}
  %multiply.15 = f32[2,2,256,256]{1,0,2,3} multiply(f32[2,2,256,256]{1,0,2,3} %copy.60, f32[2,2,256,256]{1,0,2,3} %broadcast.39), metadata={op_type="Mul" op_name="tower0/gradients/tower0/wd_cost_internals/Square_61_grad/Mul_1"}
  %add.14 = f32[2,2,256,256]{1,0,2,3} add(f32[2,2,256,256]{1,0,2,3} %param_0.23, f32[2,2,256,256]{1,0,2,3} %multiply.15), metadata={op_type="AddN" op_name="tower0/gradients/AddN_30"}
  ROOT %copy.54 = f32[2,2,256,256]{3,2,1,0} copy(f32[2,2,256,256]{1,0,2,3} %add.14), metadata={op_name="XLA_Retvals"}
}

%fused_computation.10 (param_0.25: f32[1,1,256,80], param_1.634: f32[1,1,256,80]) -> f32[1,1,256,80] {
  %param_0.25 = f32[1,1,256,80]{1,0,2,3} parameter(0)
  %param_1.634 = f32[1,1,256,80]{3,2,1,0} parameter(1)
  %copy.61 = f32[1,1,256,80]{1,0,2,3} copy(f32[1,1,256,80]{3,2,1,0} %param_1.634), metadata={op_name="XLA_Args"}
  %constant_263 = f32[] constant(0.0001), metadata={op_type="Const" op_name="tower0/gradients/tower0/wd_cost_internals/Square_30_grad/Mul"}
  %broadcast.40 = f32[1,1,256,80]{1,0,2,3} broadcast(f32[] %constant_263), dimensions={}, metadata={op_type="Const" op_name="tower0/gradients/tower0/wd_cost_internals/Square_62_grad/Mul"}
  %multiply.16 = f32[1,1,256,80]{1,0,2,3} multiply(f32[1,1,256,80]{1,0,2,3} %copy.61, f32[1,1,256,80]{1,0,2,3} %broadcast.40), metadata={op_type="Mul" op_name="tower0/gradients/tower0/wd_cost_internals/Square_62_grad/Mul_1"}
  %add.15 = f32[1,1,256,80]{1,0,2,3} add(f32[1,1,256,80]{1,0,2,3} %param_0.25, f32[1,1,256,80]{1,0,2,3} %multiply.16), metadata={op_type="AddN" op_name="tower0/gradients/AddN_26"}
  ROOT %copy.55 = f32[1,1,256,80]{3,2,1,0} copy(f32[1,1,256,80]{1,0,2,3} %add.15), metadata={op_name="XLA_Retvals"}
}

%add_F32.3841 (lhs.3842: f32[], rhs.3843: f32[]) -> f32[] {
  %lhs.3842 = f32[] parameter(0)
  %rhs.3843 = f32[] parameter(1)
  ROOT %add.3844 = f32[] add(f32[] %lhs.3842, f32[] %rhs.3843)
}

%fused_computation.16 (param_0.41: f32[1,256,7,7], param_1.45: f32[7,7]) -> f32[1,14,14,256] {
  %param_0.41 = f32[1,256,7,7]{1,3,2,0} parameter(0)
  %param_1.45 = f32[7,7]{1,0} parameter(1)
  %broadcast.42 = f32[1,256,7,7]{1,3,2,0} broadcast(f32[7,7]{1,0} %param_1.45), dimensions={2,3}, metadata={op_type="AvgPoolGrad" op_name="tower0/gradients/tower0/multilevel_roi_align/roi_level5/roi_align/AvgPool_grad/AvgPoolGrad"}
  %divide.4 = f32[1,256,7,7]{1,3,2,0} divide(f32[1,256,7,7]{1,3,2,0} %param_0.41, f32[1,256,7,7]{1,3,2,0} %broadcast.42), metadata={op_type="AvgPoolGrad" op_name="tower0/gradients/tower0/multilevel_roi_align/roi_level5/roi_align/AvgPool_grad/AvgPoolGrad"}
  %constant_268 = f32[] constant(0), metadata={op_type="Sum" op_name="tower0/wd_cost_internals/Sum_53"}
  %pad.2 = f32[1,256,15,15]{1,3,2,0} pad(f32[1,256,7,7]{1,3,2,0} %divide.4, f32[] %constant_268), padding=0_0_0x0_0_0x1_1_1x1_1_1, metadata={op_type="AvgPoolGrad" op_name="tower0/gradients/tower0/multilevel_roi_align/roi_level5/roi_align/AvgPool_grad/AvgPoolGrad"}
  %reduce-window.3 = f32[1,256,14,14]{1,3,2,0} reduce-window(f32[1,256,15,15]{1,3,2,0} %pad.2, f32[] %constant_268), window={size=1x1x2x2}, to_apply=%add_F32.3841, metadata={op_type="AvgPoolGrad" op_name="tower0/gradients/tower0/multilevel_roi_align/roi_level5/roi_align/AvgPool_grad/AvgPoolGrad"}
  ROOT %bitcast.58 = f32[1,14,14,256]{3,2,1,0} bitcast(f32[1,256,14,14]{1,3,2,0} %reduce-window.3), metadata={op_type="Transpose" op_name="tower0/gradients/tower0/multilevel_roi_align/roi_level5/roi_align/crop_and_resize/transpose_1_grad/transpose"}
}

%scatter-combiner.3821 (p0.3822: f32[], p1.3823: f32[]) -> f32[] {
  %p0.3822 = f32[] parameter(0)
  %p1.3823 = f32[] parameter(1)
  ROOT %add.3824 = f32[] add(f32[] %p0.3822, f32[] %p1.3823)
}

%fused_computation.17 (param_0.43: f32[1,256,7,7], param_1.48: s64[1], param_2.36: s64[]) -> f32[1,256,7,7] {
  %constant_269 = f32[] constant(0), metadata={op_type="Sum" op_name="tower0/wd_cost_internals/Sum_53"}
  %broadcast.43 = f32[1,256,7,7]{1,3,2,0} broadcast(f32[] %constant_269), dimensions={}, metadata={op_type="UnsortedSegmentSum" op_name="tower0/gradients/tower0/multilevel_roi_align/roi_level5/roi_align/AvgPool_grad/AvgPoolGrad/grad"}
  %param_1.48 = s64[1]{0} parameter(1)
  %param_2.36 = s64[] parameter(2)
  %bitcast.59 = s64[1]{0} bitcast(s64[] %param_2.36), metadata={op_type="Sub" op_name="tower0/gradients/tower0/multilevel_roi_align/concat_grad/sub_3"}
  %subtract.6 = s64[1]{0} subtract(s64[1]{0} %param_1.48, s64[1]{0} %bitcast.59), metadata={op_type="Sub" op_name="tower0/gradients/tower0/multilevel_roi_align/concat_grad/sub_3"}
  %param_0.43 = f32[1,256,7,7]{1,3,2,0} parameter(0)
  ROOT %scatter.2 = f32[1,256,7,7]{1,3,2,0} scatter(f32[1,256,7,7]{1,3,2,0} %broadcast.43, s64[1]{0} %subtract.6, f32[1,256,7,7]{1,3,2,0} %param_0.43), update_window_dims={1,2,3}, inserted_window_dims={0}, scatter_dims_to_operand_dims={0}, index_vector_dim=1, to_apply=%scatter-combiner.3821, metadata={op_type="UnsortedSegmentSum" op_name="tower0/gradients/tower0/multilevel_roi_align/roi_level5/roi_align/AvgPool_grad/AvgPoolGrad/grad"}
}

%add_F32.3934 (lhs.3935: f32[], rhs.3936: f32[]) -> f32[] {
  %lhs.3935 = f32[] parameter(0)
  %rhs.3936 = f32[] parameter(1)
  ROOT %add.3937 = f32[] add(f32[] %lhs.3935, f32[] %rhs.3936)
}

%fused_computation.18 (param_0.47: f32[2,256,7,7], param_1.52: f32[7,7]) -> f32[2,14,14,256] {
  %param_0.47 = f32[2,256,7,7]{1,3,2,0} parameter(0)
  %param_1.52 = f32[7,7]{1,0} parameter(1)
  %broadcast.44 = f32[2,256,7,7]{1,3,2,0} broadcast(f32[7,7]{1,0} %param_1.52), dimensions={2,3}, metadata={op_type="AvgPoolGrad" op_name="tower0/gradients/tower0/multilevel_roi_align/roi_level4/roi_align/AvgPool_grad/AvgPoolGrad"}
  %divide.5 = f32[2,256,7,7]{1,3,2,0} divide(f32[2,256,7,7]{1,3,2,0} %param_0.47, f32[2,256,7,7]{1,3,2,0} %broadcast.44), metadata={op_type="AvgPoolGrad" op_name="tower0/gradients/tower0/multilevel_roi_align/roi_level4/roi_align/AvgPool_grad/AvgPoolGrad"}
  %constant_270 = f32[] constant(0), metadata={op_type="Sum" op_name="tower0/wd_cost_internals/Sum_53"}
  %pad.3 = f32[2,256,15,15]{1,3,2,0} pad(f32[2,256,7,7]{1,3,2,0} %divide.5, f32[] %constant_270), padding=0_0_0x0_0_0x1_1_1x1_1_1, metadata={op_type="AvgPoolGrad" op_name="tower0/gradients/tower0/multilevel_roi_align/roi_level4/roi_align/AvgPool_grad/AvgPoolGrad"}
  %reduce-window.4 = f32[2,256,14,14]{1,3,2,0} reduce-window(f32[2,256,15,15]{1,3,2,0} %pad.3, f32[] %constant_270), window={size=1x1x2x2}, to_apply=%add_F32.3934, metadata={op_type="AvgPoolGrad" op_name="tower0/gradients/tower0/multilevel_roi_align/roi_level4/roi_align/AvgPool_grad/AvgPoolGrad"}
  ROOT %bitcast.60 = f32[2,14,14,256]{3,2,1,0} bitcast(f32[2,256,14,14]{1,3,2,0} %reduce-window.4), metadata={op_type="Transpose" op_name="tower0/gradients/tower0/multilevel_roi_align/roi_level4/roi_align/crop_and_resize/transpose_1_grad/transpose"}
}

%scatter-combiner.3914 (p0.3915: f32[], p1.3916: f32[]) -> f32[] {
  %p0.3915 = f32[] parameter(0)
  %p1.3916 = f32[] parameter(1)
  ROOT %add.3917 = f32[] add(f32[] %p0.3915, f32[] %p1.3916)
}

%fused_computation.19 (param_0.49: f32[2,256,7,7], param_1.55: s64[2], param_2.41: s64[]) -> f32[2,256,7,7] {
  %constant_271 = f32[] constant(0), metadata={op_type="Sum" op_name="tower0/wd_cost_internals/Sum_53"}
  %broadcast.46 = f32[2,256,7,7]{1,3,2,0} broadcast(f32[] %constant_271), dimensions={}, metadata={op_type="UnsortedSegmentSum" op_name="tower0/gradients/tower0/multilevel_roi_align/roi_level4/roi_align/AvgPool_grad/AvgPoolGrad/grad"}
  %param_1.55 = s64[2]{0} parameter(1)
  %param_2.41 = s64[] parameter(2)
  %broadcast.45 = s64[2]{0} broadcast(s64[] %param_2.41), dimensions={}, metadata={op_type="Sub" op_name="tower0/gradients/tower0/multilevel_roi_align/concat_grad/sub_2"}
  %subtract.7 = s64[2]{0} subtract(s64[2]{0} %param_1.55, s64[2]{0} %broadcast.45), metadata={op_type="Sub" op_name="tower0/gradients/tower0/multilevel_roi_align/concat_grad/sub_2"}
  %param_0.49 = f32[2,256,7,7]{1,3,2,0} parameter(0)
  ROOT %scatter.3 = f32[2,256,7,7]{1,3,2,0} scatter(f32[2,256,7,7]{1,3,2,0} %broadcast.46, s64[2]{0} %subtract.7, f32[2,256,7,7]{1,3,2,0} %param_0.49), update_window_dims={1,2,3}, inserted_window_dims={0}, scatter_dims_to_operand_dims={0}, index_vector_dim=1, to_apply=%scatter-combiner.3914, metadata={op_type="UnsortedSegmentSum" op_name="tower0/gradients/tower0/multilevel_roi_align/roi_level4/roi_align/AvgPool_grad/AvgPoolGrad/grad"}
}

%add_F32.3903 (lhs.3904: f32[], rhs.3905: f32[]) -> f32[] {
  %lhs.3904 = f32[] parameter(0)
  %rhs.3905 = f32[] parameter(1)
  ROOT %add.3906 = f32[] add(f32[] %lhs.3904, f32[] %rhs.3905)
}

%fused_computation.20 (param_0.53: f32[19,256,7,7], param_1.59: f32[7,7]) -> f32[19,14,14,256] {
  %param_0.53 = f32[19,256,7,7]{1,3,2,0} parameter(0)
  %param_1.59 = f32[7,7]{1,0} parameter(1)
  %broadcast.47 = f32[19,256,7,7]{1,3,2,0} broadcast(f32[7,7]{1,0} %param_1.59), dimensions={2,3}, metadata={op_type="AvgPoolGrad" op_name="tower0/gradients/tower0/multilevel_roi_align/roi_level3/roi_align/AvgPool_grad/AvgPoolGrad"}
  %divide.6 = f32[19,256,7,7]{1,3,2,0} divide(f32[19,256,7,7]{1,3,2,0} %param_0.53, f32[19,256,7,7]{1,3,2,0} %broadcast.47), metadata={op_type="AvgPoolGrad" op_name="tower0/gradients/tower0/multilevel_roi_align/roi_level3/roi_align/AvgPool_grad/AvgPoolGrad"}
  %constant_272 = f32[] constant(0), metadata={op_type="Sum" op_name="tower0/wd_cost_internals/Sum_53"}
  %pad.4 = f32[19,256,15,15]{1,3,2,0} pad(f32[19,256,7,7]{1,3,2,0} %divide.6, f32[] %constant_272), padding=0_0_0x0_0_0x1_1_1x1_1_1, metadata={op_type="AvgPoolGrad" op_name="tower0/gradients/tower0/multilevel_roi_align/roi_level3/roi_align/AvgPool_grad/AvgPoolGrad"}
  %reduce-window.5 = f32[19,256,14,14]{1,3,2,0} reduce-window(f32[19,256,15,15]{1,3,2,0} %pad.4, f32[] %constant_272), window={size=1x1x2x2}, to_apply=%add_F32.3903, metadata={op_type="AvgPoolGrad" op_name="tower0/gradients/tower0/multilevel_roi_align/roi_level3/roi_align/AvgPool_grad/AvgPoolGrad"}
  ROOT %bitcast.61 = f32[19,14,14,256]{3,2,1,0} bitcast(f32[19,256,14,14]{1,3,2,0} %reduce-window.5), metadata={op_type="Transpose" op_name="tower0/gradients/tower0/multilevel_roi_align/roi_level3/roi_align/crop_and_resize/transpose_1_grad/transpose"}
}

%scatter-combiner.3883 (p0.3884: f32[], p1.3885: f32[]) -> f32[] {
  %p0.3884 = f32[] parameter(0)
  %p1.3885 = f32[] parameter(1)
  ROOT %add.3886 = f32[] add(f32[] %p0.3884, f32[] %p1.3885)
}

%fused_computation.21 (param_0.55: f32[19,256,7,7], param_1.62: s64[19], param_2.46: s64[]) -> f32[19,256,7,7] {
  %constant_273 = f32[] constant(0), metadata={op_type="Sum" op_name="tower0/wd_cost_internals/Sum_53"}
  %broadcast.49 = f32[19,256,7,7]{1,3,2,0} broadcast(f32[] %constant_273), dimensions={}, metadata={op_type="UnsortedSegmentSum" op_name="tower0/gradients/tower0/multilevel_roi_align/roi_level3/roi_align/AvgPool_grad/AvgPoolGrad/grad"}
  %param_1.62 = s64[19]{0} parameter(1)
  %param_2.46 = s64[] parameter(2)
  %broadcast.48 = s64[19]{0} broadcast(s64[] %param_2.46), dimensions={}, metadata={op_type="Sub" op_name="tower0/gradients/tower0/multilevel_roi_align/concat_grad/sub_1"}
  %subtract.8 = s64[19]{0} subtract(s64[19]{0} %param_1.62, s64[19]{0} %broadcast.48), metadata={op_type="Sub" op_name="tower0/gradients/tower0/multilevel_roi_align/concat_grad/sub_1"}
  %param_0.55 = f32[19,256,7,7]{1,3,2,0} parameter(0)
  ROOT %scatter.4 = f32[19,256,7,7]{1,3,2,0} scatter(f32[19,256,7,7]{1,3,2,0} %broadcast.49, s64[19]{0} %subtract.8, f32[19,256,7,7]{1,3,2,0} %param_0.55), update_window_dims={1,2,3}, inserted_window_dims={0}, scatter_dims_to_operand_dims={0}, index_vector_dim=1, to_apply=%scatter-combiner.3883, metadata={op_type="UnsortedSegmentSum" op_name="tower0/gradients/tower0/multilevel_roi_align/roi_level3/roi_align/AvgPool_grad/AvgPoolGrad/grad"}
}

%add_F32.3872 (lhs.3873: f32[], rhs.3874: f32[]) -> f32[] {
  %lhs.3873 = f32[] parameter(0)
  %rhs.3874 = f32[] parameter(1)
  ROOT %add.3875 = f32[] add(f32[] %lhs.3873, f32[] %rhs.3874)
}

%fused_computation.22 (param_0.59: f32[490,256,7,7], param_1.66: f32[7,7]) -> f32[490,14,14,256] {
  %param_0.59 = f32[490,256,7,7]{1,3,2,0} parameter(0)
  %param_1.66 = f32[7,7]{1,0} parameter(1)
  %broadcast.50 = f32[490,256,7,7]{1,3,2,0} broadcast(f32[7,7]{1,0} %param_1.66), dimensions={2,3}, metadata={op_type="AvgPoolGrad" op_name="tower0/gradients/tower0/multilevel_roi_align/roi_level2/roi_align/AvgPool_grad/AvgPoolGrad"}
  %divide.7 = f32[490,256,7,7]{1,3,2,0} divide(f32[490,256,7,7]{1,3,2,0} %param_0.59, f32[490,256,7,7]{1,3,2,0} %broadcast.50), metadata={op_type="AvgPoolGrad" op_name="tower0/gradients/tower0/multilevel_roi_align/roi_level2/roi_align/AvgPool_grad/AvgPoolGrad"}
  %constant_274 = f32[] constant(0), metadata={op_type="Sum" op_name="tower0/wd_cost_internals/Sum_53"}
  %pad.5 = f32[490,256,15,15]{1,3,2,0} pad(f32[490,256,7,7]{1,3,2,0} %divide.7, f32[] %constant_274), padding=0_0_0x0_0_0x1_1_1x1_1_1, metadata={op_type="AvgPoolGrad" op_name="tower0/gradients/tower0/multilevel_roi_align/roi_level2/roi_align/AvgPool_grad/AvgPoolGrad"}
  %reduce-window.6 = f32[490,256,14,14]{1,3,2,0} reduce-window(f32[490,256,15,15]{1,3,2,0} %pad.5, f32[] %constant_274), window={size=1x1x2x2}, to_apply=%add_F32.3872, metadata={op_type="AvgPoolGrad" op_name="tower0/gradients/tower0/multilevel_roi_align/roi_level2/roi_align/AvgPool_grad/AvgPoolGrad"}
  ROOT %bitcast.62 = f32[490,14,14,256]{3,2,1,0} bitcast(f32[490,256,14,14]{1,3,2,0} %reduce-window.6), metadata={op_type="Transpose" op_name="tower0/gradients/tower0/multilevel_roi_align/roi_level2/roi_align/crop_and_resize/transpose_1_grad/transpose"}
}

%add_F32.3862 (lhs.3863: f32[], rhs.3864: f32[]) -> f32[] {
  %lhs.3863 = f32[] parameter(0)
  %rhs.3864 = f32[] parameter(1)
  ROOT %add.3865 = f32[] add(f32[] %lhs.3863, f32[] %rhs.3864)
}

%fused_computation.23 () -> f32[7,7] {
  %constant_275 = f32[] constant(1), metadata={op_type="SparseSoftmaxCrossEntropyWithLogits" op_name="tower0/fastrcnn_losses/SparseSoftmaxCrossEntropyWithLogits/SparseSoftmaxCrossEntropyWithLogits"}
  %broadcast.51 = f32[14,14]{1,0} broadcast(f32[] %constant_275), dimensions={}, metadata={op_type="AvgPoolGrad" op_name="tower0/gradients/tower0/multilevel_roi_align/roi_level2/roi_align/AvgPool_grad/AvgPoolGrad"}
  %constant_276 = f32[] constant(0), metadata={op_type="Sum" op_name="tower0/wd_cost_internals/Sum_53"}
  ROOT %reduce-window.7 = f32[7,7]{1,0} reduce-window(f32[14,14]{1,0} %broadcast.51, f32[] %constant_276), window={size=2x2 stride=2x2}, to_apply=%add_F32.3862, metadata={op_type="AvgPoolGrad" op_name="tower0/gradients/tower0/multilevel_roi_align/roi_level2/roi_align/AvgPool_grad/AvgPoolGrad"}
}

%scatter-combiner.3852 (p0.3853: f32[], p1.3854: f32[]) -> f32[] {
  %p0.3853 = f32[] parameter(0)
  %p1.3854 = f32[] parameter(1)
  ROOT %add.3855 = f32[] add(f32[] %p0.3853, f32[] %p1.3854)
}

%fused_computation.24 (param_0.63: s64[490], param_1.70: f32[490,256,7,7]) -> f32[490,256,7,7] {
  %constant_277 = f32[] constant(0), metadata={op_type="Sum" op_name="tower0/wd_cost_internals/Sum_53"}
  %broadcast.52 = f32[490,256,7,7]{1,3,2,0} broadcast(f32[] %constant_277), dimensions={}, metadata={op_type="UnsortedSegmentSum" op_name="tower0/gradients/tower0/multilevel_roi_align/roi_level2/roi_align/AvgPool_grad/AvgPoolGrad/grad"}
  %param_0.63 = s64[490]{0} parameter(0)
  %param_1.70 = f32[490,256,7,7]{1,3,2,0} parameter(1)
  ROOT %scatter.5 = f32[490,256,7,7]{1,3,2,0} scatter(f32[490,256,7,7]{1,3,2,0} %broadcast.52, s64[490]{0} %param_0.63, f32[490,256,7,7]{1,3,2,0} %param_1.70), update_window_dims={1,2,3}, inserted_window_dims={0}, scatter_dims_to_operand_dims={0}, index_vector_dim=1, to_apply=%scatter-combiner.3852, metadata={op_type="UnsortedSegmentSum" op_name="tower0/gradients/tower0/multilevel_roi_align/roi_level2/roi_align/AvgPool_grad/AvgPoolGrad/grad"}
}

%fused_computation.27 (param_0.639: f32[3,28,28], param_1.662: f32[], param_2.410: f32[3,28,28,1]) -> pred[3,28,28] {
  %constant_280 = f32[] constant(0.5), metadata={op_type="Sigmoid" op_name="tower0/rpn_losses/level3/label_metrics/Sigmoid"}
  %broadcast.53 = f32[3,28,28]{2,1,0} broadcast(f32[] %constant_280), dimensions={}, metadata={op_type="Sigmoid" op_name="tower0/maskrcnn_loss/Sigmoid"}
  %param_0.639 = f32[3,28,28]{2,1,0} parameter(0)
  %multiply.25 = f32[3,28,28]{2,1,0} multiply(f32[3,28,28]{2,1,0} %broadcast.53, f32[3,28,28]{2,1,0} %param_0.639), metadata={op_type="Sigmoid" op_name="tower0/maskrcnn_loss/Sigmoid"}
  %tanh.0 = f32[3,28,28]{2,1,0} tanh(f32[3,28,28]{2,1,0} %multiply.25), metadata={op_type="Sigmoid" op_name="tower0/maskrcnn_loss/Sigmoid"}
  %multiply.24 = f32[3,28,28]{2,1,0} multiply(f32[3,28,28]{2,1,0} %broadcast.53, f32[3,28,28]{2,1,0} %tanh.0), metadata={op_type="Sigmoid" op_name="tower0/maskrcnn_loss/Sigmoid"}
  %add.22 = f32[3,28,28]{2,1,0} add(f32[3,28,28]{2,1,0} %broadcast.53, f32[3,28,28]{2,1,0} %multiply.24), metadata={op_type="Sigmoid" op_name="tower0/maskrcnn_loss/Sigmoid"}
  %param_1.662 = f32[] parameter(1)
  %broadcast.110 = f32[3,28,28]{2,1,0} broadcast(f32[] %param_1.662), dimensions={}, metadata={op_type="Greater" op_name="tower0/maskrcnn_loss/Greater_1"}
  %compare.2 = pred[3,28,28]{2,1,0} compare(f32[3,28,28]{2,1,0} %add.22, f32[3,28,28]{2,1,0} %broadcast.110), direction=GT, metadata={op_type="Greater" op_name="tower0/maskrcnn_loss/Greater"}
  %param_2.410 = f32[3,28,28,1]{3,2,1,0} parameter(2)
  %bitcast.109 = f32[3,28,28]{2,1,0} bitcast(f32[3,28,28,1]{3,2,1,0} %param_2.410), metadata={op_type="Squeeze" op_name="tower0/sampled_fg_mask_targets"}
  %compare.73 = pred[3,28,28]{2,1,0} compare(f32[3,28,28]{2,1,0} %bitcast.109, f32[3,28,28]{2,1,0} %broadcast.110), direction=GT, metadata={op_type="Greater" op_name="tower0/maskrcnn_loss/Greater_1"}
  ROOT %compare.1 = pred[3,28,28]{2,1,0} compare(pred[3,28,28]{2,1,0} %compare.2, pred[3,28,28]{2,1,0} %compare.73), direction=EQ, metadata={op_type="Equal" op_name="tower0/maskrcnn_loss/Equal_1"}
}

%fused_computation.28 (param_0.71: f32[12544,1024], param_1.79: f32[12544,1024]) -> f32[12544,1024] {
  %param_0.71 = f32[12544,1024]{1,0} parameter(0)
  %param_1.79 = f32[12544,1024]{1,0} parameter(1)
  %constant_281 = f32[] constant(0.0001), metadata={op_type="Const" op_name="tower0/gradients/tower0/wd_cost_internals/Square_30_grad/Mul"}
  %broadcast.54 = f32[12544,1024]{1,0} broadcast(f32[] %constant_281), dimensions={}, metadata={op_type="Const" op_name="tower0/gradients/tower0/wd_cost_internals/Square_53_grad/Mul"}
  %multiply.26 = f32[12544,1024]{1,0} multiply(f32[12544,1024]{1,0} %param_1.79, f32[12544,1024]{1,0} %broadcast.54), metadata={op_type="Mul" op_name="tower0/gradients/tower0/wd_cost_internals/Square_53_grad/Mul_1"}
  ROOT %add.23 = f32[12544,1024]{1,0} add(f32[12544,1024]{1,0} %param_0.71, f32[12544,1024]{1,0} %multiply.26), metadata={op_type="AddN" op_name="tower0/gradients/AddN_32"}
}

%fused_computation.30 (param_0.74: f32[1024,1024], param_1.83: f32[1024,1024]) -> f32[1024,1024] {
  %param_0.74 = f32[1024,1024]{1,0} parameter(0)
  %param_1.83 = f32[1024,1024]{1,0} parameter(1)
  %constant_282 = f32[] constant(0.0001), metadata={op_type="Const" op_name="tower0/gradients/tower0/wd_cost_internals/Square_30_grad/Mul"}
  %broadcast.55 = f32[1024,1024]{1,0} broadcast(f32[] %constant_282), dimensions={}, metadata={op_type="Const" op_name="tower0/gradients/tower0/wd_cost_internals/Square_54_grad/Mul"}
  %multiply.27 = f32[1024,1024]{1,0} multiply(f32[1024,1024]{1,0} %param_1.83, f32[1024,1024]{1,0} %broadcast.55), metadata={op_type="Mul" op_name="tower0/gradients/tower0/wd_cost_internals/Square_54_grad/Mul_1"}
  ROOT %add.24 = f32[1024,1024]{1,0} add(f32[1024,1024]{1,0} %param_0.74, f32[1024,1024]{1,0} %multiply.27), metadata={op_type="AddN" op_name="tower0/gradients/AddN_29"}
}

%fused_computation.32 (param_0.77: f32[1024,324], param_1.88: f32[1024,324]) -> f32[1024,324] {
  %param_0.77 = f32[1024,324]{1,0} parameter(0)
  %param_1.88 = f32[1024,324]{1,0} parameter(1)
  %constant_283 = f32[] constant(0.0001), metadata={op_type="Const" op_name="tower0/gradients/tower0/wd_cost_internals/Square_30_grad/Mul"}
  %broadcast.56 = f32[1024,324]{1,0} broadcast(f32[] %constant_283), dimensions={}, metadata={op_type="Const" op_name="tower0/gradients/tower0/wd_cost_internals/Square_56_grad/Mul"}
  %multiply.28 = f32[1024,324]{1,0} multiply(f32[1024,324]{1,0} %param_1.88, f32[1024,324]{1,0} %broadcast.56), metadata={op_type="Mul" op_name="tower0/gradients/tower0/wd_cost_internals/Square_56_grad/Mul_1"}
  ROOT %add.26 = f32[1024,324]{1,0} add(f32[1024,324]{1,0} %param_0.77, f32[1024,324]{1,0} %multiply.28), metadata={op_type="AddN" op_name="tower0/gradients/AddN_22"}
}

%scatter-combiner.3771 (p0.3772: f32[], p1.3773: f32[]) -> f32[] {
  %p0.3772 = f32[] parameter(0)
  %p1.3773 = f32[] parameter(1)
  ROOT %add.3774 = f32[] add(f32[] %p0.3772, f32[] %p1.3773)
}

%fused_computation.33 (param_0.644: f32[243,4], param_1.667: s64[3,1]) -> f32[512,81,4] {
  %constant_284 = f32[] constant(0), metadata={op_type="Sum" op_name="tower0/wd_cost_internals/Sum_53"}
  %broadcast.57 = f32[512,81,4]{2,1,0} broadcast(f32[] %constant_284), dimensions={}, metadata={op_type="UnsortedSegmentSum" op_name="tower0/gradients/tower0/fastrcnn/outputs/output_box_grad/Reshape/tensor"}
  %param_1.667 = s64[3,1]{1,0} parameter(1)
  %bitcast.111 = s64[3]{0} bitcast(s64[3,1]{1,0} %param_1.667), metadata={op_type="StridedSlice" op_name="tower0/fastrcnn_losses/strided_slice"}
  %param_0.644 = f32[243,4]{1,0} parameter(0)
  %bitcast.63 = f32[3,81,4]{2,1,0} bitcast(f32[243,4]{1,0} %param_0.644), metadata={op_type="Reshape" op_name="tower0/gradients/tower0/fg_box_logits_grad/Reshape"}
  ROOT %scatter.6 = f32[512,81,4]{2,1,0} scatter(f32[512,81,4]{2,1,0} %broadcast.57, s64[3]{0} %bitcast.111, f32[3,81,4]{2,1,0} %bitcast.63), update_window_dims={1,2}, inserted_window_dims={0}, scatter_dims_to_operand_dims={0}, index_vector_dim=1, to_apply=%scatter-combiner.3771, metadata={op_type="UnsortedSegmentSum" op_name="tower0/gradients/tower0/fastrcnn/outputs/output_box_grad/Reshape/tensor"}
}

%scatter-combiner.3689 (p0.3690: f32[], p1.3691: f32[]) -> f32[] {
  %p0.3690 = f32[] parameter(0)
  %p1.3691 = f32[] parameter(1)
  ROOT %add.3692 = f32[] add(f32[] %p0.3690, f32[] %p1.3691)
}

%fused_computation.34 (param_0.81: s64[3], param_1.93: f32[], param_2.75: f32[3,4]) -> f32[243,4] {
  %constant_286 = f32[] constant(0), metadata={op_type="Sum" op_name="tower0/wd_cost_internals/Sum_53"}
  %broadcast.60 = f32[243,4]{1,0} broadcast(f32[] %constant_286), dimensions={}, metadata={op_type="UnsortedSegmentSum" op_name="tower0/gradients/tower0/fastrcnn_losses/Gather/Reshape_2_grad/Reshape/tensor"}
  %param_0.81 = s64[3]{0} parameter(0)
  %param_2.75 = f32[3,4]{1,0} parameter(2)
  %compare.5 = pred[3,4]{1,0} compare(f32[3,4]{1,0} %param_2.75, f32[3,4]{1,0} %param_2.75), direction=NE, metadata={op_type="Sign" op_name="tower0/gradients/tower0/fastrcnn_losses/Abs_grad/Sign"}
  %broadcast.59 = f32[3,4]{1,0} broadcast(f32[] %constant_286), dimensions={}, metadata={op_type="Sign" op_name="tower0/gradients/tower0/fastrcnn_losses/Abs_grad/Sign"}
  %sign.0 = f32[3,4]{1,0} sign(f32[3,4]{1,0} %param_2.75), metadata={op_type="Sign" op_name="tower0/gradients/tower0/fastrcnn_losses/Abs_grad/Sign"}
  %select.3 = f32[3,4]{1,0} select(pred[3,4]{1,0} %compare.5, f32[3,4]{1,0} %broadcast.59, f32[3,4]{1,0} %sign.0), metadata={op_type="Sign" op_name="tower0/gradients/tower0/fastrcnn_losses/Abs_grad/Sign"}
  %constant_285 = f32[] constant(1), metadata={op_type="SparseSoftmaxCrossEntropyWithLogits" op_name="tower0/fastrcnn_losses/SparseSoftmaxCrossEntropyWithLogits/SparseSoftmaxCrossEntropyWithLogits"}
  %param_1.93 = f32[] parameter(1)
  %divide.8 = f32[] divide(f32[] %constant_285, f32[] %param_1.93), metadata={op_type="Reciprocal" op_name="tower0/gradients/tower0/fastrcnn_losses/box_loss_grad/RealDiv"}
  %broadcast.58 = f32[3,4]{1,0} broadcast(f32[] %divide.8), dimensions={}
  %multiply.29 = f32[3,4]{1,0} multiply(f32[3,4]{1,0} %select.3, f32[3,4]{1,0} %broadcast.58), metadata={op_type="Mul" op_name="tower0/gradients/tower0/fastrcnn_losses/Abs_grad/mul"}
  %negate.6 = f32[3,4]{1,0} negate(f32[3,4]{1,0} %multiply.29), metadata={op_type="Neg" op_name="tower0/gradients/tower0/fastrcnn_losses/sub_grad/Neg"}
  ROOT %scatter.7 = f32[243,4]{1,0} scatter(f32[243,4]{1,0} %broadcast.60, s64[3]{0} %param_0.81, f32[3,4]{1,0} %negate.6), update_window_dims={1}, inserted_window_dims={0}, scatter_dims_to_operand_dims={0}, index_vector_dim=1, to_apply=%scatter-combiner.3689, metadata={op_type="UnsortedSegmentSum" op_name="tower0/gradients/tower0/fastrcnn_losses/Gather/Reshape_2_grad/Reshape/tensor"}
}

%tower0_fastrcnn_losses_Sum-reduction.3648 (x.3649: f32[], y.3650: f32[]) -> f32[] {
  %x.3649 = f32[] parameter(0)
  %y.3650 = f32[] parameter(1)
  ROOT %add.3651 = f32[] add(f32[] %x.3649, f32[] %y.3650)
}

%fused_computation.36 (param_0.85: f32[], param_1.99: f32[3,4]) -> f32[] {
  %param_1.99 = f32[3,4]{1,0} parameter(1)
  %abs.0 = f32[3,4]{1,0} abs(f32[3,4]{1,0} %param_1.99), metadata={op_type="Abs" op_name="tower0/fastrcnn_losses/Abs"}
  %constant_287 = f32[] constant(0), metadata={op_type="Sum" op_name="tower0/wd_cost_internals/Sum_53"}
  %reduce.4 = f32[] reduce(f32[3,4]{1,0} %abs.0, f32[] %constant_287), dimensions={0,1}, to_apply=%tower0_fastrcnn_losses_Sum-reduction.3648, metadata={op_type="Sum" op_name="tower0/fastrcnn_losses/Sum"}
  %param_0.85 = f32[] parameter(0)
  ROOT %divide.9 = f32[] divide(f32[] %reduce.4, f32[] %param_0.85), metadata={op_type="RealDiv" op_name="tower0/fastrcnn_losses/box_loss"}
}

%fused_computation.37 (param_0.87: s32[1]) -> f32[] {
  %param_0.87 = s32[1]{0} parameter(0)
  %bitcast.64 = s32[] bitcast(s32[1]{0} %param_0.87), metadata={op_type="StridedSlice" op_name="tower0/fastrcnn_losses/strided_slice_1"}
  ROOT %convert.2 = f32[] convert(s32[] %bitcast.64), metadata={op_type="Cast" op_name="tower0/fastrcnn_losses/Cast"}
}

%fused_computation.40 (param_0.94: s64[3], param_1.111: f32[512,324], param_2.87: f32[324]) -> f32[3,81,4] {
  %param_1.111 = f32[512,324]{1,0} parameter(1)
  %param_2.87 = f32[324]{0} parameter(2)
  %broadcast.64 = f32[512,324]{1,0} broadcast(f32[324]{0} %param_2.87), dimensions={1}, metadata={op_type="BiasAdd" op_name="tower0/fastrcnn/outputs/box/BiasAdd"}
  %add.30 = f32[512,324]{1,0} add(f32[512,324]{1,0} %param_1.111, f32[512,324]{1,0} %broadcast.64), metadata={op_type="BiasAdd" op_name="tower0/fastrcnn/outputs/box/BiasAdd"}
  %bitcast.69 = f32[512,81,4]{2,1,0} bitcast(f32[512,324]{1,0} %add.30), metadata={op_type="Reshape" op_name="tower0/fastrcnn/outputs/output_box"}
  %param_0.94 = s64[3]{0} parameter(0)
  ROOT %gather.2 = f32[3,81,4]{2,1,0} gather(f32[512,81,4]{2,1,0} %bitcast.69, s64[3]{0} %param_0.94), offset_dims={1,2}, collapsed_slice_dims={0}, start_index_map={0}, index_vector_dim=1, slice_sizes={1,81,4}, metadata={op_type="GatherV2" op_name="tower0/fg_box_logits"}
}

%max_S64.3725 (lhs.3726: s64[], rhs.3727: s64[]) -> s64[] {
  %lhs.3726 = s64[] parameter(0)
  %rhs.3727 = s64[] parameter(1)
  ROOT %maximum.3728 = s64[] maximum(s64[] %lhs.3726, s64[] %rhs.3727)
}

%fused_computation.42 (param_0.100: f32[3,81], param_1.121: f32[3]) -> s64[3] {
  %param_0.100 = f32[3,81]{1,0} parameter(0)
  %param_1.121 = f32[3]{0} parameter(1)
  %broadcast.67 = f32[3,81]{1,0} broadcast(f32[3]{0} %param_1.121), dimensions={0}, metadata={op_type="ArgMax" op_name="tower0/fastrcnn_losses/label_metrics/ArgMax"}
  %compare.7 = pred[3,81]{1,0} compare(f32[3,81]{1,0} %param_0.100, f32[3,81]{1,0} %broadcast.67), direction=EQ, metadata={op_type="ArgMax" op_name="tower0/fastrcnn_losses/label_metrics/ArgMax"}
  %convert.6 = s64[3,81]{1,0} convert(pred[3,81]{1,0} %compare.7), metadata={op_type="ArgMax" op_name="tower0/fastrcnn_losses/label_metrics/ArgMax"}
  %constant_292 = s64[] constant(63), metadata={op_type="ArgMax" op_name="tower0/fastrcnn_losses/label_metrics/label_prediction"}
  %broadcast.66 = s64[3,81]{1,0} broadcast(s64[] %constant_292), dimensions={}, metadata={op_type="ArgMax" op_name="tower0/fastrcnn_losses/label_metrics/ArgMax"}
  %shift-left.0 = s64[3,81]{1,0} shift-left(s64[3,81]{1,0} %convert.6, s64[3,81]{1,0} %broadcast.66), metadata={op_type="ArgMax" op_name="tower0/fastrcnn_losses/label_metrics/ArgMax"}
  %shift-right-arithmetic.0 = s64[3,81]{1,0} shift-right-arithmetic(s64[3,81]{1,0} %shift-left.0, s64[3,81]{1,0} %broadcast.66), metadata={op_type="ArgMax" op_name="tower0/fastrcnn_losses/label_metrics/ArgMax"}
  %iota.3 = s64[3,81]{1,0} iota(), iota_dimension=1, metadata={op_type="ArgMax" op_name="tower0/fastrcnn_losses/label_metrics/ArgMax"}
  %and.1 = s64[3,81]{1,0} and(s64[3,81]{1,0} %shift-right-arithmetic.0, s64[3,81]{1,0} %iota.3), metadata={op_type="ArgMax" op_name="tower0/fastrcnn_losses/label_metrics/ArgMax"}
  %constant_291 = s64[] constant(-9223372036854775808), metadata={op_type="ArgMax" op_name="tower0/fastrcnn_losses/label_metrics/label_prediction"}
  ROOT %reduce.6 = s64[3]{0} reduce(s64[3,81]{1,0} %and.1, s64[] %constant_291), dimensions={1}, to_apply=%max_S64.3725, metadata={op_type="ArgMax" op_name="tower0/fastrcnn_losses/label_metrics/ArgMax"}
}

%fused_computation.43 (param_0.101: f32[1024,81], param_1.123: f32[1024,81]) -> f32[1024,81] {
  %param_0.101 = f32[1024,81]{1,0} parameter(0)
  %param_1.123 = f32[1024,81]{1,0} parameter(1)
  %constant_293 = f32[] constant(0.0001), metadata={op_type="Const" op_name="tower0/gradients/tower0/wd_cost_internals/Square_30_grad/Mul"}
  %broadcast.68 = f32[1024,81]{1,0} broadcast(f32[] %constant_293), dimensions={}, metadata={op_type="Const" op_name="tower0/gradients/tower0/wd_cost_internals/Square_55_grad/Mul"}
  %multiply.37 = f32[1024,81]{1,0} multiply(f32[1024,81]{1,0} %param_1.123, f32[1024,81]{1,0} %broadcast.68), metadata={op_type="Mul" op_name="tower0/gradients/tower0/wd_cost_internals/Square_55_grad/Mul_1"}
  ROOT %add.31 = f32[1024,81]{1,0} add(f32[1024,81]{1,0} %param_0.101, f32[1024,81]{1,0} %multiply.37), metadata={op_type="AddN" op_name="tower0/gradients/AddN"}
}

%tower0_fastrcnn_losses_label_metrics_accuracy-reduction.2623 (x.2624: f32[], y.2625: f32[]) -> f32[] {
  %x.2624 = f32[] parameter(0)
  %y.2625 = f32[] parameter(1)
  ROOT %add.2626 = f32[] add(f32[] %x.2624, f32[] %y.2625)
}

%fused_computation.47 (param_0.646: s64[512], param_1.671: s64[512]) -> f32[] {
  %param_0.646 = s64[512]{0} parameter(0)
  %param_1.671 = s64[512]{0} parameter(1)
  %compare.75 = pred[512]{0} compare(s64[512]{0} %param_0.646, s64[512]{0} %param_1.671), direction=EQ, metadata={op_type="Equal" op_name="tower0/fastrcnn_losses/label_metrics/Equal"}
  %convert.8 = f32[512]{0} convert(pred[512]{0} %compare.75), metadata={op_type="Cast" op_name="tower0/fastrcnn_losses/label_metrics/Cast"}
  %constant_298 = f32[] constant(0), metadata={op_type="Sum" op_name="tower0/wd_cost_internals/Sum_53"}
  ROOT %reduce.8 = f32[] reduce(f32[512]{0} %convert.8, f32[] %constant_298), dimensions={0}, to_apply=%tower0_fastrcnn_losses_label_metrics_accuracy-reduction.2623, metadata={op_type="Mean" op_name="tower0/fastrcnn_losses/label_metrics/accuracy"}
}

%max_S64.1518 (lhs.1519: s64[], rhs.1520: s64[]) -> s64[] {
  %lhs.1519 = s64[] parameter(0)
  %rhs.1520 = s64[] parameter(1)
  ROOT %maximum.1521 = s64[] maximum(s64[] %lhs.1519, s64[] %rhs.1520)
}

%fused_computation.48 (param_0.119: f32[512,81], param_1.672: f32[512]) -> s64[512] {
  %param_0.119 = f32[512,81]{1,0} parameter(0)
  %param_1.672 = f32[512]{0} parameter(1)
  %broadcast.113 = f32[512,81]{1,0} broadcast(f32[512]{0} %param_1.672), dimensions={0}, metadata={op_type="SparseSoftmaxCrossEntropyWithLogits" op_name="tower0/fastrcnn_losses/SparseSoftmaxCrossEntropyWithLogits/SparseSoftmaxCrossEntropyWithLogits"}
  %compare.8 = pred[512,81]{1,0} compare(f32[512,81]{1,0} %param_0.119, f32[512,81]{1,0} %broadcast.113), direction=EQ, metadata={op_type="ArgMax" op_name="tower0/fastrcnn_losses/label_metrics/label_prediction"}
  %convert.9 = s64[512,81]{1,0} convert(pred[512,81]{1,0} %compare.8), metadata={op_type="ArgMax" op_name="tower0/fastrcnn_losses/label_metrics/label_prediction"}
  %constant_300 = s64[] constant(63), metadata={op_type="ArgMax" op_name="tower0/fastrcnn_losses/label_metrics/label_prediction"}
  %broadcast.71 = s64[512,81]{1,0} broadcast(s64[] %constant_300), dimensions={}, metadata={op_type="ArgMax" op_name="tower0/fastrcnn_losses/label_metrics/label_prediction"}
  %shift-left.1 = s64[512,81]{1,0} shift-left(s64[512,81]{1,0} %convert.9, s64[512,81]{1,0} %broadcast.71), metadata={op_type="ArgMax" op_name="tower0/fastrcnn_losses/label_metrics/label_prediction"}
  %shift-right-arithmetic.1 = s64[512,81]{1,0} shift-right-arithmetic(s64[512,81]{1,0} %shift-left.1, s64[512,81]{1,0} %broadcast.71), metadata={op_type="ArgMax" op_name="tower0/fastrcnn_losses/label_metrics/label_prediction"}
  %iota.4 = s64[512,81]{1,0} iota(), iota_dimension=1, metadata={op_type="ArgMax" op_name="tower0/fastrcnn_losses/label_metrics/label_prediction"}
  %and.2 = s64[512,81]{1,0} and(s64[512,81]{1,0} %shift-right-arithmetic.1, s64[512,81]{1,0} %iota.4), metadata={op_type="ArgMax" op_name="tower0/fastrcnn_losses/label_metrics/label_prediction"}
  %constant_299 = s64[] constant(-9223372036854775808), metadata={op_type="ArgMax" op_name="tower0/fastrcnn_losses/label_metrics/label_prediction"}
  ROOT %reduce.9 = s64[512]{0} reduce(s64[512,81]{1,0} %and.2, s64[] %constant_299), dimensions={1}, to_apply=%max_S64.1518, metadata={op_type="ArgMax" op_name="tower0/fastrcnn_losses/label_metrics/label_prediction"}
}

%tower0_fastrcnn_losses_label_loss-reduction.2659 (x.2660: f32[], y.2661: f32[]) -> f32[] {
  %x.2660 = f32[] parameter(0)
  %y.2661 = f32[] parameter(1)
  ROOT %add.2662 = f32[] add(f32[] %x.2660, f32[] %y.2661)
}

%fused_computation.50 (param_0.647: f32[512], param_1.795: f32[512,81], param_2.534: f32[512], param_3.384: s64[512]) -> f32[] {
  %param_3.384 = s64[512]{0} parameter(3)
  %broadcast.208 = s64[512,81]{1,0} broadcast(s64[512]{0} %param_3.384), dimensions={0}, metadata={op_type="SparseSoftmaxCrossEntropyWithLogits" op_name="tower0/fastrcnn_losses/SparseSoftmaxCrossEntropyWithLogits/SparseSoftmaxCrossEntropyWithLogits"}
  %iota.10 = s64[512,81]{1,0} iota(), iota_dimension=1, metadata={op_type="SparseSoftmaxCrossEntropyWithLogits" op_name="tower0/fastrcnn_losses/SparseSoftmaxCrossEntropyWithLogits/SparseSoftmaxCrossEntropyWithLogits"}
  %compare.153 = pred[512,81]{1,0} compare(s64[512,81]{1,0} %broadcast.208, s64[512,81]{1,0} %iota.10), direction=EQ, metadata={op_type="SparseSoftmaxCrossEntropyWithLogits" op_name="tower0/fastrcnn_losses/SparseSoftmaxCrossEntropyWithLogits/SparseSoftmaxCrossEntropyWithLogits"}
  %constant_653 = f32[] constant(1), metadata={op_type="SparseSoftmaxCrossEntropyWithLogits" op_name="tower0/fastrcnn_losses/SparseSoftmaxCrossEntropyWithLogits/SparseSoftmaxCrossEntropyWithLogits"}
  %broadcast.207 = f32[512,81]{1,0} broadcast(f32[] %constant_653), dimensions={}, metadata={op_type="SparseSoftmaxCrossEntropyWithLogits" op_name="tower0/fastrcnn_losses/SparseSoftmaxCrossEntropyWithLogits/SparseSoftmaxCrossEntropyWithLogits"}
  %constant_301 = f32[] constant(0), metadata={op_type="Sum" op_name="tower0/wd_cost_internals/Sum_53"}
  %broadcast.206 = f32[512,81]{1,0} broadcast(f32[] %constant_301), dimensions={}, metadata={op_type="SparseSoftmaxCrossEntropyWithLogits" op_name="tower0/fastrcnn_losses/SparseSoftmaxCrossEntropyWithLogits/SparseSoftmaxCrossEntropyWithLogits"}
  %select.75 = f32[512,81]{1,0} select(pred[512,81]{1,0} %compare.153, f32[512,81]{1,0} %broadcast.207, f32[512,81]{1,0} %broadcast.206), metadata={op_type="SparseSoftmaxCrossEntropyWithLogits" op_name="tower0/fastrcnn_losses/SparseSoftmaxCrossEntropyWithLogits/SparseSoftmaxCrossEntropyWithLogits"}
  %constant_650 = s64[] constant(0), metadata={op_type="Sum" op_name="tower0/rpn_losses/level2/count_nonzero_1/Sum"}
  %broadcast.205 = s64[512]{0} broadcast(s64[] %constant_650), dimensions={}, metadata={op_type="SparseSoftmaxCrossEntropyWithLogits" op_name="tower0/fastrcnn_losses/SparseSoftmaxCrossEntropyWithLogits/SparseSoftmaxCrossEntropyWithLogits"}
  %compare.152 = pred[512]{0} compare(s64[512]{0} %broadcast.205, s64[512]{0} %param_3.384), direction=LE, metadata={op_type="SparseSoftmaxCrossEntropyWithLogits" op_name="tower0/fastrcnn_losses/SparseSoftmaxCrossEntropyWithLogits/SparseSoftmaxCrossEntropyWithLogits"}
  %constant_649 = s64[] constant(81), metadata={op_type="SparseSoftmaxCrossEntropyWithLogits" op_name="tower0/fastrcnn_losses/SparseSoftmaxCrossEntropyWithLogits/SparseSoftmaxCrossEntropyWithLogits"}
  %broadcast.204 = s64[512]{0} broadcast(s64[] %constant_649), dimensions={}, metadata={op_type="SparseSoftmaxCrossEntropyWithLogits" op_name="tower0/fastrcnn_losses/SparseSoftmaxCrossEntropyWithLogits/SparseSoftmaxCrossEntropyWithLogits"}
  %compare.151 = pred[512]{0} compare(s64[512]{0} %param_3.384, s64[512]{0} %broadcast.204), direction=LT, metadata={op_type="SparseSoftmaxCrossEntropyWithLogits" op_name="tower0/fastrcnn_losses/SparseSoftmaxCrossEntropyWithLogits/SparseSoftmaxCrossEntropyWithLogits"}
  %and.19 = pred[512]{0} and(pred[512]{0} %compare.152, pred[512]{0} %compare.151), metadata={op_type="SparseSoftmaxCrossEntropyWithLogits" op_name="tower0/fastrcnn_losses/SparseSoftmaxCrossEntropyWithLogits/SparseSoftmaxCrossEntropyWithLogits"}
  %broadcast.203 = f32[512]{0} broadcast(f32[] %constant_301), dimensions={}, metadata={op_type="SparseSoftmaxCrossEntropyWithLogits" op_name="tower0/fastrcnn_losses/SparseSoftmaxCrossEntropyWithLogits/SparseSoftmaxCrossEntropyWithLogits"}
  %constant_647 = f32[] constant(nan), metadata={op_type="SparseSoftmaxCrossEntropyWithLogits" op_name="tower0/fastrcnn_losses/SparseSoftmaxCrossEntropyWithLogits/SparseSoftmaxCrossEntropyWithLogits"}
  %broadcast.202 = f32[512]{0} broadcast(f32[] %constant_647), dimensions={}, metadata={op_type="SparseSoftmaxCrossEntropyWithLogits" op_name="tower0/fastrcnn_losses/SparseSoftmaxCrossEntropyWithLogits/SparseSoftmaxCrossEntropyWithLogits"}
  %select.74 = f32[512]{0} select(pred[512]{0} %and.19, f32[512]{0} %broadcast.203, f32[512]{0} %broadcast.202), metadata={op_type="SparseSoftmaxCrossEntropyWithLogits" op_name="tower0/fastrcnn_losses/SparseSoftmaxCrossEntropyWithLogits/SparseSoftmaxCrossEntropyWithLogits"}
  %broadcast.201 = f32[512,81]{1,0} broadcast(f32[512]{0} %select.74), dimensions={0}, metadata={op_type="SparseSoftmaxCrossEntropyWithLogits" op_name="tower0/fastrcnn_losses/SparseSoftmaxCrossEntropyWithLogits/SparseSoftmaxCrossEntropyWithLogits"}
  %add.135 = f32[512,81]{1,0} add(f32[512,81]{1,0} %select.75, f32[512,81]{1,0} %broadcast.201), metadata={op_type="SparseSoftmaxCrossEntropyWithLogits" op_name="tower0/fastrcnn_losses/SparseSoftmaxCrossEntropyWithLogits/SparseSoftmaxCrossEntropyWithLogits"}
  %negate.7 = f32[512,81]{1,0} negate(f32[512,81]{1,0} %add.135), metadata={op_type="SparseSoftmaxCrossEntropyWithLogits" op_name="tower0/fastrcnn_losses/SparseSoftmaxCrossEntropyWithLogits/SparseSoftmaxCrossEntropyWithLogits"}
  %param_1.795 = f32[512,81]{1,0} parameter(1)
  %param_2.534 = f32[512]{0} parameter(2)
  %broadcast.114 = f32[512,81]{1,0} broadcast(f32[512]{0} %param_2.534), dimensions={0}, metadata={op_type="SparseSoftmaxCrossEntropyWithLogits" op_name="tower0/fastrcnn_losses/SparseSoftmaxCrossEntropyWithLogits/SparseSoftmaxCrossEntropyWithLogits"}
  %subtract.84 = f32[512,81]{1,0} subtract(f32[512,81]{1,0} %param_1.795, f32[512,81]{1,0} %broadcast.114), metadata={op_type="SparseSoftmaxCrossEntropyWithLogits" op_name="tower0/fastrcnn_losses/SparseSoftmaxCrossEntropyWithLogits/SparseSoftmaxCrossEntropyWithLogits"}
  %param_0.647 = f32[512]{0} parameter(0)
  %broadcast.72 = f32[512,81]{1,0} broadcast(f32[512]{0} %param_0.647), dimensions={0}, metadata={op_type="SparseSoftmaxCrossEntropyWithLogits" op_name="tower0/fastrcnn_losses/SparseSoftmaxCrossEntropyWithLogits/SparseSoftmaxCrossEntropyWithLogits"}
  %subtract.20 = f32[512,81]{1,0} subtract(f32[512,81]{1,0} %subtract.84, f32[512,81]{1,0} %broadcast.72), metadata={op_type="SparseSoftmaxCrossEntropyWithLogits" op_name="tower0/fastrcnn_losses/SparseSoftmaxCrossEntropyWithLogits/SparseSoftmaxCrossEntropyWithLogits"}
  %multiply.44 = f32[512,81]{1,0} multiply(f32[512,81]{1,0} %negate.7, f32[512,81]{1,0} %subtract.20), metadata={op_type="SparseSoftmaxCrossEntropyWithLogits" op_name="tower0/fastrcnn_losses/SparseSoftmaxCrossEntropyWithLogits/SparseSoftmaxCrossEntropyWithLogits"}
  ROOT %reduce.10 = f32[] reduce(f32[512,81]{1,0} %multiply.44, f32[] %constant_301), dimensions={0,1}, to_apply=%tower0_fastrcnn_losses_label_loss-reduction.2659, metadata={op_type="Mean" op_name="tower0/fastrcnn_losses/label_loss"}
}

%fused_computation.52 (param_0.650: f32[512,1024], param_1.676: f32[1024]) -> f32[512,1024] {
  %constant_483 = f32[] constant(0), metadata={op_type="Sum" op_name="tower0/wd_cost_internals/Sum_53"}
  %broadcast.116 = f32[512,1024]{1,0} broadcast(f32[] %constant_483), dimensions={}, metadata={op_type="Relu" op_name="tower0/fastrcnn/fc7/Relu"}
  %param_0.650 = f32[512,1024]{1,0} parameter(0)
  %param_1.676 = f32[1024]{0} parameter(1)
  %broadcast.74 = f32[512,1024]{1,0} broadcast(f32[1024]{0} %param_1.676), dimensions={1}, metadata={op_type="BiasAdd" op_name="tower0/fastrcnn/fc7/BiasAdd"}
  %add.33 = f32[512,1024]{1,0} add(f32[512,1024]{1,0} %param_0.650, f32[512,1024]{1,0} %broadcast.74), metadata={op_type="BiasAdd" op_name="tower0/fastrcnn/fc7/BiasAdd"}
  ROOT %maximum.0 = f32[512,1024]{1,0} maximum(f32[512,1024]{1,0} %broadcast.116, f32[512,1024]{1,0} %add.33), metadata={op_type="Relu" op_name="tower0/fastrcnn/fc7/Relu"}
}

%fused_computation.53 (param_0.651: f32[512,1024], param_1.677: f32[1024]) -> f32[512,1024] {
  %constant_484 = f32[] constant(0), metadata={op_type="Sum" op_name="tower0/wd_cost_internals/Sum_53"}
  %broadcast.117 = f32[512,1024]{1,0} broadcast(f32[] %constant_484), dimensions={}, metadata={op_type="Relu" op_name="tower0/fastrcnn/fc7/Relu"}
  %param_0.651 = f32[512,1024]{1,0} parameter(0)
  %param_1.677 = f32[1024]{0} parameter(1)
  %broadcast.75 = f32[512,1024]{1,0} broadcast(f32[1024]{0} %param_1.677), dimensions={1}, metadata={op_type="BiasAdd" op_name="tower0/fastrcnn/fc6/BiasAdd"}
  %add.34 = f32[512,1024]{1,0} add(f32[512,1024]{1,0} %param_0.651, f32[512,1024]{1,0} %broadcast.75), metadata={op_type="BiasAdd" op_name="tower0/fastrcnn/fc6/BiasAdd"}
  ROOT %maximum.1 = f32[512,1024]{1,0} maximum(f32[512,1024]{1,0} %broadcast.117, f32[512,1024]{1,0} %add.34), metadata={op_type="Relu" op_name="tower0/fastrcnn/fc6/Relu"}
}

%fused_computation.54 (param_0.130: s64[512], param_1.155: f32[490,256,7,7], param_2.124: f32[19,256,7,7], param_3.66: f32[2,256,7,7], param_4.24: f32[1,256,7,7]) -> f32[512,12544] {
  %param_1.155 = f32[490,256,7,7]{3,2,1,0} parameter(1)
  %param_2.124 = f32[19,256,7,7]{3,2,1,0} parameter(2)
  %param_3.66 = f32[2,256,7,7]{3,2,1,0} parameter(3)
  %param_4.24 = f32[1,256,7,7]{3,2,1,0} parameter(4)
  %concatenate.12 = f32[512,256,7,7]{3,2,1,0} concatenate(f32[490,256,7,7]{3,2,1,0} %param_1.155, f32[19,256,7,7]{3,2,1,0} %param_2.124, f32[2,256,7,7]{3,2,1,0} %param_3.66, f32[1,256,7,7]{3,2,1,0} %param_4.24), dimensions={0}, metadata={op_type="ConcatV2" op_name="tower0/multilevel_roi_align/concat"}
  %param_0.130 = s64[512]{0} parameter(0)
  %gather.4 = f32[512,256,7,7]{3,2,1,0} gather(f32[512,256,7,7]{3,2,1,0} %concatenate.12, s64[512]{0} %param_0.130), offset_dims={1,2,3}, collapsed_slice_dims={0}, start_index_map={0}, index_vector_dim=1, slice_sizes={1,256,7,7}, metadata={op_type="GatherV2" op_name="tower0/multilevel_roi_align/output"}
  ROOT %bitcast.70 = f32[512,12544]{1,0} bitcast(f32[512,256,7,7]{3,2,1,0} %gather.4), metadata={op_type="Reshape" op_name="tower0/fastrcnn/fc6/Reshape"}
}

%tower0_maskrcnn_loss_fg_pixel_ratio-reduction.3297 (x.3298: f32[], y.3299: f32[]) -> f32[] {
  %x.3298 = f32[] parameter(0)
  %y.3299 = f32[] parameter(1)
  ROOT %add.3300 = f32[] add(f32[] %x.3298, f32[] %y.3299)
}

%tower0_maskrcnn_loss_pos_accuracy-reduction.3340 (x.3341: f32[], y.3342: f32[]) -> f32[] {
  %x.3341 = f32[] parameter(0)
  %y.3342 = f32[] parameter(1)
  ROOT %add.3343 = f32[] add(f32[] %x.3341, f32[] %y.3342)
}

%tower0_maskrcnn_loss_maskrcnn_loss-reduction.3620 (x.3621: f32[], y.3622: f32[]) -> f32[] {
  %x.3621 = f32[] parameter(0)
  %y.3622 = f32[] parameter(1)
  ROOT %add.3623 = f32[] add(f32[] %x.3621, f32[] %y.3622)
}

%tower0_maskrcnn_loss_accuracy-reduction.3317 (x.3318: f32[], y.3319: f32[]) -> f32[] {
  %x.3318 = f32[] parameter(0)
  %y.3319 = f32[] parameter(1)
  ROOT %add.3320 = f32[] add(f32[] %x.3318, f32[] %y.3319)
}

%fused_computation.57 (param_0.653: f32[], param_1.680: f32[3,28,28,1], param_2.537: pred[3,28,28], param_3.391: f32[3,28,28], param_4.363: f32[3,28,28]) -> (f32[], f32[], f32[], f32[]) {
  %param_1.680 = f32[3,28,28,1]{3,2,1,0} parameter(1)
  %bitcast.115 = f32[3,28,28]{2,1,0} bitcast(f32[3,28,28,1]{3,2,1,0} %param_1.680), metadata={op_type="Squeeze" op_name="tower0/sampled_fg_mask_targets"}
  %param_0.653 = f32[] parameter(0)
  %broadcast.118 = f32[3,28,28]{2,1,0} broadcast(f32[] %param_0.653), dimensions={}, metadata={op_type="Greater" op_name="tower0/maskrcnn_loss/Greater_1"}
  %compare.76 = pred[3,28,28]{2,1,0} compare(f32[3,28,28]{2,1,0} %bitcast.115, f32[3,28,28]{2,1,0} %broadcast.118), direction=GT, metadata={op_type="Greater" op_name="tower0/maskrcnn_loss/Greater_1"}
  %convert.10 = f32[3,28,28]{2,1,0} convert(pred[3,28,28]{2,1,0} %compare.76), metadata={op_type="Cast" op_name="tower0/maskrcnn_loss/Cast_2"}
  %constant_308 = f32[] constant(0), metadata={op_type="Sum" op_name="tower0/wd_cost_internals/Sum_53"}
  %reduce.11 = f32[] reduce(f32[3,28,28]{2,1,0} %convert.10, f32[] %constant_308), dimensions={0,1,2}, to_apply=%tower0_maskrcnn_loss_fg_pixel_ratio-reduction.3297, metadata={op_type="Mean" op_name="tower0/maskrcnn_loss/fg_pixel_ratio"}
  %param_2.537 = pred[3,28,28]{2,1,0} parameter(2)
  %constant_266_clone_1 = pred[] constant(true), metadata={op_type="Equal" op_name="tower0/maskrcnn_loss/Equal_2"}
  %broadcast.41.clone.1 = pred[3,28,28]{2,1,0} broadcast(pred[] %constant_266_clone_1), dimensions={}, metadata={op_type="Equal" op_name="tower0/maskrcnn_loss/Equal_2"}
  %compare.0.clone.1 = pred[3,28,28]{2,1,0} compare(pred[3,28,28]{2,1,0} %broadcast.41.clone.1, pred[3,28,28]{2,1,0} %compare.76), direction=EQ, metadata={op_type="Equal" op_name="tower0/maskrcnn_loss/Equal_2"}
  %and.0.clone.1 = pred[3,28,28]{2,1,0} and(pred[3,28,28]{2,1,0} %param_2.537, pred[3,28,28]{2,1,0} %compare.0.clone.1), metadata={op_type="LogicalAnd" op_name="tower0/maskrcnn_loss/LogicalAnd"}
  %convert.0.clone.1 = f32[3,28,28]{2,1,0} convert(pred[3,28,28]{2,1,0} %and.0.clone.1), metadata={op_type="Cast" op_name="tower0/maskrcnn_loss/Cast_1"}
  %reduce.2.clone.1 = f32[] reduce(f32[3,28,28]{2,1,0} %convert.0.clone.1, f32[] %constant_308), dimensions={0,1,2}, to_apply=%tower0_maskrcnn_loss_pos_accuracy-reduction.3340, metadata={op_type="Mean" op_name="tower0/maskrcnn_loss/pos_accuracy"}
  %param_4.363 = f32[3,28,28]{2,1,0} parameter(4)
  %log-plus-one.0.clone.1 = f32[3,28,28]{2,1,0} log-plus-one(f32[3,28,28]{2,1,0} %param_4.363), metadata={op_type="Log1p" op_name="tower0/maskrcnn_loss/logistic_loss/Log1p"}
  %param_3.391 = f32[3,28,28]{2,1,0} parameter(3)
  %broadcast.108.clone.1 = f32[3,28,28]{2,1,0} broadcast(f32[] %constant_308), dimensions={}, metadata={op_type="ZerosLike" op_name="tower0/maskrcnn_loss/logistic_loss/zeros_like"}
  %compare.71.clone.1 = pred[3,28,28]{2,1,0} compare(f32[3,28,28]{2,1,0} %param_3.391, f32[3,28,28]{2,1,0} %broadcast.108.clone.1), direction=GE, metadata={op_type="GreaterEqual" op_name="tower0/maskrcnn_loss/logistic_loss/GreaterEqual"}
  %select.0.clone.1 = f32[3,28,28]{2,1,0} select(pred[3,28,28]{2,1,0} %compare.71.clone.1, f32[3,28,28]{2,1,0} %param_3.391, f32[3,28,28]{2,1,0} %broadcast.108.clone.1), metadata={op_type="Select" op_name="tower0/maskrcnn_loss/logistic_loss/Select"}
  %multiply.19.clone.1 = f32[3,28,28]{2,1,0} multiply(f32[3,28,28]{2,1,0} %param_3.391, f32[3,28,28]{2,1,0} %bitcast.115), metadata={op_type="Mul" op_name="tower0/maskrcnn_loss/logistic_loss/mul"}
  %subtract.4.clone.1 = f32[3,28,28]{2,1,0} subtract(f32[3,28,28]{2,1,0} %select.0.clone.1, f32[3,28,28]{2,1,0} %multiply.19.clone.1), metadata={op_type="Sub" op_name="tower0/maskrcnn_loss/logistic_loss/sub"}
  %add.21.clone.1 = f32[3,28,28]{2,1,0} add(f32[3,28,28]{2,1,0} %log-plus-one.0.clone.1, f32[3,28,28]{2,1,0} %subtract.4.clone.1), metadata={op_type="Add" op_name="tower0/maskrcnn_loss/logistic_loss"}
  %reduce.1.clone.1 = f32[] reduce(f32[3,28,28]{2,1,0} %add.21.clone.1, f32[] %constant_308), dimensions={0,1,2}, to_apply=%tower0_maskrcnn_loss_maskrcnn_loss-reduction.3620, metadata={op_type="Mean" op_name="tower0/maskrcnn_loss/maskrcnn_loss"}
  %convert.1.clone.1 = f32[3,28,28]{2,1,0} convert(pred[3,28,28]{2,1,0} %param_2.537), metadata={op_type="Cast" op_name="tower0/maskrcnn_loss/Cast"}
  %reduce.3.clone.1 = f32[] reduce(f32[3,28,28]{2,1,0} %convert.1.clone.1, f32[] %constant_308), dimensions={0,1,2}, to_apply=%tower0_maskrcnn_loss_accuracy-reduction.3317, metadata={op_type="Mean" op_name="tower0/maskrcnn_loss/accuracy"}
  ROOT %tuple.126 = (f32[], f32[], f32[], f32[]) tuple(f32[] %reduce.11, f32[] %reduce.2.clone.1, f32[] %reduce.1.clone.1, f32[] %reduce.3.clone.1)
}

%fused_computation.61 (param_0.146: f32[], param_1.173: f32[], param_2.421: f32[], param_3.260: s64[], param_4.412: s64[], param_5.260: f32[], param_6.127: f32[], param_7.93: s64[], param_8.49: f32[], param_9.35: f32[], param_10.32: f32[], param_11.20: f32[], param_12.23: f32[], param_13.27: f32[], param_14.21: s64[], param_15.20: f32[], param_16.13: s64[], param_17.10: f32[], param_18.12: f32[], param_19.14: f32[], param_20.19: s32[], param_21.23: s64[], param_22.21: f32[], param_23.20: f32[], param_24.15: s64[], param_25.14: f32[], param_26.17: s64[], param_27.14: f32[], param_28.14: s64[], param_29.14: f32[], param_30.13: s32[], param_31.13: f32[], param_32.11: s32[], param_33.12: f32[], param_34.11: s32[], param_35.12: f32[], param_36.11: s32[], param_37.12: f32[], param_38.11: s32[], param_39.12: f32[]) -> (f32[], f32[], f32[], f32[], f32[], f32[], f32[], f32[], f32[], f32[], f32[], f32[], f32[], f32[], f32[], f32[], f32[], f32[], f32[], f32[], f32[], f32[]) {
  %param_1.173 = f32[] parameter(1)
  %constant_487 = s32[] constant(0), metadata={op_type="Equal" op_name="tower0/rpn_losses/level2/Equal_2"}
  %param_3.260 = s64[] parameter(3)
  %convert.150 = s32[] convert(s64[] %param_3.260), metadata={op_type="Cast" op_name="tower0/rpn_losses/level2/count_nonzero_1/Cast_1"}
  %compare.80 = pred[] compare(s32[] %constant_487, s32[] %convert.150), direction=EQ, metadata={op_type="Equal" op_name="tower0/rpn_losses/level2/Equal_2"}
  %param_2.421 = f32[] parameter(2)
  %constant_488 = f32[] constant(0), metadata={op_type="Sum" op_name="tower0/wd_cost_internals/Sum_53"}
  %select.57 = f32[] select(pred[] %compare.80, f32[] %param_2.421, f32[] %constant_488), metadata={op_type="Select" op_name="tower0/rpn_losses/level2/box_loss"}
  %subtract.23 = f32[] subtract(f32[] %param_1.173, f32[] %select.57), metadata={op_type="Sub" op_name="EMA/rpn_losses/level2/box_loss_EMA_apply/sub"}
  %param_0.146 = f32[] parameter(0)
  %multiply.49 = f32[] multiply(f32[] %subtract.23, f32[] %param_0.146), metadata={op_type="Mul" op_name="EMA/rpn_losses/level2/box_loss_EMA_apply/mul"}
  %param_7.93 = s64[] parameter(7)
  %convert.148.clone.1 = s32[] convert(s64[] %param_7.93), metadata={op_type="Cast" op_name="tower0/rpn_losses/level3/count_nonzero_1/Cast_1"}
  %compare.78.clone.1 = pred[] compare(s32[] %constant_487, s32[] %convert.148.clone.1), direction=EQ, metadata={op_type="Equal" op_name="tower0/rpn_losses/level3/Equal_2"}
  %select.55.clone.1 = f32[] select(pred[] %compare.78.clone.1, f32[] %param_2.421, f32[] %constant_488), metadata={op_type="Select" op_name="tower0/rpn_losses/level3/box_loss"}
  %add.40.clone.1 = f32[] add(f32[] %select.57, f32[] %select.55.clone.1), metadata={op_type="AddN" op_name="tower0/rpn_losses/box_loss"}
  %param_6.127 = f32[] parameter(6)
  %add.39.clone.1 = f32[] add(f32[] %add.40.clone.1, f32[] %param_6.127), metadata={op_type="AddN" op_name="tower0/rpn_losses/box_loss"}
  %param_5.260 = f32[] parameter(5)
  %add.38.clone.1 = f32[] add(f32[] %add.39.clone.1, f32[] %param_5.260), metadata={op_type="AddN" op_name="tower0/rpn_losses/box_loss"}
  %param_4.412 = s64[] parameter(4)
  %convert.149.clone.1 = s32[] convert(s64[] %param_4.412), metadata={op_type="Cast" op_name="tower0/rpn_losses/level6/count_nonzero_1/Cast_1"}
  %compare.79.clone.1 = pred[] compare(s32[] %constant_487, s32[] %convert.149.clone.1), direction=EQ, metadata={op_type="Equal" op_name="tower0/rpn_losses/level6/Equal_2"}
  %select.56.clone.1 = f32[] select(pred[] %compare.79.clone.1, f32[] %param_2.421, f32[] %constant_488), metadata={op_type="Select" op_name="tower0/rpn_losses/level6/box_loss"}
  %add.37.clone.1 = f32[] add(f32[] %add.38.clone.1, f32[] %select.56.clone.1), metadata={op_type="AddN" op_name="tower0/rpn_losses/box_loss"}
  %param_8.49 = f32[] parameter(8)
  %convert.65.clone.1 = f32[] convert(s32[] %convert.150), metadata={op_type="Cast" op_name="Cast_1"}
  %subtract.42.clone.1 = f32[] subtract(f32[] %param_8.49, f32[] %convert.65.clone.1), metadata={op_type="Sub" op_name="EMA/rpn_losses/level2/num_pos_anchor_EMA_apply/sub"}
  %multiply.74.clone.1 = f32[] multiply(f32[] %subtract.42.clone.1, f32[] %param_0.146), metadata={op_type="Mul" op_name="EMA/rpn_losses/level2/num_pos_anchor_EMA_apply/mul"}
  %param_12.23 = f32[] parameter(12)
  %constant_612_clone_1_clone_1 = f32[] constant(0.5), metadata={op_type="Sigmoid" op_name="tower0/rpn_losses/level3/label_metrics/Sigmoid"}
  %constant_611_clone_1_clone_1 = f64[] constant(0), metadata={op_type="Cast" op_name="tower0/rpn_losses/level6/label_metrics/truediv/Cast"}
  %convert.226.clone.1 = f64[] convert(s32[] %convert.149.clone.1), metadata={op_type="Cast" op_name="tower0/rpn_losses/level6/label_metrics/truediv/Cast_1"}
  %divide.48.clone.1 = f64[] divide(f64[] %constant_611_clone_1_clone_1, f64[] %convert.226.clone.1), metadata={op_type="RealDiv" op_name="tower0/rpn_losses/level6/label_metrics/truediv"}
  %convert.225.clone.1 = f32[] convert(f64[] %divide.48.clone.1), metadata={op_type="Cast" op_name="tower0/rpn_losses/level6/label_metrics/Cast_1"}
  %select.67.clone.1 = f32[] select(pred[] %compare.79.clone.1, f32[] %constant_612_clone_1_clone_1, f32[] %convert.225.clone.1), metadata={op_type="Select" op_name="tower0/rpn_losses/level6/label_metrics/recall_th0.5"}
  %subtract.64.clone.1 = f32[] subtract(f32[] %param_12.23, f32[] %select.67.clone.1), metadata={op_type="Sub" op_name="EMA/rpn_losses/level6/label_metrics/recall_th0.5_EMA_apply/sub"}
  %multiply.106.clone.1 = f32[] multiply(f32[] %subtract.64.clone.1, f32[] %param_0.146), metadata={op_type="Mul" op_name="EMA/rpn_losses/level6/label_metrics/recall_th0.5_EMA_apply/mul"}
  %param_11.20 = f32[] parameter(11)
  %subtract.56.clone.1.clone.1 = f32[] subtract(f32[] %param_11.20, f32[] %select.56.clone.1), metadata={op_type="Sub" op_name="EMA/rpn_losses/level6/box_loss_EMA_apply/sub"}
  %multiply.94.clone.1.clone.1 = f32[] multiply(f32[] %subtract.56.clone.1.clone.1, f32[] %param_0.146), metadata={op_type="Mul" op_name="EMA/rpn_losses/level6/box_loss_EMA_apply/mul"}
  %param_10.32 = f32[] parameter(10)
  %convert.139.clone.1.clone.1 = f32[] convert(s32[] %convert.149.clone.1), metadata={op_type="Cast" op_name="Cast_9"}
  %subtract.79.clone.1.clone.1 = f32[] subtract(f32[] %param_10.32, f32[] %convert.139.clone.1.clone.1), metadata={op_type="Sub" op_name="EMA/rpn_losses/level6/num_pos_anchor_EMA_apply/sub"}
  %multiply.122.clone.1.clone.1 = f32[] multiply(f32[] %subtract.79.clone.1.clone.1, f32[] %param_0.146), metadata={op_type="Mul" op_name="EMA/rpn_losses/level6/num_pos_anchor_EMA_apply/mul"}
  %param_9.35 = f32[] parameter(9)
  %subtract.62.clone.1.clone.1 = f32[] subtract(f32[] %param_9.35, f32[] %select.67.clone.1), metadata={op_type="Sub" op_name="EMA/rpn_losses/level6/label_metrics/recall_th0.1_EMA_apply/sub"}
  %multiply.102.clone.1.clone.1 = f32[] multiply(f32[] %subtract.62.clone.1.clone.1, f32[] %param_0.146), metadata={op_type="Mul" op_name="EMA/rpn_losses/level6/label_metrics/recall_th0.1_EMA_apply/mul"}
  %param_22.21 = f32[] parameter(22)
  %param_21.23 = s64[] parameter(21)
  %convert.165.clone.1 = s32[] convert(s64[] %param_21.23), metadata={op_type="Cast" op_name="tower0/rpn_losses/level3/label_metrics/count_nonzero_2/Cast_1"}
  %convert.43.clone.1 = f64[] convert(s32[] %convert.165.clone.1), metadata={op_type="Cast" op_name="tower0/rpn_losses/level3/label_metrics/truediv_4/Cast"}
  %convert.44.clone.1 = f64[] convert(s32[] %convert.148.clone.1), metadata={op_type="Cast" op_name="tower0/rpn_losses/level3/label_metrics/truediv/Cast_1"}
  %divide.20.clone.1 = f64[] divide(f64[] %convert.43.clone.1, f64[] %convert.44.clone.1), metadata={op_type="RealDiv" op_name="tower0/rpn_losses/level3/label_metrics/truediv_4"}
  %convert.42.clone.1 = f32[] convert(f64[] %divide.20.clone.1), metadata={op_type="Cast" op_name="tower0/rpn_losses/level3/label_metrics/Cast_7"}
  %select.16.clone.1 = f32[] select(pred[] %compare.78.clone.1, f32[] %constant_612_clone_1_clone_1, f32[] %convert.42.clone.1), metadata={op_type="Select" op_name="tower0/rpn_losses/level3/label_metrics/recall_th0.1"}
  %subtract.35.clone.1 = f32[] subtract(f32[] %param_22.21, f32[] %select.16.clone.1), metadata={op_type="Sub" op_name="EMA/rpn_losses/level3/label_metrics/recall_th0.1_EMA_apply/sub"}
  %multiply.64.clone.1 = f32[] multiply(f32[] %subtract.35.clone.1, f32[] %param_0.146), metadata={op_type="Mul" op_name="EMA/rpn_losses/level3/label_metrics/recall_th0.1_EMA_apply/mul"}
  %param_19.14 = f32[] parameter(19)
  %param_20.19 = s32[] parameter(20)
  %compare.23.clone.1.clone.1 = pred[] compare(s32[] %constant_487, s32[] %param_20.19), direction=EQ, metadata={op_type="Equal" op_name="tower0/rpn_losses/level3/label_metrics/Equal_8"}
  %convert.39.clone.1.clone.1 = f64[] convert(s32[] %param_20.19), metadata={op_type="Cast" op_name="tower0/rpn_losses/level3/label_metrics/truediv_5/Cast_1"}
  %divide.19.clone.1.clone.1 = f64[] divide(f64[] %convert.43.clone.1, f64[] %convert.39.clone.1.clone.1), metadata={op_type="RealDiv" op_name="tower0/rpn_losses/level3/label_metrics/truediv_5"}
  %convert.38.clone.1.clone.1 = f32[] convert(f64[] %divide.19.clone.1.clone.1), metadata={op_type="Cast" op_name="tower0/rpn_losses/level3/label_metrics/Cast_8"}
  %select.15.clone.1.clone.1 = f32[] select(pred[] %compare.23.clone.1.clone.1, f32[] %constant_612_clone_1_clone_1, f32[] %convert.38.clone.1.clone.1), metadata={op_type="Select" op_name="tower0/rpn_losses/level3/label_metrics/precision_th0.1"}
  %subtract.34.clone.1.clone.1 = f32[] subtract(f32[] %param_19.14, f32[] %select.15.clone.1.clone.1), metadata={op_type="Sub" op_name="EMA/rpn_losses/level3/label_metrics/precision_th0.1_EMA_apply/sub"}
  %multiply.63.clone.1.clone.1 = f32[] multiply(f32[] %subtract.34.clone.1.clone.1, f32[] %param_0.146), metadata={op_type="Mul" op_name="EMA/rpn_losses/level3/label_metrics/precision_th0.1_EMA_apply/mul"}
  %param_18.12 = f32[] parameter(18)
  %convert.99.clone.1.clone.1 = f32[] convert(s32[] %convert.148.clone.1), metadata={op_type="Cast" op_name="Cast_3"}
  %subtract.54.clone.1.clone.1 = f32[] subtract(f32[] %param_18.12, f32[] %convert.99.clone.1.clone.1), metadata={op_type="Sub" op_name="EMA/rpn_losses/level3/num_pos_anchor_EMA_apply/sub"}
  %multiply.92.clone.1.clone.1 = f32[] multiply(f32[] %subtract.54.clone.1.clone.1, f32[] %param_0.146), metadata={op_type="Mul" op_name="EMA/rpn_losses/level3/num_pos_anchor_EMA_apply/mul"}
  %param_17.10 = f32[] parameter(17)
  %subtract.33.clone.1.clone.1.clone.1 = f32[] subtract(f32[] %param_17.10, f32[] %select.55.clone.1), metadata={op_type="Sub" op_name="EMA/rpn_losses/level3/box_loss_EMA_apply/sub"}
  %multiply.62.clone.1.clone.1.clone.1 = f32[] multiply(f32[] %subtract.33.clone.1.clone.1.clone.1, f32[] %param_0.146), metadata={op_type="Mul" op_name="EMA/rpn_losses/level3/box_loss_EMA_apply/mul"}
  %param_15.20 = f32[] parameter(15)
  %param_16.13 = s64[] parameter(16)
  %convert.171.clone.1.clone.1 = s32[] convert(s64[] %param_16.13), metadata={op_type="Cast" op_name="tower0/rpn_losses/level3/label_metrics/count_nonzero/Cast_1"}
  %convert.62.clone.1.clone.1 = f64[] convert(s32[] %convert.171.clone.1.clone.1), metadata={op_type="Cast" op_name="tower0/rpn_losses/level3/label_metrics/truediv/Cast"}
  %divide.24.clone.1.clone.1 = f64[] divide(f64[] %convert.62.clone.1.clone.1, f64[] %convert.44.clone.1), metadata={op_type="RealDiv" op_name="tower0/rpn_losses/level3/label_metrics/truediv"}
  %convert.60.clone.1.clone.1 = f32[] convert(f64[] %divide.24.clone.1.clone.1), metadata={op_type="Cast" op_name="tower0/rpn_losses/level3/label_metrics/Cast_1"}
  %select.20.clone.1.clone.1 = f32[] select(pred[] %compare.78.clone.1, f32[] %constant_612_clone_1_clone_1, f32[] %convert.60.clone.1.clone.1), metadata={op_type="Select" op_name="tower0/rpn_losses/level3/label_metrics/recall_th0.5"}
  %subtract.39.clone.1.clone.1 = f32[] subtract(f32[] %param_15.20, f32[] %select.20.clone.1.clone.1), metadata={op_type="Sub" op_name="EMA/rpn_losses/level3/label_metrics/recall_th0.5_EMA_apply/sub"}
  %multiply.68.clone.1.clone.1 = f32[] multiply(f32[] %subtract.39.clone.1.clone.1, f32[] %param_0.146), metadata={op_type="Mul" op_name="EMA/rpn_losses/level3/label_metrics/recall_th0.5_EMA_apply/mul"}
  %param_13.27 = f32[] parameter(13)
  %param_14.21 = s64[] parameter(14)
  %convert.168.clone.1.clone.1 = s32[] convert(s64[] %param_14.21), metadata={op_type="Cast" op_name="tower0/rpn_losses/level3/label_metrics/count_nonzero_1/Cast_1"}
  %convert.52.clone.1.clone.1 = f64[] convert(s32[] %convert.168.clone.1.clone.1), metadata={op_type="Cast" op_name="tower0/rpn_losses/level3/label_metrics/truediv_2/Cast"}
  %divide.22.clone.1.clone.1 = f64[] divide(f64[] %convert.52.clone.1.clone.1, f64[] %convert.44.clone.1), metadata={op_type="RealDiv" op_name="tower0/rpn_losses/level3/label_metrics/truediv_2"}
  %convert.51.clone.1.clone.1 = f32[] convert(f64[] %divide.22.clone.1.clone.1), metadata={op_type="Cast" op_name="tower0/rpn_losses/level3/label_metrics/Cast_4"}
  %select.18.clone.1.clone.1 = f32[] select(pred[] %compare.78.clone.1, f32[] %constant_612_clone_1_clone_1, f32[] %convert.51.clone.1.clone.1), metadata={op_type="Select" op_name="tower0/rpn_losses/level3/label_metrics/recall_th0.2"}
  %subtract.37.clone.1.clone.1 = f32[] subtract(f32[] %param_13.27, f32[] %select.18.clone.1.clone.1), metadata={op_type="Sub" op_name="EMA/rpn_losses/level3/label_metrics/recall_th0.2_EMA_apply/sub"}
  %multiply.66.clone.1.clone.1 = f32[] multiply(f32[] %subtract.37.clone.1.clone.1, f32[] %param_0.146), metadata={op_type="Mul" op_name="EMA/rpn_losses/level3/label_metrics/recall_th0.2_EMA_apply/mul"}
  %param_23.20 = f32[] parameter(23)
  %param_24.15 = s64[] parameter(24)
  %convert.152.clone.1 = s32[] convert(s64[] %param_24.15), metadata={op_type="Cast" op_name="tower0/rpn_losses/level2/label_metrics/count_nonzero_2/Cast_1"}
  %convert.16.clone.1 = f64[] convert(s32[] %convert.152.clone.1), metadata={op_type="Cast" op_name="tower0/rpn_losses/level2/label_metrics/truediv_4/Cast"}
  %convert.17.clone.1 = f64[] convert(s32[] %convert.150), metadata={op_type="Cast" op_name="tower0/rpn_losses/level2/label_metrics/truediv/Cast_1"}
  %divide.14.clone.1 = f64[] divide(f64[] %convert.16.clone.1, f64[] %convert.17.clone.1), metadata={op_type="RealDiv" op_name="tower0/rpn_losses/level2/label_metrics/truediv_4"}
  %convert.15.clone.1 = f32[] convert(f64[] %divide.14.clone.1), metadata={op_type="Cast" op_name="tower0/rpn_losses/level2/label_metrics/Cast_7"}
  %select.7.clone.1 = f32[] select(pred[] %compare.80, f32[] %constant_612_clone_1_clone_1, f32[] %convert.15.clone.1), metadata={op_type="Select" op_name="tower0/rpn_losses/level2/label_metrics/recall_th0.1"}
  %subtract.25.clone.1 = f32[] subtract(f32[] %param_23.20, f32[] %select.7.clone.1), metadata={op_type="Sub" op_name="EMA/rpn_losses/level2/label_metrics/recall_th0.1_EMA_apply/sub"}
  %multiply.51.clone.1 = f32[] multiply(f32[] %subtract.25.clone.1, f32[] %param_0.146), metadata={op_type="Mul" op_name="EMA/rpn_losses/level2/label_metrics/recall_th0.1_EMA_apply/mul"}
  %param_25.14 = f32[] parameter(25)
  %param_26.17 = s64[] parameter(26)
  %convert.155.clone.1 = s32[] convert(s64[] %param_26.17), metadata={op_type="Cast" op_name="tower0/rpn_losses/level2/label_metrics/count_nonzero_1/Cast_1"}
  %convert.25.clone.1 = f64[] convert(s32[] %convert.155.clone.1), metadata={op_type="Cast" op_name="tower0/rpn_losses/level2/label_metrics/truediv_2/Cast"}
  %divide.16.clone.1 = f64[] divide(f64[] %convert.25.clone.1, f64[] %convert.17.clone.1), metadata={op_type="RealDiv" op_name="tower0/rpn_losses/level2/label_metrics/truediv_2"}
  %convert.24.clone.1 = f32[] convert(f64[] %divide.16.clone.1), metadata={op_type="Cast" op_name="tower0/rpn_losses/level2/label_metrics/Cast_4"}
  %select.9.clone.1 = f32[] select(pred[] %compare.80, f32[] %constant_612_clone_1_clone_1, f32[] %convert.24.clone.1), metadata={op_type="Select" op_name="tower0/rpn_losses/level2/label_metrics/recall_th0.2"}
  %subtract.27.clone.1 = f32[] subtract(f32[] %param_25.14, f32[] %select.9.clone.1), metadata={op_type="Sub" op_name="EMA/rpn_losses/level2/label_metrics/recall_th0.2_EMA_apply/sub"}
  %multiply.53.clone.1 = f32[] multiply(f32[] %subtract.27.clone.1, f32[] %param_0.146), metadata={op_type="Mul" op_name="EMA/rpn_losses/level2/label_metrics/recall_th0.2_EMA_apply/mul"}
  %param_27.14 = f32[] parameter(27)
  %param_28.14 = s64[] parameter(28)
  %convert.158.clone.1 = s32[] convert(s64[] %param_28.14), metadata={op_type="Cast" op_name="tower0/rpn_losses/level2/label_metrics/count_nonzero/Cast_1"}
  %convert.35.clone.1 = f64[] convert(s32[] %convert.158.clone.1), metadata={op_type="Cast" op_name="tower0/rpn_losses/level2/label_metrics/truediv/Cast"}
  %divide.18.clone.1 = f64[] divide(f64[] %convert.35.clone.1, f64[] %convert.17.clone.1), metadata={op_type="RealDiv" op_name="tower0/rpn_losses/level2/label_metrics/truediv"}
  %convert.33.clone.1 = f32[] convert(f64[] %divide.18.clone.1), metadata={op_type="Cast" op_name="tower0/rpn_losses/level2/label_metrics/Cast_1"}
  %select.11.clone.1 = f32[] select(pred[] %compare.80, f32[] %constant_612_clone_1_clone_1, f32[] %convert.33.clone.1), metadata={op_type="Select" op_name="tower0/rpn_losses/level2/label_metrics/recall_th0.5"}
  %subtract.29.clone.1 = f32[] subtract(f32[] %param_27.14, f32[] %select.11.clone.1), metadata={op_type="Sub" op_name="EMA/rpn_losses/level2/label_metrics/recall_th0.5_EMA_apply/sub"}
  %multiply.55.clone.1 = f32[] multiply(f32[] %subtract.29.clone.1, f32[] %param_0.146), metadata={op_type="Mul" op_name="EMA/rpn_losses/level2/label_metrics/recall_th0.5_EMA_apply/mul"}
  %param_29.14 = f32[] parameter(29)
  %param_30.13 = s32[] parameter(30)
  %compare.31.clone.1 = pred[] compare(s32[] %constant_487, s32[] %param_30.13), direction=EQ, metadata={op_type="Equal" op_name="tower0/rpn_losses/level3/label_metrics/Equal_2"}
  %convert.57.clone.1 = f64[] convert(s32[] %param_30.13), metadata={op_type="Cast" op_name="tower0/rpn_losses/level3/label_metrics/truediv_1/Cast_1"}
  %divide.23.clone.1 = f64[] divide(f64[] %convert.62.clone.1.clone.1, f64[] %convert.57.clone.1), metadata={op_type="RealDiv" op_name="tower0/rpn_losses/level3/label_metrics/truediv_1"}
  %convert.56.clone.1 = f32[] convert(f64[] %divide.23.clone.1), metadata={op_type="Cast" op_name="tower0/rpn_losses/level3/label_metrics/Cast_2"}
  %select.19.clone.1 = f32[] select(pred[] %compare.31.clone.1, f32[] %constant_612_clone_1_clone_1, f32[] %convert.56.clone.1), metadata={op_type="Select" op_name="tower0/rpn_losses/level3/label_metrics/precision_th0.5"}
  %subtract.38.clone.1 = f32[] subtract(f32[] %param_29.14, f32[] %select.19.clone.1), metadata={op_type="Sub" op_name="EMA/rpn_losses/level3/label_metrics/precision_th0.5_EMA_apply/sub"}
  %multiply.67.clone.1 = f32[] multiply(f32[] %subtract.38.clone.1, f32[] %param_0.146), metadata={op_type="Mul" op_name="EMA/rpn_losses/level3/label_metrics/precision_th0.5_EMA_apply/mul"}
  %param_31.13 = f32[] parameter(31)
  %param_32.11 = s32[] parameter(32)
  %compare.27.clone.1 = pred[] compare(s32[] %constant_487, s32[] %param_32.11), direction=EQ, metadata={op_type="Equal" op_name="tower0/rpn_losses/level3/label_metrics/Equal_5"}
  %convert.48.clone.1 = f64[] convert(s32[] %param_32.11), metadata={op_type="Cast" op_name="tower0/rpn_losses/level3/label_metrics/truediv_3/Cast_1"}
  %divide.21.clone.1 = f64[] divide(f64[] %convert.52.clone.1.clone.1, f64[] %convert.48.clone.1), metadata={op_type="RealDiv" op_name="tower0/rpn_losses/level3/label_metrics/truediv_3"}
  %convert.47.clone.1 = f32[] convert(f64[] %divide.21.clone.1), metadata={op_type="Cast" op_name="tower0/rpn_losses/level3/label_metrics/Cast_5"}
  %select.17.clone.1 = f32[] select(pred[] %compare.27.clone.1, f32[] %constant_612_clone_1_clone_1, f32[] %convert.47.clone.1), metadata={op_type="Select" op_name="tower0/rpn_losses/level3/label_metrics/precision_th0.2"}
  %subtract.36.clone.1 = f32[] subtract(f32[] %param_31.13, f32[] %select.17.clone.1), metadata={op_type="Sub" op_name="EMA/rpn_losses/level3/label_metrics/precision_th0.2_EMA_apply/sub"}
  %multiply.65.clone.1 = f32[] multiply(f32[] %subtract.36.clone.1, f32[] %param_0.146), metadata={op_type="Mul" op_name="EMA/rpn_losses/level3/label_metrics/precision_th0.2_EMA_apply/mul"}
  %param_33.12 = f32[] parameter(33)
  %param_34.11 = s32[] parameter(34)
  %compare.12.clone.1 = pred[] compare(s32[] %constant_487, s32[] %param_34.11), direction=EQ, metadata={op_type="Equal" op_name="tower0/rpn_losses/level2/label_metrics/Equal_8"}
  %convert.12.clone.1 = f64[] convert(s32[] %param_34.11), metadata={op_type="Cast" op_name="tower0/rpn_losses/level2/label_metrics/truediv_5/Cast_1"}
  %divide.13.clone.1 = f64[] divide(f64[] %convert.16.clone.1, f64[] %convert.12.clone.1), metadata={op_type="RealDiv" op_name="tower0/rpn_losses/level2/label_metrics/truediv_5"}
  %convert.11.clone.1 = f32[] convert(f64[] %divide.13.clone.1), metadata={op_type="Cast" op_name="tower0/rpn_losses/level2/label_metrics/Cast_8"}
  %select.6.clone.1 = f32[] select(pred[] %compare.12.clone.1, f32[] %constant_612_clone_1_clone_1, f32[] %convert.11.clone.1), metadata={op_type="Select" op_name="tower0/rpn_losses/level2/label_metrics/precision_th0.1"}
  %subtract.24.clone.1 = f32[] subtract(f32[] %param_33.12, f32[] %select.6.clone.1), metadata={op_type="Sub" op_name="EMA/rpn_losses/level2/label_metrics/precision_th0.1_EMA_apply/sub"}
  %multiply.50.clone.1 = f32[] multiply(f32[] %subtract.24.clone.1, f32[] %param_0.146), metadata={op_type="Mul" op_name="EMA/rpn_losses/level2/label_metrics/precision_th0.1_EMA_apply/mul"}
  %param_35.12 = f32[] parameter(35)
  %param_36.11 = s32[] parameter(36)
  %compare.16.clone.1 = pred[] compare(s32[] %constant_487, s32[] %param_36.11), direction=EQ, metadata={op_type="Equal" op_name="tower0/rpn_losses/level2/label_metrics/Equal_5"}
  %convert.21.clone.1 = f64[] convert(s32[] %param_36.11), metadata={op_type="Cast" op_name="tower0/rpn_losses/level2/label_metrics/truediv_3/Cast_1"}
  %divide.15.clone.1 = f64[] divide(f64[] %convert.25.clone.1, f64[] %convert.21.clone.1), metadata={op_type="RealDiv" op_name="tower0/rpn_losses/level2/label_metrics/truediv_3"}
  %convert.20.clone.1 = f32[] convert(f64[] %divide.15.clone.1), metadata={op_type="Cast" op_name="tower0/rpn_losses/level2/label_metrics/Cast_5"}
  %select.8.clone.1 = f32[] select(pred[] %compare.16.clone.1, f32[] %constant_612_clone_1_clone_1, f32[] %convert.20.clone.1), metadata={op_type="Select" op_name="tower0/rpn_losses/level2/label_metrics/precision_th0.2"}
  %subtract.26.clone.1 = f32[] subtract(f32[] %param_35.12, f32[] %select.8.clone.1), metadata={op_type="Sub" op_name="EMA/rpn_losses/level2/label_metrics/precision_th0.2_EMA_apply/sub"}
  %multiply.52.clone.1 = f32[] multiply(f32[] %subtract.26.clone.1, f32[] %param_0.146), metadata={op_type="Mul" op_name="EMA/rpn_losses/level2/label_metrics/precision_th0.2_EMA_apply/mul"}
  %param_37.12 = f32[] parameter(37)
  %param_38.11 = s32[] parameter(38)
  %compare.20.clone.1 = pred[] compare(s32[] %constant_487, s32[] %param_38.11), direction=EQ, metadata={op_type="Equal" op_name="tower0/rpn_losses/level2/label_metrics/Equal_2"}
  %convert.30.clone.1 = f64[] convert(s32[] %param_38.11), metadata={op_type="Cast" op_name="tower0/rpn_losses/level2/label_metrics/truediv_1/Cast_1"}
  %divide.17.clone.1 = f64[] divide(f64[] %convert.35.clone.1, f64[] %convert.30.clone.1), metadata={op_type="RealDiv" op_name="tower0/rpn_losses/level2/label_metrics/truediv_1"}
  %convert.29.clone.1 = f32[] convert(f64[] %divide.17.clone.1), metadata={op_type="Cast" op_name="tower0/rpn_losses/level2/label_metrics/Cast_2"}
  %select.10.clone.1 = f32[] select(pred[] %compare.20.clone.1, f32[] %constant_612_clone_1_clone_1, f32[] %convert.29.clone.1), metadata={op_type="Select" op_name="tower0/rpn_losses/level2/label_metrics/precision_th0.5"}
  %subtract.28.clone.1 = f32[] subtract(f32[] %param_37.12, f32[] %select.10.clone.1), metadata={op_type="Sub" op_name="EMA/rpn_losses/level2/label_metrics/precision_th0.5_EMA_apply/sub"}
  %multiply.54.clone.1 = f32[] multiply(f32[] %subtract.28.clone.1, f32[] %param_0.146), metadata={op_type="Mul" op_name="EMA/rpn_losses/level2/label_metrics/precision_th0.5_EMA_apply/mul"}
  %param_39.12 = f32[] parameter(39)
  %subtract.63.clone.1 = f32[] subtract(f32[] %param_39.12, f32[] %select.67.clone.1), metadata={op_type="Sub" op_name="EMA/rpn_losses/level6/label_metrics/recall_th0.2_EMA_apply/sub"}
  %multiply.104.clone.1 = f32[] multiply(f32[] %subtract.63.clone.1, f32[] %param_0.146), metadata={op_type="Mul" op_name="EMA/rpn_losses/level6/label_metrics/recall_th0.2_EMA_apply/mul"}
  ROOT %tuple.74 = (f32[], f32[], f32[], f32[], f32[], f32[], f32[], f32[], f32[], f32[], f32[], f32[], f32[], f32[], f32[], f32[], f32[], f32[], f32[], f32[], f32[], f32[]) tuple(f32[] %multiply.49, f32[] %add.37.clone.1, f32[] %multiply.74.clone.1, f32[] %multiply.106.clone.1, f32[] %multiply.94.clone.1.clone.1, f32[] %multiply.122.clone.1.clone.1, f32[] %multiply.102.clone.1.clone.1, f32[] %multiply.64.clone.1, f32[] %multiply.63.clone.1.clone.1, f32[] %multiply.92.clone.1.clone.1, f32[] %multiply.62.clone.1.clone.1.clone.1, f32[] %multiply.68.clone.1.clone.1, f32[] %multiply.66.clone.1.clone.1, f32[] %multiply.51.clone.1, f32[] %multiply.53.clone.1, f32[] %multiply.55.clone.1, f32[] %multiply.67.clone.1, f32[] %multiply.65.clone.1, f32[] %multiply.50.clone.1, f32[] %multiply.52.clone.1, f32[] %multiply.54.clone.1, f32[] %multiply.104.clone.1)
}

%tower0_rpn_losses_level2_label_metrics_num_pos_prediction_2-reduction.2484 (x.2485: s32[], y.2486: s32[]) -> s32[] {
  %x.2485 = s32[] parameter(0)
  %y.2486 = s32[] parameter(1)
  ROOT %add.2487 = s32[] add(s32[] %x.2485, s32[] %y.2486)
}

%fused_computation.63 (param_0.151: pred[186]) -> s32[] {
  %param_0.151 = pred[186]{0} parameter(0)
  %convert.14 = s32[186]{0} convert(pred[186]{0} %param_0.151), metadata={op_type="Cast" op_name="tower0/rpn_losses/level2/label_metrics/Cast_6"}
  %constant_312 = s32[] constant(0), metadata={op_type="Equal" op_name="tower0/rpn_losses/level2/Equal_2"}
  ROOT %reduce.12 = s32[] reduce(s32[186]{0} %convert.14, s32[] %constant_312), dimensions={0}, to_apply=%tower0_rpn_losses_level2_label_metrics_num_pos_prediction_2-reduction.2484, metadata={op_type="Sum" op_name="tower0/rpn_losses/level2/label_metrics/num_pos_prediction_2"}
}

%tower0_rpn_losses_level2_label_metrics_num_pos_prediction_1-reduction.2439 (x.2440: s32[], y.2441: s32[]) -> s32[] {
  %x.2440 = s32[] parameter(0)
  %y.2441 = s32[] parameter(1)
  ROOT %add.2442 = s32[] add(s32[] %x.2440, s32[] %y.2441)
}

%fused_computation.68 (param_0.162: pred[186]) -> s32[] {
  %param_0.162 = pred[186]{0} parameter(0)
  %convert.23 = s32[186]{0} convert(pred[186]{0} %param_0.162), metadata={op_type="Cast" op_name="tower0/rpn_losses/level2/label_metrics/Cast_3"}
  %constant_318 = s32[] constant(0), metadata={op_type="Equal" op_name="tower0/rpn_losses/level2/Equal_2"}
  ROOT %reduce.14 = s32[] reduce(s32[186]{0} %convert.23, s32[] %constant_318), dimensions={0}, to_apply=%tower0_rpn_losses_level2_label_metrics_num_pos_prediction_1-reduction.2439, metadata={op_type="Sum" op_name="tower0/rpn_losses/level2/label_metrics/num_pos_prediction_1"}
}

%fused_computation.71 (param_0.168: f32[186]) -> (pred[186], pred[186]) {
  %param_0.168 = f32[186]{0} parameter(0)
  %constant_321 = f32[] constant(0.2), metadata={op_type="Greater" op_name="tower0/rpn_losses/level3/label_metrics/Greater_2"}
  %broadcast.85 = f32[186]{0} broadcast(f32[] %constant_321), dimensions={}, metadata={op_type="Greater" op_name="tower0/rpn_losses/level2/label_metrics/Greater_2"}
  %compare.19 = pred[186]{0} compare(f32[186]{0} %param_0.168, f32[186]{0} %broadcast.85), direction=GT, metadata={op_type="Greater" op_name="tower0/rpn_losses/level2/label_metrics/Greater_2"}
  %constant_315_clone_1 = f32[] constant(0.1), metadata={op_type="Greater" op_name="tower0/rpn_losses/level3/label_metrics/Greater_4"}
  %broadcast.84.clone.1 = f32[186]{0} broadcast(f32[] %constant_315_clone_1), dimensions={}, metadata={op_type="Greater" op_name="tower0/rpn_losses/level2/label_metrics/Greater_4"}
  %compare.15.clone.1 = pred[186]{0} compare(f32[186]{0} %param_0.168, f32[186]{0} %broadcast.84.clone.1), direction=GT, metadata={op_type="Greater" op_name="tower0/rpn_losses/level2/label_metrics/Greater_4"}
  ROOT %tuple.27 = (pred[186]{0}, pred[186]{0}) tuple(pred[186]{0} %compare.19, pred[186]{0} %compare.15.clone.1)
}

%tower0_rpn_losses_level2_label_metrics_num_pos_prediction-reduction.2394 (x.2395: s32[], y.2396: s32[]) -> s32[] {
  %x.2395 = s32[] parameter(0)
  %y.2396 = s32[] parameter(1)
  ROOT %add.2397 = s32[] add(s32[] %x.2395, s32[] %y.2396)
}

%fused_computation.73 (param_0.657: f32[186]) -> s32[] {
  %param_0.657 = f32[186]{0} parameter(0)
  %constant_493 = f32[] constant(0.5), metadata={op_type="Sigmoid" op_name="tower0/rpn_losses/level3/label_metrics/Sigmoid"}
  %broadcast.121 = f32[186]{0} broadcast(f32[] %constant_493), dimensions={}, metadata={op_type="Sigmoid" op_name="tower0/rpn_losses/level2/label_metrics/Sigmoid"}
  %compare.83 = pred[186]{0} compare(f32[186]{0} %param_0.657, f32[186]{0} %broadcast.121), direction=GT, metadata={op_type="Greater" op_name="tower0/rpn_losses/level2/label_metrics/Greater"}
  %convert.32 = s32[186]{0} convert(pred[186]{0} %compare.83), metadata={op_type="Cast" op_name="tower0/rpn_losses/level2/label_metrics/Cast"}
  %constant_324 = s32[] constant(0), metadata={op_type="Equal" op_name="tower0/rpn_losses/level2/Equal_2"}
  ROOT %reduce.16 = s32[] reduce(s32[186]{0} %convert.32, s32[] %constant_324), dimensions={0}, to_apply=%tower0_rpn_losses_level2_label_metrics_num_pos_prediction-reduction.2394, metadata={op_type="Sum" op_name="tower0/rpn_losses/level2/label_metrics/num_pos_prediction"}
}

%tower0_rpn_losses_level2_label_metrics_count_nonzero_Sum-reduction.2411 (x.2412: s64[], y.2413: s64[]) -> s64[] {
  %x.2412 = s64[] parameter(0)
  %y.2413 = s64[] parameter(1)
  ROOT %add.2414 = s64[] add(s64[] %x.2412, s64[] %y.2413)
}

%tower0_rpn_losses_level2_label_metrics_count_nonzero_1_Sum-reduction.2456 (x.2457: s64[], y.2458: s64[]) -> s64[] {
  %x.2457 = s64[] parameter(0)
  %y.2458 = s64[] parameter(1)
  ROOT %add.2459 = s64[] add(s64[] %x.2457, s64[] %y.2458)
}

%tower0_rpn_losses_level2_label_metrics_count_nonzero_2_Sum-reduction.2501 (x.2502: s64[], y.2503: s64[]) -> s64[] {
  %x.2502 = s64[] parameter(0)
  %y.2503 = s64[] parameter(1)
  ROOT %add.2504 = s64[] add(s64[] %x.2502, s64[] %y.2503)
}

%fused_computation.75 (param_0.658: s32[186], param_1.687: f32[186], param_2.547: pred[186], param_3.402: pred[186]) -> (s64[], s64[], s64[]) {
  %constant_496 = pred[] constant(false), metadata={op_type="NotEqual" op_name="tower0/rpn_losses/level2/count_nonzero_1/NotEqual"}
  %broadcast.123 = pred[186]{0} broadcast(pred[] %constant_496), dimensions={}, metadata={op_type="NotEqual" op_name="tower0/rpn_losses/level2/label_metrics/count_nonzero/NotEqual"}
  %param_0.658 = s32[186]{0} parameter(0)
  %param_1.687 = f32[186]{0} parameter(1)
  %constant_495 = f32[] constant(0.5), metadata={op_type="Sigmoid" op_name="tower0/rpn_losses/level3/label_metrics/Sigmoid"}
  %broadcast.122 = f32[186]{0} broadcast(f32[] %constant_495), dimensions={}, metadata={op_type="Sigmoid" op_name="tower0/rpn_losses/level2/label_metrics/Sigmoid"}
  %compare.85 = pred[186]{0} compare(f32[186]{0} %param_1.687, f32[186]{0} %broadcast.122), direction=GT, metadata={op_type="Greater" op_name="tower0/rpn_losses/level2/label_metrics/Greater"}
  %convert.37 = s32[186]{0} convert(pred[186]{0} %compare.85), metadata={op_type="Cast" op_name="tower0/rpn_losses/level2/label_metrics/Cast"}
  %compare.22 = pred[186]{0} compare(s32[186]{0} %param_0.658, s32[186]{0} %convert.37), direction=EQ, metadata={op_type="Equal" op_name="tower0/rpn_losses/level2/label_metrics/Equal"}
  %and.6 = pred[186]{0} and(pred[186]{0} %compare.22, pred[186]{0} %compare.85), metadata={op_type="LogicalAnd" op_name="tower0/rpn_losses/level2/label_metrics/LogicalAnd"}
  %compare.21 = pred[186]{0} compare(pred[186]{0} %broadcast.123, pred[186]{0} %and.6), direction=NE, metadata={op_type="NotEqual" op_name="tower0/rpn_losses/level2/label_metrics/count_nonzero/NotEqual"}
  %convert.36 = s64[186]{0} convert(pred[186]{0} %compare.21), metadata={op_type="Cast" op_name="tower0/rpn_losses/level2/label_metrics/count_nonzero/Cast"}
  %constant_326 = s64[] constant(0), metadata={op_type="Sum" op_name="tower0/rpn_losses/level2/count_nonzero_1/Sum"}
  %reduce.17 = s64[] reduce(s64[186]{0} %convert.36, s64[] %constant_326), dimensions={0}, to_apply=%tower0_rpn_losses_level2_label_metrics_count_nonzero_Sum-reduction.2411, metadata={op_type="Sum" op_name="tower0/rpn_losses/level2/label_metrics/count_nonzero/Sum"}
  %param_2.547 = pred[186]{0} parameter(2)
  %convert.28.clone.1 = s32[186]{0} convert(pred[186]{0} %param_2.547), metadata={op_type="Cast" op_name="tower0/rpn_losses/level2/label_metrics/Cast_3"}
  %compare.18.clone.1 = pred[186]{0} compare(s32[186]{0} %param_0.658, s32[186]{0} %convert.28.clone.1), direction=EQ, metadata={op_type="Equal" op_name="tower0/rpn_losses/level2/label_metrics/Equal_3"}
  %and.5.clone.1 = pred[186]{0} and(pred[186]{0} %compare.18.clone.1, pred[186]{0} %param_2.547), metadata={op_type="LogicalAnd" op_name="tower0/rpn_losses/level2/label_metrics/LogicalAnd_1"}
  %compare.17.clone.1 = pred[186]{0} compare(pred[186]{0} %broadcast.123, pred[186]{0} %and.5.clone.1), direction=NE, metadata={op_type="NotEqual" op_name="tower0/rpn_losses/level2/label_metrics/count_nonzero_1/NotEqual"}
  %convert.27.clone.1 = s64[186]{0} convert(pred[186]{0} %compare.17.clone.1), metadata={op_type="Cast" op_name="tower0/rpn_losses/level2/label_metrics/count_nonzero_1/Cast"}
  %reduce.15.clone.1 = s64[] reduce(s64[186]{0} %convert.27.clone.1, s64[] %constant_326), dimensions={0}, to_apply=%tower0_rpn_losses_level2_label_metrics_count_nonzero_1_Sum-reduction.2456, metadata={op_type="Sum" op_name="tower0/rpn_losses/level2/label_metrics/count_nonzero_1/Sum"}
  %param_3.402 = pred[186]{0} parameter(3)
  %convert.19.clone.1 = s32[186]{0} convert(pred[186]{0} %param_3.402), metadata={op_type="Cast" op_name="tower0/rpn_losses/level2/label_metrics/Cast_6"}
  %compare.14.clone.1 = pred[186]{0} compare(s32[186]{0} %param_0.658, s32[186]{0} %convert.19.clone.1), direction=EQ, metadata={op_type="Equal" op_name="tower0/rpn_losses/level2/label_metrics/Equal_6"}
  %and.4.clone.1 = pred[186]{0} and(pred[186]{0} %compare.14.clone.1, pred[186]{0} %param_3.402), metadata={op_type="LogicalAnd" op_name="tower0/rpn_losses/level2/label_metrics/LogicalAnd_2"}
  %compare.13.clone.1 = pred[186]{0} compare(pred[186]{0} %broadcast.123, pred[186]{0} %and.4.clone.1), direction=NE, metadata={op_type="NotEqual" op_name="tower0/rpn_losses/level2/label_metrics/count_nonzero_2/NotEqual"}
  %convert.18.clone.1 = s64[186]{0} convert(pred[186]{0} %compare.13.clone.1), metadata={op_type="Cast" op_name="tower0/rpn_losses/level2/label_metrics/count_nonzero_2/Cast"}
  %reduce.13.clone.1 = s64[] reduce(s64[186]{0} %convert.18.clone.1, s64[] %constant_326), dimensions={0}, to_apply=%tower0_rpn_losses_level2_label_metrics_count_nonzero_2_Sum-reduction.2501, metadata={op_type="Sum" op_name="tower0/rpn_losses/level2/label_metrics/count_nonzero_2/Sum"}
  ROOT %tuple.28 = (s64[], s64[], s64[]) tuple(s64[] %reduce.17, s64[] %reduce.15.clone.1, s64[] %reduce.13.clone.1)
}

%tower0_rpn_losses_level2_Sum-reduction.2673 (x.2674: f32[], y.2675: f32[]) -> f32[] {
  %x.2674 = f32[] parameter(0)
  %y.2675 = f32[] parameter(1)
  ROOT %add.2676 = f32[] add(f32[] %x.2674, f32[] %y.2675)
}

%fused_computation.81 (param_0.662: f32[186], param_1.693: f32[186], param_2.438: s32[186]) -> (f32[], f32[186]) {
  %param_1.693 = f32[186]{0} parameter(1)
  %log-plus-one.1 = f32[186]{0} log-plus-one(f32[186]{0} %param_1.693), metadata={op_type="Log1p" op_name="tower0/rpn_losses/level2/logistic_loss/Log1p"}
  %param_0.662 = f32[186]{0} parameter(0)
  %constant_328 = f32[] constant(0), metadata={op_type="Sum" op_name="tower0/wd_cost_internals/Sum_53"}
  %broadcast.125 = f32[186]{0} broadcast(f32[] %constant_328), dimensions={}, metadata={op_type="ZerosLike" op_name="tower0/rpn_losses/level2/logistic_loss/zeros_like"}
  %compare.88 = pred[186]{0} compare(f32[186]{0} %param_0.662, f32[186]{0} %broadcast.125), direction=GE, metadata={op_type="GreaterEqual" op_name="tower0/rpn_losses/level2/logistic_loss/GreaterEqual"}
  %select.13 = f32[186]{0} select(pred[186]{0} %compare.88, f32[186]{0} %param_0.662, f32[186]{0} %broadcast.125), metadata={op_type="Select" op_name="tower0/rpn_losses/level2/logistic_loss/Select"}
  %param_2.438 = s32[186]{0} parameter(2)
  %convert.162 = f32[186]{0} convert(s32[186]{0} %param_2.438), metadata={op_type="Cast" op_name="tower0/rpn_losses/level2/Cast"}
  %multiply.61 = f32[186]{0} multiply(f32[186]{0} %convert.162, f32[186]{0} %param_0.662), metadata={op_type="Mul" op_name="tower0/rpn_losses/level2/logistic_loss/mul"}
  %subtract.32 = f32[186]{0} subtract(f32[186]{0} %select.13, f32[186]{0} %multiply.61), metadata={op_type="Sub" op_name="tower0/rpn_losses/level2/logistic_loss/sub"}
  %add.46 = f32[186]{0} add(f32[186]{0} %log-plus-one.1, f32[186]{0} %subtract.32), metadata={op_type="Add" op_name="tower0/rpn_losses/level2/logistic_loss"}
  %reduce.18 = f32[] reduce(f32[186]{0} %add.46, f32[] %constant_328), dimensions={0}, to_apply=%tower0_rpn_losses_level2_Sum-reduction.2673, metadata={op_type="Sum" op_name="tower0/rpn_losses/level2/Sum"}
  ROOT %tuple.24 = (f32[], f32[186]{0}) tuple(f32[] %reduce.18, f32[186]{0} %convert.162)
}

%fused_computation.82 (param_0.191: s64[186,1], param_1.226: s32[200,304,3]) -> s32[186] {
  %param_1.226 = s32[200,304,3]{2,1,0} parameter(1)
  %bitcast.72 = s32[182400]{0} bitcast(s32[200,304,3]{2,1,0} %param_1.226), metadata={op_type="Reshape" op_name="tower0/rpn_losses/level2/boolean_mask/Reshape"}
  %param_0.191 = s64[186,1]{1,0} parameter(0)
  %bitcast.71 = s64[186]{0} bitcast(s64[186,1]{1,0} %param_0.191), metadata={op_type="Squeeze" op_name="tower0/rpn_losses/level2/boolean_mask/Squeeze"}
  ROOT %gather.5 = s32[186]{0} gather(s32[182400]{0} %bitcast.72, s64[186]{0} %bitcast.71), offset_dims={}, collapsed_slice_dims={0}, start_index_map={0}, index_vector_dim=1, slice_sizes={1}, metadata={op_type="GatherV2" op_name="tower0/rpn_losses/level2/boolean_mask/GatherV2"}
}

%fused_computation.83 (param_0.664: f32[186]) -> (f32[186], f32[186], f32[186]) {
  %param_0.664 = f32[186]{0} parameter(0)
  %constant_503 = f32[] constant(0), metadata={op_type="Sum" op_name="tower0/wd_cost_internals/Sum_53"}
  %broadcast.126 = f32[186]{0} broadcast(f32[] %constant_503), dimensions={}, metadata={op_type="ZerosLike" op_name="tower0/rpn_losses/level2/logistic_loss/zeros_like"}
  %compare.89 = pred[186]{0} compare(f32[186]{0} %param_0.664, f32[186]{0} %broadcast.126), direction=GE, metadata={op_type="GreaterEqual" op_name="tower0/rpn_losses/level2/logistic_loss/GreaterEqual"}
  %negate.11 = f32[186]{0} negate(f32[186]{0} %param_0.664), metadata={op_type="Neg" op_name="tower0/rpn_losses/level2/logistic_loss/Neg"}
  %select.14 = f32[186]{0} select(pred[186]{0} %compare.89, f32[186]{0} %negate.11, f32[186]{0} %param_0.664), metadata={op_type="Select" op_name="tower0/rpn_losses/level2/logistic_loss/Select_1"}
  %exponential.0 = f32[186]{0} exponential(f32[186]{0} %select.14), metadata={op_type="Exp" op_name="tower0/rpn_losses/level2/logistic_loss/Exp"}
  %constant_497_clone_1 = f32[] constant(0.5), metadata={op_type="Sigmoid" op_name="tower0/rpn_losses/level3/label_metrics/Sigmoid"}
  %broadcast.124.clone.1 = f32[186]{0} broadcast(f32[] %constant_497_clone_1), dimensions={}, metadata={op_type="Sigmoid" op_name="tower0/rpn_losses/level2/label_metrics/Sigmoid"}
  %multiply.57.clone.1 = f32[186]{0} multiply(f32[186]{0} %broadcast.124.clone.1, f32[186]{0} %param_0.664), metadata={op_type="Sigmoid" op_name="tower0/rpn_losses/level2/label_metrics/Sigmoid"}
  %tanh.1.clone.1 = f32[186]{0} tanh(f32[186]{0} %multiply.57.clone.1), metadata={op_type="Sigmoid" op_name="tower0/rpn_losses/level2/label_metrics/Sigmoid"}
  %multiply.56.clone.1 = f32[186]{0} multiply(f32[186]{0} %broadcast.124.clone.1, f32[186]{0} %tanh.1.clone.1), metadata={op_type="Sigmoid" op_name="tower0/rpn_losses/level2/label_metrics/Sigmoid"}
  %add.41.clone.1 = f32[186]{0} add(f32[186]{0} %broadcast.124.clone.1, f32[186]{0} %multiply.56.clone.1), metadata={op_type="Sigmoid" op_name="tower0/rpn_losses/level2/label_metrics/Sigmoid"}
  ROOT %tuple.25 = (f32[186]{0}, f32[186]{0}, f32[186]{0}) tuple(f32[186]{0} %exponential.0, f32[186]{0} %negate.11, f32[186]{0} %add.41.clone.1)
}

%tower0_rpn_losses_level3_label_metrics_num_pos_prediction_2-reduction.1592 (x.1593: s32[], y.1594: s32[]) -> s32[] {
  %x.1593 = s32[] parameter(0)
  %y.1594 = s32[] parameter(1)
  ROOT %add.1595 = s32[] add(s32[] %x.1593, s32[] %y.1594)
}

%fused_computation.86 (param_0.200: pred[50]) -> s32[] {
  %param_0.200 = pred[50]{0} parameter(0)
  %convert.41 = s32[50]{0} convert(pred[50]{0} %param_0.200), metadata={op_type="Cast" op_name="tower0/rpn_losses/level3/label_metrics/Cast_6"}
  %constant_331 = s32[] constant(0), metadata={op_type="Equal" op_name="tower0/rpn_losses/level2/Equal_2"}
  ROOT %reduce.19 = s32[] reduce(s32[50]{0} %convert.41, s32[] %constant_331), dimensions={0}, to_apply=%tower0_rpn_losses_level3_label_metrics_num_pos_prediction_2-reduction.1592, metadata={op_type="Sum" op_name="tower0/rpn_losses/level3/label_metrics/num_pos_prediction_2"}
}

%tower0_rpn_losses_level3_label_metrics_num_pos_prediction_1-reduction.1576 (x.1577: s32[], y.1578: s32[]) -> s32[] {
  %x.1577 = s32[] parameter(0)
  %y.1578 = s32[] parameter(1)
  ROOT %add.1579 = s32[] add(s32[] %x.1577, s32[] %y.1578)
}

%fused_computation.91 (param_0.211: pred[50]) -> s32[] {
  %param_0.211 = pred[50]{0} parameter(0)
  %convert.50 = s32[50]{0} convert(pred[50]{0} %param_0.211), metadata={op_type="Cast" op_name="tower0/rpn_losses/level3/label_metrics/Cast_3"}
  %constant_337 = s32[] constant(0), metadata={op_type="Equal" op_name="tower0/rpn_losses/level2/Equal_2"}
  ROOT %reduce.21 = s32[] reduce(s32[50]{0} %convert.50, s32[] %constant_337), dimensions={0}, to_apply=%tower0_rpn_losses_level3_label_metrics_num_pos_prediction_1-reduction.1576, metadata={op_type="Sum" op_name="tower0/rpn_losses/level3/label_metrics/num_pos_prediction_1"}
}

%tower0_rpn_losses_level3_label_metrics_count_nonzero_1_Sum-reduction.1654 (x.1655: s64[], y.1656: s64[]) -> s64[] {
  %x.1655 = s64[] parameter(0)
  %y.1656 = s64[] parameter(1)
  ROOT %add.1657 = s64[] add(s64[] %x.1655, s64[] %y.1656)
}

%tower0_rpn_losses_level3_label_metrics_count_nonzero_2_Sum-reduction.1677 (x.1678: s64[], y.1679: s64[]) -> s64[] {
  %x.1678 = s64[] parameter(0)
  %y.1679 = s64[] parameter(1)
  ROOT %add.1680 = s64[] add(s64[] %x.1678, s64[] %y.1679)
}

%tower0_rpn_losses_level3_label_metrics_count_nonzero_Sum-reduction.1631 (x.1632: s64[], y.1633: s64[]) -> s64[] {
  %x.1632 = s64[] parameter(0)
  %y.1633 = s64[] parameter(1)
  ROOT %add.1634 = s64[] add(s64[] %x.1632, s64[] %y.1633)
}

%fused_computation.93 (param_0.667: pred[50], param_1.699: s32[50], param_2.551: pred[50], param_3.411: f32[50]) -> (s64[], s64[], s64[]) {
  %constant_513 = pred[] constant(false), metadata={op_type="NotEqual" op_name="tower0/rpn_losses/level2/count_nonzero_1/NotEqual"}
  %broadcast.129 = pred[50]{0} broadcast(pred[] %constant_513), dimensions={}, metadata={op_type="NotEqual" op_name="tower0/rpn_losses/level3/label_metrics/count_nonzero/NotEqual"}
  %param_1.699 = s32[50]{0} parameter(1)
  %param_0.667 = pred[50]{0} parameter(0)
  %convert.55 = s32[50]{0} convert(pred[50]{0} %param_0.667), metadata={op_type="Cast" op_name="tower0/rpn_losses/level3/label_metrics/Cast_3"}
  %compare.29 = pred[50]{0} compare(s32[50]{0} %param_1.699, s32[50]{0} %convert.55), direction=EQ, metadata={op_type="Equal" op_name="tower0/rpn_losses/level3/label_metrics/Equal_3"}
  %and.8 = pred[50]{0} and(pred[50]{0} %compare.29, pred[50]{0} %param_0.667), metadata={op_type="LogicalAnd" op_name="tower0/rpn_losses/level3/label_metrics/LogicalAnd_1"}
  %compare.28 = pred[50]{0} compare(pred[50]{0} %broadcast.129, pred[50]{0} %and.8), direction=NE, metadata={op_type="NotEqual" op_name="tower0/rpn_losses/level3/label_metrics/count_nonzero_1/NotEqual"}
  %convert.54 = s64[50]{0} convert(pred[50]{0} %compare.28), metadata={op_type="Cast" op_name="tower0/rpn_losses/level3/label_metrics/count_nonzero_1/Cast"}
  %constant_339 = s64[] constant(0), metadata={op_type="Sum" op_name="tower0/rpn_losses/level2/count_nonzero_1/Sum"}
  %reduce.22 = s64[] reduce(s64[50]{0} %convert.54, s64[] %constant_339), dimensions={0}, to_apply=%tower0_rpn_losses_level3_label_metrics_count_nonzero_1_Sum-reduction.1654, metadata={op_type="Sum" op_name="tower0/rpn_losses/level3/label_metrics/count_nonzero_1/Sum"}
  %param_2.551 = pred[50]{0} parameter(2)
  %convert.46.clone.1 = s32[50]{0} convert(pred[50]{0} %param_2.551), metadata={op_type="Cast" op_name="tower0/rpn_losses/level3/label_metrics/Cast_6"}
  %compare.25.clone.1 = pred[50]{0} compare(s32[50]{0} %param_1.699, s32[50]{0} %convert.46.clone.1), direction=EQ, metadata={op_type="Equal" op_name="tower0/rpn_losses/level3/label_metrics/Equal_6"}
  %and.7.clone.1 = pred[50]{0} and(pred[50]{0} %compare.25.clone.1, pred[50]{0} %param_2.551), metadata={op_type="LogicalAnd" op_name="tower0/rpn_losses/level3/label_metrics/LogicalAnd_2"}
  %compare.24.clone.1 = pred[50]{0} compare(pred[50]{0} %broadcast.129, pred[50]{0} %and.7.clone.1), direction=NE, metadata={op_type="NotEqual" op_name="tower0/rpn_losses/level3/label_metrics/count_nonzero_2/NotEqual"}
  %convert.45.clone.1 = s64[50]{0} convert(pred[50]{0} %compare.24.clone.1), metadata={op_type="Cast" op_name="tower0/rpn_losses/level3/label_metrics/count_nonzero_2/Cast"}
  %reduce.20.clone.1 = s64[] reduce(s64[50]{0} %convert.45.clone.1, s64[] %constant_339), dimensions={0}, to_apply=%tower0_rpn_losses_level3_label_metrics_count_nonzero_2_Sum-reduction.1677, metadata={op_type="Sum" op_name="tower0/rpn_losses/level3/label_metrics/count_nonzero_2/Sum"}
  %param_3.411 = f32[50]{0} parameter(3)
  %constant_517_clone_1 = f32[] constant(0.5), metadata={op_type="Sigmoid" op_name="tower0/rpn_losses/level3/label_metrics/Sigmoid"}
  %broadcast.131.clone.1 = f32[50]{0} broadcast(f32[] %constant_517_clone_1), dimensions={}, metadata={op_type="Sigmoid" op_name="tower0/rpn_losses/level3/label_metrics/Sigmoid"}
  %compare.96.clone.1 = pred[50]{0} compare(f32[50]{0} %param_3.411, f32[50]{0} %broadcast.131.clone.1), direction=GT, metadata={op_type="Greater" op_name="tower0/rpn_losses/level3/label_metrics/Greater"}
  %convert.64.clone.1 = s32[50]{0} convert(pred[50]{0} %compare.96.clone.1), metadata={op_type="Cast" op_name="tower0/rpn_losses/level3/label_metrics/Cast"}
  %compare.33.clone.1 = pred[50]{0} compare(s32[50]{0} %param_1.699, s32[50]{0} %convert.64.clone.1), direction=EQ, metadata={op_type="Equal" op_name="tower0/rpn_losses/level3/label_metrics/Equal"}
  %and.9.clone.1 = pred[50]{0} and(pred[50]{0} %compare.33.clone.1, pred[50]{0} %compare.96.clone.1), metadata={op_type="LogicalAnd" op_name="tower0/rpn_losses/level3/label_metrics/LogicalAnd"}
  %compare.32.clone.1 = pred[50]{0} compare(pred[50]{0} %broadcast.129, pred[50]{0} %and.9.clone.1), direction=NE, metadata={op_type="NotEqual" op_name="tower0/rpn_losses/level3/label_metrics/count_nonzero/NotEqual"}
  %convert.63.clone.1 = s64[50]{0} convert(pred[50]{0} %compare.32.clone.1), metadata={op_type="Cast" op_name="tower0/rpn_losses/level3/label_metrics/count_nonzero/Cast"}
  %reduce.24.clone.1 = s64[] reduce(s64[50]{0} %convert.63.clone.1, s64[] %constant_339), dimensions={0}, to_apply=%tower0_rpn_losses_level3_label_metrics_count_nonzero_Sum-reduction.1631, metadata={op_type="Sum" op_name="tower0/rpn_losses/level3/label_metrics/count_nonzero/Sum"}
  ROOT %tuple.32 = (s64[], s64[], s64[]) tuple(s64[] %reduce.22, s64[] %reduce.20.clone.1, s64[] %reduce.24.clone.1)
}

%fused_computation.94 (param_0.217: f32[50]) -> (pred[50], pred[50]) {
  %param_0.217 = f32[50]{0} parameter(0)
  %constant_340 = f32[] constant(0.2), metadata={op_type="Greater" op_name="tower0/rpn_losses/level3/label_metrics/Greater_2"}
  %broadcast.87 = f32[50]{0} broadcast(f32[] %constant_340), dimensions={}, metadata={op_type="Greater" op_name="tower0/rpn_losses/level3/label_metrics/Greater_2"}
  %compare.30 = pred[50]{0} compare(f32[50]{0} %param_0.217, f32[50]{0} %broadcast.87), direction=GT, metadata={op_type="Greater" op_name="tower0/rpn_losses/level3/label_metrics/Greater_2"}
  %constant_334_clone_1 = f32[] constant(0.1), metadata={op_type="Greater" op_name="tower0/rpn_losses/level3/label_metrics/Greater_4"}
  %broadcast.86.clone.1 = f32[50]{0} broadcast(f32[] %constant_334_clone_1), dimensions={}, metadata={op_type="Greater" op_name="tower0/rpn_losses/level3/label_metrics/Greater_4"}
  %compare.26.clone.1 = pred[50]{0} compare(f32[50]{0} %param_0.217, f32[50]{0} %broadcast.86.clone.1), direction=GT, metadata={op_type="Greater" op_name="tower0/rpn_losses/level3/label_metrics/Greater_4"}
  ROOT %tuple.30 = (pred[50]{0}, pred[50]{0}) tuple(pred[50]{0} %compare.30, pred[50]{0} %compare.26.clone.1)
}

%tower0_rpn_losses_level3_label_metrics_num_pos_prediction-reduction.1560 (x.1561: s32[], y.1562: s32[]) -> s32[] {
  %x.1561 = s32[] parameter(0)
  %y.1562 = s32[] parameter(1)
  ROOT %add.1563 = s32[] add(s32[] %x.1561, s32[] %y.1562)
}

%fused_computation.96 (param_0.668: f32[50]) -> s32[] {
  %param_0.668 = f32[50]{0} parameter(0)
  %constant_514 = f32[] constant(0.5), metadata={op_type="Sigmoid" op_name="tower0/rpn_losses/level3/label_metrics/Sigmoid"}
  %broadcast.130 = f32[50]{0} broadcast(f32[] %constant_514), dimensions={}, metadata={op_type="Sigmoid" op_name="tower0/rpn_losses/level3/label_metrics/Sigmoid"}
  %compare.94 = pred[50]{0} compare(f32[50]{0} %param_0.668, f32[50]{0} %broadcast.130), direction=GT, metadata={op_type="Greater" op_name="tower0/rpn_losses/level3/label_metrics/Greater"}
  %convert.59 = s32[50]{0} convert(pred[50]{0} %compare.94), metadata={op_type="Cast" op_name="tower0/rpn_losses/level3/label_metrics/Cast"}
  %constant_343 = s32[] constant(0), metadata={op_type="Equal" op_name="tower0/rpn_losses/level2/Equal_2"}
  ROOT %reduce.23 = s32[] reduce(s32[50]{0} %convert.59, s32[] %constant_343), dimensions={0}, to_apply=%tower0_rpn_losses_level3_label_metrics_num_pos_prediction-reduction.1560, metadata={op_type="Sum" op_name="tower0/rpn_losses/level3/label_metrics/num_pos_prediction"}
}

%fused_computation.100 (param_0.230: f32[], param_1.269: f32[], param_2.214: f32[], param_3.451: f32[], param_4.431: s64[], param_5.285: f32[], param_6.154: f32[], param_7.112: f32[]) -> (f32[], f32[]) {
  %param_1.269 = f32[] parameter(1)
  %param_2.214 = f32[] parameter(2)
  %subtract.40 = f32[] subtract(f32[] %param_1.269, f32[] %param_2.214), metadata={op_type="Sub" op_name="EMA/rpn_losses/level3/label_loss_EMA_apply/sub"}
  %param_0.230 = f32[] parameter(0)
  %multiply.71 = f32[] multiply(f32[] %subtract.40, f32[] %param_0.230), metadata={op_type="Mul" op_name="EMA/rpn_losses/level3/label_loss_EMA_apply/mul"}
  %param_7.112 = f32[] parameter(7)
  %add.45.clone.1 = f32[] add(f32[] %param_7.112, f32[] %param_2.214), metadata={op_type="AddN" op_name="tower0/rpn_losses/label_loss"}
  %param_6.154 = f32[] parameter(6)
  %add.44.clone.1 = f32[] add(f32[] %add.45.clone.1, f32[] %param_6.154), metadata={op_type="AddN" op_name="tower0/rpn_losses/label_loss"}
  %param_5.285 = f32[] parameter(5)
  %add.43.clone.1 = f32[] add(f32[] %add.44.clone.1, f32[] %param_5.285), metadata={op_type="AddN" op_name="tower0/rpn_losses/label_loss"}
  %constant_498_clone_1 = s32[] constant(0), metadata={op_type="Equal" op_name="tower0/rpn_losses/level2/Equal_2"}
  %param_4.431 = s64[] parameter(4)
  %convert.160.clone.1 = s32[] convert(s64[] %param_4.431), metadata={op_type="Cast" op_name="tower0/rpn_losses/level6/count_nonzero/Cast_1"}
  %compare.86.clone.1 = pred[] compare(s32[] %constant_498_clone_1, s32[] %convert.160.clone.1), direction=EQ, metadata={op_type="Equal" op_name="tower0/rpn_losses/level6/Equal_1"}
  %param_3.451 = f32[] parameter(3)
  %constant_499_clone_1 = f32[] constant(0), metadata={op_type="Sum" op_name="tower0/wd_cost_internals/Sum_53"}
  %select.58.clone.1 = f32[] select(pred[] %compare.86.clone.1, f32[] %param_3.451, f32[] %constant_499_clone_1), metadata={op_type="Select" op_name="tower0/rpn_losses/level6/label_loss"}
  %add.42.clone.1 = f32[] add(f32[] %add.43.clone.1, f32[] %select.58.clone.1), metadata={op_type="AddN" op_name="tower0/rpn_losses/label_loss"}
  ROOT %tuple.89 = (f32[], f32[]) tuple(f32[] %multiply.71, f32[] %add.42.clone.1)
}

%tower0_rpn_losses_level3_Sum-reduction.2687 (x.2688: f32[], y.2689: f32[]) -> f32[] {
  %x.2688 = f32[] parameter(0)
  %y.2689 = f32[] parameter(1)
  ROOT %add.2690 = f32[] add(f32[] %x.2688, f32[] %y.2689)
}

%fused_computation.102 (param_0.672: f32[50], param_1.708: f32[50], param_2.458: s32[50]) -> (f32[], f32[50]) {
  %param_1.708 = f32[50]{0} parameter(1)
  %log-plus-one.2 = f32[50]{0} log-plus-one(f32[50]{0} %param_1.708), metadata={op_type="Log1p" op_name="tower0/rpn_losses/level3/logistic_loss/Log1p"}
  %param_0.672 = f32[50]{0} parameter(0)
  %constant_347 = f32[] constant(0), metadata={op_type="Sum" op_name="tower0/wd_cost_internals/Sum_53"}
  %broadcast.134 = f32[50]{0} broadcast(f32[] %constant_347), dimensions={}, metadata={op_type="ZerosLike" op_name="tower0/rpn_losses/level3/logistic_loss/zeros_like"}
  %compare.98 = pred[50]{0} compare(f32[50]{0} %param_0.672, f32[50]{0} %broadcast.134), direction=GE, metadata={op_type="GreaterEqual" op_name="tower0/rpn_losses/level3/logistic_loss/GreaterEqual"}
  %select.22 = f32[50]{0} select(pred[50]{0} %compare.98, f32[50]{0} %param_0.672, f32[50]{0} %broadcast.134), metadata={op_type="Select" op_name="tower0/rpn_losses/level3/logistic_loss/Select"}
  %param_2.458 = s32[50]{0} parameter(2)
  %convert.174 = f32[50]{0} convert(s32[50]{0} %param_2.458), metadata={op_type="Cast" op_name="tower0/rpn_losses/level3/Cast"}
  %multiply.73 = f32[50]{0} multiply(f32[50]{0} %convert.174, f32[50]{0} %param_0.672), metadata={op_type="Mul" op_name="tower0/rpn_losses/level3/logistic_loss/mul"}
  %subtract.41 = f32[50]{0} subtract(f32[50]{0} %select.22, f32[50]{0} %multiply.73), metadata={op_type="Sub" op_name="tower0/rpn_losses/level3/logistic_loss/sub"}
  %add.48 = f32[50]{0} add(f32[50]{0} %log-plus-one.2, f32[50]{0} %subtract.41), metadata={op_type="Add" op_name="tower0/rpn_losses/level3/logistic_loss"}
  %reduce.25 = f32[] reduce(f32[50]{0} %add.48, f32[] %constant_347), dimensions={0}, to_apply=%tower0_rpn_losses_level3_Sum-reduction.2687, metadata={op_type="Sum" op_name="tower0/rpn_losses/level3/Sum"}
  ROOT %tuple.34 = (f32[], f32[50]{0}) tuple(f32[] %reduce.25, f32[50]{0} %convert.174)
}

%fused_computation.103 (param_0.236: s64[50,1], param_1.277: s32[100,152,3]) -> s32[50] {
  %param_1.277 = s32[100,152,3]{2,1,0} parameter(1)
  %bitcast.74 = s32[45600]{0} bitcast(s32[100,152,3]{2,1,0} %param_1.277), metadata={op_type="Reshape" op_name="tower0/rpn_losses/level3/boolean_mask/Reshape"}
  %param_0.236 = s64[50,1]{1,0} parameter(0)
  %bitcast.73 = s64[50]{0} bitcast(s64[50,1]{1,0} %param_0.236), metadata={op_type="Squeeze" op_name="tower0/rpn_losses/level3/boolean_mask/Squeeze"}
  ROOT %gather.6 = s32[50]{0} gather(s32[45600]{0} %bitcast.74, s64[50]{0} %bitcast.73), offset_dims={}, collapsed_slice_dims={0}, start_index_map={0}, index_vector_dim=1, slice_sizes={1}, metadata={op_type="GatherV2" op_name="tower0/rpn_losses/level3/boolean_mask/GatherV2"}
}

%fused_computation.104 (param_0.674: f32[50]) -> (f32[50], f32[50], f32[50]) {
  %param_0.674 = f32[50]{0} parameter(0)
  %constant_524 = f32[] constant(0), metadata={op_type="Sum" op_name="tower0/wd_cost_internals/Sum_53"}
  %broadcast.135 = f32[50]{0} broadcast(f32[] %constant_524), dimensions={}, metadata={op_type="ZerosLike" op_name="tower0/rpn_losses/level3/logistic_loss/zeros_like"}
  %compare.99 = pred[50]{0} compare(f32[50]{0} %param_0.674, f32[50]{0} %broadcast.135), direction=GE, metadata={op_type="GreaterEqual" op_name="tower0/rpn_losses/level3/logistic_loss/GreaterEqual"}
  %negate.12 = f32[50]{0} negate(f32[50]{0} %param_0.674), metadata={op_type="Neg" op_name="tower0/rpn_losses/level3/logistic_loss/Neg"}
  %select.23 = f32[50]{0} select(pred[50]{0} %compare.99, f32[50]{0} %negate.12, f32[50]{0} %param_0.674), metadata={op_type="Select" op_name="tower0/rpn_losses/level3/logistic_loss/Select_1"}
  %exponential.1 = f32[50]{0} exponential(f32[50]{0} %select.23), metadata={op_type="Exp" op_name="tower0/rpn_losses/level3/logistic_loss/Exp"}
  %constant_520_clone_1 = f32[] constant(0.5), metadata={op_type="Sigmoid" op_name="tower0/rpn_losses/level3/label_metrics/Sigmoid"}
  %broadcast.133.clone.1 = f32[50]{0} broadcast(f32[] %constant_520_clone_1), dimensions={}, metadata={op_type="Sigmoid" op_name="tower0/rpn_losses/level3/label_metrics/Sigmoid"}
  %multiply.70.clone.1 = f32[50]{0} multiply(f32[50]{0} %broadcast.133.clone.1, f32[50]{0} %param_0.674), metadata={op_type="Sigmoid" op_name="tower0/rpn_losses/level3/label_metrics/Sigmoid"}
  %tanh.2.clone.1 = f32[50]{0} tanh(f32[50]{0} %multiply.70.clone.1), metadata={op_type="Sigmoid" op_name="tower0/rpn_losses/level3/label_metrics/Sigmoid"}
  %multiply.69.clone.1 = f32[50]{0} multiply(f32[50]{0} %broadcast.133.clone.1, f32[50]{0} %tanh.2.clone.1), metadata={op_type="Sigmoid" op_name="tower0/rpn_losses/level3/label_metrics/Sigmoid"}
  %add.47.clone.1 = f32[50]{0} add(f32[50]{0} %broadcast.133.clone.1, f32[50]{0} %multiply.69.clone.1), metadata={op_type="Sigmoid" op_name="tower0/rpn_losses/level3/label_metrics/Sigmoid"}
  ROOT %tuple.33 = (f32[50]{0}, f32[50]{0}, f32[50]{0}) tuple(f32[50]{0} %exponential.1, f32[50]{0} %negate.12, f32[50]{0} %add.47.clone.1)
}

%fused_computation.105 (param_0.676: f32[200,304,3], param_1.713: s64[186,1]) -> f32[186] {
  %param_0.676 = f32[200,304,3]{2,1,0} parameter(0)
  %bitcast.75 = f32[182400]{0} bitcast(f32[200,304,3]{2,1,0} %param_0.676), metadata={op_type="Reshape" op_name="tower0/rpn_losses/level2/boolean_mask_1/Reshape"}
  %param_1.713 = s64[186,1]{1,0} parameter(1)
  %bitcast.116 = s64[186]{0} bitcast(s64[186,1]{1,0} %param_1.713), metadata={op_type="Squeeze" op_name="tower0/rpn_losses/level2/boolean_mask_1/Squeeze"}
  ROOT %gather.7 = f32[186]{0} gather(f32[182400]{0} %bitcast.75, s64[186]{0} %bitcast.116), offset_dims={}, collapsed_slice_dims={0}, start_index_map={0}, index_vector_dim=1, slice_sizes={1}, metadata={op_type="GatherV2" op_name="tower0/rpn_losses/level2/boolean_mask_1/GatherV2"}
}

%fused_computation.108 (param_0.246: f32[], param_1.286: f32[], param_2.228: f32[], param_3.453: f32[], param_4.434: f32[], param_5.289: f32[], param_6.160: f32[], param_7.121: f32[], param_8.76: f32[], param_9.66: f32[], param_10.60: f32[], param_11.55: f32[], param_12.72: f32[], param_13.76: f32[], param_14.69: f32[], param_15.64: f32[], param_16.49: f32[], param_17.46: f32[], param_18.43: f32[], param_19.37: f32[], param_20.43: f32[], param_21.48: f32[], param_22.44: f32[], param_23.42: f32[], param_24.39: f32[], param_25.34: f32[], param_26.38: f32[], param_27.38: f32[], param_28.34: f32[], param_29.38: f32[], param_30.35: f32[], param_31.34: f32[], param_32.30: f32[], param_33.22: f32[], param_34.20: f32[], param_35.20: f32[], param_36.20: f32[], param_37.20: f32[], param_38.20: f32[], param_39.20: f32[], param_40.21: f32[], param_41.20: f32[], param_42.15: f32[], param_43.12: f32[], param_44.10: f32[], param_45.10: f32[], param_46.10: f32[], param_47.10: f32[], param_48.10: f32[], param_49.10: f32[], param_50.10: f32[], param_51.10: f32[], param_52.10: f32[], param_53.10: f32[], param_54.10: f32[], param_55.10: f32[], param_56.10: f32[], param_57.10: f32[], param_58.10: f32[], param_59.11: f32[], param_60.11: f32[], param_61.10: f32[], param_62.9: f32[], param_63.6: f32[], param_64.4: f32[], param_65.4: f32[], param_66.4: f32[], param_67.4: f32[], param_68.4: f32[], param_69.4: f32[], param_70.4: f32[], param_71.4: f32[], param_72.4: f32[], param_73.4: f32[], param_74.4: f32[], param_75.4: f32[], param_76.4: f32[], param_77.4: f32[], param_78.4: f32[], param_79.4: f32[], param_80.4: f32[], param_81.4: f32[], param_82.4: f32[], param_83.3: f32[]) -> (f32[], f32[], f32[], f32[], f32[], f32[], f32[], f32[], f32[], f32[]) {
  %param_1.286 = f32[] parameter(1)
  %param_2.228 = f32[] parameter(2)
  %subtract.44 = f32[] subtract(f32[] %param_1.286, f32[] %param_2.228), metadata={op_type="Sub" op_name="EMA/rpn_losses/level4/box_loss_EMA_apply/sub"}
  %param_0.246 = f32[] parameter(0)
  %multiply.76 = f32[] multiply(f32[] %subtract.44, f32[] %param_0.246), metadata={op_type="Mul" op_name="EMA/rpn_losses/level4/box_loss_EMA_apply/mul"}
  %param_3.453 = f32[] parameter(3)
  %param_4.434 = f32[] parameter(4)
  %subtract.30.clone.1 = f32[] subtract(f32[] %param_3.453, f32[] %param_4.434), metadata={op_type="Sub" op_name="EMA/rpn_losses/label_loss_EMA_apply/sub"}
  %multiply.58.clone.1 = f32[] multiply(f32[] %subtract.30.clone.1, f32[] %param_0.246), metadata={op_type="Mul" op_name="EMA/rpn_losses/label_loss_EMA_apply/mul"}
  %param_20.43 = f32[] parameter(20)
  %param_83.3 = f32[] parameter(83)
  %constant_668 = f32[] constant(5e-05), metadata={op_type="Mul" op_name="tower0/wd_cost_internals/mul_53"}
  %multiply.387 = f32[] multiply(f32[] %param_83.3, f32[] %constant_668), metadata={op_type="Mul" op_name="tower0/wd_cost_internals/mul"}
  %param_82.4 = f32[] parameter(82)
  %multiply.386 = f32[] multiply(f32[] %param_82.4, f32[] %constant_668), metadata={op_type="Mul" op_name="tower0/wd_cost_internals/mul_1"}
  %add.259 = f32[] add(f32[] %multiply.387, f32[] %multiply.386), metadata={op_type="AddN" op_name="tower0/wd_cost"}
  %param_81.4 = f32[] parameter(81)
  %add.258 = f32[] add(f32[] %add.259, f32[] %param_81.4), metadata={op_type="AddN" op_name="tower0/wd_cost"}
  %param_80.4 = f32[] parameter(80)
  %multiply.385 = f32[] multiply(f32[] %param_80.4, f32[] %constant_668), metadata={op_type="Mul" op_name="tower0/wd_cost_internals/mul_11"}
  %add.257 = f32[] add(f32[] %add.258, f32[] %multiply.385), metadata={op_type="AddN" op_name="tower0/wd_cost"}
  %param_79.4 = f32[] parameter(79)
  %multiply.384 = f32[] multiply(f32[] %param_79.4, f32[] %constant_668), metadata={op_type="Mul" op_name="tower0/wd_cost_internals/mul_12"}
  %add.256 = f32[] add(f32[] %add.257, f32[] %multiply.384), metadata={op_type="AddN" op_name="tower0/wd_cost"}
  %param_78.4 = f32[] parameter(78)
  %multiply.383 = f32[] multiply(f32[] %param_78.4, f32[] %constant_668), metadata={op_type="Mul" op_name="tower0/wd_cost_internals/mul_13"}
  %add.255 = f32[] add(f32[] %add.256, f32[] %multiply.383), metadata={op_type="AddN" op_name="tower0/wd_cost"}
  %param_77.4 = f32[] parameter(77)
  %multiply.382 = f32[] multiply(f32[] %param_77.4, f32[] %constant_668), metadata={op_type="Mul" op_name="tower0/wd_cost_internals/mul_14"}
  %add.254 = f32[] add(f32[] %add.255, f32[] %multiply.382), metadata={op_type="AddN" op_name="tower0/wd_cost"}
  %param_76.4 = f32[] parameter(76)
  %multiply.381 = f32[] multiply(f32[] %param_76.4, f32[] %constant_668), metadata={op_type="Mul" op_name="tower0/wd_cost_internals/mul_15"}
  %add.253 = f32[] add(f32[] %add.254, f32[] %multiply.381), metadata={op_type="AddN" op_name="tower0/wd_cost"}
  %param_75.4 = f32[] parameter(75)
  %multiply.380 = f32[] multiply(f32[] %param_75.4, f32[] %constant_668), metadata={op_type="Mul" op_name="tower0/wd_cost_internals/mul_16"}
  %add.252 = f32[] add(f32[] %add.253, f32[] %multiply.380), metadata={op_type="AddN" op_name="tower0/wd_cost"}
  %param_74.4 = f32[] parameter(74)
  %multiply.379 = f32[] multiply(f32[] %param_74.4, f32[] %constant_668), metadata={op_type="Mul" op_name="tower0/wd_cost_internals/mul_17"}
  %add.251 = f32[] add(f32[] %add.252, f32[] %multiply.379), metadata={op_type="AddN" op_name="tower0/wd_cost"}
  %param_73.4 = f32[] parameter(73)
  %multiply.378 = f32[] multiply(f32[] %param_73.4, f32[] %constant_668), metadata={op_type="Mul" op_name="tower0/wd_cost_internals/mul_18"}
  %add.250 = f32[] add(f32[] %add.251, f32[] %multiply.378), metadata={op_type="AddN" op_name="tower0/wd_cost"}
  %param_72.4 = f32[] parameter(72)
  %multiply.377 = f32[] multiply(f32[] %param_72.4, f32[] %constant_668), metadata={op_type="Mul" op_name="tower0/wd_cost_internals/mul_19"}
  %add.249 = f32[] add(f32[] %add.250, f32[] %multiply.377), metadata={op_type="AddN" op_name="tower0/wd_cost"}
  %param_71.4 = f32[] parameter(71)
  %multiply.376 = f32[] multiply(f32[] %param_71.4, f32[] %constant_668), metadata={op_type="Mul" op_name="tower0/wd_cost_internals/mul_2"}
  %add.248 = f32[] add(f32[] %add.249, f32[] %multiply.376), metadata={op_type="AddN" op_name="tower0/wd_cost"}
  %param_70.4 = f32[] parameter(70)
  %multiply.375 = f32[] multiply(f32[] %param_70.4, f32[] %constant_668), metadata={op_type="Mul" op_name="tower0/wd_cost_internals/mul_20"}
  %add.247 = f32[] add(f32[] %add.248, f32[] %multiply.375), metadata={op_type="AddN" op_name="tower0/wd_cost"}
  %param_69.4 = f32[] parameter(69)
  %multiply.374 = f32[] multiply(f32[] %param_69.4, f32[] %constant_668), metadata={op_type="Mul" op_name="tower0/wd_cost_internals/mul_21"}
  %add.246 = f32[] add(f32[] %add.247, f32[] %multiply.374), metadata={op_type="AddN" op_name="tower0/wd_cost"}
  %param_68.4 = f32[] parameter(68)
  %multiply.373 = f32[] multiply(f32[] %param_68.4, f32[] %constant_668), metadata={op_type="Mul" op_name="tower0/wd_cost_internals/mul_22"}
  %add.245 = f32[] add(f32[] %add.246, f32[] %multiply.373), metadata={op_type="AddN" op_name="tower0/wd_cost"}
  %param_67.4 = f32[] parameter(67)
  %multiply.372 = f32[] multiply(f32[] %param_67.4, f32[] %constant_668), metadata={op_type="Mul" op_name="tower0/wd_cost_internals/mul_23"}
  %add.244 = f32[] add(f32[] %add.245, f32[] %multiply.372), metadata={op_type="AddN" op_name="tower0/wd_cost"}
  %param_66.4 = f32[] parameter(66)
  %multiply.371 = f32[] multiply(f32[] %param_66.4, f32[] %constant_668), metadata={op_type="Mul" op_name="tower0/wd_cost_internals/mul_24"}
  %add.243 = f32[] add(f32[] %add.244, f32[] %multiply.371), metadata={op_type="AddN" op_name="tower0/wd_cost"}
  %param_65.4 = f32[] parameter(65)
  %multiply.370 = f32[] multiply(f32[] %param_65.4, f32[] %constant_668), metadata={op_type="Mul" op_name="tower0/wd_cost_internals/mul_25"}
  %add.242 = f32[] add(f32[] %add.243, f32[] %multiply.370), metadata={op_type="AddN" op_name="tower0/wd_cost"}
  %param_64.4 = f32[] parameter(64)
  %multiply.369 = f32[] multiply(f32[] %param_64.4, f32[] %constant_668), metadata={op_type="Mul" op_name="tower0/wd_cost_internals/mul_26"}
  %add.241 = f32[] add(f32[] %add.242, f32[] %multiply.369), metadata={op_type="AddN" op_name="tower0/wd_cost"}
  %param_63.6 = f32[] parameter(63)
  %multiply.368 = f32[] multiply(f32[] %param_63.6, f32[] %constant_668), metadata={op_type="Mul" op_name="tower0/wd_cost_internals/mul_27"}
  %add.240 = f32[] add(f32[] %add.241, f32[] %multiply.368), metadata={op_type="AddN" op_name="tower0/wd_cost"}
  %param_62.9 = f32[] parameter(62)
  %multiply.367 = f32[] multiply(f32[] %param_62.9, f32[] %constant_668), metadata={op_type="Mul" op_name="tower0/wd_cost_internals/mul_28"}
  %add.239 = f32[] add(f32[] %add.240, f32[] %multiply.367), metadata={op_type="AddN" op_name="tower0/wd_cost"}
  %param_61.10 = f32[] parameter(61)
  %multiply.366 = f32[] multiply(f32[] %param_61.10, f32[] %constant_668), metadata={op_type="Mul" op_name="tower0/wd_cost_internals/mul_29"}
  %add.238 = f32[] add(f32[] %add.239, f32[] %multiply.366), metadata={op_type="AddN" op_name="tower0/wd_cost"}
  %param_60.11 = f32[] parameter(60)
  %multiply.365 = f32[] multiply(f32[] %param_60.11, f32[] %constant_668), metadata={op_type="Mul" op_name="tower0/wd_cost_internals/mul_3"}
  %add.237 = f32[] add(f32[] %add.238, f32[] %multiply.365), metadata={op_type="AddN" op_name="tower0/wd_cost"}
  %param_59.11 = f32[] parameter(59)
  %multiply.364 = f32[] multiply(f32[] %param_59.11, f32[] %constant_668), metadata={op_type="Mul" op_name="tower0/wd_cost_internals/mul_30"}
  %add.236 = f32[] add(f32[] %add.237, f32[] %multiply.364), metadata={op_type="AddN" op_name="tower0/wd_cost"}
  %param_58.10 = f32[] parameter(58)
  %multiply.363 = f32[] multiply(f32[] %param_58.10, f32[] %constant_668), metadata={op_type="Mul" op_name="tower0/wd_cost_internals/mul_31"}
  %add.235 = f32[] add(f32[] %add.236, f32[] %multiply.363), metadata={op_type="AddN" op_name="tower0/wd_cost"}
  %param_57.10 = f32[] parameter(57)
  %multiply.362 = f32[] multiply(f32[] %param_57.10, f32[] %constant_668), metadata={op_type="Mul" op_name="tower0/wd_cost_internals/mul_32"}
  %add.234 = f32[] add(f32[] %add.235, f32[] %multiply.362), metadata={op_type="AddN" op_name="tower0/wd_cost"}
  %param_56.10 = f32[] parameter(56)
  %multiply.361 = f32[] multiply(f32[] %param_56.10, f32[] %constant_668), metadata={op_type="Mul" op_name="tower0/wd_cost_internals/mul_33"}
  %add.233 = f32[] add(f32[] %add.234, f32[] %multiply.361), metadata={op_type="AddN" op_name="tower0/wd_cost"}
  %param_55.10 = f32[] parameter(55)
  %multiply.360 = f32[] multiply(f32[] %param_55.10, f32[] %constant_668), metadata={op_type="Mul" op_name="tower0/wd_cost_internals/mul_34"}
  %add.232 = f32[] add(f32[] %add.233, f32[] %multiply.360), metadata={op_type="AddN" op_name="tower0/wd_cost"}
  %param_54.10 = f32[] parameter(54)
  %multiply.359 = f32[] multiply(f32[] %param_54.10, f32[] %constant_668), metadata={op_type="Mul" op_name="tower0/wd_cost_internals/mul_35"}
  %add.231 = f32[] add(f32[] %add.232, f32[] %multiply.359), metadata={op_type="AddN" op_name="tower0/wd_cost"}
  %param_53.10 = f32[] parameter(53)
  %multiply.358 = f32[] multiply(f32[] %param_53.10, f32[] %constant_668), metadata={op_type="Mul" op_name="tower0/wd_cost_internals/mul_36"}
  %add.230 = f32[] add(f32[] %add.231, f32[] %multiply.358), metadata={op_type="AddN" op_name="tower0/wd_cost"}
  %param_52.10 = f32[] parameter(52)
  %multiply.357 = f32[] multiply(f32[] %param_52.10, f32[] %constant_668), metadata={op_type="Mul" op_name="tower0/wd_cost_internals/mul_37"}
  %add.229 = f32[] add(f32[] %add.230, f32[] %multiply.357), metadata={op_type="AddN" op_name="tower0/wd_cost"}
  %param_51.10 = f32[] parameter(51)
  %multiply.356 = f32[] multiply(f32[] %param_51.10, f32[] %constant_668), metadata={op_type="Mul" op_name="tower0/wd_cost_internals/mul_38"}
  %add.228 = f32[] add(f32[] %add.229, f32[] %multiply.356), metadata={op_type="AddN" op_name="tower0/wd_cost"}
  %param_50.10 = f32[] parameter(50)
  %multiply.355 = f32[] multiply(f32[] %param_50.10, f32[] %constant_668), metadata={op_type="Mul" op_name="tower0/wd_cost_internals/mul_39"}
  %add.227 = f32[] add(f32[] %add.228, f32[] %multiply.355), metadata={op_type="AddN" op_name="tower0/wd_cost"}
  %param_49.10 = f32[] parameter(49)
  %multiply.354 = f32[] multiply(f32[] %param_49.10, f32[] %constant_668), metadata={op_type="Mul" op_name="tower0/wd_cost_internals/mul_4"}
  %add.226 = f32[] add(f32[] %add.227, f32[] %multiply.354), metadata={op_type="AddN" op_name="tower0/wd_cost"}
  %param_48.10 = f32[] parameter(48)
  %multiply.353 = f32[] multiply(f32[] %param_48.10, f32[] %constant_668), metadata={op_type="Mul" op_name="tower0/wd_cost_internals/mul_40"}
  %add.225 = f32[] add(f32[] %add.226, f32[] %multiply.353), metadata={op_type="AddN" op_name="tower0/wd_cost"}
  %param_47.10 = f32[] parameter(47)
  %multiply.352 = f32[] multiply(f32[] %param_47.10, f32[] %constant_668), metadata={op_type="Mul" op_name="tower0/wd_cost_internals/mul_41"}
  %add.224 = f32[] add(f32[] %add.225, f32[] %multiply.352), metadata={op_type="AddN" op_name="tower0/wd_cost"}
  %param_46.10 = f32[] parameter(46)
  %multiply.351 = f32[] multiply(f32[] %param_46.10, f32[] %constant_668), metadata={op_type="Mul" op_name="tower0/wd_cost_internals/mul_42"}
  %add.223 = f32[] add(f32[] %add.224, f32[] %multiply.351), metadata={op_type="AddN" op_name="tower0/wd_cost"}
  %param_45.10 = f32[] parameter(45)
  %multiply.350 = f32[] multiply(f32[] %param_45.10, f32[] %constant_668), metadata={op_type="Mul" op_name="tower0/wd_cost_internals/mul_43"}
  %add.222 = f32[] add(f32[] %add.223, f32[] %multiply.350), metadata={op_type="AddN" op_name="tower0/wd_cost"}
  %param_44.10 = f32[] parameter(44)
  %multiply.349 = f32[] multiply(f32[] %param_44.10, f32[] %constant_668), metadata={op_type="Mul" op_name="tower0/wd_cost_internals/mul_44"}
  %add.221 = f32[] add(f32[] %add.222, f32[] %multiply.349), metadata={op_type="AddN" op_name="tower0/wd_cost"}
  %param_43.12 = f32[] parameter(43)
  %multiply.348 = f32[] multiply(f32[] %param_43.12, f32[] %constant_668), metadata={op_type="Mul" op_name="tower0/wd_cost_internals/mul_45"}
  %add.220 = f32[] add(f32[] %add.221, f32[] %multiply.348), metadata={op_type="AddN" op_name="tower0/wd_cost"}
  %param_42.15 = f32[] parameter(42)
  %multiply.347 = f32[] multiply(f32[] %param_42.15, f32[] %constant_668), metadata={op_type="Mul" op_name="tower0/wd_cost_internals/mul_46"}
  %add.219 = f32[] add(f32[] %add.220, f32[] %multiply.347), metadata={op_type="AddN" op_name="tower0/wd_cost"}
  %param_41.20 = f32[] parameter(41)
  %multiply.346 = f32[] multiply(f32[] %param_41.20, f32[] %constant_668), metadata={op_type="Mul" op_name="tower0/wd_cost_internals/mul_47"}
  %add.218 = f32[] add(f32[] %add.219, f32[] %multiply.346), metadata={op_type="AddN" op_name="tower0/wd_cost"}
  %param_40.21 = f32[] parameter(40)
  %multiply.345 = f32[] multiply(f32[] %param_40.21, f32[] %constant_668), metadata={op_type="Mul" op_name="tower0/wd_cost_internals/mul_48"}
  %add.217 = f32[] add(f32[] %add.218, f32[] %multiply.345), metadata={op_type="AddN" op_name="tower0/wd_cost"}
  %param_39.20 = f32[] parameter(39)
  %multiply.344 = f32[] multiply(f32[] %param_39.20, f32[] %constant_668), metadata={op_type="Mul" op_name="tower0/wd_cost_internals/mul_49"}
  %add.216 = f32[] add(f32[] %add.217, f32[] %multiply.344), metadata={op_type="AddN" op_name="tower0/wd_cost"}
  %param_38.20 = f32[] parameter(38)
  %multiply.343 = f32[] multiply(f32[] %param_38.20, f32[] %constant_668), metadata={op_type="Mul" op_name="tower0/wd_cost_internals/mul_5"}
  %add.215 = f32[] add(f32[] %add.216, f32[] %multiply.343), metadata={op_type="AddN" op_name="tower0/wd_cost"}
  %param_37.20 = f32[] parameter(37)
  %multiply.342 = f32[] multiply(f32[] %param_37.20, f32[] %constant_668), metadata={op_type="Mul" op_name="tower0/wd_cost_internals/mul_50"}
  %add.214 = f32[] add(f32[] %add.215, f32[] %multiply.342), metadata={op_type="AddN" op_name="tower0/wd_cost"}
  %param_36.20 = f32[] parameter(36)
  %multiply.341 = f32[] multiply(f32[] %param_36.20, f32[] %constant_668), metadata={op_type="Mul" op_name="tower0/wd_cost_internals/mul_51"}
  %add.213 = f32[] add(f32[] %add.214, f32[] %multiply.341), metadata={op_type="AddN" op_name="tower0/wd_cost"}
  %param_35.20 = f32[] parameter(35)
  %multiply.340 = f32[] multiply(f32[] %param_35.20, f32[] %constant_668), metadata={op_type="Mul" op_name="tower0/wd_cost_internals/mul_52"}
  %add.212 = f32[] add(f32[] %add.213, f32[] %multiply.340), metadata={op_type="AddN" op_name="tower0/wd_cost"}
  %param_34.20 = f32[] parameter(34)
  %multiply.339 = f32[] multiply(f32[] %param_34.20, f32[] %constant_668), metadata={op_type="Mul" op_name="tower0/wd_cost_internals/mul_53"}
  %add.211 = f32[] add(f32[] %add.212, f32[] %multiply.339), metadata={op_type="AddN" op_name="tower0/wd_cost"}
  %param_33.22 = f32[] parameter(33)
  %multiply.338 = f32[] multiply(f32[] %param_33.22, f32[] %constant_668), metadata={op_type="Mul" op_name="tower0/wd_cost_internals/mul_54"}
  %add.210 = f32[] add(f32[] %add.211, f32[] %multiply.338), metadata={op_type="AddN" op_name="tower0/wd_cost"}
  %param_32.30 = f32[] parameter(32)
  %multiply.337 = f32[] multiply(f32[] %param_32.30, f32[] %constant_668), metadata={op_type="Mul" op_name="tower0/wd_cost_internals/mul_55"}
  %add.209 = f32[] add(f32[] %add.210, f32[] %multiply.337), metadata={op_type="AddN" op_name="tower0/wd_cost"}
  %param_31.34 = f32[] parameter(31)
  %multiply.336 = f32[] multiply(f32[] %param_31.34, f32[] %constant_668), metadata={op_type="Mul" op_name="tower0/wd_cost_internals/mul_56"}
  %add.208 = f32[] add(f32[] %add.209, f32[] %multiply.336), metadata={op_type="AddN" op_name="tower0/wd_cost"}
  %param_30.35 = f32[] parameter(30)
  %multiply.335 = f32[] multiply(f32[] %param_30.35, f32[] %constant_668), metadata={op_type="Mul" op_name="tower0/wd_cost_internals/mul_57"}
  %add.207 = f32[] add(f32[] %add.208, f32[] %multiply.335), metadata={op_type="AddN" op_name="tower0/wd_cost"}
  %param_29.38 = f32[] parameter(29)
  %multiply.334 = f32[] multiply(f32[] %param_29.38, f32[] %constant_668), metadata={op_type="Mul" op_name="tower0/wd_cost_internals/mul_58"}
  %add.206 = f32[] add(f32[] %add.207, f32[] %multiply.334), metadata={op_type="AddN" op_name="tower0/wd_cost"}
  %param_28.34 = f32[] parameter(28)
  %multiply.333 = f32[] multiply(f32[] %param_28.34, f32[] %constant_668), metadata={op_type="Mul" op_name="tower0/wd_cost_internals/mul_59"}
  %add.205 = f32[] add(f32[] %add.206, f32[] %multiply.333), metadata={op_type="AddN" op_name="tower0/wd_cost"}
  %param_27.38 = f32[] parameter(27)
  %multiply.332 = f32[] multiply(f32[] %param_27.38, f32[] %constant_668), metadata={op_type="Mul" op_name="tower0/wd_cost_internals/mul_6"}
  %add.204 = f32[] add(f32[] %add.205, f32[] %multiply.332), metadata={op_type="AddN" op_name="tower0/wd_cost"}
  %param_26.38 = f32[] parameter(26)
  %multiply.331 = f32[] multiply(f32[] %param_26.38, f32[] %constant_668), metadata={op_type="Mul" op_name="tower0/wd_cost_internals/mul_60"}
  %add.203 = f32[] add(f32[] %add.204, f32[] %multiply.331), metadata={op_type="AddN" op_name="tower0/wd_cost"}
  %param_25.34 = f32[] parameter(25)
  %multiply.330 = f32[] multiply(f32[] %param_25.34, f32[] %constant_668), metadata={op_type="Mul" op_name="tower0/wd_cost_internals/mul_61"}
  %add.202 = f32[] add(f32[] %add.203, f32[] %multiply.330), metadata={op_type="AddN" op_name="tower0/wd_cost"}
  %param_24.39 = f32[] parameter(24)
  %multiply.329 = f32[] multiply(f32[] %param_24.39, f32[] %constant_668), metadata={op_type="Mul" op_name="tower0/wd_cost_internals/mul_62"}
  %add.201 = f32[] add(f32[] %add.202, f32[] %multiply.329), metadata={op_type="AddN" op_name="tower0/wd_cost"}
  %param_23.42 = f32[] parameter(23)
  %multiply.328 = f32[] multiply(f32[] %param_23.42, f32[] %constant_668), metadata={op_type="Mul" op_name="tower0/wd_cost_internals/mul_7"}
  %add.200 = f32[] add(f32[] %add.201, f32[] %multiply.328), metadata={op_type="AddN" op_name="tower0/wd_cost"}
  %param_22.44 = f32[] parameter(22)
  %multiply.327 = f32[] multiply(f32[] %param_22.44, f32[] %constant_668), metadata={op_type="Mul" op_name="tower0/wd_cost_internals/mul_8"}
  %add.199 = f32[] add(f32[] %add.200, f32[] %multiply.327), metadata={op_type="AddN" op_name="tower0/wd_cost"}
  %param_21.48 = f32[] parameter(21)
  %multiply.326 = f32[] multiply(f32[] %param_21.48, f32[] %constant_668), metadata={op_type="Mul" op_name="tower0/wd_cost_internals/mul_9"}
  %add.198 = f32[] add(f32[] %add.199, f32[] %multiply.326), metadata={op_type="AddN" op_name="tower0/wd_cost"}
  %subtract.83.clone.1 = f32[] subtract(f32[] %param_20.43, f32[] %add.198), metadata={op_type="Sub" op_name="EMA/wd_cost_EMA_apply/sub"}
  %multiply.126.clone.1 = f32[] multiply(f32[] %param_0.246, f32[] %subtract.83.clone.1), metadata={op_type="Mul" op_name="EMA/wd_cost_EMA_apply/mul"}
  %param_17.46 = f32[] parameter(17)
  %param_8.76 = f32[] parameter(8)
  %param_19.37 = f32[] parameter(19)
  %constant_476_clone_1_clone_1 = f32[] constant(0.00195312), metadata={op_type="RealDiv" op_name="tower0/gradients/tower0/fastrcnn_losses/label_loss_grad/truediv"}
  %multiply.257.clone.1.clone.1 = f32[] multiply(f32[] %param_19.37, f32[] %constant_476_clone_1_clone_1), metadata={op_type="Mean" op_name="tower0/fastrcnn_losses/label_loss"}
  %add.20.clone.1.clone.1 = f32[] add(f32[] %param_8.76, f32[] %multiply.257.clone.1.clone.1), metadata={op_type="AddN" op_name="tower0/total_cost"}
  %param_18.43 = f32[] parameter(18)
  %constant_265_clone_1_clone_1 = f32[] constant(0.00042517), metadata={op_type="RealDiv" op_name="tower0/gradients/tower0/maskrcnn_loss/maskrcnn_loss_grad/truediv"}
  %multiply.256.clone.1.clone.1 = f32[] multiply(f32[] %param_18.43, f32[] %constant_265_clone_1_clone_1), metadata={op_type="Mean" op_name="tower0/maskrcnn_loss/maskrcnn_loss"}
  %add.19.clone.1.clone.1 = f32[] add(f32[] %add.20.clone.1.clone.1, f32[] %multiply.256.clone.1.clone.1), metadata={op_type="AddN" op_name="tower0/total_cost"}
  %param_6.160 = f32[] parameter(6)
  %add.18.clone.1.clone.1 = f32[] add(f32[] %add.19.clone.1.clone.1, f32[] %param_6.160), metadata={op_type="AddN" op_name="tower0/total_cost"}
  %add.17.clone.1.clone.1 = f32[] add(f32[] %add.18.clone.1.clone.1, f32[] %param_4.434), metadata={op_type="AddN" op_name="tower0/total_cost"}
  %add.16.clone.1.clone.1 = f32[] add(f32[] %add.17.clone.1.clone.1, f32[] %add.198), metadata={op_type="AddN" op_name="tower0/total_cost"}
  %subtract.2.clone.1.clone.1 = f32[] subtract(f32[] %param_17.46, f32[] %add.16.clone.1.clone.1), metadata={op_type="Sub" op_name="EMA/total_cost_EMA_apply/sub"}
  %multiply.17.clone.1.clone.1 = f32[] multiply(f32[] %subtract.2.clone.1.clone.1, f32[] %param_0.246), metadata={op_type="Mul" op_name="EMA/total_cost_EMA_apply/mul"}
  %param_15.64 = f32[] parameter(15)
  %param_16.49 = f32[] parameter(16)
  %subtract.31.clone.1.clone.1 = f32[] subtract(f32[] %param_15.64, f32[] %param_16.49), metadata={op_type="Sub" op_name="EMA/rpn_losses/level2/label_loss_EMA_apply/sub"}
  %multiply.59.clone.1.clone.1 = f32[] multiply(f32[] %subtract.31.clone.1.clone.1, f32[] %param_0.246), metadata={op_type="Mul" op_name="EMA/rpn_losses/level2/label_loss_EMA_apply/mul"}
  %param_13.76 = f32[] parameter(13)
  %param_14.69 = f32[] parameter(14)
  %multiply.21.clone.1.clone.1 = f32[] multiply(f32[] %param_14.69, f32[] %constant_265_clone_1_clone_1), metadata={op_type="Mean" op_name="tower0/maskrcnn_loss/pos_accuracy"}
  %subtract.5.clone.1.clone.1 = f32[] subtract(f32[] %param_13.76, f32[] %multiply.21.clone.1.clone.1), metadata={op_type="Sub" op_name="EMA/maskrcnn_loss/pos_accuracy_EMA_apply/sub"}
  %multiply.20.clone.1.clone.1 = f32[] multiply(f32[] %subtract.5.clone.1.clone.1, f32[] %param_0.246), metadata={op_type="Mul" op_name="EMA/maskrcnn_loss/pos_accuracy_EMA_apply/mul"}
  %param_11.55 = f32[] parameter(11)
  %param_12.72 = f32[] parameter(12)
  %subtract.57.clone.1.clone.1 = f32[] subtract(f32[] %param_11.55, f32[] %param_12.72), metadata={op_type="Sub" op_name="EMA/rpn_losses/level5/box_loss_EMA_apply/sub"}
  %multiply.95.clone.1.clone.1 = f32[] multiply(f32[] %subtract.57.clone.1.clone.1, f32[] %param_0.246), metadata={op_type="Mul" op_name="EMA/rpn_losses/level5/box_loss_EMA_apply/mul"}
  %param_9.66 = f32[] parameter(9)
  %param_10.60 = f32[] parameter(10)
  %subtract.72.clone.1.clone.1 = f32[] subtract(f32[] %param_9.66, f32[] %param_10.60), metadata={op_type="Sub" op_name="EMA/rpn_losses/level5/label_loss_EMA_apply/sub"}
  %multiply.116.clone.1.clone.1 = f32[] multiply(f32[] %subtract.72.clone.1.clone.1, f32[] %param_0.246), metadata={op_type="Mul" op_name="EMA/rpn_losses/level5/label_loss_EMA_apply/mul"}
  %param_7.121 = f32[] parameter(7)
  %subtract.10.clone.1.clone.1 = f32[] subtract(f32[] %param_7.121, f32[] %param_8.76), metadata={op_type="Sub" op_name="EMA/fastrcnn_losses/box_loss_EMA_apply/sub"}
  %multiply.30.clone.1.clone.1 = f32[] multiply(f32[] %subtract.10.clone.1.clone.1, f32[] %param_0.246), metadata={op_type="Mul" op_name="EMA/fastrcnn_losses/box_loss_EMA_apply/mul"}
  %param_5.289 = f32[] parameter(5)
  %subtract.22.clone.1.clone.1 = f32[] subtract(f32[] %param_5.289, f32[] %param_6.160), metadata={op_type="Sub" op_name="EMA/rpn_losses/box_loss_EMA_apply/sub"}
  %multiply.48.clone.1.clone.1 = f32[] multiply(f32[] %subtract.22.clone.1.clone.1, f32[] %param_0.246), metadata={op_type="Mul" op_name="EMA/rpn_losses/box_loss_EMA_apply/mul"}
  ROOT %tuple.114 = (f32[], f32[], f32[], f32[], f32[], f32[], f32[], f32[], f32[], f32[]) tuple(f32[] %multiply.76, f32[] %multiply.58.clone.1, f32[] %multiply.126.clone.1, f32[] %multiply.17.clone.1.clone.1, f32[] %multiply.59.clone.1.clone.1, f32[] %multiply.20.clone.1.clone.1, f32[] %multiply.95.clone.1.clone.1, f32[] %multiply.116.clone.1.clone.1, f32[] %multiply.30.clone.1.clone.1, f32[] %multiply.48.clone.1.clone.1)
}

%tower0_rpn_losses_level2_count_nonzero_1_Sum-reduction.1485 (x.1486: s64[], y.1487: s64[]) -> s64[] {
  %x.1486 = s64[] parameter(0)
  %y.1487 = s64[] parameter(1)
  ROOT %add.1488 = s64[] add(s64[] %x.1486, s64[] %y.1487)
}

%fused_computation.110 (param_0.250: pred[200,304,3]) -> s64[] {
  %param_0.250 = pred[200,304,3]{2,1,0} parameter(0)
  %constant_531 = pred[] constant(false), metadata={op_type="NotEqual" op_name="tower0/rpn_losses/level2/count_nonzero_1/NotEqual"}
  %broadcast.139 = pred[200,304,3]{2,1,0} broadcast(pred[] %constant_531), dimensions={}, metadata={op_type="NotEqual" op_name="tower0/rpn_losses/level2/count_nonzero/NotEqual"}
  %compare.34 = pred[200,304,3]{2,1,0} compare(pred[200,304,3]{2,1,0} %param_0.250, pred[200,304,3]{2,1,0} %broadcast.139), direction=NE, metadata={op_type="NotEqual" op_name="tower0/rpn_losses/level2/count_nonzero_1/NotEqual"}
  %convert.67 = s64[200,304,3]{2,1,0} convert(pred[200,304,3]{2,1,0} %compare.34), metadata={op_type="Cast" op_name="tower0/rpn_losses/level2/count_nonzero_1/Cast"}
  %constant_350 = s64[] constant(0), metadata={op_type="Sum" op_name="tower0/rpn_losses/level2/count_nonzero_1/Sum"}
  ROOT %reduce.27 = s64[] reduce(s64[200,304,3]{2,1,0} %convert.67, s64[] %constant_350), dimensions={0,1,2}, to_apply=%tower0_rpn_losses_level2_count_nonzero_1_Sum-reduction.1485, metadata={op_type="Sum" op_name="tower0/rpn_losses/level2/count_nonzero_1/Sum"}
}

%tower0_rpn_losses_level2_count_nonzero_Sum-reduction.1530 (x.1531: s64[], y.1532: s64[]) -> s64[] {
  %x.1531 = s64[] parameter(0)
  %y.1532 = s64[] parameter(1)
  ROOT %add.1533 = s64[] add(s64[] %x.1531, s64[] %y.1532)
}

%fused_computation.111 (param_0.253: pred[200,304,3]) -> s64[] {
  %param_0.253 = pred[200,304,3]{2,1,0} parameter(0)
  %constant_534 = pred[] constant(false), metadata={op_type="NotEqual" op_name="tower0/rpn_losses/level2/count_nonzero_1/NotEqual"}
…
on.237, f32[] %fusion.238, f32[] %fusion.239, f32[] %fusion.240, f32[] %fusion.241, f32[] %multiply.605, f32[] %fusion.244, f32[] %fusion.245), kind=kLoop, calls=%fused_computation.108, metadata={op_type="Mul" op_name="EMA/rpn_losses/level4/box_loss_EMA_apply/mul"}
  %get-tuple-element.450 = f32[] get-tuple-element((f32[], f32[], f32[], f32[], f32[], f32[], f32[], f32[], f32[], f32[]) %fusion.108), index=2
  %fusion.288 = pred[] fusion(s64[] %fusion.179), kind=kLoop, calls=%fused_computation.288, metadata={op_type="Equal" op_name="tower0/rpn_losses/level5/Equal_1"}
  %fusion.287 = pred[] fusion(s64[] %fusion.178), kind=kLoop, calls=%fused_computation.287, metadata={op_type="Equal" op_name="tower0/rpn_losses/level5/Equal_2"}
  %fusion.286 = pred[] fusion(s64[] %fusion.177), kind=kLoop, calls=%fused_computation.286, metadata={op_type="Equal" op_name="tower0/rpn_losses/level6/Equal_1"}
  %fusion.285 = pred[] fusion(s64[] %fusion.176), kind=kLoop, calls=%fused_computation.285, metadata={op_type="Equal" op_name="tower0/rpn_losses/level6/Equal_2"}
  %get-tuple-element.428 = f32[] get-tuple-element((f32[], f32[], f32[], f32[], f32[], f32[], f32[], f32[], f32[], f32[], f32[], f32[], f32[], f32[], f32[], f32[], f32[], f32[], f32[], f32[]) %fusion.112), index=9
  %get-tuple-element.356 = f32[] get-tuple-element((f32[], f32[], f32[], f32[], f32[], f32[], f32[], f32[], f32[], f32[], f32[], f32[], f32[], f32[], f32[], f32[], f32[], f32[]) %fusion.155), index=2
  %get-tuple-element.404 = f32[] get-tuple-element((f32[], f32[], f32[], f32[], f32[], f32[], f32[], f32[], f32[], f32[], f32[], f32[], f32[], f32[], f32[], f32[], f32[], f32[]) %fusion.155), index=9
  %get-tuple-element.376 = f32[] get-tuple-element((f32[], f32[], f32[], f32[], f32[], f32[], f32[], f32[], f32[], f32[], f32[], f32[], f32[], f32[], f32[], f32[], f32[], f32[], f32[], f32[], f32[], f32[]) %fusion.61), index=5
  %get-tuple-element.348 = f32[6]{0} get-tuple-element((f32[6]{0}, f32[6]{0}, f32[6]{0}) %fusion.162), index=2
  %fusion.284 = pred[] fusion(s64[] %fusion.170), kind=kLoop, calls=%fused_computation.284, metadata={op_type="Equal" op_name="tower0/rpn_losses/level4/Equal_1"}
  %fusion.283 = pred[] fusion(s64[] %fusion.169), kind=kLoop, calls=%fused_computation.283, metadata={op_type="Equal" op_name="tower0/rpn_losses/level4/Equal_2"}
  %fusion.279 = (f32[6,4]{1,0}, f32[6,4]{1,0}) fusion(f32[6,4]{1,0} %fusion.166), kind=kLoop, calls=%fused_computation.279, metadata={op_type="Minimum" op_name="tower0/rpn_losses/level5/huber_loss/Minimum"}
  %get-tuple-element.330 = f32[6,4]{1,0} get-tuple-element((f32[6,4]{1,0}, f32[6,4]{1,0}) %fusion.279), index=1
  %get-tuple-element.402 = f32[] get-tuple-element((f32[], f32[], f32[], f32[], f32[], f32[], f32[], f32[], f32[], f32[], f32[], f32[], f32[], f32[], f32[], f32[], f32[], f32[]) %fusion.155), index=7
  %get-tuple-element.421 = f32[] get-tuple-element((f32[], f32[], f32[], f32[], f32[], f32[], f32[], f32[], f32[], f32[], f32[], f32[], f32[], f32[], f32[], f32[], f32[], f32[], f32[], f32[]) %fusion.112), index=3
  %get-tuple-element.455 = f32[] get-tuple-element((f32[], f32[], f32[], f32[], f32[], f32[], f32[], f32[], f32[], f32[]) %fusion.108), index=7
  %get-tuple-element.337 = f32[14]{0} get-tuple-element((f32[14]{0}, f32[14]{0}, f32[14]{0}) %fusion.123), index=1
  %get-tuple-element.405 = f32[] get-tuple-element((f32[], f32[], f32[], f32[], f32[], f32[], f32[], f32[], f32[], f32[], f32[], f32[], f32[], f32[], f32[], f32[], f32[], f32[]) %fusion.155), index=10
  %fusion.282 = pred[6]{0} fusion(f32[6]{0} %fusion.171), kind=kLoop, calls=%fused_computation.282, metadata={op_type="GreaterEqual" op_name="tower0/rpn_losses/level5/logistic_loss/GreaterEqual"}
  %convert.2032 = f32[6]{0} convert(s32[6]{0} %fusion.161), metadata={op_type="Cast" op_name="tower0/rpn_losses/level5/Cast"}
  %get-tuple-element.352 = f32[] get-tuple-element((f32[], f32[], f32[], f32[], f32[], f32[], f32[], f32[], f32[], f32[], f32[], f32[], f32[], f32[], f32[], f32[], f32[], f32[]) %fusion.155), index=0
  %get-tuple-element.396 = f32[] get-tuple-element((f32[], f32[], f32[], f32[], f32[], f32[], f32[], f32[], f32[], f32[], f32[], f32[], f32[], f32[], f32[], f32[], f32[], f32[]) %fusion.155), index=5
  %get-tuple-element.353 = f32[] get-tuple-element((f32[], f32[], f32[], f32[], f32[], f32[], f32[], f32[], f32[], f32[], f32[], f32[], f32[], f32[], f32[], f32[], f32[], f32[]) %fusion.155), index=1
  %get-tuple-element.401 = f32[] get-tuple-element((f32[], f32[], f32[], f32[], f32[], f32[], f32[], f32[], f32[], f32[], f32[], f32[], f32[], f32[], f32[], f32[], f32[], f32[]) %fusion.155), index=6
  %get-tuple-element.368 = f32[] get-tuple-element((f32[], f32[], f32[], f32[], f32[], f32[], f32[], f32[], f32[], f32[], f32[], f32[], f32[], f32[], f32[], f32[], f32[], f32[]) %fusion.155), index=3
  %get-tuple-element.408 = f32[] get-tuple-element((f32[], f32[], f32[], f32[], f32[], f32[], f32[], f32[], f32[], f32[], f32[], f32[], f32[], f32[], f32[], f32[], f32[], f32[]) %fusion.155), index=13
  %get-tuple-element.374 = f32[] get-tuple-element((f32[], f32[], f32[], f32[], f32[], f32[], f32[], f32[], f32[], f32[], f32[], f32[], f32[], f32[], f32[], f32[], f32[], f32[], f32[], f32[], f32[], f32[]) %fusion.61), index=3
  %get-tuple-element.420 = f32[] get-tuple-element((f32[], f32[], f32[], f32[], f32[], f32[], f32[], f32[], f32[], f32[], f32[], f32[], f32[], f32[], f32[], f32[], f32[], f32[], f32[], f32[]) %fusion.112), index=2
  %get-tuple-element.392 = f32[] get-tuple-element((f32[], f32[], f32[], f32[], f32[], f32[], f32[], f32[], f32[], f32[], f32[], f32[], f32[], f32[], f32[], f32[], f32[], f32[], f32[], f32[], f32[], f32[]) %fusion.61), index=21
  %get-tuple-element.440 = f32[] get-tuple-element((f32[], f32[], f32[], f32[], f32[], f32[], f32[], f32[], f32[], f32[], f32[], f32[], f32[], f32[], f32[], f32[], f32[], f32[]) %fusion.155), index=17
  %get-tuple-element.377 = f32[] get-tuple-element((f32[], f32[], f32[], f32[], f32[], f32[], f32[], f32[], f32[], f32[], f32[], f32[], f32[], f32[], f32[], f32[], f32[], f32[], f32[], f32[], f32[], f32[]) %fusion.61), index=6
  %get-tuple-element.439 = f32[] get-tuple-element((f32[], f32[], f32[], f32[], f32[], f32[], f32[], f32[], f32[], f32[], f32[], f32[], f32[], f32[], f32[], f32[], f32[], f32[]) %fusion.155), index=16
  %fusion.281 = pred[] fusion(s64[] %fusion.138), kind=kLoop, calls=%fused_computation.281, metadata={op_type="Equal" op_name="tower0/rpn_losses/level3/Equal_1"}
  %fusion.280 = pred[] fusion(s64[] %fusion.137), kind=kLoop, calls=%fused_computation.280, metadata={op_type="Equal" op_name="tower0/rpn_losses/level3/Equal_2"}
  %bitcast.1 = s64[6]{0} bitcast(s64[6,1]{1,0} %arg73.74), metadata={op_type="Squeeze" op_name="tower0/rpn_losses/level5/boolean_mask_1/Squeeze"}
  %copy.62 = s64[6]{0} copy(s64[6]{0} %bitcast.1)
  %get-tuple-element.454 = f32[] get-tuple-element((f32[], f32[], f32[], f32[], f32[], f32[], f32[], f32[], f32[], f32[]) %fusion.108), index=6
  %fusion.275 = (f32[3,4]{1,0}, f32[3,4]{1,0}) fusion(f32[3,4]{1,0} %get-tuple-element.447), kind=kLoop, calls=%fused_computation.275, metadata={op_type="Minimum" op_name="tower0/rpn_losses/level4/huber_loss/Minimum"}
  %get-tuple-element.340 = f32[3,4]{1,0} get-tuple-element((f32[3,4]{1,0}, f32[3,4]{1,0}) %fusion.275), index=1
  %get-tuple-element.375 = f32[] get-tuple-element((f32[], f32[], f32[], f32[], f32[], f32[], f32[], f32[], f32[], f32[], f32[], f32[], f32[], f32[], f32[], f32[], f32[], f32[], f32[], f32[], f32[], f32[]) %fusion.61), index=4
  %get-tuple-element.409 = f32[] get-tuple-element((f32[], f32[], f32[], f32[], f32[], f32[], f32[], f32[], f32[], f32[], f32[], f32[], f32[], f32[], f32[], f32[], f32[], f32[]) %fusion.155), index=14
  %get-tuple-element.380 = f32[] get-tuple-element((f32[], f32[], f32[], f32[], f32[], f32[], f32[], f32[], f32[], f32[], f32[], f32[], f32[], f32[], f32[], f32[], f32[], f32[], f32[], f32[], f32[], f32[]) %fusion.61), index=9
  %get-tuple-element.329 = f32[6,4]{1,0} get-tuple-element((f32[6,4]{1,0}, f32[6,4]{1,0}) %fusion.279), index=0
  %get-tuple-element.438 = f32[] get-tuple-element((f32[], f32[], f32[], f32[], f32[], f32[], f32[], f32[], f32[], f32[], f32[], f32[], f32[], f32[], f32[], f32[], f32[], f32[], f32[], f32[]) %fusion.112), index=19
  %get-tuple-element.320 = f32[50]{0} get-tuple-element((f32[50]{0}, f32[50]{0}, f32[50]{0}) %fusion.104), index=1
  %fusion.278 = pred[14]{0} fusion(f32[14]{0} %fusion.163), kind=kLoop, calls=%fused_computation.278, metadata={op_type="GreaterEqual" op_name="tower0/rpn_losses/level4/logistic_loss/GreaterEqual"}
  %convert.1825 = f32[14]{0} convert(s32[14]{0} %fusion.126), metadata={op_type="Cast" op_name="tower0/rpn_losses/level4/Cast"}
  %get-tuple-element.424 = f32[] get-tuple-element((f32[], f32[], f32[], f32[], f32[], f32[], f32[], f32[], f32[], f32[], f32[], f32[], f32[], f32[], f32[], f32[], f32[], f32[], f32[], f32[]) %fusion.112), index=6
  %get-tuple-element.430 = f32[] get-tuple-element((f32[], f32[], f32[], f32[], f32[], f32[], f32[], f32[], f32[], f32[], f32[], f32[], f32[], f32[], f32[], f32[], f32[], f32[], f32[], f32[]) %fusion.112), index=11
  %get-tuple-element.423 = f32[] get-tuple-element((f32[], f32[], f32[], f32[], f32[], f32[], f32[], f32[], f32[], f32[], f32[], f32[], f32[], f32[], f32[], f32[], f32[], f32[], f32[], f32[]) %fusion.112), index=5
  %get-tuple-element.431 = f32[] get-tuple-element((f32[], f32[], f32[], f32[], f32[], f32[], f32[], f32[], f32[], f32[], f32[], f32[], f32[], f32[], f32[], f32[], f32[], f32[], f32[], f32[]) %fusion.112), index=12
  %get-tuple-element.422 = f32[] get-tuple-element((f32[], f32[], f32[], f32[], f32[], f32[], f32[], f32[], f32[], f32[], f32[], f32[], f32[], f32[], f32[], f32[], f32[], f32[], f32[], f32[]) %fusion.112), index=4
  %get-tuple-element.418 = f32[] get-tuple-element((f32[], f32[], f32[], f32[], f32[], f32[], f32[], f32[], f32[], f32[], f32[], f32[], f32[], f32[], f32[], f32[], f32[], f32[], f32[], f32[]) %fusion.112), index=0
  %fusion.277 = pred[] fusion(s64[] %fusion.111), kind=kLoop, calls=%fused_computation.277, metadata={op_type="Equal" op_name="tower0/rpn_losses/level2/Equal_1"}
  %fusion.276 = pred[] fusion(s64[] %fusion.110), kind=kLoop, calls=%fused_computation.276, metadata={op_type="Equal" op_name="tower0/rpn_losses/level2/Equal_2"}
  %bitcast.7 = s64[14]{0} bitcast(s64[14,1]{1,0} %arg91.92), metadata={op_type="Squeeze" op_name="tower0/rpn_losses/level4/boolean_mask_1/Squeeze"}
  %copy.63 = s64[14]{0} copy(s64[14]{0} %bitcast.7)
  %get-tuple-element.442 = f32[] get-tuple-element((f32[], f32[], f32[], f32[], f32[], f32[], f32[], f32[], f32[], f32[]) %fusion.108), index=0
  %get-tuple-element.406 = f32[] get-tuple-element((f32[], f32[], f32[], f32[], f32[], f32[], f32[], f32[], f32[], f32[], f32[], f32[], f32[], f32[], f32[], f32[], f32[], f32[]) %fusion.155), index=11
  %get-tuple-element.373 = f32[] get-tuple-element((f32[], f32[], f32[], f32[], f32[], f32[], f32[], f32[], f32[], f32[], f32[], f32[], f32[], f32[], f32[], f32[], f32[], f32[], f32[], f32[], f32[], f32[]) %fusion.61), index=2
  %get-tuple-element.339 = f32[3,4]{1,0} get-tuple-element((f32[3,4]{1,0}, f32[3,4]{1,0}) %fusion.275), index=0
  %bitcast.3 = s64[6]{0} bitcast(s64[6,1]{1,0} %arg75.76), metadata={op_type="Squeeze" op_name="tower0/rpn_losses/level5/boolean_mask_3/Squeeze"}
  %copy.64 = s64[6]{0} copy(s64[6]{0} %bitcast.3)
  %get-tuple-element.416 = f32[] get-tuple-element((f32[], f32[]) %fusion.100), index=0
  %get-tuple-element.310 = f32[186]{0} get-tuple-element((f32[186]{0}, f32[186]{0}, f32[186]{0}) %fusion.83), index=1
  %fusion.274 = pred[50]{0} fusion(f32[50]{0} %fusion.128), kind=kLoop, calls=%fused_computation.274, metadata={op_type="GreaterEqual" op_name="tower0/rpn_losses/level3/logistic_loss/GreaterEqual"}
  %get-tuple-element.328 = f32[50]{0} get-tuple-element((f32[], f32[50]{0}) %fusion.102), index=1
  %get-tuple-element.382 = f32[] get-tuple-element((f32[], f32[], f32[], f32[], f32[], f32[], f32[], f32[], f32[], f32[], f32[], f32[], f32[], f32[], f32[], f32[], f32[], f32[], f32[], f32[], f32[], f32[]) %fusion.61), index=11
  %get-tuple-element.387 = f32[] get-tuple-element((f32[], f32[], f32[], f32[], f32[], f32[], f32[], f32[], f32[], f32[], f32[], f32[], f32[], f32[], f32[], f32[], f32[], f32[], f32[], f32[], f32[], f32[]) %fusion.61), index=16
  %get-tuple-element.383 = f32[] get-tuple-element((f32[], f32[], f32[], f32[], f32[], f32[], f32[], f32[], f32[], f32[], f32[], f32[], f32[], f32[], f32[], f32[], f32[], f32[], f32[], f32[], f32[], f32[]) %fusion.61), index=12
  %get-tuple-element.388 = f32[] get-tuple-element((f32[], f32[], f32[], f32[], f32[], f32[], f32[], f32[], f32[], f32[], f32[], f32[], f32[], f32[], f32[], f32[], f32[], f32[], f32[], f32[], f32[], f32[]) %fusion.61), index=17
  %get-tuple-element.378 = f32[] get-tuple-element((f32[], f32[], f32[], f32[], f32[], f32[], f32[], f32[], f32[], f32[], f32[], f32[], f32[], f32[], f32[], f32[], f32[], f32[], f32[], f32[], f32[], f32[]) %fusion.61), index=7
  %get-tuple-element.379 = f32[] get-tuple-element((f32[], f32[], f32[], f32[], f32[], f32[], f32[], f32[], f32[], f32[], f32[], f32[], f32[], f32[], f32[], f32[], f32[], f32[], f32[], f32[], f32[], f32[]) %fusion.61), index=8
  %bitcast.15 = s64[50]{0} bitcast(s64[50,1]{1,0} %arg118.119), metadata={op_type="Squeeze" op_name="tower0/rpn_losses/level3/boolean_mask_1/Squeeze"}
  %copy.65 = s64[50]{0} copy(s64[50]{0} %bitcast.15)
  %get-tuple-element.381 = f32[] get-tuple-element((f32[], f32[], f32[], f32[], f32[], f32[], f32[], f32[], f32[], f32[], f32[], f32[], f32[], f32[], f32[], f32[], f32[], f32[], f32[], f32[], f32[], f32[]) %fusion.61), index=10
  %bitcast.11 = s64[3]{0} bitcast(s64[3,1]{1,0} %arg93.94), metadata={op_type="Squeeze" op_name="tower0/rpn_losses/level4/boolean_mask_3/Squeeze"}
  %copy.66 = s64[3]{0} copy(s64[3]{0} %bitcast.11)
  %get-tuple-element.452 = f32[] get-tuple-element((f32[], f32[], f32[], f32[], f32[], f32[], f32[], f32[], f32[], f32[]) %fusion.108), index=4
  %fusion.273 = pred[186]{0} fusion(f32[186]{0} %fusion.105), kind=kLoop, calls=%fused_computation.273, metadata={op_type="GreaterEqual" op_name="tower0/rpn_losses/level2/logistic_loss/GreaterEqual"}
  %get-tuple-element.443 = f32[] get-tuple-element((f32[], f32[], f32[], f32[], f32[], f32[], f32[], f32[], f32[], f32[]) %fusion.108), index=1
  %get-tuple-element.312 = f32[186]{0} get-tuple-element((f32[], f32[186]{0}) %fusion.81), index=1
  %get-tuple-element.386 = f32[] get-tuple-element((f32[], f32[], f32[], f32[], f32[], f32[], f32[], f32[], f32[], f32[], f32[], f32[], f32[], f32[], f32[], f32[], f32[], f32[], f32[], f32[], f32[], f32[]) %fusion.61), index=15
  %get-tuple-element.391 = f32[] get-tuple-element((f32[], f32[], f32[], f32[], f32[], f32[], f32[], f32[], f32[], f32[], f32[], f32[], f32[], f32[], f32[], f32[], f32[], f32[], f32[], f32[], f32[], f32[]) %fusion.61), index=20
  %get-tuple-element.385 = f32[] get-tuple-element((f32[], f32[], f32[], f32[], f32[], f32[], f32[], f32[], f32[], f32[], f32[], f32[], f32[], f32[], f32[], f32[], f32[], f32[], f32[], f32[], f32[], f32[]) %fusion.61), index=14
  %get-tuple-element.390 = f32[] get-tuple-element((f32[], f32[], f32[], f32[], f32[], f32[], f32[], f32[], f32[], f32[], f32[], f32[], f32[], f32[], f32[], f32[], f32[], f32[], f32[], f32[], f32[], f32[]) %fusion.61), index=19
  %get-tuple-element.384 = f32[] get-tuple-element((f32[], f32[], f32[], f32[], f32[], f32[], f32[], f32[], f32[], f32[], f32[], f32[], f32[], f32[], f32[], f32[], f32[], f32[], f32[], f32[], f32[], f32[]) %fusion.61), index=13
  %get-tuple-element.389 = f32[] get-tuple-element((f32[], f32[], f32[], f32[], f32[], f32[], f32[], f32[], f32[], f32[], f32[], f32[], f32[], f32[], f32[], f32[], f32[], f32[], f32[], f32[], f32[], f32[]) %fusion.61), index=18
  %bitcast.19 = s64[186]{0} bitcast(s64[186,1]{1,0} %arg137.138), metadata={op_type="Squeeze" op_name="tower0/rpn_losses/level2/boolean_mask_1/Squeeze"}
  %copy.67 = s64[186]{0} copy(s64[186]{0} %bitcast.19)
  %get-tuple-element.369 = f32[] get-tuple-element((f32[], f32[], f32[], f32[], f32[], f32[], f32[], f32[], f32[], f32[], f32[], f32[], f32[], f32[], f32[], f32[], f32[], f32[], f32[], f32[], f32[], f32[]) %fusion.61), index=0
  %get-tuple-element.457 = f32[] get-tuple-element((f32[], f32[], f32[], f32[], f32[], f32[], f32[], f32[], f32[], f32[]) %fusion.108), index=9
  %get-tuple-element.437 = f32[] get-tuple-element((f32[], f32[], f32[], f32[], f32[], f32[], f32[], f32[], f32[], f32[], f32[], f32[], f32[], f32[], f32[], f32[], f32[], f32[], f32[], f32[]) %fusion.112), index=18
  %get-tuple-element.436 = f32[] get-tuple-element((f32[], f32[], f32[], f32[], f32[], f32[], f32[], f32[], f32[], f32[], f32[], f32[], f32[], f32[], f32[], f32[], f32[], f32[], f32[], f32[]) %fusion.112), index=17
  %get-tuple-element.435 = f32[] get-tuple-element((f32[], f32[], f32[], f32[], f32[], f32[], f32[], f32[], f32[], f32[], f32[], f32[], f32[], f32[], f32[], f32[], f32[], f32[], f32[], f32[]) %fusion.112), index=16
  %get-tuple-element.434 = f32[] get-tuple-element((f32[], f32[], f32[], f32[], f32[], f32[], f32[], f32[], f32[], f32[], f32[], f32[], f32[], f32[], f32[], f32[], f32[], f32[], f32[], f32[]) %fusion.112), index=15
  %get-tuple-element.433 = f32[] get-tuple-element((f32[], f32[], f32[], f32[], f32[], f32[], f32[], f32[], f32[], f32[], f32[], f32[], f32[], f32[], f32[], f32[], f32[], f32[], f32[], f32[]) %fusion.112), index=14
  %get-tuple-element.463 = f32[512,81]{1,0} get-tuple-element((f32[512]{0}, f32[512,81]{1,0}) %fusion.291), index=1
  %fusion.292 = (f32[81]{0}, f32[512,81]{1,0}) fusion(s64[512]{0} %arg168.169, f32[512,81]{1,0} %get-tuple-element.463, f32[512]{0} %get-tuple-element.462), kind=kInput, calls=%fused_computation.292, metadata={op_type="BiasAddGrad" op_name="tower0/gradients/tower0/fastrcnn/outputs/class/BiasAdd_grad/BiasAddGrad"}
  %get-tuple-element.464 = f32[81]{0} get-tuple-element((f32[81]{0}, f32[512,81]{1,0}) %fusion.292), index=0
  %get-tuple-element.465 = f32[512,81]{1,0} get-tuple-element((f32[81]{0}, f32[512,81]{1,0}) %fusion.292), index=1
  %dot = f32[1024,81]{1,0} dot(f32[512,1024]{1,0} %fusion.52, f32[512,81]{1,0} %get-tuple-element.465), lhs_contracting_dims={0}, rhs_contracting_dims={0}, metadata={op_type="MatMul" op_name="tower0/gradients/tower0/fastrcnn/outputs/class/MatMul_grad/MatMul_1"}
  %fusion.43 = f32[1024,81]{1,0} fusion(f32[1024,81]{1,0} %dot, f32[1024,81]{1,0} %arg61.62), kind=kLoop, calls=%fused_computation.43, metadata={op_type="AddN" op_name="tower0/gradients/AddN"}
  %get-tuple-element.432 = f32[] get-tuple-element((f32[], f32[], f32[], f32[], f32[], f32[], f32[], f32[], f32[], f32[], f32[], f32[], f32[], f32[], f32[], f32[], f32[], f32[], f32[], f32[]) %fusion.112), index=13
  %get-tuple-element.456 = f32[] get-tuple-element((f32[], f32[], f32[], f32[], f32[], f32[], f32[], f32[], f32[], f32[]) %fusion.108), index=8
  %fusion.34 = f32[243,4]{1,0} fusion(s64[3]{0} %get-tuple-element.308, f32[] %fusion.37, f32[3,4]{1,0} %get-tuple-element.448), kind=kInput, calls=%fused_computation.34, metadata={op_type="UnsortedSegmentSum" op_name="tower0/gradients/tower0/fastrcnn_losses/Gather/Reshape_2_grad/Reshape/tensor"}
  %fusion.33 = f32[512,81,4]{2,1,0} fusion(f32[243,4]{1,0} %fusion.34, s64[3,1]{1,0} %arg167.168), kind=kInput, calls=%fused_computation.33, metadata={op_type="UnsortedSegmentSum" op_name="tower0/gradients/tower0/fastrcnn/outputs/output_box_grad/Reshape/tensor"}
  %fusion.270 = f32[324]{0} fusion(f32[512,81,4]{2,1,0} %fusion.33), kind=kInput, calls=%fused_computation.270, metadata={op_type="BiasAddGrad" op_name="tower0/gradients/tower0/fastrcnn/outputs/box/BiasAdd_grad/BiasAddGrad"}
  %bitcast.35 = f32[512,324]{1,0} bitcast(f32[512,81,4]{2,1,0} %fusion.33), metadata={op_type="Reshape" op_name="tower0/gradients/tower0/fastrcnn/outputs/output_box_grad/Reshape"}
  %dot.1 = f32[1024,324]{1,0} dot(f32[512,1024]{1,0} %fusion.52, f32[512,324]{1,0} %bitcast.35), lhs_contracting_dims={0}, rhs_contracting_dims={0}, metadata={op_type="MatMul" op_name="tower0/gradients/tower0/fastrcnn/outputs/box/MatMul_grad/MatMul_1"}
  %fusion.32 = f32[1024,324]{1,0} fusion(f32[1024,324]{1,0} %dot.1, f32[1024,324]{1,0} %arg62.63), kind=kLoop, calls=%fused_computation.32, metadata={op_type="AddN" op_name="tower0/gradients/AddN_22"}
  %dot.2 = f32[512,1024]{1,0} dot(f32[512,324]{1,0} %bitcast.35, f32[1024,324]{1,0} %arg62.63), lhs_contracting_dims={1}, rhs_contracting_dims={1}, metadata={op_type="MatMul" op_name="tower0/gradients/tower0/fastrcnn/outputs/box/MatMul_grad/MatMul"}
  %dot.3 = f32[512,1024]{1,0} dot(f32[512,81]{1,0} %get-tuple-element.465, f32[1024,81]{1,0} %arg61.62), lhs_contracting_dims={1}, rhs_contracting_dims={1}, metadata={op_type="MatMul" op_name="tower0/gradients/tower0/fastrcnn/outputs/class/MatMul_grad/MatMul"}
  %fusion.293 = (f32[1024]{0}, f32[512,1024]{1,0}) fusion(f32[512,1024]{1,0} %dot.2, f32[512,1024]{1,0} %dot.3, f32[512,1024]{1,0} %fusion.52), kind=kInput, calls=%fused_computation.293, metadata={op_type="BiasAddGrad" op_name="tower0/gradients/tower0/fastrcnn/fc7/BiasAdd_grad/BiasAddGrad"}
  %get-tuple-element.466 = f32[1024]{0} get-tuple-element((f32[1024]{0}, f32[512,1024]{1,0}) %fusion.293), index=0
  %get-tuple-element.467 = f32[512,1024]{1,0} get-tuple-element((f32[1024]{0}, f32[512,1024]{1,0}) %fusion.293), index=1
  %dot.4 = f32[1024,1024]{1,0} dot(f32[512,1024]{1,0} %fusion.53, f32[512,1024]{1,0} %get-tuple-element.467), lhs_contracting_dims={0}, rhs_contracting_dims={0}, metadata={op_type="MatMul" op_name="tower0/gradients/tower0/fastrcnn/fc7/MatMul_grad/MatMul_1"}
  %fusion.30 = f32[1024,1024]{1,0} fusion(f32[1024,1024]{1,0} %dot.4, f32[1024,1024]{1,0} %arg60.61), kind=kLoop, calls=%fused_computation.30, metadata={op_type="AddN" op_name="tower0/gradients/AddN_29"}
  %dot.5 = f32[512,1024]{1,0} dot(f32[512,1024]{1,0} %get-tuple-element.467, f32[1024,1024]{1,0} %arg60.61), lhs_contracting_dims={1}, rhs_contracting_dims={1}, metadata={op_type="MatMul" op_name="tower0/gradients/tower0/fastrcnn/fc7/MatMul_grad/MatMul"}
  %fusion.294 = (f32[1024]{0}, f32[512,1024]{1,0}) fusion(f32[512,1024]{1,0} %dot.5, f32[512,1024]{1,0} %fusion.53), kind=kInput, calls=%fused_computation.294, metadata={op_type="BiasAddGrad" op_name="tower0/gradients/tower0/fastrcnn/fc6/BiasAdd_grad/BiasAddGrad"}
  %get-tuple-element.468 = f32[1024]{0} get-tuple-element((f32[1024]{0}, f32[512,1024]{1,0}) %fusion.294), index=0
  %get-tuple-element.469 = f32[512,1024]{1,0} get-tuple-element((f32[1024]{0}, f32[512,1024]{1,0}) %fusion.294), index=1
  %dot.6 = f32[12544,1024]{1,0} dot(f32[512,12544]{1,0} %fusion.54, f32[512,1024]{1,0} %get-tuple-element.469), lhs_contracting_dims={0}, rhs_contracting_dims={0}, metadata={op_type="MatMul" op_name="tower0/gradients/tower0/fastrcnn/fc6/MatMul_grad/MatMul_1"}
  %fusion.28 = f32[12544,1024]{1,0} fusion(f32[12544,1024]{1,0} %dot.6, f32[12544,1024]{1,0} %arg59.60), kind=kLoop, calls=%fused_computation.28, metadata={op_type="AddN" op_name="tower0/gradients/AddN_32"}
  %get-tuple-element.427 = f32[] get-tuple-element((f32[], f32[], f32[], f32[], f32[], f32[], f32[], f32[], f32[], f32[], f32[], f32[], f32[], f32[], f32[], f32[], f32[], f32[], f32[], f32[]) %fusion.112), index=8
  %arg184.185 = s64[490,1]{1,0} parameter(184), parameter_replication={false}, metadata={op_name="XLA_Args"}
  %fusion.269 = s64[490]{0} fusion(s64[512]{0} %arg178.179, s64[490,1]{1,0} %arg184.185), kind=kLoop, calls=%fused_computation.269, metadata={op_type="GatherV2" op_name="tower0/gradients/tower0/multilevel_roi_align/concat_grad/GatherV2_1"}
  %dot.7 = f32[512,12544]{1,0} dot(f32[512,1024]{1,0} %get-tuple-element.469, f32[12544,1024]{1,0} %arg59.60), lhs_contracting_dims={1}, rhs_contracting_dims={1}, metadata={op_type="MatMul" op_name="tower0/gradients/tower0/fastrcnn/fc6/MatMul_grad/MatMul"}
  %fusion.268 = f32[490,256,7,7]{1,3,2,0} fusion(f32[512,12544]{1,0} %dot.7, s64[490,1]{1,0} %arg184.185), kind=kLoop, calls=%fused_computation.268, metadata={op_type="GatherV2" op_name="tower0/gradients/tower0/multilevel_roi_align/concat_grad/GatherV2_2"}
  %fusion.24 = f32[490,256,7,7]{1,3,2,0} fusion(s64[490]{0} %fusion.269, f32[490,256,7,7]{1,3,2,0} %fusion.268), kind=kInput, calls=%fused_computation.24, metadata={op_type="UnsortedSegmentSum" op_name="tower0/gradients/tower0/multilevel_roi_align/roi_level2/roi_align/AvgPool_grad/AvgPoolGrad/grad"}
  %fusion.23 = f32[7,7]{1,0} fusion(), kind=kLoop, calls=%fused_computation.23, metadata={op_type="AvgPoolGrad" op_name="tower0/gradients/tower0/multilevel_roi_align/roi_level2/roi_align/AvgPool_grad/AvgPoolGrad"}
  %fusion.22 = f32[490,14,14,256]{3,2,1,0} fusion(f32[490,256,7,7]{1,3,2,0} %fusion.24, f32[7,7]{1,0} %fusion.23), kind=kLoop, calls=%fused_computation.22, metadata={op_type="Transpose" op_name="tower0/gradients/tower0/multilevel_roi_align/roi_level2/roi_align/crop_and_resize/transpose_1_grad/transpose"}
  %arg186.187 = s64[19,1]{1,0} parameter(186), parameter_replication={false}, metadata={op_name="XLA_Args"}
  %fusion.267 = f32[19,256,7,7]{1,3,2,0} fusion(s64[19,1]{1,0} %arg186.187, f32[512,12544]{1,0} %dot.7), kind=kLoop, calls=%fused_computation.267, metadata={op_type="GatherV2" op_name="tower0/gradients/tower0/multilevel_roi_align/concat_grad/GatherV2_5"}
  %fusion.266 = s64[19]{0} fusion(s64[512]{0} %arg178.179, s64[19,1]{1,0} %arg186.187), kind=kLoop, calls=%fused_computation.266, metadata={op_type="GatherV2" op_name="tower0/gradients/tower0/multilevel_roi_align/concat_grad/GatherV2_4"}
  %arg189.190 = s64[] parameter(189), parameter_replication={false}, metadata={op_name="XLA_Args"}
  %fusion.21 = f32[19,256,7,7]{1,3,2,0} fusion(f32[19,256,7,7]{1,3,2,0} %fusion.267, s64[19]{0} %fusion.266, s64[] %arg189.190), kind=kInput, calls=%fused_computation.21, metadata={op_type="UnsortedSegmentSum" op_name="tower0/gradients/tower0/multilevel_roi_align/roi_level3/roi_align/AvgPool_grad/AvgPoolGrad/grad"}
  %fusion.20 = f32[19,14,14,256]{3,2,1,0} fusion(f32[19,256,7,7]{1,3,2,0} %fusion.21, f32[7,7]{1,0} %fusion.23), kind=kLoop, calls=%fused_computation.20, metadata={op_type="Transpose" op_name="tower0/gradients/tower0/multilevel_roi_align/roi_level3/roi_align/crop_and_resize/transpose_1_grad/transpose"}
  %arg187.188 = s64[2,1]{1,0} parameter(187), parameter_replication={false}, metadata={op_name="XLA_Args"}
  %fusion.265 = f32[2,256,7,7]{1,3,2,0} fusion(s64[2,1]{1,0} %arg187.188, f32[512,12544]{1,0} %dot.7), kind=kLoop, calls=%fused_computation.265, metadata={op_type="GatherV2" op_name="tower0/gradients/tower0/multilevel_roi_align/concat_grad/GatherV2_8"}
  %fusion.264 = s64[2]{0} fusion(s64[512]{0} %arg178.179, s64[2,1]{1,0} %arg187.188), kind=kLoop, calls=%fused_computation.264, metadata={op_type="GatherV2" op_name="tower0/gradients/tower0/multilevel_roi_align/concat_grad/GatherV2_7"}
  %arg193.194 = s64[] parameter(193), parameter_replication={false}, metadata={op_name="XLA_Args"}
  %fusion.19 = f32[2,256,7,7]{1,3,2,0} fusion(f32[2,256,7,7]{1,3,2,0} %fusion.265, s64[2]{0} %fusion.264, s64[] %arg193.194), kind=kInput, calls=%fused_computation.19, metadata={op_type="UnsortedSegmentSum" op_name="tower0/gradients/tower0/multilevel_roi_align/roi_level4/roi_align/AvgPool_grad/AvgPoolGrad/grad"}
  %fusion.18 = f32[2,14,14,256]{3,2,1,0} fusion(f32[2,256,7,7]{1,3,2,0} %fusion.19, f32[7,7]{1,0} %fusion.23), kind=kLoop, calls=%fused_computation.18, metadata={op_type="Transpose" op_name="tower0/gradients/tower0/multilevel_roi_align/roi_level4/roi_align/crop_and_resize/transpose_1_grad/transpose"}
  %arg190.191 = s64[1,1]{1,0} parameter(190), parameter_replication={false}, metadata={op_name="XLA_Args"}
  %fusion.263 = f32[1,256,7,7]{1,3,2,0} fusion(s64[1,1]{1,0} %arg190.191, f32[512,12544]{1,0} %dot.7), kind=kLoop, calls=%fused_computation.263, metadata={op_type="GatherV2" op_name="tower0/gradients/tower0/multilevel_roi_align/concat_grad/GatherV2_11"}
  %fusion.262 = s64[1]{0} fusion(s64[512]{0} %arg178.179, s64[1,1]{1,0} %arg190.191), kind=kLoop, calls=%fused_computation.262, metadata={op_type="GatherV2" op_name="tower0/gradients/tower0/multilevel_roi_align/concat_grad/GatherV2_10"}
  %arg195.196 = s64[] parameter(195), parameter_replication={false}, metadata={op_name="XLA_Args"}
  %fusion.17 = f32[1,256,7,7]{1,3,2,0} fusion(f32[1,256,7,7]{1,3,2,0} %fusion.263, s64[1]{0} %fusion.262, s64[] %arg195.196), kind=kInput, calls=%fused_computation.17, metadata={op_type="UnsortedSegmentSum" op_name="tower0/gradients/tower0/multilevel_roi_align/roi_level5/roi_align/AvgPool_grad/AvgPoolGrad/grad"}
  %fusion.16 = f32[1,14,14,256]{3,2,1,0} fusion(f32[1,256,7,7]{1,3,2,0} %fusion.17, f32[7,7]{1,0} %fusion.23), kind=kLoop, calls=%fused_computation.16, metadata={op_type="Transpose" op_name="tower0/gradients/tower0/multilevel_roi_align/roi_level5/roi_align/crop_and_resize/transpose_1_grad/transpose"}
  %get-tuple-element.453 = f32[] get-tuple-element((f32[], f32[], f32[], f32[], f32[], f32[], f32[], f32[], f32[], f32[]) %fusion.108), index=5
  %get-tuple-element.419 = f32[] get-tuple-element((f32[], f32[], f32[], f32[], f32[], f32[], f32[], f32[], f32[], f32[], f32[], f32[], f32[], f32[], f32[], f32[], f32[], f32[], f32[], f32[]) %fusion.112), index=1
  %get-tuple-element.451 = f32[] get-tuple-element((f32[], f32[], f32[], f32[], f32[], f32[], f32[], f32[], f32[], f32[]) %fusion.108), index=3
  %fusion.251 = f32[240,28,28]{2,1,0} fusion(s64[3]{0} %get-tuple-element.307, f32[3,28,28]{2,1,0} %fusion.252, f32[3,28,28]{2,1,0} %fusion.253, f32[3,28,28,1]{3,2,1,0} %arg172.173), kind=kInput, calls=%fused_computation.251, metadata={op_type="UnsortedSegmentSum" op_name="tower0/gradients/tower0/maskrcnn_loss/Gather/Reshape_2_grad/Reshape/tensor"}
  %fusion.261 = f32[80]{0} fusion(f32[240,28,28]{2,1,0} %fusion.251), kind=kInput, calls=%fused_computation.261, metadata={op_type="BiasAddGrad" op_name="tower0/gradients/tower0/maskrcnn/conv/BiasAdd_grad/BiasAddGrad"}
  %bitcast.48 = f32[3,80,28,28]{3,2,1,0} bitcast(f32[240,28,28]{2,1,0} %fusion.251), metadata={op_type="Reshape" op_name="tower0/gradients/tower0/maskrcnn_loss/Gather/Reshape_2_grad/Reshape"}
  %custom-call.24 = (f32[1,1,256,80]{1,0,2,3}, u8[0]{0}) custom-call(f32[3,256,28,28]{3,2,1,0} %fusion.255, f32[3,80,28,28]{3,2,1,0} %bitcast.48), window={size=1x1}, dim_labels=bf01_01io->bf01, custom_call_target="__cudnn$convBackwardFilter", metadata={op_type="Conv2DBackpropFilter" op_name="tower0/gradients/tower0/maskrcnn/conv/Conv2D_grad/Conv2DBackpropFilter"}, backend_config="{\"convResultScale\":1}"
  %get-tuple-element.288 = f32[1,1,256,80]{1,0,2,3} get-tuple-element((f32[1,1,256,80]{1,0,2,3}, u8[0]{0}) %custom-call.24), index=0
  %fusion.10 = f32[1,1,256,80]{3,2,1,0} fusion(f32[1,1,256,80]{1,0,2,3} %get-tuple-element.288, f32[1,1,256,80]{3,2,1,0} %arg58.59), kind=kLoop, calls=%fused_computation.10, metadata={op_name="XLA_Retvals"}
  %bitcast.49 = f32[1,1,256,80]{1,0,3,2} bitcast(f32[1,1,256,80]{3,2,1,0} %arg58.59), metadata={op_name="XLA_Args"}
  %custom-call.25 = (f32[3,256,28,28]{3,2,1,0}, u8[0]{0}) custom-call(f32[3,80,28,28]{3,2,1,0} %bitcast.48, f32[1,1,256,80]{1,0,3,2} %bitcast.49), window={size=1x1}, dim_labels=bf01_01oi->bf01, custom_call_target="__cudnn$convForward", metadata={op_type="Conv2DBackpropInput" op_name="tower0/gradients/tower0/maskrcnn/conv/Conv2D_grad/Conv2DBackpropInput"}, backend_config="{\"convResultScale\":1}"
  %get-tuple-element.289 = f32[3,256,28,28]{3,2,1,0} get-tuple-element((f32[3,256,28,28]{3,2,1,0}, u8[0]{0}) %custom-call.25), index=0
  %fusion.295 = (f32[256]{0}, f32[3,256,28,28]{3,2,1,0}) fusion(f32[3,256,28,28]{3,2,1,0} %get-tuple-element.289, f32[3,256,28,28]{3,2,1,0} %fusion.255), kind=kInput, calls=%fused_computation.295, metadata={op_type="BiasAddGrad" op_name="tower0/gradients/tower0/maskrcnn/deconv/BiasAdd_grad/BiasAddGrad"}
  %get-tuple-element.470 = f32[256]{0} get-tuple-element((f32[256]{0}, f32[3,256,28,28]{3,2,1,0}) %fusion.295), index=0
  %get-tuple-element.471 = f32[3,256,28,28]{3,2,1,0} get-tuple-element((f32[256]{0}, f32[3,256,28,28]{3,2,1,0}) %fusion.295), index=1
  %custom-call.35 = (f32[2,2,256,256]{1,0,2,3}, u8[0]{0}) custom-call(f32[3,256,28,28]{3,2,1,0} %get-tuple-element.471, f32[3,256,14,14]{3,2,1,0} %get-tuple-element.303), window={size=2x2 stride=2x2}, dim_labels=bf01_01io->bf01, custom_call_target="__cudnn$convBackwardFilter", metadata={op_type="Conv2DBackpropFilter" op_name="tower0/gradients/tower0/maskrcnn/deconv/conv2d_transpose_grad/Conv2DBackpropFilter"}, backend_config="{\"convResultScale\":1}"
  %get-tuple-element.299 = f32[2,2,256,256]{1,0,2,3} get-tuple-element((f32[2,2,256,256]{1,0,2,3}, u8[0]{0}) %custom-call.35), index=0
  %fusion.9 = f32[2,2,256,256]{3,2,1,0} fusion(f32[2,2,256,256]{1,0,2,3} %get-tuple-element.299, f32[2,2,256,256]{3,2,1,0} %arg57.58), kind=kLoop, calls=%fused_computation.9, metadata={op_name="XLA_Retvals"}
  %custom-call.26 = (f32[3,256,14,14]{3,2,1,0}, u8[0]{0}) custom-call(f32[3,256,28,28]{3,2,1,0} %get-tuple-element.471, f32[2,2,256,256]{1,0,2,3} %copy.30), window={size=2x2 stride=2x2}, dim_labels=bf01_01io->bf01, custom_call_target="__cudnn$convForward", metadata={op_type="Conv2D" op_name="tower0/gradients/tower0/maskrcnn/deconv/conv2d_transpose_grad/Conv2D"}, backend_config="{\"convResultScale\":1}"
  %get-tuple-element.290 = f32[3,256,14,14]{3,2,1,0} get-tuple-element((f32[3,256,14,14]{3,2,1,0}, u8[0]{0}) %custom-call.26), index=0
  %fusion.296 = (f32[256]{0}, f32[3,256,14,14]{3,2,1,0}) fusion(f32[3,256,14,14]{3,2,1,0} %get-tuple-element.290, f32[3,256,14,14]{3,2,1,0} %get-tuple-element.303), kind=kInput, calls=%fused_computation.296, metadata={op_type="BiasAddGrad" op_name="tower0/gradients/tower0/maskrcnn/fcn3/BiasAdd_grad/BiasAddGrad"}
  %get-tuple-element.472 = f32[256]{0} get-tuple-element((f32[256]{0}, f32[3,256,14,14]{3,2,1,0}) %fusion.296), index=0
  %get-tuple-element.473 = f32[3,256,14,14]{3,2,1,0} get-tuple-element((f32[256]{0}, f32[3,256,14,14]{3,2,1,0}) %fusion.296), index=1
  %custom-call.27 = (f32[3,3,256,256]{1,0,2,3}, u8[12976128]{0}) custom-call(f32[3,256,14,14]{3,2,1,0} %get-tuple-element.302, f32[3,256,14,14]{3,2,1,0} %get-tuple-element.473), window={size=3x3 pad=1_1x1_1}, dim_labels=bf01_01io->bf01, custom_call_target="__cudnn$convBackwardFilter", metadata={op_type="Conv2DBackpropFilter" op_name="tower0/gradients/tower0/maskrcnn/fcn3/Conv2D_grad/Conv2DBackpropFilter"}, backend_config="{\"algorithm\":\"5\",\"convResultScale\":1}"
  %get-tuple-element.291 = f32[3,3,256,256]{1,0,2,3} get-tuple-element((f32[3,3,256,256]{1,0,2,3}, u8[12976128]{0}) %custom-call.27), index=0
  %fusion.8 = f32[3,3,256,256]{3,2,1,0} fusion(f32[3,3,256,256]{1,0,2,3} %get-tuple-element.291, f32[3,3,256,256]{3,2,1,0} %arg56.57), kind=kLoop, calls=%fused_computation.8, metadata={op_name="XLA_Retvals"}
  %custom-call.28 = (f32[3,256,14,14]{3,2,1,0}, u8[6554624]{0}) custom-call(f32[3,256,14,14]{3,2,1,0} %get-tuple-element.473, f32[3,3,256,256]{1,0,2,3} %copy.29), window={size=3x3 pad=1_1x1_1}, dim_labels=bf01_01io->bf01, custom_call_target="__cudnn$convBackwardInput", metadata={op_type="Conv2DBackpropInput" op_name="tower0/gradients/tower0/maskrcnn/fcn3/Conv2D_grad/Conv2DBackpropInput"}, backend_config="{\"algorithm\":\"4\",\"tensorOpsEnabled\":true,\"convResultScale\":1}"
  %get-tuple-element.292 = f32[3,256,14,14]{3,2,1,0} get-tuple-element((f32[3,256,14,14]{3,2,1,0}, u8[6554624]{0}) %custom-call.28), index=0
  %fusion.297 = (f32[256]{0}, f32[3,256,14,14]{3,2,1,0}) fusion(f32[3,256,14,14]{3,2,1,0} %get-tuple-element.292, f32[3,256,14,14]{3,2,1,0} %get-tuple-element.302), kind=kInput, calls=%fused_computation.297, metadata={op_type="BiasAddGrad" op_name="tower0/gradients/tower0/maskrcnn/fcn2/BiasAdd_grad/BiasAddGrad"}
  %get-tuple-element.474 = f32[256]{0} get-tuple-element((f32[256]{0}, f32[3,256,14,14]{3,2,1,0}) %fusion.297), index=0
  %get-tuple-element.475 = f32[3,256,14,14]{3,2,1,0} get-tuple-element((f32[256]{0}, f32[3,256,14,14]{3,2,1,0}) %fusion.297), index=1
  %custom-call.29 = (f32[3,3,256,256]{1,0,2,3}, u8[12976128]{0}) custom-call(f32[3,256,14,14]{3,2,1,0} %get-tuple-element.301, f32[3,256,14,14]{3,2,1,0} %get-tuple-element.475), window={size=3x3 pad=1_1x1_1}, dim_labels=bf01_01io->bf01, custom_call_target="__cudnn$convBackwardFilter", metadata={op_type="Conv2DBackpropFilter" op_name="tower0/gradients/tower0/maskrcnn/fcn2/Conv2D_grad/Conv2DBackpropFilter"}, backend_config="{\"algorithm\":\"5\",\"convResultScale\":1}"
  %get-tuple-element.293 = f32[3,3,256,256]{1,0,2,3} get-tuple-element((f32[3,3,256,256]{1,0,2,3}, u8[12976128]{0}) %custom-call.29), index=0
  %fusion.7 = f32[3,3,256,256]{3,2,1,0} fusion(f32[3,3,256,256]{1,0,2,3} %get-tuple-element.293, f32[3,3,256,256]{3,2,1,0} %arg55.56), kind=kLoop, calls=%fused_computation.7, metadata={op_name="XLA_Retvals"}
  %custom-call.30 = (f32[3,256,14,14]{3,2,1,0}, u8[6554624]{0}) custom-call(f32[3,256,14,14]{3,2,1,0} %get-tuple-element.475, f32[3,3,256,256]{1,0,2,3} %copy.28), window={size=3x3 pad=1_1x1_1}, dim_labels=bf01_01io->bf01, custom_call_target="__cudnn$convBackwardInput", metadata={op_type="Conv2DBackpropInput" op_name="tower0/gradients/tower0/maskrcnn/fcn2/Conv2D_grad/Conv2DBackpropInput"}, backend_config="{\"algorithm\":\"4\",\"tensorOpsEnabled\":true,\"convResultScale\":1}"
  %get-tuple-element.294 = f32[3,256,14,14]{3,2,1,0} get-tuple-element((f32[3,256,14,14]{3,2,1,0}, u8[6554624]{0}) %custom-call.30), index=0
  %fusion.298 = (f32[256]{0}, f32[3,256,14,14]{3,2,1,0}) fusion(f32[3,256,14,14]{3,2,1,0} %get-tuple-element.294, f32[3,256,14,14]{3,2,1,0} %get-tuple-element.301), kind=kInput, calls=%fused_computation.298, metadata={op_type="BiasAddGrad" op_name="tower0/gradients/tower0/maskrcnn/fcn1/BiasAdd_grad/BiasAddGrad"}
  %get-tuple-element.476 = f32[256]{0} get-tuple-element((f32[256]{0}, f32[3,256,14,14]{3,2,1,0}) %fusion.298), index=0
  %get-tuple-element.477 = f32[3,256,14,14]{3,2,1,0} get-tuple-element((f32[256]{0}, f32[3,256,14,14]{3,2,1,0}) %fusion.298), index=1
  %custom-call.31 = (f32[3,3,256,256]{1,0,2,3}, u8[12976128]{0}) custom-call(f32[3,256,14,14]{3,2,1,0} %get-tuple-element.300, f32[3,256,14,14]{3,2,1,0} %get-tuple-element.477), window={size=3x3 pad=1_1x1_1}, dim_labels=bf01_01io->bf01, custom_call_target="__cudnn$convBackwardFilter", metadata={op_type="Conv2DBackpropFilter" op_name="tower0/gradients/tower0/maskrcnn/fcn1/Conv2D_grad/Conv2DBackpropFilter"}, backend_config="{\"algorithm\":\"5\",\"convResultScale\":1}"
  %get-tuple-element.295 = f32[3,3,256,256]{1,0,2,3} get-tuple-element((f32[3,3,256,256]{1,0,2,3}, u8[12976128]{0}) %custom-call.31), index=0
  %fusion.6 = f32[3,3,256,256]{3,2,1,0} fusion(f32[3,3,256,256]{1,0,2,3} %get-tuple-element.295, f32[3,3,256,256]{3,2,1,0} %arg54.55), kind=kLoop, calls=%fused_computation.6, metadata={op_name="XLA_Retvals"}
  %custom-call.32 = (f32[3,256,14,14]{3,2,1,0}, u8[6554624]{0}) custom-call(f32[3,256,14,14]{3,2,1,0} %get-tuple-element.477, f32[3,3,256,256]{1,0,2,3} %copy.27), window={size=3x3 pad=1_1x1_1}, dim_labels=bf01_01io->bf01, custom_call_target="__cudnn$convBackwardInput", metadata={op_type="Conv2DBackpropInput" op_name="tower0/gradients/tower0/maskrcnn/fcn1/Conv2D_grad/Conv2DBackpropInput"}, backend_config="{\"algorithm\":\"4\",\"tensorOpsEnabled\":true,\"convResultScale\":1}"
  %get-tuple-element.296 = f32[3,256,14,14]{3,2,1,0} get-tuple-element((f32[3,256,14,14]{3,2,1,0}, u8[6554624]{0}) %custom-call.32), index=0
  %fusion.299 = (f32[256]{0}, f32[3,256,14,14]{3,2,1,0}) fusion(f32[3,256,14,14]{3,2,1,0} %get-tuple-element.296, f32[3,256,14,14]{3,2,1,0} %get-tuple-element.300), kind=kInput, calls=%fused_computation.299, metadata={op_type="BiasAddGrad" op_name="tower0/gradients/tower0/maskrcnn/fcn0/BiasAdd_grad/BiasAddGrad"}
  %get-tuple-element.478 = f32[256]{0} get-tuple-element((f32[256]{0}, f32[3,256,14,14]{3,2,1,0}) %fusion.299), index=0
  %get-tuple-element.479 = f32[3,256,14,14]{3,2,1,0} get-tuple-element((f32[256]{0}, f32[3,256,14,14]{3,2,1,0}) %fusion.299), index=1
  %custom-call.33 = (f32[3,3,256,256]{1,0,2,3}, u8[12976128]{0}) custom-call(f32[3,256,14,14]{3,2,1,0} %fusion.256, f32[3,256,14,14]{3,2,1,0} %get-tuple-element.479), window={size=3x3 pad=1_1x1_1}, dim_labels=bf01_01io->bf01, custom_call_target="__cudnn$convBackwardFilter", metadata={op_type="Conv2DBackpropFilter" op_name="tower0/gradients/tower0/maskrcnn/fcn0/Conv2D_grad/Conv2DBackpropFilter"}, backend_config="{\"algorithm\":\"5\",\"convResultScale\":1}"
  %get-tuple-element.297 = f32[3,3,256,256]{1,0,2,3} get-tuple-element((f32[3,3,256,256]{1,0,2,3}, u8[12976128]{0}) %custom-call.33), index=0
  %fusion.5 = f32[3,3,256,256]{3,2,1,0} fusion(f32[3,3,256,256]{1,0,2,3} %get-tuple-element.297, f32[3,3,256,256]{3,2,1,0} %arg53.54), kind=kLoop, calls=%fused_computation.5, metadata={op_name="XLA_Retvals"}
  %custom-call.34 = (f32[3,256,14,14]{3,2,1,0}, u8[6554624]{0}) custom-call(f32[3,256,14,14]{3,2,1,0} %get-tuple-element.479, f32[3,3,256,256]{1,0,2,3} %copy.26), window={size=3x3 pad=1_1x1_1}, dim_labels=bf01_01io->bf01, custom_call_target="__cudnn$convBackwardInput", metadata={op_type="Conv2DBackpropInput" op_name="tower0/gradients/tower0/maskrcnn/fcn0/Conv2D_grad/Conv2DBackpropInput"}, backend_config="{\"algorithm\":\"4\",\"tensorOpsEnabled\":true,\"convResultScale\":1}"
  %get-tuple-element.298 = f32[3,256,14,14]{3,2,1,0} get-tuple-element((f32[3,256,14,14]{3,2,1,0}, u8[6554624]{0}) %custom-call.34), index=0
  %arg194.195 = s64[2,1]{1,0} parameter(194), parameter_replication={false}, metadata={op_name="XLA_Args"}
  %fusion.260 = f32[2,256,14,14]{1,3,2,0} fusion(f32[3,256,14,14]{3,2,1,0} %get-tuple-element.298, s64[2,1]{1,0} %arg194.195), kind=kLoop, calls=%fused_computation.260, metadata={op_type="GatherV2" op_name="tower0/gradients/tower0/multilevel_roi_align_mask/concat_grad/GatherV2_5"}
  %fusion.259 = s64[2]{0} fusion(s64[3]{0} %arg182.183, s64[2,1]{1,0} %arg194.195), kind=kLoop, calls=%fused_computation.259, metadata={op_type="GatherV2" op_name="tower0/gradients/tower0/multilevel_roi_align_mask/concat_grad/GatherV2_4"}
  %arg199.200 = s64[] parameter(199), parameter_replication={false}, metadata={op_name="XLA_Args"}
  %fusion.4 = f32[2,256,14,14]{1,3,2,0} fusion(f32[2,256,14,14]{1,3,2,0} %fusion.260, s64[2]{0} %fusion.259, s64[] %arg199.200), kind=kInput, calls=%fused_computation.4, metadata={op_type="UnsortedSegmentSum" op_name="tower0/gradients/tower0/multilevel_roi_align_mask/roi_level3/roi_align/AvgPool_grad/AvgPoolGrad/grad"}
  %fusion.3 = f32[14,14]{1,0} fusion(), kind=kLoop, calls=%fused_computation.3, metadata={op_type="AvgPoolGrad" op_name="tower0/gradients/tower0/multilevel_roi_align_mask/roi_level3/roi_align/AvgPool_grad/AvgPoolGrad"}
  %fusion.2 = f32[2,28,28,256]{3,2,1,0} fusion(f32[2,256,14,14]{1,3,2,0} %fusion.4, f32[14,14]{1,0} %fusion.3), kind=kLoop, calls=%fused_computation.2, metadata={op_type="Transpose" op_name="tower0/gradients/tower0/multilevel_roi_align_mask/roi_level3/roi_align/crop_and_resize/transpose_1_grad/transpose"}
  %arg196.197 = s64[1,1]{1,0} parameter(196), parameter_replication={false}, metadata={op_name="XLA_Args"}
  %fusion.258 = f32[1,256,14,14]{1,3,2,0} fusion(f32[3,256,14,14]{3,2,1,0} %get-tuple-element.298, s64[1,1]{1,0} %arg196.197), kind=kLoop, calls=%fused_computation.258, metadata={op_type="GatherV2" op_name="tower0/gradients/tower0/multilevel_roi_align_mask/concat_grad/GatherV2_8"}
  %fusion.257 = s64[1]{0} fusion(s64[3]{0} %arg182.183, s64[1,1]{1,0} %arg196.197), kind=kLoop, calls=%fused_computation.257, metadata={op_type="GatherV2" op_name="tower0/gradients/tower0/multilevel_roi_align_mask/concat_grad/GatherV2_7"}
  %arg200.201 = s64[] parameter(200), parameter_replication={false}, metadata={op_name="XLA_Args"}
  %fusion.1 = f32[1,256,14,14]{1,3,2,0} fusion(f32[1,256,14,14]{1,3,2,0} %fusion.258, s64[1]{0} %fusion.257, s64[] %arg200.201), kind=kInput, calls=%fused_computation.1, metadata={op_type="UnsortedSegmentSum" op_name="tower0/gradients/tower0/multilevel_roi_align_mask/roi_level4/roi_align/AvgPool_grad/AvgPoolGrad/grad"}
  %fusion = f32[1,28,28,256]{3,2,1,0} fusion(f32[1,256,14,14]{1,3,2,0} %fusion.1, f32[14,14]{1,0} %fusion.3), kind=kLoop, calls=%fused_computation, metadata={op_type="Transpose" op_name="tower0/gradients/tower0/multilevel_roi_align_mask/roi_level4/roi_align/crop_and_resize/transpose_1_grad/transpose"}
  ROOT %tuple.127 = (f32[], pred[], pred[], pred[], pred[], f32[], f32[], f32[], f32[], f32[6]{0}, f32[6]{0}, pred[], pred[], f32[6,4]{1,0}, f32[6,4]{1,0}, f32[], f32[], f32[14]{0}, f32[6]{0}, f32[], f32[14]{0}, f32[], pred[6]{0}, f32[6]{0}, f32[], f32[], f32[], f32[], f32[], f32[], f32[], f32[], f32[], f32[], f32[], f32[], pred[], pred[], f32[3,4]{1,0}, s64[6]{0}, f32[], f32[3,4]{1,0}, f32[], f32[], f32[], f32[6,4]{1,0}, f32[50]{0}, f32[14]{0}, f32[], f32[50]{0}, pred[14]{0}, f32[14]{0}, f32[], f32[], f32[], f32[], f32[], f32[], pred[], pred[], s64[14]{0}, f32[], f32[], f32[], f32[3,4]{1,0}, s64[6]{0}, f32[186]{0}, f32[50]{0}, f32[], f32[186]{0}, pred[50]{0}, f32[50]{0}, f32[], f32[], f32[], f32[], f32[], f32[], s64[50]{0}, f32[], s64[3]{0}, f32[186]{0}, f32[], pred[186]{0}, f32[], f32[186]{0}, f32[], f32[], f32[], f32[], f32[], f32[], s64[186]{0}, f32[], f32[], f32[], f32[], f32[], f32[], f32[], f32[81]{0}, f32[1024,81]{1,0}, f32[], f32[], f32[324]{0}, f32[1024,324]{1,0}, f32[1024]{0}, f32[1024,1024]{1,0}, f32[1024]{0}, f32[12544,1024]{1,0}, f32[], f32[490,14,14,256]{3,2,1,0}, f32[19,14,14,256]{3,2,1,0}, f32[2,14,14,256]{3,2,1,0}, f32[1,14,14,256]{3,2,1,0}, f32[], f32[], f32[], f32[80]{0}, f32[1,1,256,80]{3,2,1,0}, f32[256]{0}, f32[2,2,256,256]{3,2,1,0}, f32[256]{0}, f32[3,3,256,256]{3,2,1,0}, f32[256]{0}, f32[3,3,256,256]{3,2,1,0}, f32[256]{0}, f32[3,3,256,256]{3,2,1,0}, f32[256]{0}, f32[3,3,256,256]{3,2,1,0}, f32[2,28,28,256]{3,2,1,0}, f32[1,28,28,256]{3,2,1,0}) tuple(f32[] %get-tuple-element.450, pred[] %fusion.288, pred[] %fusion.287, pred[] %fusion.286, pred[] %fusion.285, f32[] %get-tuple-element.428, f32[] %get-tuple-element.356, f32[] %get-tuple-element.404, f32[] %get-tuple-element.376, f32[6]{0} %fusion.171, f32[6]{0} %get-tuple-element.348, pred[] %fusion.284, pred[] %fusion.283, f32[6,4]{1,0} %fusion.166, f32[6,4]{1,0} %get-tuple-element.330, f32[] %get-tuple-element.402, f32[] %get-tuple-element.421, f32[14]{0} %fusion.163, f32[6]{0} %get-tuple-element.346, f32[] %get-tuple-element.455, f32[14]{0} %get-tuple-element.337, f32[] %get-tuple-element.405, pred[6]{0} %fusion.282, f32[6]{0} %convert.2032, f32[] %get-tuple-element.352, f32[] %get-tuple-element.396, f32[] %get-tuple-element.353, f32[] %get-tuple-element.401, f32[] %get-tuple-element.368, f32[] %get-tuple-element.408, f32[] %get-tuple-element.374, f32[] %get-tuple-element.420, f32[] %get-tuple-element.392, f32[] %get-tuple-element.440, f32[] %get-tuple-element.377, f32[] %get-tuple-element.439, pred[] %fusion.281, pred[] %fusion.280, f32[3,4]{1,0} %get-tuple-element.447, s64[6]{0} %copy.62, f32[] %get-tuple-element.454, f32[3,4]{1,0} %get-tuple-element.340, f32[] %get-tuple-element.375, f32[] %get-tuple-element.409, f32[] %get-tuple-element.380, f32[6,4]{1,0} %get-tuple-element.329, f32[50]{0} %fusion.128, f32[14]{0} %get-tuple-element.338, f32[] %get-tuple-element.438, f32[50]{0} %get-tuple-element.320, pred[14]{0} %fusion.278, f32[14]{0} %convert.1825, f32[] %get-tuple-element.424, f32[] %get-tuple-element.430, f32[] %get-tuple-element.423, f32[] %get-tuple-element.431, f32[] %get-tuple-element.422, f32[] %get-tuple-element.418, pred[] %fusion.277, pred[] %fusion.276, s64[14]{0} %copy.63, f32[] %get-tuple-element.442, f32[] %get-tuple-element.406, f32[] %get-tuple-element.373, f32[3,4]{1,0} %get-tuple-element.339, s64[6]{0} %copy.64, f32[186]{0} %fusion.105, f32[50]{0} %get-tuple-element.319, f32[] %get-tuple-element.416, f32[186]{0} %get-tuple-element.310, pred[50]{0} %fusion.274, f32[50]{0} %get-tuple-element.328, f32[] %get-tuple-element.382, f32[] %get-tuple-element.387, f32[] %get-tuple-element.383, f32[] %get-tuple-element.388, f32[] %get-tuple-element.378, f32[] %get-tuple-element.379, s64[50]{0} %copy.65, f32[] %get-tuple-element.381, s64[3]{0} %copy.66, f32[186]{0} %get-tuple-element.309, f32[] %get-tuple-element.452, pred[186]{0} %fusion.273, f32[] %get-tuple-element.443, f32[186]{0} %get-tuple-element.312, f32[] %get-tuple-element.386, f32[] %get-tuple-element.391, f32[] %get-tuple-element.385, f32[] %get-tuple-element.390, f32[] %get-tuple-element.384, f32[] %get-tuple-element.389, s64[186]{0} %copy.67, f32[] %get-tuple-element.369, f32[] %get-tuple-element.457, f32[] %get-tuple-element.437, f32[] %get-tuple-element.436, f32[] %get-tuple-element.435, f32[] %get-tuple-element.434, f32[] %get-tuple-element.433, f32[81]{0} %get-tuple-element.464, f32[1024,81]{1,0} %fusion.43, f32[] %get-tuple-element.432, f32[] %get-tuple-element.456, f32[324]{0} %fusion.270, f32[1024,324]{1,0} %fusion.32, f32[1024]{0} %get-tuple-element.466, f32[1024,1024]{1,0} %fusion.30, f32[1024]{0} %get-tuple-element.468, f32[12544,1024]{1,0} %fusion.28, f32[] %get-tuple-element.427, f32[490,14,14,256]{3,2,1,0} %fusion.22, f32[19,14,14,256]{3,2,1,0} %fusion.20, f32[2,14,14,256]{3,2,1,0} %fusion.18, f32[1,14,14,256]{3,2,1,0} %fusion.16, f32[] %get-tuple-element.453, f32[] %get-tuple-element.419, f32[] %get-tuple-element.451, f32[80]{0} %fusion.261, f32[1,1,256,80]{3,2,1,0} %fusion.10, f32[256]{0} %get-tuple-element.470, f32[2,2,256,256]{3,2,1,0} %fusion.9, f32[256]{0} %get-tuple-element.472, f32[3,3,256,256]{3,2,1,0} %fusion.8, f32[256]{0} %get-tuple-element.474, f32[3,3,256,256]{3,2,1,0} %fusion.7, f32[256]{0} %get-tuple-element.476, f32[3,3,256,256]{3,2,1,0} %fusion.6, f32[256]{0} %get-tuple-element.478, f32[3,3,256,256]{3,2,1,0} %fusion.5, f32[2,28,28,256]{3,2,1,0} %fusion.2, f32[1,28,28,256]{3,2,1,0} %fusion)
}

